trained_models/ppo/me5418-Cassie-v0/0617-11-15-08-s3737/critic.pt (torch, 319998 bytes, 5 tensors)

weight f4 [256, 50]
000000 95 e3 8c bc 8d 6f 5c bd 89 ab f3 bb 31 9b ec bc
       -0.017198363 -0.05381732 -0.00743622 -0.028882595
000010 57 aa d3 bc 75 eb a0 bc f0 a7 b5 3d df 50 5a 3c
       -0.02583806 -0.019643525 0.08869922 0.013324945
000020 95 87 d1 bc 1a a3 31 bc 40 f1 80 3d 10 5d 14 3d
       -0.025577346 -0.010842109 0.06296015 0.036221564
000030 96 15 82 3d 9f d3 a5 bb d1 71 29 3c f2 09 8b 3c
       0.063517734 -0.0050606276 0.010342077 0.016972516
000040 58 d5 52 be 0c 12 ef bc 24 30 ae 3c b5 5e 52 bc
       -0.20589197 -0.02918341 0.02126319 -0.012839963
000050 01 1c 4b be 27 57 62 3c ca 23 2a bd 4b 9c f7 bc
       -0.19834901 0.013814724 -0.041538037 -0.030225893
000060 3b 10 2d bd d6 2d 81 bd d0 37 ca 3b 80 38 65 bd
       -0.042251807 -0.06307571 0.006171204 -0.055962086
000070 e7 fa 0c 3d 5d 17 77 bb 42 2e 1d bd 2c b4 87 bd
       0.034418967 -0.0037703135 -0.038374193 -0.06626162
000080 f4 d0 ef bc 43 f4 23 3d 1d a8 b1 3b 27 7f 78 bc
       -0.029274441 0.040027868 0.005421652 -0.015167034
000090 d0 16 2b 3e 61 bd eb bb 71 e7 12 bc a0 d5 69 3d
       0.16707921 -0.0071942066 -0.008966313 0.057088494
0000a0 e7 a4 9a bc bf 3e 44 3d a9 b2 71 bc f4 5e 36 3b
       -0.01887746 0.0479114 -0.014752069 0.0027827593
0000b0 05 45 21 bd b9 c5 70 bd 7f c1 52 bc 76 11 c0 3a
       -0.039372463 -0.058782313 -0.012863516 0.0014653641
0000c0 d3 ca 45 3d c5 6d ad bd 96 65 8a 3d 6c 11 02 3d
       0.04828913 -0.084682025 0.06757657 0.031754896
0000d0 73 28 79 bd c0 60 07 bc 63 8b b4 3d fd 6f 9a bd
       -0.06082959 -0.008262813 0.088156484 -0.07540891
0000e0 2f 4a e5 3c d0 3e d3 3b f1 d8 f9 3c 8e d8 54 3d
       0.027989475 0.006446697 0.030498954 0.051964335
0000f0 86 57 33 bd 43 2d f1 bc b8 5a bd 3d c3 47 89 3d
       -0.04378464 -0.029440528 0.09245819 0.067031406
000100 dd f6 06 3d 94 12 84 3c cd 33 89 bd b0 af 91 3d
       0.03295027 0.01612214 -0.06699333 0.07113588
000110 ab 66 13 be 1f af 11 3d 84 dc 68 bc 75 00 d0 3d
       -0.14394633 0.0355674 -0.014212731 0.10156337
000120 b4 57 45 3c 9c c5 d3 3c 5a 2d a8 3d ea 00 9e bd
       0.012044836 0.025851063 0.08211775 -0.07715018
000130 0d 22 5d bd e4 39 69 3d 81 86 c1 3d f2 11 18 3d
       -0.05398755 0.056939974 0.09449483 0.03712649
000140 98 ca bb 3d 27 4d 84 3c e3 a6 5b 3c 26 9d 55 3e
       0.09169501 0.01615007 0.013406488 0.20860729
000150 bb 1c f9 bd 54 47 84 3d 7e cf 4f 3d 2c 54 0c bd
       -0.12163683 0.06458917 0.05073499 -0.03425996
000160 e7 55 87 3d 48 74 10 be 27 a5 0c 3d ad 5e 3e 3e
       0.066081814 -0.14106858 0.03433719 0.18590803
000170 f2 80 5d 3c 87 1b 1a bd e7 b0 41 3d 67 d2 9d 3c
       0.0135195125 -0.03762391 0.047287848 0.019265367
000180 9c 06 bf 3d 4e 7e e3 3b e1 7b 89 3d d3 b5 18 bd
       0.093274325 0.006942547 0.06713081 -0.037282776
000190 f9 3a b8 3d b5 55 32 bb be 2b e1 bd f4 77 c7 b9
       0.08995623 -0.002721173 -0.10994671 -0.0003804561
0001a0 52 12 9c 3c ca f4 ae bd 8b dc 8d bb 46 d1 16 3e
       0.019051705 -0.085427836 -0.0043292693 0.14728269
0001b0 95 6c d4 3c b7 e0 94 3d 79 ea 43 bd aa 19 f0 3d
       0.025930682 0.072694235 -0.047831032 0.11723645
0001c0 2e f2 d3 3c 39 4c 8c bd a6 72 c4 bd 7f 67 3b b9
       0.025872316 -0.06850476 -0.0959218 -0.00017872265
0001d0 41 41 bc 3d ed fc 36 be 03 7e 50 bd 03 7d e3 3c
       0.09192134 -0.17869921 -0.050901424 0.027769571
0001e0 53 40 b1 bd 40 41 9d bd 09 03 88 3d 18 2e 9e 3d
       -0.08654847 -0.07678461 0.06641204 0.077236354
0001f0 ff 72 b7 3d 46 80 9c 3d 28 e6 29 be 64 ce 6e 3d
       0.08957481 0.07641654 -0.16591704 0.0583023
000200 81 f9 41 3c fc 8b 3f bd 3f 1b 90 3a dd 92 c7 3d
       0.0118392715 -0.04676436 0.0010994448 0.09744809
000210 f4 c0 36 be 98 eb 49 3d a2 57 c5 bc 50 72 5e bd
       -0.17847043 0.049296945 -0.024089638 -0.054308236
000220 19 ba ab 3c 8d 3c 51 bd 28 8d 7c bd 6d d6 46 bc
       0.020962762 -0.051083136 -0.061658055 -0.012136084
000230 7b c2 65 bd 60 05 fa 3c 72 0e 80 bd e5 22 d1 3b
       -0.056093674 0.030520141 -0.06252755 0.0063823336
000240 64 f0 e7 ba a6 6c 99 bd af 08 dd 3c 1d 02 7b bd
       -0.0017695543 -0.07491426 0.02698168 -0.061281312
000250 8f 61 24 bd b8 be 9a 3c be f0 a5 3b d7 48 ad bd
       -0.0401321 0.01888977 0.005064099 -0.08461159
000260 fa 40 89 bc a1 41 2e 3d 40 33 8f 3c 19 70 30 bd
       -0.016754616 0.042543057 0.017480493 -0.043075655
000270 5e 2c 77 bd 37 44 f9 bc 59 12 e6 bb eb 51 43 3d
       -0.060345046 -0.030428035 -0.00702123 0.047685545
000280 9e a8 a8 bd 1c 75 37 bd 03 e2 51 3d 40 98 d2 3d
       -0.08235286 -0.04478942 0.051240932 0.10282946
000290 d2 98 d8 3d 37 bb 66 3d c5 40 a6 3c 31 d7 13 bd
       0.10576023 0.056330886 0.020294556 -0.036093894
0002a0 96 7c f2 3d 92 54 69 bd f6 b8 91 3d a8 c0 07 bd
       0.11840169 -0.05696542 0.071153566 -0.033142716
0002b0 2f 48 7d bd dd 7b 68 3b a8 0c 4a 3d 45 37 8d 3d
       -0.061836418 0.003547422 0.049328476 0.068953075
0002c0 40 45 25 bd af cf 8e bb 89 e6 b6 bc 7d 3c 5c bd
       -0.040349245 -0.004358254 -0.022326725 -0.053768624
0002d0 23 fb b3 bc d6 ac 81 bc a5 82 e4 bc d1 2e a5 bc
       -0.021970337 -0.015829485 -0.027894327 -0.020163925
0002e0 a1 27 85 3c e7 a7 01 ba 00 82 3b bd f1 8b aa 3d
       0.016254248 -0.0004945979 -0.045778275 0.08327473
0002f0 7a 03 cc bd 5f 81 9f 3d 0d e2 e2 3c 71 47 a7 3c
       -0.099616006 0.077883475 0.02769568 0.020419808
000300 37 01 da 3d a4 19 cc bd 79 ed 74 b9 4d f7 f1 bd
       0.10644763 -0.09965828 -0.00023358119 -0.11814747
000310 0c cf f0 3c a2 0b c3 3a 6e 1b 79 bd 92 85 40 bd
       0.029395603 0.0014880786 -0.060817175 -0.047002383
000320 31 86 84 3c 8e 8a 59 bd 93 02 ac bc 38 63 11 bd
       0.016177269 -0.05311065 -0.020997321 -0.035495013
000330 d5 8f ae bd 1a b1 0e 3d eb 36 7a 3d 60 9d 1f be
       -0.085235275 0.034836866 0.06108753 -0.15587378
000340 03 e1 98 bd cc e5 c5 3d be a9 a3 3c 8e 09 76 3c
       -0.074647926 0.09662971 0.0199784 0.015016926
000350 c9 c4 9f bc 0a ee 13 3e 20 31 a4 3d d4 a7 17 bd
       -0.019503014 0.14446273 0.08017182 -0.037025288
000360 8b b6 73 3d 82 c3 68 bd 73 9a 9a 3b 7a c6 06 3e
       0.05950026 -0.056827076 0.004718119 0.1316165
000370 de 3d 2a bd 61 a3 81 3c 8c 8c fb 3c 72 25 31 bb
       -0.041562907 0.015824975 0.030706666 -0.0027030376
000380 fb a3 06 3d 7e 1a 7e bd 86 77 65 3c a9 87 1f bd
       0.032871228 -0.062036984 0.014005547 -0.038947735
000390 71 67 8c 3d ff 95 65 bd 82 1a 98 bd ed aa 26 bc
       0.068556674 -0.05605125 -0.07426931 -0.010172588
0003a0 f2 16 da 3d 40 0a e6 bd 99 92 6a 3c 3a a7 00 3c
       0.10648908 -0.11232424 0.014317178 0.00785237
0003b0 3d a5 93 3c bc b7 e1 3d 4e 58 12 bc 0c d3 d8 3d
       0.018023128 0.11021373 -0.008932186 0.10587129
0003c0 6c ca e0 3c 57 b1 49 3c 7c 47 d5 bd f2 a7 5a 3c
       0.027440272 0.0123103475 -0.10414025 0.013345705
0003d0 db 38 d7 3c 88 6a 13 bd b2 8d 21 be 09 55 e5 bd
       0.026272228 -0.035990268 -0.15776709 -0.1119786
0003e0 95 ec c0 3d be 0b a6 3d 21 eb ba bc 5d 28 6c bd
       0.094201244 0.081077084 -0.022817196 -0.05765568
0003f0 f2 43 50 3d 62 f5 79 bd 0f a8 00 be 27 a1 a8 3d
       0.050846048 -0.06102503 -0.1256411 0.08233862

bias f4 [256]
000000 78 73 01 bb 8c b0 03 bc 04 b6 02 bc 18 eb 96 3b
       -0.0019752663 -0.0080376975 -0.007977966 0.004605662
000010 9a 88 17 3c 50 37 ab 3a 95 15 d6 3a 62 d5 c6 3b
       0.009248877 0.0013062749 0.0016333336 0.0060679177
000020 10 71 5f bb 3d 61 2a 3c d0 df 94 b9 87 0d 53 3c
       -0.003409449 0.01039916 -0.00028395513 0.012881643
000030 e9 38 cc 3b 2e d4 d8 3a 1f ed 64 3b a1 a8 44 3c
       0.00623237 0.0016542727 0.0034931374 0.012003095
000040 fe 82 5e 3b 0d 08 46 3a 76 cb 0d 3a 05 b3 1a 3c
       0.003395259 0.00075543 0.0005409041 0.009442096
000050 e3 18 cb ba 4a 88 94 bc 7c 19 ef 3b 17 72 08 bb
       -0.0015495088 -0.018131394 0.007296739 -0.0020819956
000060 31 5d 15 b7 bf 9f f6 bb 6a d5 6d bb db d0 c0 bb
       -8.90279e-06 -0.0075263674 -0.0036290535 -0.0058842725
000070 54 a6 61 bb 93 5e b0 b9 fb c3 ee ba 65 2d 4e 3c
       -0.0034431415 -0.000336398 -0.0018216366 0.012584065
000080 74 3c 86 3b 8f 4c 16 3b ac 25 1f 3b 88 36 e8 3a
       0.004096562 0.0022933816 0.0024283929 0.0017716447
000090 bf 12 fc bb 5b 06 45 bc be 36 5c 3c f2 f6 50 3b
       -0.0076926644 -0.012025441 0.013440786 0.0031885472
0000a0 a0 03 d5 39 18 cc 4c bc a9 6f b2 bc 68 18 60 bc
       0.00040629227 -0.012499832 -0.02178176 -0.013677694
0000b0 e7 f8 55 bc 03 7c 57 bc e1 90 58 3a c2 fd ae ba
       -0.013059831 -0.013152125 0.0008261335 -0.0013350772
0000c0 fc ab 34 3a 66 9f d3 3b e4 b1 1e bc c1 cf 4f bc
       0.0006892083 0.0064582108 -0.009685967 -0.01268381
0000d0 42 23 b8 ba bd 02 e0 3a 30 5e 75 bc 3c 71 7c bc
       -0.0014048594 0.001709066 -0.014976069 -0.015407857
0000e0 5d 7d 58 3c 2d 71 ff 3b 32 4d 82 3a f0 8f 66 bc
       0.013213483 0.007795474 0.0009941219 -0.014072403
0000f0 64 4b 9f 3a 3f 12 71 bb a2 0b 4b 3c a2 6e d7 3b
       0.0012153205 -0.0036784557 0.01239291 0.0065744678
000100 98 ae 3c bb 1e e1 a1 3a 1d 58 34 ba 6c 2d 93 3a
       -0.002879059 0.0012350415 -0.0006879585 0.0011228747
000110 03 73 3a 3c 22 a3 33 bc 64 91 49 3c 24 49 2d 3c
       0.01137996 -0.010964187 0.01230273 0.01057652
000120 21 44 08 bb 74 dd e9 ba 68 f5 8c 3b 2c 98 95 bc
       -0.002079256 -0.0017842487 0.0043017156 -0.018261038
000130 db e3 49 bc 89 d7 cb 3b 93 6e f6 bb 41 a2 0f bb
       -0.012322391 0.006220762 -0.0075205057 -0.002191678
000140 db 77 a3 3b 91 98 77 3a c9 38 db 3a 82 84 04 3b
       0.004988653 0.00094450364 0.0016725297 0.0020220582
000150 65 da 5c bb a9 66 dd bb 14 32 02 bc 74 50 3b ba
       -0.003369951 -0.006756623 -0.00794651 -0.00071454723
000160 1a 3b 2e bc ce fd 2d bc 82 fd 00 3c e9 b4 c0 39
       -0.010634208 -0.010619594 0.007872941 0.00036755882
000170 5a 1a 21 bb 62 15 29 3c 92 90 92 bc d3 6a 15 3b
       -0.0024582357 0.0103200395 -0.017891202 0.0022799268
000180 99 67 50 3c 2a 73 4f bb ab 36 9d 3b fd d9 8d 3b
       0.012720012 -0.0031654336 0.0047977767 0.0043289647
000190 cf 48 09 3b 81 24 b8 3b 34 88 db 3b ed e5 0f ba
       0.0020947938 0.005619586 0.0066995863 -0.00054892787
0001a0 90 9b f8 ba 0b 2f 96 bb 97 93 90 3b 14 da 66 3c
       -0.001896726 -0.0045832447 0.0044121253 0.01409008
0001b0 b9 0d 43 bc d7 c3 49 ba 5c 74 f1 b9 48 8c 6d 3b
       -0.011905127 -0.0007696724 -0.00046053797 0.0036246944
0001c0 3f 5e ac bb eb 27 0b 3c 51 e9 4d 3b a7 c5 86 3b
       -0.0052602584 0.008493404 0.0031419585 0.0041129175
0001d0 3b c0 f1 3b a7 2f cc 3b 6a 61 48 3a 2e 3a 76 3a
       0.007377652 0.0062312665 0.00076439104 0.0009392825
0001e0 ea 65 33 3b 02 de fd 3b 32 bc bb bb dc 42 ab 3b
       0.0027373978 0.0077474127 -0.0057292217 0.005226476
0001f0 10 00 8d b9 53 68 cd 3a fd 70 74 3c 2e 70 d9 3b
       -0.00026893662 0.001567135 0.014919517 0.0066356873
000200 31 c0 60 ba f4 74 54 ba 06 4e 8b ba ee 05 bc 3b
       -0.00085735606 -0.00081045856 -0.0010628111 0.0057380116
000210 7f d7 c0 bb de aa f0 ba c2 6f d0 3b a9 fc f4 bb
       -0.005885064 -0.0018361469 0.006360979 -0.0074764085
000220 1e ad 1e bc e5 47 63 3b 0e 25 0a bb 5e de 5b 3b
       -0.009684829 0.0034680304 -0.0021079215 0.003354929
000230 a6 35 af 3b 95 e3 09 3a c1 d4 27 3c 81 eb 81 ba
       0.0053469716 0.00052600476 0.010243596 -0.0009912105
000240 3b 66 10 bb 0e fc f6 3a f0 cf 96 bb bf 05 25 bc
       -0.002203359 0.0018843429 -0.004602425 -0.010072171
000250 0a a1 e3 bb ee f0 a7 bb bb 42 d1 3a 51 b5 08 3c
       -0.0069466876 -0.0051251566 0.0015965322 0.00834401
000260 ca 6d 28 3c 23 4e 65 3b 16 a4 2d 3c be 97 77 3c
       0.010280082 0.00349892 0.010598203 0.015111862
000270 ad bb 06 bc 68 70 82 3b 68 b9 de 3a aa 82 10 ba
       -0.008223456 0.003980685 0.0016992511 -0.00055126345
000280 95 19 75 3c 90 10 97 3a 45 7c 08 3a 39 0c f9 bb
       0.0149597125 0.0011525322 0.0005206506 -0.007600334
000290 01 11 a1 3a a6 24 25 ba e4 7a 7b bc 71 b1 ab bb
       0.0012288393 -0.00062997115 -0.015349124 -0.0052396585
0002a0 6b ee 40 39 b5 71 25 3c 70 1e a3 39 50 62 86 3a
       0.00018399364 0.010097911 0.0003111246 0.0010252688
0002b0 94 2e 94 3a 5d e4 5a 3c 53 b1 0a bc 4f 0d 8f bb
       0.0011305385 0.01336011 -0.008465129 -0.0043656
0002c0 2c 24 0c 3a a2 9b 65 3b 1a 6e 75 bb 99 9b 52 bb
       0.0005345966 0.0035035391 -0.003744966 -0.00321362
0002d0 55 10 62 bb 8d 17 50 bb 38 d9 9f 3c 98 c7 00 3a
       -0.0034494598 -0.0031752319 0.019512758 0.0004912554
0002e0 bc ca 39 bb 8f c0 80 3b b2 21 2c 3b f8 c4 74 3c
       -0.00283496 0.003929205 0.00262652 0.014939539
0002f0 da 0c 50 3c bb a9 49 3c 36 92 55 bb 52 01 d8 3a
       0.012698377 0.012308533 -0.003258837 0.0016479886
000300 38 fb 98 3b c8 7b e5 3b 1b 24 fa b8 02 05 a1 3b
       0.0046686195 0.0070032813 -0.00011927654 0.004913927
000310 ad 8c 25 ba d7 9f da ba 53 a1 01 3c b3 5d c2 3b
       -0.0006315213 -0.0016679716 0.007911998 0.00593158
000320 81 90 86 3c 2b 8e 45 3b 1c d4 e3 3a e0 32 3e 3a
       0.016426327 0.0030144553 0.0017381939 0.0007255506
000330 90 c3 22 3c b5 11 b8 bb 96 bd c2 3b 27 be 3f bc
       0.009934321 -0.005617345 0.0059430106 -0.011703051
000340 5d 5f 6a 3c df 58 9b b9 d2 fb 4c bc e8 20 88 bc
       0.014304963 -0.00029630118 -0.0125112105 -0.016617253
000350 5e f6 32 3b e9 9f ad bb 08 77 5b 3c ea 58 8c 3b
       0.002730749 -0.005298604 0.0133950785 0.0042830603
000360 41 60 d8 bb c1 08 74 3b 72 db c0 bb 90 26 f7 bb
       -0.0066032712 0.0037236663 -0.005885535 -0.007542439
000370 83 78 3c ba 6d b4 7d 3c ae 26 2b bb 83 f9 3e bb
       -0.00071895885 0.015484911 -0.0026115584 -0.002914042
000380 55 3c 15 3c 38 96 55 bc 13 d6 58 ba e6 6d 16 bb
       0.009108623 -0.013036303 -0.00082716456 -0.0022953688
000390 bc 76 d3 3b 5e 4f 55 3b de 49 ee 3b 81 a7 35 bb
       0.006453363 0.0032548527 0.0072719892 -0.0027718248
0003a0 53 cb 4a bc 52 d4 7e ba 09 f9 35 bb b7 fc c7 bb
       -0.012377578 -0.0009720969 -0.0027766845 -0.006103124
0003b0 8f 85 a9 bb 68 f3 d2 3a 35 66 22 bc e9 51 90 b9
       -0.005173392 0.0016094269 -0.009912063 -0.00027526848
0003c0 a3 35 a4 3b 95 33 f3 3a 12 3c 22 3c fd 43 34 3c
       0.005011277 0.0018554801 0.009902017 0.011002538
0003d0 c7 64 40 3c 75 ef 82 3a e2 69 04 3c ba 5b 3a 3b
       0.011742777 0.0009989577 0.008081885 0.002843602
0003e0 57 b8 09 3b 5b 64 a7 bb dc 02 1e 3c e4 61 bf bb
       0.0021014416 -0.005108399 0.009644236 -0.005840527
0003f0 6e 48 cc 39 0a c2 b1 bb 79 c2 0d bc e0 1b 32 3c
       0.00038963876 -0.0054247426 -0.008652323 0.010870904

weight f4 [256, 256]
000000 9e 18 5f 3d 22 f7 09 bd 59 83 a4 bd a3 3b 80 bd
       0.054466836 -0.03368295 -0.08032865 -0.06261375
000010 45 db 80 3d 5d 9d 4c 3d e1 2a 87 bc 63 f9 d9 bd
       0.06291822 0.04995476 -0.016499938 -0.1064327
000020 b8 3b b2 bc 79 72 75 3d f5 5b 80 bd bc 0e 19 bd
       -0.021756992 0.059923623 -0.062675394 -0.037367567
000030 07 39 64 bd 8e 68 dd bc 57 4f 95 3d 49 cd 9a 3c
       -0.055718448 -0.027027395 0.072905235 0.018896716
000040 6d 13 76 3d e5 bf 59 3d be 5e 6a bc 63 6c 0d 3c
       0.06007712 0.05316152 -0.014304815 0.008631798
000050 cf 25 a2 bd 73 ba 65 bd 8d 63 8c 3d 69 4d 90 3d
       -0.07917368 -0.056086015 0.06854925 0.07046015
000060 5d eb 73 bd f9 50 11 3e bd f4 fb 3d 7d 7c b4 3d
       -0.05955063 0.14191045 0.123025395 0.08812807
000070 7d 90 30 3d aa e8 42 bd 48 94 16 bd 17 69 6b bb
       0.043106545 -0.047585167 -0.036762506 -0.0035920793
000080 1c 55 43 bd a0 3d d1 3d 60 ef 82 3d 6d 96 41 3d
       -0.04768859 0.10216832 0.063933134 0.047262598
000090 5b 96 ec 3d 98 b1 b3 bd 6c 71 b6 3d b7 b3 3a bd
       0.115521155 -0.08774108 0.08908352 -0.045581546
0000a0 d4 74 77 3d 98 82 c8 bd 97 ff 3a bd 93 ac ee bc
       0.06041415 -0.09790534 -0.045653906 -0.029135024
0000b0 07 d0 9a 3d 05 bb e8 bd 67 db 15 bd cf a9 9f 3d
       0.07559209 -0.11363796 -0.03658619 0.0779606
0000c0 e7 c9 07 3e 02 7d 9e 3c 8f 9b a2 bd b6 80 cc bd
       0.13260613 0.019346718 -0.07939827 -0.09985487
0000d0 e9 ff e1 bd 06 0c 51 bd 63 b2 00 3c 8b f9 82 bd
       -0.11035139 -0.051036857 0.007855031 -0.06395253
0000e0 ec ae cf 3d d0 d4 7d bd ea 53 09 bd 1b 98 6d 3d
       0.101407856 -0.061970532 -0.033527292 0.058006387
0000f0 1a 50 8b 3d 69 b0 8e 3d 80 2a 3a 3c 46 3a db 3d
       0.068023875 0.06967241 0.011362672 0.10704474
000100 4b 22 2f bd ac d2 8f 3c b8 ce cd 3d d2 36 14 bd
       -0.042757314 0.01755651 0.10049194 -0.036185093
000110 a4 b6 be bd 13 04 e6 bc 34 f1 a0 bc 0f 8a bd bc
       -0.0931218 -0.028078115 -0.019646265 -0.02313712
000120 58 db f6 3d 9b 81 7d 3d 7a d3 c8 ba 09 9a 85 bd
       0.12053555 0.06189118 -0.0015321814 -0.065235205
000130 55 33 78 bd 4e f8 c3 3c f2 ad 6f bd d3 55 3e 3d
       -0.06059583 0.023922112 -0.058515497 0.046468567
000140 99 f7 fd bd 0b e0 92 3d eb 14 96 bc 32 0a 46 3d
       -0.12400741 0.07171639 -0.018320521 0.048349567
000150 c6 30 a0 bd d5 7b 41 3d 09 0d 27 bd 9a 25 aa 3c
       -0.07821803 0.047237236 -0.040783916 0.020769883
000160 9b fa 2a 3c 4e a8 d3 bd 3b 85 63 3d e7 0d 56 3d
       0.010435726 -0.10334836 0.05554698 0.052259352
000170 ae af 43 3d 8f 6e 55 3c 45 f0 0a bd e5 84 9f bc
       0.047774963 0.0130268475 -0.033920545 -0.019472549
000180 a2 d2 a7 bd e4 86 95 bd 21 58 be 3d ad 9a 18 bc
       -0.08194472 -0.07301119 0.09294153 -0.009314221
000190 57 ae 55 bd 8c cc 80 3d f1 18 66 bc 25 05 17 3e
       -0.052168217 0.06289014 -0.014044032 0.14748056
0001a0 3b e7 10 b9 5e fb ff bc 63 32 06 3e 11 51 69 bb
       -0.0001381905 -0.03124779 0.13105159 -0.0035601298
0001b0 c8 12 48 bc d8 de 4a bc c7 e6 00 3d fe 65 bf bc
       -0.012211509 -0.012382232 0.031470086 -0.023364063
0001c0 3b dd 17 3d 95 ae 80 3b be d5 19 3d 75 af d0 3c
       0.037076216 0.003927062 0.037557356 0.02547429
0001d0 20 52 97 bd 4c af 13 bc fd 5e be 3c 10 ff 37 3c
       -0.07388711 -0.009013962 0.023238653 0.011230245
0001e0 d7 63 b6 3d 00 a2 98 bc eb 40 e2 3c 58 2e c8 bc
       0.08905762 -0.018631935 0.027618846 -0.02443616
0001f0 d3 a3 98 bc 9d 6e 49 3d 64 03 02 bc 9f 80 2c 37
       -0.018632805 0.049177755 -0.007935379 1.0281946e-05
000200 fb 55 01 bb c8 a9 93 3d b5 09 2e bd 39 60 5d 3c
       -0.0019735086 0.072101176 -0.042489726 0.013511711
000210 d4 b5 0a bd 44 85 1b 3c 9e 99 7c 3d 22 5b a6 3d
       -0.03386481 0.009492222 0.06166994 0.08122851
000220 26 79 ee bc 0c aa 6d bc 85 a9 92 3d 9d 13 21 3e
       -0.029110502 -0.014505874 0.071612395 0.15730138
000230 62 d7 67 3d 2e ae 25 bc d4 d5 9f 3c fb 03 c7 bc
       0.05660189 -0.010112328 0.01951114 -0.02429389
000240 1f f4 77 bc 0d d0 2e 3a 57 17 07 3d 23 f1 2e 3d
       -0.015133887 0.0006668575 0.032981243 0.042710435
000250 99 44 95 bc 17 8a d5 3c 30 38 a2 3d dd 27 dc bb
       -0.018221186 0.026066823 0.07920873 -0.0067186193
000260 ee 66 8f 3d 3f f1 0e 3e b7 8a 62 3d 04 9b 81 3d
       0.07002054 0.13959216 0.05530807 0.06328395
000270 85 4b 54 3d 80 cb 13 be 14 68 9e bd 08 4a f4 3c
       0.051829834 -0.14433098 -0.07734695 0.029820457
000280 18 6f 85 3d fc 13 f4 bc 87 7f b4 3c c5 b7 c8 3b
       0.0651533 -0.029794686 0.022033466 0.0061254227
000290 16 41 9d bd 27 59 18 3d 70 07 b6 3c e0 85 5e 3d
       -0.0767843 0.037194397 0.022220343 0.054326892
0002a0 0e f5 a4 3d cd 84 d5 3d d0 93 5c be 63 43 0f be
       0.08054553 0.1042572 -0.21540761 -0.1399055
0002b0 0d bf dd 3c 89 91 0d bd 7a cb 8c bd f4 33 a2 3d
       0.02706864 -0.03456262 -0.068747476 0.079200655
0002c0 8e 2f 46 bd f4 ab 85 3d fc dd af bc 3d df 57 bd
       -0.048385195 0.06526938 -0.021468155 -0.05270313
0002d0 85 b5 ae bc 99 dd 89 3d e9 01 c7 3b f8 d8 a6 bd
       -0.02132679 0.067317195 0.0060732258 -0.08146852
0002e0 ec bf 95 bd dd c0 06 3d d4 b3 92 3d 9f f9 97 3d
       -0.07311997 0.032898773 0.07163206 0.07420658
0002f0 fb 12 be 3d d1 aa 0c bd d8 10 66 3c f5 85 ed 3c
       0.09280964 -0.03434259 0.014042102 0.02899454
000300 1d eb a9 bb 14 e6 b4 bc 45 55 20 be e3 b9 18 3d
       -0.0051854984 -0.022082366 -0.15657528 0.03728665
000310 6f 0d 57 bd ba c1 94 bc 68 69 cf bc b9 15 9e 3d
       -0.052503046 -0.018158782 -0.025318816 0.07718987
000320 25 60 77 3d ee da a1 3b 70 5e ad 3c 7d 86 f5 3a
       0.060394425 0.0049394285 0.021163195 0.0018732097
000330 a4 e8 b2 bd df ea 03 3d 9c 36 f9 bc d8 8f d1 3c
       -0.08735779 0.032206412 -0.030421548 0.025581285
000340 94 e2 9a 3d f9 b6 7c bd c6 a7 1f 3d 9c f4 54 bd
       0.075627476 -0.061697934 0.03897836 -0.05199109
000350 5c 0f bb bd 07 da 3c be 50 55 4b bd c4 6e a9 3d
       -0.09133789 -0.18442546 -0.049641907 0.0827308
000360 bf 95 83 3d 39 66 05 3d d8 d1 e5 3c 2a 65 61 bd
       0.06425046 0.03256819 0.028054163 -0.05502812
000370 f3 47 9d bd d5 a0 b5 3d b6 bb 65 3c 20 28 9e bd
       -0.07679739 0.08868567 0.014021805 -0.07722497
000380 d0 92 19 3c 72 fb 3b bd cf 6f 23 3d 9b 9e 6a bb
       0.009373382 -0.045894094 0.03990155 -0.0035800103
000390 7a 60 c5 3d 93 05 bf bc 4a 02 9c bd 1e 2f 48 3d
       0.09637542 -0.023318088 -0.07617624 0.04887306
0003a0 ab 65 2e bd 3a 0e a2 bd 22 aa 6f 3c f6 6c be bc
       -0.042577427 -0.0791287 0.014627965 -0.023245316
0003b0 b8 33 a5 bc ab 4b ee 3c db b0 e0 bc 0a 6c 0c 3b
       -0.020166263 0.029088816 -0.027428081 0.00214267
0003c0 39 d2 a3 3d 24 b5 e5 3d 8c e2 e2 3a db 8e 81 bd
       0.07999081 0.112161905 0.0017309948 -0.06326076
0003d0 b2 8b 77 bb fe 4c 86 bd 80 94 6f bd db 22 9c 3d
       -0.0037772474 -0.06557654 -0.05849123 0.07623836
0003e0 97 16 69 bc de 99 b4 3c ec a6 3c bd 49 61 74 bd
       -0.014226577 0.022046026 -0.046057627 -0.05966309
0003f0 2d 9f db 3d 73 aa 8b bc 83 22 4a bd e5 d0 a6 bd
       0.1072372 -0.01704905 -0.04934932 -0.08145312

bias f4 [256]
000000 92 71 33 bc 09 52 49 bc 22 10 22 3c f7 98 21 3c
       -0.01095237 -0.012287625 0.009891542 0.00986313
000010 89 db 20 3c 93 9a 13 3c dd b4 3b bc d9 14 57 3c
       0.009817966 0.009009021 -0.011456695 0.013127529
000020 5c 16 7f bc 71 82 23 bc 2c c7 32 3c 3b e8 4c 3c
       -0.015569296 -0.00997983 0.010911744 0.01250654
000030 4e c1 28 bc 00 90 5d 3c f0 36 5b 3c d8 9e 48 bc
       -0.010299994 0.013523102 0.013379797 -0.012244903
000040 73 40 3a 3c a8 d2 3c 3c 1d c0 1f 3c 69 f0 1c 3c
       0.011367905 0.011524834 0.009750393 0.009578803
000050 83 3d ea 3a 39 e5 36 bc 45 dc 01 bc af be 28 bc
       0.0017871115 -0.011163049 -0.0079260515 -0.010299369
000060 5d e8 37 3c a0 f6 0f bc 91 67 2f bc 68 08 16 bc
       0.011224833 -0.008786827 -0.0107058445 -0.009157278
000070 14 bd 21 bc 49 d9 47 bc 2b b7 58 bc 54 5e 4f 3c
       -0.00987174 -0.012197801 -0.013227264 0.012656767
000080 83 23 89 b7 07 ff 5e bc e5 06 61 3c 0f fb 5b 3c
       -1.634821e-05 -0.013610608 0.013734554 0.013426556
000090 f6 a6 63 3c 68 82 47 bc 53 6b 34 3c d3 1f 3d bc
       0.013894787 -0.012177087 0.011011916 -0.011543232
0000a0 4c 72 1e 3c 99 96 0b 3c a7 93 61 3c ba 10 0a 3c
       0.009670805 0.008519792 0.013768113 0.0084268395
0000b0 0f 2c 6c 3c 51 12 50 3b 70 95 60 bc 8e 34 53 3c
       0.014414801 0.0031749199 -0.013707504 0.012890948
0000c0 ef 22 54 bc 8e 8e 3a bc d4 9a 3b 3c 5e eb 3f bc
       -0.012947782 -0.011386527 0.011450488 -0.011713831
0000d0 17 c2 29 bc 6e 1f 3e bc e1 7d 61 bc 05 16 39 3c
       -0.010361216 -0.011604173 -0.013762922 0.011296754
0000e0 99 f8 4d 3c f4 31 3c 3c 20 86 82 3c 5d ab 18 bc
       0.012571477 0.011486519 0.015933096 -0.0093182
0000f0 6c 62 61 bc 86 9a 3b 3c e1 a6 42 3c 1b 05 a3 bb
       -0.013756376 0.0114504155 0.011880607 -0.004974974
000100 6a bb 73 bc a4 8d 36 3c 57 02 fa 3b d1 8d 2e 3c
       -0.014876226 0.011142168 0.0076296735 0.010653929
000110 fb 6e 42 3c 6f bc 1d 3c 5e 03 9d bb 41 6d 7e bc
       0.01186728 0.009627446 -0.004791661 -0.015528978
000120 bf 2b 6b bc 92 ab 56 bc 89 03 09 3c d5 a7 4a 3c
       -0.014353692 -0.013102429 0.008362659 0.012369116
000130 2e 00 3b 3c 0f 8e 41 bc da 64 56 bc 12 c2 4f bc
       0.011413617 -0.011813655 -0.013085568 -0.012680547
000140 ec ef 18 3c df ef 25 3c 12 42 6d bc 80 41 2c 3c
       0.009334546 0.0101279905 -0.014481084 0.010513663
000150 13 0f 29 bc 6b 5e 5a bc 60 84 47 bc d1 71 4f bc
       -0.010318535 -0.013328175 -0.012177557 -0.012661413
000160 d1 4c 4b 3c 00 b9 33 bc 7a df 0c bc af f0 13 3c
       0.012408451 -0.0109694 -0.008598203 0.009029551
000170 f8 f3 38 3c 8d 5f 47 bc af d8 15 bc ef a8 10 bc
       0.011288635 -0.012168777 -0.0091459 -0.008829339
000180 cc 20 21 3c 6b 43 40 3c d7 1a 06 3c 61 2d 7f 3c
       0.00983448 0.011734824 0.00818511 0.015574784
000190 10 08 21 bc fb e2 4a bc 5d ab 1c bc 35 96 31 bc
       -0.009828582 -0.012383218 -0.009562341 -0.010839035
0001a0 df d8 2d bc 57 d1 21 3c bb 38 36 3c e8 7a fa bb
       -0.010610788 0.009876571 0.011121924 -0.007644046
0001b0 64 86 26 3c c3 9b 27 3b 14 eb 7d 38 76 80 62 3c
       0.010163877 0.002557502 6.0538834e-05 0.013824573
0001c0 8d 31 3d 3c be 1d 2c bc 29 15 6c bc 97 6a c4 3b
       0.011547458 -0.010505138 -0.014409342 0.005994152
0001d0 b5 1f 75 3c 48 30 ff 3b 2a 30 d8 3b 61 07 48 bc
       0.014961173 0.007787738 0.0065975385 -0.0122087905
0001e0 2b d5 41 bc ef fb 0c bc 78 16 23 3c f8 84 61 3c
       -0.011830608 -0.0086049875 0.009954087 0.013764612
0001f0 32 0e 26 bc db d9 43 3c b3 e2 20 3c 73 9a 54 3c
       -0.01013522 0.011953796 0.009819674 0.012976277
000200 4f 1c 26 bc f9 db 5a 3c 39 7e 89 3c ce eb 1a bc
       -0.010138585 0.01335811 0.01678382 -0.009455634
000210 61 e1 37 3c f6 2e fb bb ed 59 30 bc 26 43 4e 3c
       0.011223168 -0.0076655103 -0.0107636275 0.012589252
000220 e4 e3 61 bc 7b 7d 3e bc f4 f7 88 bc ca fe 6f 3c
       -0.0137872435 -0.011626597 -0.016719796 0.014648149
000230 a5 46 32 3c 56 0b 18 3c e2 36 62 3c f4 f5 01 3c
       0.010881101 0.009280046 0.01380703 0.007932175
000240 c9 2c 40 3c ea 14 54 bc c0 8b 32 bc b2 e8 3b 3c
       0.011729428 -0.012944439 -0.010897577 0.011469053
000250 6d 57 4d 3c cd a0 34 3c 04 db 24 3c e0 03 40 bc
       0.012533051 0.011024666 0.010061983 -0.011719674
000260 06 e4 3f 3c 48 01 3f bc 60 53 eb 3b 7a d5 3e bc
       0.01171208 -0.01165802 0.00718157 -0.0116475765
000270 83 36 a8 3b 7a 17 63 bc b6 a6 3e bc b6 d2 39 bc
       0.0051334514 -0.013860578 -0.011636427 -0.011341741
000280 10 a5 80 3c 8d 2b 20 bc b5 b3 2a 3c e9 8d 53 3c
       0.015703708 -0.009776008 0.010418822 0.012912252
000290 e5 d9 57 bc 86 31 59 bc 9a 51 68 3c 4b 14 11 bc
       -0.013174509 -0.013256436 0.014179612 -0.008854936
0002a0 b2 7f 30 bc 71 a8 49 3c eb 63 77 3c 1e 1a 35 3c
       -0.010772632 0.012308226 0.015099506 0.01105359
0002b0 91 72 4c 3c a3 0b 38 3c 74 1c 4f 3c 1b ff 2a 3c
       0.012478487 0.011233243 0.012641061 0.010436798
0002c0 1c 55 e1 bb d1 31 3b bc 63 0e 28 bc 74 52 25 bc
       -0.006876601 -0.011425451 -0.010257336 -0.010090459
0002d0 e2 20 4c bc 2b b0 3a 3c c0 ff 19 3c f4 e7 0f 3c
       -0.012459012 0.011394541 0.009399354 0.008783329
0002e0 f1 ac 2a bc a0 70 d9 3a fa 63 6a 3c d4 1e e9 bb
       -0.010417209 0.0016589351 0.014306063 -0.0071142707
0002f0 02 b8 2d bc 58 6c 27 bc a8 aa 52 bc 75 67 40 3c
       -0.010602953 -0.010218702 -0.01285807 0.011743416
000300 ed 34 49 3c dd 1a 41 3c 80 94 49 bc 5c f8 1a bc
       0.012280685 0.01178619 -0.012303472 -0.009458628
000310 6b 18 28 3c 25 72 2e bc 80 fb 16 bc 7d 98 48 bc
       0.010259728 -0.010647331 -0.009215236 -0.012243387
000320 34 9b 26 3c d4 4e 47 bc 87 0f fc 3b 6f 59 1b bc
       0.010168839 -0.01216479 0.0076922807 -0.009481772
000330 5d ca c8 bb 66 95 10 3c 13 97 29 3c ec 4b 50 3c
       -0.006127639 0.008824682 0.01035096 0.012713414
000340 29 aa 73 3c cb d3 83 3c 28 df 5d bc 47 0f 31 3c
       0.014872112 0.016092202 -0.013541974 0.010806865
000350 e8 5a 3b 3c 4f dc 35 bc 3a a7 f2 3b 93 af d0 bb
       0.011435248 -0.011099889 0.007405189 -0.0063685863
000360 0e ac 70 3c 76 4b 0f 3c 29 65 36 bc 20 63 3e bc
       0.0146894585 0.008746019 -0.011132517 -0.011620313
000370 ce ac 48 3c 12 14 0c 3c e1 a8 17 3c 87 76 35 bc
       0.012248231 0.008549707 0.009256572 -0.011075622
000380 75 33 1b bc 93 f2 18 bc 4b fb 1a bc 58 12 03 bc
       -0.0094727175 -0.009335178 -0.009459327 -0.007999979
000390 49 59 6f bc 53 76 3e 3c 6e 47 bf bb a9 5f 29 3c
       -0.01460869 0.01162489 -0.0058373725 0.010337749
0003a0 6c 48 5a 3c e6 a3 5b bc 23 db 0b 3c ac f9 4d 3c
       0.013322931 -0.013405776 0.008536133 0.012571733
0003b0 20 42 4e bc 0d 1e 5d bc 53 11 62 bc f8 29 46 bc
       -0.012589008 -0.013495934 -0.013798076 -0.012094967
0003c0 76 5e 28 bc ce c8 2c 3c 05 3a 37 3c fd 3e fa bb
       -0.0102764275 0.010545922 0.0111832665 -0.0076369033
0003d0 2f 71 41 3c fa 08 8f bc 8c 53 eb bb 09 71 3d 3c
       0.01180677 -0.017460335 -0.0071815904 0.011562594
0003e0 5a 3f 5c bc 0c 3c 34 bc b2 ea f7 3b 30 4e 51 bc
       -0.013442839 -0.011000644 0.0075658197 -0.012774989
0003f0 8d 1e 47 3c 28 bc 3c 3c f5 61 4f 3c cb e7 f0 bb
       0.01215328 0.011519469 0.012657632 -0.0073518506

weight f4 [1, 256]
000000 bf 16 b2 bd 8b 8c c4 bc 63 c7 97 3c 5a ad cc 3d
       -0.08695745 -0.023992797 0.018527692 0.09994002
000010 a8 9b bf 3d 0d 0f d6 3d 08 09 9f bd ff ee 1a 3d
       0.09355861 0.104520895 -0.077653944 0.03782558
000020 d9 d1 19 bd 98 e7 64 bc 33 bb 77 3d e1 39 36 3d
       -0.037553642 -0.013971232 0.06048126 0.04448879
000030 99 44 ca bd 0b f6 5d 3d 8b 99 02 3d 58 cc 1d be
       -0.09876365 0.054189723 0.03188471 -0.15409982
000040 e8 f3 58 3d fb b3 a0 3c 3d 9d 1b 3c 21 00 aa 3d
       0.052966982 0.019617071 0.009497938 0.08300806
000050 5b 0e 52 3c 07 39 3b bd ea 12 db ba 0e d6 80 bd
       0.012820805 -0.045708682 -0.0016714011 -0.06290828
000060 0a 0e 83 3d 3e 40 2e bd de 95 1f bd 65 54 e3 bd
       0.06399162 -0.042541735 -0.038961284 -0.11100081
000070 41 60 c4 bc 07 22 d7 bd 95 9b 03 bd 7c ed 73 3d
       -0.023971679 -0.10504537 -0.032130796 0.059552655
000080 b4 05 71 3c a0 6d 36 bd 3c 7e ae 3d a0 a6 c3 3c
       0.014710832 -0.04453814 0.08520171 0.023883164
000090 b6 1d 10 3d 42 9a f9 bc 4d ea 4c 3d e9 03 68 bc
       0.035184585 -0.030469064 0.050028134 -0.0141610885
0000a0 11 ac 89 3c 90 4e 6d 3d bd 76 99 3c aa b6 af 3d
       0.01680568 0.05793625 0.018733377 0.08579762
0000b0 31 f8 85 3d fb b2 d4 ba ed 79 15 bd 85 20 a4 3b
       0.065414794 -0.0016227657 -0.03649323 0.0050087594
0000c0 cc 7b b2 bd f7 c9 a4 bd 51 d7 b2 3d 3f fc 53 bd
       -0.08715019 -0.08046334 0.087324746 -0.051754232
0000d0 8f 7b c1 bb b6 68 df bc 1e 7c 33 bd 47 34 d2 3d
       -0.005904622 -0.02727161 -0.04381954 0.10263877
0000e0 10 55 de 3d 0b a5 28 3c d5 5d fb 3d 9a 6f 98 bd
       0.10856068 0.010293256 0.122737564 -0.07443161
0000f0 4a d8 22 bd 1e 11 89 3d da 20 c5 3d ef c8 0f bd
       -0.03975705 0.06692718 0.096254066 -0.035103735
000100 77 35 98 3a fe 11 de 3d fc 8a 50 3c c0 1e 8a 3d
       0.0011612613 0.108432755 0.012728449 0.06744146
000110 df b9 e1 3c b5 2c aa 3c c7 d9 53 bd 88 7a bc bd
       0.02755445 0.020773271 -0.05172136 -0.092030585
000120 f5 51 a8 bc 76 00 f9 bc cc c3 d1 3d 16 0f ed 3c
       -0.020546893 -0.030395728 0.102424234 0.028937858
000130 57 94 f5 3c 43 a3 43 bc db e1 14 be a0 78 15 bd
       0.02997796 -0.01194078 -0.14539282 -0.03649199
000140 72 33 b9 3b 7d 8c 99 3c d4 ef bb bd d4 83 ae 3d
       0.0056518847 0.018743748 -0.09176603 0.08521238
000150 60 9b 71 bd 5e 7b a9 bd 66 28 22 bd ca b5 dc bd
       -0.058986068 -0.082754835 -0.03958931 -0.10776861
000160 47 72 23 3d 4c 0c ff bd b3 f3 7a bd aa 29 fd 3c
       0.039903905 -0.12453517 -0.061267566 0.030903656
000170 e2 9e bf 3c 7b ae fc bc f6 d2 07 be 06 38 18 bd
       0.02339119 -0.030844918 -0.13264069 -0.037162803
000180 d6 cb 87 3c 6b 1c 9e 3c be 46 de 3c 34 c0 99 3d
       0.016576689 0.01930066 0.027133342 0.07507363
000190 fe a7 74 bc af 70 33 bd ed 52 55 bc 3f c9 cc bb
       -0.014932631 -0.043808635 -0.013020259 -0.0062495763
0001a0 b2 b9 a4 bd dd 67 f9 3a 48 78 80 3d 97 32 3c bd
       -0.08043231 0.0019028146 0.06272942 -0.045946684
0001b0 18 3a 7e 3d e8 7d 81 bc 67 05 16 3c 77 4e f9 3d
       0.06206712 -0.015807107 0.009156561 0.12173169
0001c0 94 3a db 3d 4c 7e cb bc 55 d8 4a bc 5d 9d 0d bc
       0.10704532 -0.024840496 -0.012380679 -0.008643475
0001d0 c7 bc 8a 3c 9e 46 38 3d 16 73 51 bb 08 f9 0b bc
       0.01693572 0.04498922 -0.0031959466 -0.00854326
0001e0 21 4b b2 bc 6f 0f d4 bb 5c 83 ec 3c c7 cc 5e 3c
       -0.02176434 -0.0064715664 0.02887123 0.013598627
0001f0 7c ab a2 bb c7 7c b1 3c 46 72 81 3d d8 be 8f 3d
       -0.00496429 0.021665944 0.06320624 0.070188224
000200 7a a9 32 bc d3 be 91 3d fd 92 2d 3c 4f 92 37 be
       -0.010904664 0.07116475 0.010594127 -0.17926906
000210 96 1a 7a 3c 55 9d 76 ba cb 2b 64 bd 2c 5c de 3d
       0.015265128 -0.00094075996 -0.055705827 0.10857424
000220 f1 53 fa bd 25 f4 9b bd 9c 67 fc bd 95 e9 06 3d
       -0.12223042 -0.07614926 -0.123244494 0.032937605
000230 9f ae 3a 3d a2 a5 64 3d 2f e2 c9 3d 6e ee 76 3c
       0.045576688 0.055822022 0.09857594 0.0150714945
000240 8e 6d 45 3d 6a 98 13 bd 96 ac b1 bc 75 9a 50 3c
       0.048200183 -0.036034025 -0.02168874 0.012732138
000250 dd f3 de 3d 10 8f 82 3d 8a 32 eb 3d e5 72 5a bd
       0.10886357 0.06374943 0.11484249 -0.05333223
000260 6f 2e ef 3c cb d5 ac bd df 47 79 3d f0 86 77 bc
       0.029196946 -0.08439215 0.060859557 -0.015107855
000270 e4 f7 9b bb 2c 4c 22 bd 0f 46 b4 bd 73 8b b2 bd
       -0.0047597755 -0.039623424 -0.08802425 -0.08718004
000280 cd f8 12 3d 3b 7d 1a be c4 dd 49 3d 5e de 29 3d
       0.035881806 -0.15086834 0.049283758 0.04147183
000290 c0 6c a8 bd 6e 98 01 bd 6f b1 9d 3d 51 e9 cc bd
       -0.082238674 -0.03163951 0.076998584 -0.10005439
0002a0 a0 8b cc bd b9 bc 02 3d 9d ec bf 3d 46 f0 30 3c
       -0.09987569 0.03191826 0.09371302 0.010799473
0002b0 06 dc ca 3d 48 97 78 3d 2f 3e c8 3d 89 2c 7d 3d
       0.099052474 0.060691148 0.097774856 0.06181005
0002c0 e3 37 d2 bd 05 0d ed bc ce c2 2f bd f1 5e 61 bc
       -0.10264566 -0.028936872 -0.04291039 -0.013755546
0002d0 61 89 1b bd 18 78 6a 3c a6 76 0e 3d 4d 58 c9 3c
       -0.03797281 0.014310859 0.03478112 0.024578238
0002e0 22 52 21 bd a5 2a 11 3b 64 e9 09 3d 5d a6 a4 bd
       -0.03938497 0.0022150662 0.033669844 -0.08039544
0002f0 8c 0e ae bd ce cd 60 bd 3a 13 a2 bd 55 a2 20 3d
       -0.08498868 -0.05488377 -0.079138234 0.039217312
000300 cf 39 8e 3d ff b4 5d 3d ff 5c 90 bd a4 b1 9e bd
       0.0694462 0.05412769 -0.070489876 -0.07748726
000310 a6 34 31 3d 29 ee 6f bd b5 5c be bd f4 e5 e0 bd
       0.0432631 -0.058576737 -0.09295026 -0.1098136
000320 67 ee 04 3e 55 9c ef bd e7 d1 2c bb ab 35 68 bd
       0.12981568 -0.1169974 -0.0026370229 -0.056691807
000330 99 af 92 bd 17 01 b7 3a f4 43 e0 3b 9a 26 03 3e
       -0.07162399 0.0013962117 0.006844038 0.12807694
000340 43 39 6b 3d 34 ea 0b 3e b3 63 0e bd c5 e5 97 3d
       0.057427656 0.1366356 -0.03476305 0.07416872
000350 d2 da be 3b 4e 76 fd bc 4b c4 ee 3c e3 67 78 bc
       0.0058244253 -0.030940201 0.029146334 -0.015161487
000360 a5 3b 9b 3d 16 7b 83 3d 1c 29 18 bd b5 c7 07 bd
       0.07579736 0.06419961 -0.03714858 -0.03314944
000370 85 76 df 3c 33 68 2b 3b c9 9d 8b 3d c5 df 60 bc
       0.027278194 0.0026154637 0.068172045 -0.013725226
000380 3f b5 ac bc 0d 8b 2e bb ec 9f ec bc ab a9 6f bc
       -0.021082519 -0.0026633174 -0.02888485 -0.014627854
000390 eb 2e 5f bd 4a 3a 2e 3d fd 0e 4b bc be cc 3f 3d
       -0.054488104 0.042536058 -0.01239371 0.046826117
0003a0 31 24 af 3c dd c3 80 bd 20 73 eb 3c e5 67 4c 3d
       0.021379562 -0.06287358 0.02874142 0.04990377
0003b0 d1 f7 a4 bd 35 2f 35 bd 0f f5 ff bd a9 6c 51 bd
       -0.0805508 -0.044234473 -0.12497913 -0.051129017
0003c0 58 44 b3 bd be d5 d5 3d 8c d0 7e 3d 8e 3b e9 bc
       -0.0875327 0.10441159 0.062210605 -0.02847078
0003d0 4d 34 a0 3d 36 d3 bc bd f7 67 74 bc f5 4b 8c 3d
       0.078224756 -0.09219973 -0.014917365 0.06850425
0003e0 90 50 66 bd 16 b1 92 bd eb ef 2f 3d e3 c6 83 bc
       -0.056229174 -0.07162683 0.042953413 -0.016086048
0003f0 ed 3c cb 3d 33 5f 87 3d c5 76 82 3d 46 18 80 ba
       0.0992373 0.06609955 0.0637031 -0.0009772859
