trained_models/ppo/me5418-Cassie-v0/0524-08-31-04-s3737/actor.pth (torch, 906874 bytes, 11 tensors)

log_std f4 [1, 10]
00000000: 11a9 f63a 0900 41ba f7a1 883b 6600 0cbb
00000010: 304e a63b 6ef1 34b9 9552 9f3a cdad 3a3b
00000020: 5619 9dba 6481 1f3b
0.0018818696 -0.0007362371 0.0041696983 -0.0021362542 0.0050752386 -0.00017256077 0.0012155349 0.002848494
-0.00119857 0.0024338597

weight_ih_l0 f4 [512, 50]
00000000: 637b 8b3d 1a1d d2bc 61ad 9b3c 0130 b73d
00000010: d011 78bc 58c6 343d 9193 58bd d0f4 713d
00000020: a863 31bd 2bbf a1bc e760 273d c6c7 3bbd
00000030: f8dc 5e3d 0a99 a33d 1618 06bd 6f18 ad3c
00000040: a002 f1bc c11d 5bbb 5873 43bd 1c8b e7bc
00000050: 9833 4fbb 078d 84bd 34a8 a4bc e5a7 713c
00000060: 583b 8fbd 8e05 adbd e120 aabd cccb dfbc
00000070: b814 7e3d 8a4e 253b 5d1f edbc a35b a4bb
00000080: d0aa aa3c 84ed 9d3d 70df 953d 5b1f 80bd
00000090: 817f 633b 3dbe 58bd 0476 aabd ec5b 27bd
000000a0: 43cd 2a3b 05ce 493c 9a1c babd 459d 98bb
000000b0: e465 393d 8cd0 5a3c 9184 1b3d 753f 283d
000000c0: 985b 833c 61cb 93bc 37ec 04bc d36e 4e3d
000000d0: dcd5 943d 866e 9a3d fa24 6d3c 845e a2bd
000000e0: ad92 043d d1a6 aebd 9704 a8bc 8ebb 7b3d
000000f0: eea3 8ebc 3a25 d2bc 41e2 543b e330 ffbc
00000100: c210 943b 033d c63c 5d89 73bd 47ff 773d
00000110: e980 e43c d03c 96bd ff77 67bc 83aa c8bc
00000120: 021c 603c 1c01 a63d 7126 28bd 08cb 883c
00000130: 930e 063b d863 55bd a797 4b3d 8d40 513d
00000140: 68e1 63bd 963b 88bd a101 84bd ac9e acbd
00000150: b4a8 84bd b3c5 ad3d e1d9 193d eca9 013c
00000160: 5603 69bd 68cf 89bd a37a 5f3d d97a 343d
00000170: 4f83 8b3d a8d4 b9bc 18d5 b93d eeb9 dd3b
00000180: 1d7e bc3c 32e7 9dbc d2ff 303d ecf2 89bb
00000190: 28b4 c63a 4499 51bd 50ca a73d 7cdd 4a3c
000001a0: f024 95bd 8f47 a53d 15db b13c b89a 16bc
000001b0: 541d 91bd 639a 94bd a6a8 19bd 65a3 9abc
000001c0: c045 df3b 734e 603d 4fbb 07bd 10fe aabd
000001d0: ffcc 0bbd dd61 8dbd 871f 463b 6fdb 8abd
000001e0: ec81 48bd 6662 333d e9da 3abd 96a1 4e3d
000001f0: 05cb eb3c 64bb 42bd 2b87 09bd 45ad 923d
00000200: 8488 72bd 25c7 843d 00ed 883c 3477 14bc
00000210: 0e96 1dbd 7c3e 8dbd 76da 6cbd 9af4 31bd
00000220: 812e 833d f215 303d 812a 9f3d 80db 753d
00000230: 8f9f 5d3c 83e7 39bd c34a a5bd 5c92 ba3d
00000240: 0702 4bbd 6adb 213d a74a 24bd 39dc 5dbd
00000250: dc79 54bd 0506 023d e2a0 cd3c 37c5 d2bc
00000260: d88f 103d 7a61 a53c 10a3 90bd ef04 82bd
00000270: 3da4 5e3c 5fe6 a3bb 5aa9 893d 8a38 6fbd
00000280: 8d0f 533d 3f7c 84bd 1a34 cf3b 218e 13bd
00000290: aed2 bcbd 3557 2e3d 6951 0e3d 42f8 8c3c
000002a0: ce78 4ebd 7051 5cbd ef61 25bd a348 2b3c
000002b0: ebae a6bd 2a47 93bc c13b a43d 09e8 a8bc
000002c0: c757 73bd dd86 823d ac02 3a3d d835 e3bb
000002d0: 9826 153d 8a2d 9ebb 4abe a0bd e361 6abd
000002e0: 1f60 7a3c c633 7bbd 1045 273b aece 413d
000002f0: cb11 2a3b 9dab 42bd b04e f6bc faec 4abd
00000300: bd58 583c f635 60bd 291b 98bd 1d44 16bc
00000310: 5b86 3fbd f9c7 a43d 3fdd 643d 671d 6dbc
00000320: 63ab 62bd c62f b6bd 9302 09bb c97b 20bd
00000330: d442 073d ad85 44bd 2631 57bc 2c70 42bd
00000340: bebe ffbc ee72 b4bc c0e2 ab3d a4b7 ca3b
00000350: ec6f 8d3d aab1 87bd a4b4 b03d 272e 3fb8
00000360: 024b 583d 6f02 15bc 4021 ad3b 0af2 a0bd
00000370: 3782 87bd 9f20 9c3d 8d43 18bc f723 4e3d
00000380: 9d33 e1bc a860 9fbd a79a 773c 74bc 413d
00000390: a67e 473d 50ec c43c 5a8d 843c e72e 9abc
000003a0: 0405 793d cee2 893d e34d 95bd 6880 693d
000003b0: 0a8d 903d 59b3 f7bc f058 6ebd dd13 a93d
000003c0: 3e8d 81bd 9ef2 343d a06a 33bd 148b 9a3d
000003d0: 6b4e b1bc 594c 0e3d c3b9 a53b 63ac 713d
000003e0: 425c 343d d819 83bd f66e a0bd 8890 7f3c
000003f0: 5508 8bbd d5c0 48bc df22 10bd 7f9a 1e3d
0.068106435 -0.025648642 0.019003572 0.08944703 -0.015140966 0.044134468 -0.052875105 0.059071362
-0.04330793 -0.019744476 0.040863898 -0.045844816 0.05440995 0.07988174 -0.032737814 0.021129815
-0.029420197 -0.0033434483 -0.047717422 -0.028264575 -0.0031616446 -0.06472211 -0.020099737 0.014749502
-0.06993741 -0.08448325 -0.083070524 -0.027318858 0.062031478 0.0025223815 -0.02894562 -0.0050158068
0.020833403 0.07711318 0.07318008 -0.062559806 0.003471345 -0.0529158 -0.08323291 -0.040859148
0.0026062287 0.012317185 -0.090874866 -0.00465742 0.045263186 0.0133553855 0.037968222 0.041076142
0.016034886 -0.018041315 -0.008112959 0.05039866 0.07267353 0.07540612 0.014474148 -0.07928184
0.032366443 -0.085279115 -0.020510001 0.061458163 -0.017412152 -0.025652517 0.003248349 -0.03115124
0.0045185992 0.024199015 -0.05945717 0.060546186 0.0278935 -0.07335818 -0.01412773 -0.024495369
0.013678553 0.0810568 -0.041052286 0.016698375 0.0020455464 -0.05209717 0.049705174 0.05108695
-0.055634886 -0.0665199 -0.06445623 -0.08428702 -0.0647749 0.08484974 0.0375613 0.007914048
-0.056887947 -0.06729013 0.054560315 0.04406247 0.068121545 -0.02268441 0.090738475 0.0067665493
0.023009354 -0.019275282 0.04321272 -0.0042098667 0.0015159892 -0.051171556 0.08192885 0.012381908
-0.07282436 0.08070289 0.021710912 -0.009192161 -0.07085672 -0.072560094 -0.03751435 -0.01887674
0.006813735 0.054762315 -0.033137616 -0.0834924 -0.034131046 -0.069034316 0.0030231194 -0.06780135
-0.04895203 0.043795012 -0.045618925 0.05044707 0.02878333 -0.04754199 -0.03357617 0.07161955
-0.059212223 0.06483296 0.016714573 -0.009061623 -0.03847318 -0.068966836 -0.057825528 -0.04344616
0.06405354 0.04298968 0.07771779 0.060023785 0.013526811 -0.045386802 -0.080709 0.09109947
-0.04956248 0.03951589 -0.040110257 -0.0541651 -0.051874027 0.031744022 0.025101129 -0.025728805
0.03529343 0.020188082 -0.07062352 -0.06348597 0.013588962 -0.0050018276 0.06721754 -0.05840353
0.051528502 -0.064690106 0.0063233497 -0.036024217 -0.092198715 0.042563636 0.034745608 0.017208222
-0.050408177 -0.053788602 -0.0403766 0.01045433 -0.08138832 -0.01797827 0.0801921 -0.020618455
-0.059409883 0.063733794 0.045412704 -0.006933909 0.03641376 -0.004827206 -0.07848795 -0.05722226
0.015281706 -0.061328672 0.0025523342 0.047316246 0.0025950547 -0.047526944 -0.030066818 -0.049542405
0.013204751 -0.05473896 -0.074270554 -0.009171513 -0.04675899 0.08045954 0.05587506 -0.014472342
-0.05533923 -0.08895831 -0.0020906075 -0.03918055 0.033022717 -0.047979046 -0.0131342765 -0.047470257
-0.031218883 -0.022027459 0.083928585 0.0061864424 0.06906113 -0.066256836 0.086282045 -4.558093e-05
0.052805908 -0.0090948185 0.0052835047 -0.07858665 -0.066166334 0.076234095 -0.009293449 0.050327267
-0.027490431 -0.077821076 0.015112556 0.047298864 0.048704766 0.024038464 0.016180683 -0.018821193
0.0607958 0.06732713 -0.07290246 0.057007223 0.07058151 -0.030236887 -0.058190286 0.08255742
-0.06325768 0.04417669 -0.043802857 0.07546058 -0.021643838 0.03474078 0.005057545 0.05900229
0.044033296 -0.06401414 -0.07833664 0.015598424 -0.067886986 -0.012253006 -0.035189506 0.038721558

weight_hh_l0 f4 [512, 128]
00000000: 0490 4d3d e6a8 893d e69c 013d f6b0 40bd
00000010: dffe d23c 3642 a33d 7f38 943d 7456 9dbc
00000020: 944e 173d ae2f 4d3c bf31 b73b 4eff a43d
00000030: 654d 00bd 2a85 6d3c 460e 973d e25d dd3b
00000040: cbd5 b93d dd39 afbd 532b 523d 5ef7 7abb
00000050: c4ae 11bb 9a89 11bd f1c5 b8bd 5c54 5a3d
00000060: ecd5 5dbd c162 7fbd ec44 91bd e2d0 4d3d
00000070: 9860 52bd 7f52 de3c 5bd0 86bd b112 27bd
00000080: f48c 5f3d adc5 e6bc 365c 05bc 6e0f 48bd
00000090: 69ce 8abc 12f6 803d ac78 aabd cd2c 36bd
000000a0: e368 833d dbb1 983d 8491 863c 44dd 88bd
000000b0: a55b 4bbd db4f a8bc f5a8 35bd 03ac dc3b
000000c0: 9506 3dbd 2c47 673d 85f5 b93d e6bf c13b
000000d0: 179e 733d 78dc 04bd 89bc 5e39 e5ad 5cbd
000000e0: 2f50 763c b1c4 b7bd 0fcf 50bd 4191 8dbd
000000f0: c12d b13d 0951 963d c63d 363d e704 2ebd
00000100: 4e6b f23c 2004 58bd 424d 883c 8df8 0b3d
00000110: c68a 74bd a7c7 86bd 01f9 443d 72ae 1dbd
00000120: 8bc1 65bd a85d e73c ba14 663c b38a 95ba
00000130: e339 b7bc 71c2 1fbc 3e38 693d a1bb 1a3d
00000140: f084 69bd 5682 4f3d 40db c13c 143a 793b
00000150: 65b3 9dbd c283 983d 2433 613b c500 debb
00000160: 3be3 96bd c22e af3d 75ac 7abd c18e b23c
00000170: 9d80 1f3c 9885 eabc 45eb 9f3b 4f61 153c
00000180: 96e4 92bd 5d25 003c a870 3d3a cb28 2bbd
00000190: ce0c 5bbd 45d2 2abd 4aac 0b3d 7b22 5dbd
000001a0: d045 bebc 785b 39bc fb86 f23c 76a7 b0bc
000001b0: 5bf7 843c 25bf 84bd 1c48 7d3d f66f 063d
000001c0: 7281 a0bd cc31 733d 3d95 963d 83de 8d3d
000001d0: 5fdc 67bd afc3 4d3d e411 69bd db75 893d
000001e0: d9ab 933c 4677 873d 7b3d 893d e287 79bc
000001f0: 61bf 36bd d35f 86bc 8f69 dfbc cc1b 59bb
00000200: 710d 20bd 87b5 c13c d850 953d a1f2 043c
00000210: 5af5 8dbd 1b7d c0bc 1668 303b aa25 923d
00000220: 6548 30bd c750 623c b4ef 89bb 940d 103d
00000230: 5e21 8c3d ed54 083d 8752 133d 4908 97bc
00000240: cc3b c93c f073 96bd 51c6 aabb 7c7d 94bd
00000250: 5497 b7ba 50d2 213d 0b7c a63d 772b f23c
00000260: 6036 af3d d7e1 a4bd 9570 d2bc f600 87bd
00000270: 52e4 643d 0f64 60bc cf9d 883c 2e59 283a
00000280: 4e7e 653c c937 a63d cb70 583d 5973 e1bc
00000290: 7294 583c 5be9 b3bd 480a 25bd 8e9c 94bd
000002a0: ead1 95bd 8723 2b3d 1364 7a3d 19c4 48bd
000002b0: 06a6 10bc 7f64 df3c d74e 82bd a902 af3b
000002c0: 0d6b b13d 52af ab3d 59a8 a6bc 45c5 b73c
000002d0: 0327 1fbd 5237 babc 6997 b83d 51f8 383d
000002e0: 160f 9b3d 58fa 9a3d 2ad2 86bb c21e abbb
000002f0: 2908 153d add4 5ebd a3da 1bbd 4dc5 993c
00000300: 920f abbd 2567 9e3d d13a adbc 83ce 12bd
00000310: b67a 2cbd e353 85bd 6160 efbc 40c9 aebd
00000320: 572d 733d 3b7a 1c3c 25aa 6ebd 5519 233d
00000330: be73 abbd f1ba 213d 37db 10bc c1f7 283d
00000340: 7bfb 4c3d daf4 8abd 55a1 4cbd 9bd2 76bd
00000350: a57f 4c3d 621a b73c 2414 5ebd c5c3 27bd
00000360: 7cbe 6bbd b91f 513c cfbb 9ebd 0fd0 96bb
00000370: 9fca 0a3d 5138 a93b e48c 96bc eec0 d3bb
00000380: 4c5e 00bd 9819 eabc eb51 a33d fcfb 3cbd
00000390: e13c 9a3d e3a4 a33d 2d16 96bd 8a85 86bd
000003a0: a616 1cbc 570e 71bc cc6c cfbb 1d0c c03b
000003b0: bfd1 f43c 9174 9ebd b7ed fb3c 072c f43c
000003c0: 1e71 b03d 7b0c 76bd fa63 3dbd ba89 7e3d
000003d0: 3c20 82bd e699 57bd 1514 97bd 8d42 afbd
000003e0: b052 193d dece 843d 33d7 9bbd 706b 373d
000003f0: 6cfd b03d 056b e9bb b37a a33c 1206 aa3d
0.050186172 0.06721668 0.03164377 -0.047043763 0.025756298 0.07971613 0.07237338 -0.019206263
0.036940172 0.012523575 0.005590647 0.08056508 -0.03132381 0.014497081 0.07375769 0.0067555765
0.09073981 -0.085559584 0.05131085 -0.0038294415 -0.0022229413 -0.035531618 -0.09022129 0.053303108
-0.05415909 -0.06235004 -0.07093224 0.050248034 -0.05136165 0.027138947 -0.065827094 -0.04078931
0.054577783 -0.028170431 -0.008139661 -0.04884284 -0.016944127 0.06296934 -0.083237976 -0.04447632
0.0641649 0.07455798 0.01642681 -0.06682828 -0.049647946 -0.02054589 -0.044350583 0.0067343726
-0.046148855 0.05646436 0.09080032 0.0059127687 0.059476938 -0.032436818 0.00021241805 -0.053876776
0.015033766 -0.08973063 -0.050978716 -0.069124706 0.08651305 0.07339675 0.044492505 -0.042485144
0.029592182 -0.05273831 0.016638402 0.034172583 -0.059702657 -0.065810494 0.04808903 -0.038496442
-0.05609278 0.028242901 0.014043028 -0.0011409133 -0.02236647 -0.009750948 0.056938402 0.037776593
-0.057011545 0.050661407 0.023664117 0.0038029002 -0.077002324 0.07447006 0.0034362758 -0.006774994
-0.073675595 0.0855384 -0.061199624 0.021796586 0.009735254 -0.028628156 0.0048803412 0.009117438
-0.071725056 0.007821408 0.0007226565 -0.04178695 -0.05347901 -0.041704435 0.034099855 -0.05398796
-0.023226649 -0.011313312 0.02960538 -0.021564227 0.01623123 -0.064817704 0.061836347 0.032821618
-0.0783719 0.059373662 0.07352684 0.06927206 -0.056606647 0.050235447 -0.056901827 0.06711932
0.01802628 0.066145465 0.067011796 -0.015230151 -0.044616107 -0.016403114 -0.027272014 -0.003312814
-0.03907532 0.02364613 0.0729081 0.008114488 -0.06931563 -0.023497155 0.0026917509 0.0713609
-0.04303779 0.013813204 -0.004209483 0.0351692 0.06842302 0.033284117 0.035967376 -0.018436568
0.024564646 -0.07346332 -0.0052116294 -0.07250497 -0.0014006891 0.03950721 0.08129128 0.029561741
0.08555293 -0.08050888 -0.025688449 -0.0659198 0.055881806 -0.013695731 0.016676812 0.000642198
0.014007164 0.08116109 0.052841943 -0.027520822 0.013218986 -0.087847434 -0.040293008 -0.07256423
-0.073154286 0.04178193 0.061130594 -0.04901514 -0.008828646 0.0272696 -0.06362694 0.0053408933
0.086629964 0.08383049 -0.020343946 0.022432933 -0.038855564 -0.022731457 0.09013254 0.045158688
0.07571237 0.075672805 -0.004114409 -0.0052221725 0.036384735 -0.054402042 -0.038050305 0.018770838
-0.08352579 0.07734517 -0.02114621 -0.035841476 -0.042109214 -0.06510141 -0.029220762 -0.08534479
0.05936941 0.009550626 -0.05826773 0.03981908 -0.083716854 0.03948492 -0.008841327 0.0412519
0.050044518 -0.06784983 -0.049958546 -0.060259443 0.04992642 0.022351447 -0.054218426 -0.040958185
-0.057554707 0.012763911 -0.077506654 -0.0046024392 0.03388464 0.005164184 -0.018377729 -0.006462208
-0.03133993 -0.028576657 0.07974609 -0.04613875 0.07531143 0.07990434 -0.073284484 -0.06568439
-0.009526884 -0.014712892 -0.0063301083 0.005860819 0.029885171 -0.07737077 0.030753 0.02980615
0.086153254 -0.060070496 -0.046237923 0.062143065 -0.063538045 -0.052637003 -0.07376877 -0.085576154
0.037432373 0.06484769 -0.07609405 0.044780195 0.086420864 -0.0071233534 0.019955968 0.08301939

bias_ih_l0 f4 [512]
00000000: 8d41 3abc e41a b2bb 2391 983d 8641 183d
00000010: 62b1 27bd 17c1 78bd cb71 533d fca7 2dbd
00000020: 7503 b13d aeb9 08bd 388e 63bd 6ac4 723c
00000030: 8486 4c3d dd65 173c 3829 be3c bfe4 52bc
00000040: afe0 28bd 7bc5 ed3c b712 75bd d63f 6f3c
00000050: d1d2 81bb 49eb 2abd 1796 233c 6e7a cf3c
00000060: b91a e23c 1851 83bd 503c abbd 8bfe 6bbd
00000070: f1f4 283c 9e1c 4c3d f0bc b33b 1b73 ac3c
00000080: 9218 a93c 8d5a 02ba 059e b23d 3f4f 7d3d
00000090: 69c9 ca3c 40dd d9bc 4e92 983d 44be 533c
000000a0: 7efe 9bbc a259 b6bd bff8 443d c68b 04bd
000000b0: f310 d13c 9483 df3b 566d 5f3d 3812 3bbd
000000c0: 9b51 2c3d 430b 3bbd eef2 8d3d 9cf1 ae3d
000000d0: 858a 93bc 5fcc 143d 7323 5f3b 8735 b83c
000000e0: 56f3 25bd 9d8f 3b3d c2af 53bd d032 063a
000000f0: 6a4a 363b 7350 dbbc 7e95 0c3d b5a0 eebc
00000100: 6faa 243d 4b34 ce3c c06c 00bb ed10 bbbc
00000110: 543d ed3c faa0 a3bd 1078 f43c a36b 1abc
00000120: 5447 29bb 0e35 af3d 22b6 3f3d 504d 993d
00000130: cbdd 1f3c e4f4 f93b ad90 9dbd 6445 a83d
00000140: 0131 8ebc a3a0 bcbd b105 1e3d 7dfd 31bd
00000150: 02a5 1cbd d3cb 863d 3b17 82bc c49a c0bb
00000160: 3d6d 0cbc 983a 6dbd ec61 23bd 0f90 753d
00000170: c971 6e3d 1d5c d9bc 7da4 8dbd 6f91 803d
00000180: 7881 b73d cbff 21bd f687 88bd 3337 94bb
00000190: d0e3 fbbc 0b70 1b3c 1cea 9fbd c67e b6bd
000001a0: ae18 843d adb2 2ebd f9f3 403d 6b7c 3b3c
000001b0: e4f9 563d f86d a93d 20df 8dbc e280 3abd
000001c0: 1797 88bd 719c 23bd ea17 9dbc 8df0 97bd
000001d0: 7c70 193d 474a 373d 6e91 d3bc ec49 853d
000001e0: 62f3 52bc 5d3d 673d 3ac7 d83c 9821 aa3d
000001f0: f855 8cbd 9a11 813d 5009 843c f511 7bbd
00000200: 5451 a5bd 5ed5 9c3d 1f91 55bd e4fa 49bd
00000210: 10ce 2a3d 252a a73d c0e9 293d 298c fc3c
00000220: b1bd b43c c358 cdbc e151 1c3d 6e34 73bb
00000230: 783b b4bd 1b46 bbbd 0a57 b43c 8a6d 85bd
00000240: 1259 62bb 687a 233d f1e0 773c e18a 2d3d
00000250: 4238 a2bd 8720 093c 44dc 48bd 1214 503d
00000260: d570 7f3d 8aec 933d 5b52 3d3d f374 983d
00000270: 8f1e 603d 632f c93c a41a 32bc 005b 48bd
00000280: d5e2 fc3b d1dc 4abd 5a38 8cbd 03d3 713d
00000290: 754a 363d 31e9 b6bc ab37 90bd ec92 8fbd
000002a0: a846 4dbd 2eb0 4b3d a9bf f5bc 4fc7 72bd
000002b0: 23e9 003d dff0 4b3d 092d 86bd b7f6 72bc
000002c0: 2b3d 1cbc a31b 56bc 962d d7bb 2884 533d
000002d0: a5f5 a73d 4e22 13bd 4e9c 923d 7214 9a3d
000002e0: 2de5 61bd e0a3 afbc b3c1 5ebb 668e 98bd
000002f0: 5fd6 9f3d 0a11 283d af87 d4bc c22f 493d
00000300: 18f8 d03c 617a 8abd 47e0 dbbc dc00 733d
00000310: 0641 abbc ccf2 2c3d 99b9 013d a395 a73c
00000320: 115b 92bb 2714 8fbd 5a32 8cbd 8ac8 a33d
00000330: 7478 ed3b eebc a1bd f6fe 4a3d 067d 5bbb
00000340: ebd3 61bd 5c37 71bd a793 093d e26d b73d
00000350: 8761 acbd c1f4 003d 07d7 efb9 9422 883d
00000360: cb63 39bd 1b4c 32bd 6364 8f3d d381 6ebd
00000370: 1a6a b53d 18c6 343d dde7 a9bb 25ab 463d
00000380: 2cb4 9f3d 5b7c 85bd a405 423c 51d7 3d3d
00000390: 0b33 f43c 247c 233d dc37 0c3d 0d0c a13d
000003a0: 4031 953d 3bda 283d 6464 a23d fcef b5bd
000003b0: a7c3 eb3b c862 af39 8402 ac3c 8d1d 5b3c
000003c0: a909 77bd dc94 803d 9abb 2f3a ae5b 66bd
000003d0: b397 6e3d 7660 8abd 5550 c0bc 1767 52bc
000003e0: da13 de3c 6331 323d c97e 81bd 6fcf 0ebd
000003f0: c80a 49bc 89b3 f43c faa3 f2bb 87ef ea3c
-0.011368168 -0.0054353345 0.07449558 0.037171863 -0.04094065 -0.06073102 0.051622193 -0.04239653
0.086432375 -0.033380203 -0.055555552 0.014817337 0.04993297 0.009240595 0.023213014 -0.01287192
-0.0412299 0.02902483 -0.0598323 0.014602622 -0.003961899 -0.04172829 0.009984515 0.025326934
0.027600633 -0.06411952 -0.08361113 -0.057615798 0.010312305 0.04983198 0.0054851696 0.02105098
0.020641599 -0.00049725996 0.08721546 0.061843153 0.024754243 -0.026594758 0.074497804 0.012923781
-0.01904225 -0.08903815 0.048088785 -0.03235986 0.025520777 0.0068211053 0.05454763 -0.04567167
0.042070013 -0.045665037 0.06931101 0.08542177 -0.018010387 0.036327716 0.003404823 0.022486461
-0.040515266 0.045791257 -0.051681288 0.0005119266 0.002781535 -0.02677176 0.034322254 -0.029129365
0.0402016 0.02517142 -0.001959607 -0.02283522 0.028959908 -0.07989688 0.029842407 -0.009425077
-0.0025829868 0.08555041 0.046804555 0.07485449 0.009757469 0.00762807 -0.0769361 0.0821636
-0.017357351 -0.092103265 0.038579646 -0.043454636 -0.0382433 0.06581845 -0.015880218 -0.0058778245
-0.008570966 -0.057917207 -0.039888307 0.059951838 0.058213983 -0.02653318 -0.06916139 0.06277739
0.08960241 -0.039550584 -0.066665575 -0.004523182 -0.030748278 0.009487162 -0.07808325 -0.08910899
0.0645002 -0.042650867 0.04710767 0.011443238 0.052484408 0.08272928 -0.017318308 -0.04553307
-0.06669443 -0.039944116 -0.019176442 -0.07418928 0.03746079 0.04474857 -0.025826182 0.0650824
-0.01287541 0.056455005 0.026462186 0.08307189 -0.06852335 0.06302185 0.016117722 -0.061296422
-0.08072153 0.07657884 -0.05214035 -0.049311534 0.041700423 0.08162335 0.041482687 0.030828552
0.022063108 -0.025066739 0.038164023 -0.0037110108 -0.08800405 -0.09144231 0.02201416 -0.065150335
-0.0034537953 0.039911658 0.015129314 0.042368773 -0.079208866 0.0083695715 -0.049038187 0.05080039
0.062363464 0.072228506 0.04622112 0.07444181 0.054716643 0.024558729 -0.010870609 -0.04891491
0.00771747 -0.049526993 -0.06846686 0.059039127 0.0445046 -0.022327991 -0.07041868 -0.07010445
-0.05011621 0.049728565 -0.029998617 -0.059272107 0.031472337 0.04979026 -0.065515585 -0.014829329
-0.009536068 -0.013068113 -0.0065667136 0.051639706 0.0820115 -0.035921387 0.07158719 0.07523431
-0.0551502 -0.021440446 -0.0033989965 -0.07449035 0.0780456 0.041031875 -0.025943605 0.04911781
0.025508925 -0.06761623 -0.026840342 0.05932699 -0.020905029 0.042223737 0.03167114 0.020457095
-0.0044664224 -0.06986266 -0.06845541 0.07997234 0.007247025 -0.078973636 0.049559556 -0.0033491268
-0.05513374 -0.058890685 0.033588078 0.08956505 -0.08417039 0.031483416 -0.0004574584 0.0664722
-0.045261186 -0.04352961 0.07001569 -0.05822928 0.08858128 0.04413423 -0.005185111 0.04850306
0.07798037 -0.065178595 0.011842165 0.04634792 0.029809495 0.03991331 0.03423296 0.07863627
0.07284784 0.041223746 0.07929304 -0.08883664 0.0071949544 0.000334522 0.020997293 0.013373745
-0.060311947 0.06278393 0.0006703675 -0.056239776 0.05825014 -0.0675668 -0.023475805 -0.012841961
0.027109075 0.04350413 -0.063230105 -0.034865793 -0.012270637 0.029870765 -0.0074048014 0.028678669

bias_hh_l0 f4 [512]
00000000: 5f59 73bd 2c05 8d3d 46ac aabd d6d5 f83c
00000010: 3cd1 60bd b5bf b03c a7c7 b0bb e21a acbd
00000020: 5ea9 54bd 4857 14bd 7f28 953c da31 ff3c
00000030: 4060 d4bc cdfa 72bd b27d 8abd ae59 bf39
00000040: 8260 59bd 7303 6c3d 8374 223d ffd0 613c
00000050: 5bc0 243c 0694 11bc dfc2 ecbc a618 963d
00000060: 688c 50bd 8bb0 2dbd 2368 62bd 41ce 43bb
00000070: a1c9 db3c 0de5 bfbb 25c0 05bd eb66 883d
00000080: c67d 9fbd cd70 743d e864 b2bb 9714 fb3b
00000090: 6af4 e73c c7eb 99bd e762 22bd 587c 8ebd
000000a0: e50b 323d 721b 873c 7677 8a3c 7290 e73c
000000b0: b537 42bd bba7 a23c 63a6 8c3d ba8a 393d
000000c0: a6ee 96bd 0d4a fa3c ddf7 78bd d260 9dbd
000000d0: f2dd 64bc 4d78 45bd f3ee 3bbd a6ac 763a
000000e0: 6134 70bd b008 12bd d8ea 403d 6f84 393d
000000f0: 4832 c93b c2ac 22ba 1476 5f3d ecdc 9e3c
00000100: 8cf0 1cbd adfb f83c 11fd 8cbd a9f0 503d
00000110: dceb 1abd 2f0a c43c d150 99bc 812c 6fbc
00000120: 3fbc 763d 6b18 56bd 1e35 9f3d 2e3a 86bc
00000130: cd7c 91bd 710f 9dbb 7dac 8c3d 1faf a3bc
00000140: 9b83 1b3d 7aec 93bd b249 243d 0ec1 3e3d
00000150: 4066 a53d 7ff7 f73a 3f84 913d 4182 113d
00000160: 45fe 47bd 6f5b a6bd 3b7c cc3c edfb 15bd
00000170: 3c37 813d ed45 803d ac28 dc3c 77f4 1abd
00000180: 8fa2 dcbb 68a8 91bc 1008 0a3d 3731 053d
00000190: 95f0 c2bc 5ab7 89bb 6703 9abb fd1f 9b3d
000001a0: 47e2 9a3c 9fab 46bd 4cb8 39bc 20cd b53d
000001b0: a857 d33c 3349 80bd ae79 d63a 092d e2bc
000001c0: a68d 343d feb1 a53c 3990 8f3d 9df7 20bd
000001d0: 479d d3bc 29ab b1bd 6660 7ebd 40b0 ff3c
000001e0: 0ffa be3b 0241 9fbd 3ce9 5dbc daa7 bc3d
000001f0: cb52 b13d 4b96 d8bc c65b 353a fab3 d13c
00000200: 9d92 84bd 0638 15bb ca11 63bd 19c4 193d
00000210: ea47 a6bc f9c8 693d f6b3 b6bd 5198 843d
00000220: e715 37bd 350e 81bd 1725 90bd fde2 85bc
00000230: c792 773d 2861 9e3d 60ad 993d 3cf8 533c
00000240: 4a94 c7bc ff53 b13d f1e4 a93d 835a 81bd
00000250: 8329 4b3d a033 af3c ec87 9a3d dae6 aebd
00000260: f981 693d 5a4b 60bd 7fd0 843d 602c 723d
00000270: c4b2 423d 6e3c 553d f0ff 9a3c a2da 8d3c
00000280: 64e5 933d 97e3 a43c 9424 833d 17d2 b43d
00000290: 2d80 a7bc 96d2 783d 4dfb 393d ea67 873d
000002a0: 753c 6dbd a072 a1bd 72f6 aa3d 1617 d5bc
000002b0: 6974 5a3d 7f84 883b 80b8 86bd f5d7 7fbd
000002c0: 5d01 a23d 6866 713c aa9f bbbb 99ab 543d
000002d0: 49b3 fbbc 82ea 523d 7211 0ebd a3c9 27ba
000002e0: 042c 363d e327 0c3d fd83 a03d 753d 173d
000002f0: 7ed4 b03c ccbd b1bd 23ff 28bd 7f2f 053d
00000300: 500b 87bd 23ee 8cbb 78b3 a3bd 2002 d63a
00000310: b950 e8bc 38e0 843c 36eb 803c 7100 65bd
00000320: 1bce 23bd 856a 5f3d 0db5 80bd 49df 593d
00000330: 5c31 52bc 9d15 a6bd 3eb8 84bd c60a 92bd
00000340: 0b2a 70bd 6664 06bc 6286 a7bd 234e 6ebd
00000350: 60ad 363d b542 8e3d 111b 73bc 5087 98bd
00000360: 6b75 463d e03c 08bb c02c bbbc d926 f83c
00000370: bde6 6e3d 6474 3abd 480f 343d 6097 fbbc
00000380: 7714 86bc aa8b f63c 8a75 48bd 8e4d 9f3d
00000390: 8718 0a3d ef9d 023d 11df 893d 0b51 b0bd
000003a0: a260 64bd fdab b0bd acd0 293d 47cf 86bd
000003b0: 9a4e 943c 2ccd dabb 70df 3d3d f42d 93bd
000003c0: 8cbf a23d e8d6 a8bd 6d46 3c3c 8548 aa3d
000003d0: 6ef3 883d 30ee 6b3c 771d a83d 6c14 3cbb
000003e0: d545 a4bd 484c 6abd 0862 913d 3b9a 7b3d
000003f0: f0a0 92bd 9196 34bd e431 813d 5a0d e9bc
-0.059411403 0.06885752 -0.0833364 0.030375402 -0.05488704 0.021575788 -0.005394894 -0.08403565
-0.051919334 -0.03621605 0.018207787 0.0311517 -0.025924802 -0.059321214 -0.06762256 0.00036497175
-0.053070553 0.057620477 0.039661895 0.013782739 0.010055627 -0.008885389 -0.028901516 0.0732892
-0.05091515 -0.042404693 -0.055275094 -0.0029877576 0.026829543 -0.0058561624 -0.032653946 0.06660255
-0.07787661 0.059677888 -0.005444158 0.0076623666 0.028314788 -0.07515674 -0.039645102 -0.069573104
0.043468375 0.01649258 0.016902667 0.02826712 -0.047416408 0.01985537 0.06867673 0.045298316
-0.07369737 0.030552888 -0.060783256 -0.07684483 -0.0139689315 -0.04821043 -0.045882177 0.0009409882
-0.058643702 -0.035652816 0.047098964 0.045292314 0.006140027 -0.00062055525 0.054555967 0.019392453
-0.03831534 0.030393446 -0.06884206 0.05101076 -0.03782259 0.023930637 -0.018715294 -0.014598013
0.06023812 -0.05226938 0.07773803 -0.016385164 -0.07103882 -0.0047931005 0.06868837 -0.019980965
0.037967306 -0.07222839 0.040109344 0.04657083 0.08076143 0.0018918364 0.07105302 0.03552461
-0.048826475 -0.08122908 0.024961581 -0.03661721 0.06309363 0.06263337 0.026874863 -0.037830796
-0.0067332457 -0.017780498 0.033699095 0.032517638 -0.02379636 -0.0042027654 -0.0047001126 0.07574461
0.018906726 -0.048503514 -0.011335444 0.08877015 0.025798634 -0.06263962 0.0016363168 -0.027609365
0.0440804 0.020226475 0.0700993 -0.039298642 -0.025831832 -0.08675224 -0.06210365 0.031211972
0.005828149 -0.07776071 -0.013544377 0.09211703 0.0865837 -0.026438853 0.00069182774 0.025598515
-0.06473277 -0.0022768988 -0.055436887 0.03754053 -0.020297963 0.057076428 -0.089210436 0.064743645
-0.044698622 -0.06301538 -0.07038324 -0.016343588 0.060442712 0.07733375 0.07503772 0.012937602
-0.024362702 0.08658599 0.0829562 -0.06316092 0.049600136 0.021386921 0.07545456 -0.08540125
0.057008717 -0.05475936 0.0648508 0.05912435 0.047533765 0.052059583 0.018920869 0.017316166
0.07221487 0.020128055 0.06403461 0.08829134 -0.020446861 0.060747705 0.045405675 0.06611617
-0.057918984 -0.07883191 0.08347787 -0.026011985 0.053333674 0.0041661854 -0.06578159 -0.062461812
0.07910416 0.014733888 -0.0057258205 0.05192146 -0.030725138 0.051493175 -0.034684606 -0.00064005906
0.04447557 0.034217726 0.07837675 0.036923844 0.0215857 -0.08678779 -0.041258942 0.032516
-0.065939546 -0.004300849 -0.07993215 0.0016327538 -0.028358804 0.016220197 0.015737157 -0.055908624
-0.03999148 0.054544944 -0.06284533 0.053191457 -0.012829151 -0.08109591 -0.06480454 -0.07130961
-0.058633845 -0.008202648 -0.08179928 -0.058179986 0.044598937 0.06946317 -0.014837996 -0.07447684
0.048451822 -0.0020788237 -0.022848487 0.030291962 0.058325518 -0.045521155 0.043959886 -0.03071183
-0.01636718 0.030095894 -0.04894022 0.07778464 0.033714797 0.0318889 0.06732 -0.08609208
-0.05575622 -0.08626554 0.04145877 -0.06582504 0.018103886 -0.0066772904 0.046355665 -0.07186499
0.07946691 -0.08244115 0.0114914 0.08314613 0.066870555 0.01440005 0.08208745 -0.0028698696
-0.08021132 -0.057201654 0.07098776 0.061426383 -0.07159603 -0.044088904 0.06308344 -0.02844875

weight_ih_l0 f4 [512, 128]
00000000: a14d a5bd e8d3 0b3d 413e 24bc e3f8 153d
00000010: d9df 04bd f6fb e335 5f56 5d3d 8b4b 6e3c
00000020: 9392 dc3c 9aeb 9abc 52e0 cd36 0b6f 223d
00000030: 8551 a23b 393d f33c c154 d53b 8e17 233d
00000040: 0e5e 27bc 0ed3 13bd 1dc6 b53c 51cf f53b
00000050: bbd9 9bbd 68f8 73bd d8f8 043d 33b0 fb3c
00000060: 97d6 553d bbd3 283c 22bf ac3c f7ad 80ba
00000070: 6d23 3abd 83f0 a73d 036d 943c 1c3d aa3c
00000080: 1d17 68bb 882b 8fbc decb 67bd 11d5 853c
00000090: c189 99bd a30f 2f3d 2243 4d3c caf9 9abd
000000a0: 77da 47bd b59e 913d 7bf0 a6bd 5bb9 413d
000000b0: 8e4b a83d a921 88bc f844 a0bb 46c5 c73c
000000c0: 9254 26bd 3fe2 343d acd3 f33c 5359 4fbd
000000d0: 4f1a 443d 4259 163d de27 fdbb edd4 93bd
000000e0: e6ae 58bc 7c60 953b 389b a73d b152 2abd
000000f0: dbce 8d3d c688 2cbd 8283 39bc 7f25 883d
00000100: 3a75 d03c 4f43 05bd 68ad 67bb 11fa 49bb
00000110: c734 44bc 9ee0 233d f3de 4c3d d012 ad3d
00000120: 8bc8 2dbd e7fa 77bc 4e01 33bd cf60 be3c
00000130: 939c 953d 08a4 983d bad0 83bd 653a 3dbb
00000140: 4ce1 413c e3a6 aebd a039 50bd 775e 2c3c
00000150: 3d4c 4abd c729 243d 20a9 fbbc 66d6 4b3d
00000160: 6d2b d33b 1aeb 093d 08e8 943d 9f31 0b3d
00000170: 895f 30bc e1ea 5bbd 5219 59bc 587f cf3b
00000180: c44f 2abd 4e27 84bd b535 25bd c180 a6bc
00000190: a1b1 abbd b0f8 88bd 1ba0 58bd 0727 93bd
000001a0: c69f 963d 2e39 85bd d774 42bd 79ef 733d
000001b0: 17fd 763c 806d ce3c 017d 943d 2c34 a33d
000001c0: 5273 9cbd eb84 273d f557 26bd 4171 24bd
000001d0: 9ef8 9abd a0e8 b1bd 02a7 0e3d 8b1c f4bc
000001e0: b0e0 933d 9611 e83c c121 e8ba d8b2 0dbd
000001f0: 9960 933c ccc7 30bd e098 a93d f034 9dbc
00000200: b370 bbbc 9e5f 18bd 74d6 48bd d897 94bc
00000210: 9dec 473d 32df 72bd 3a14 473d 001a 9a3c
00000220: 9925 d33c f320 473c 230f 5f3d afbb 133d
00000230: 4da8 59bd 283a 67bd 04ea 8fbd c970 5f3b
00000240: 9910 00bc 6c85 ea3c 5dd4 81bd 052c 323b
00000250: 347b b3bd 53eb b2bd 8aa3 243d 79e1 343c
00000260: f2b3 a4bd c812 653d af57 23bd 3079 02bc
00000270: 29d0 a2bd b159 523d 58eb abbd 6973 8a3b
00000280: cef9 c83c 58ee 3a3d 6b46 22bd 6d74 5f3c
00000290: 2a3a 4f3b 2656 373d aeee be3b c511 b2bd
000002a0: 1ceb c0bc 3e3c 6d3b 8143 68bd eaa3 103b
000002b0: b15d 3a3b be37 a3bd 6bdb 403d c8e1 74bd
000002c0: bd68 23bd bcb0 263d b8ac 64bb ff0d aa3d
000002d0: e762 e5b9 30e1 9bbd cb08 9f3d 7b70 f13c
000002e0: 191b 923d 5f64 963d bbd8 b1bd 24bb 943c
000002f0: 8189 9a3d a5bb a1bc f5ed ad3d 09b6 ed3c
00000300: b921 9abd 74fe 183b 5b67 31bd 7cf7 873d
00000310: b6f8 8ebd 0ed2 32bd 2609 07bd befb 1fbc
00000320: 2f82 45bd 2a84 b8bd b52f a43d 92a1 65bc
00000330: 3f7e c0bc 4793 773d 2511 643d 97ce a03d
00000340: 3266 1a3c 10ea e13c 4ffb 413d caa6 11bd
00000350: 7aa8 bfbb e643 703d 5411 0b3c e857 803d
00000360: e25f 69bd 52eb 8abd 7963 93bd 1220 033b
00000370: bb2a fd3b 774e 993b 81c2 bebc a0d0 563d
00000380: 50cd df3c eeca 2e3d d0b7 233d b19e 9dbd
00000390: c087 6cbd d394 efbb 6be7 303d 026e a0bd
000003a0: 2525 513d 4ee6 463d 6803 21bd cb70 013c
000003b0: a09b 1dbc 8930 043c 2636 0ebd 0251 803d
000003c0: 2b2e 97bd 824f 9bbd d553 503c b527 553d
000003d0: 994d 9cbd 38fb 983d 195c a5bd 16b7 10bd
000003e0: 1865 683c b0db 9a3c eb7f 5a3d b762 023d
000003f0: e8a6 b3bc fa38 a73d cf68 f73b 836d db3c
-0.08071447 0.034137636 -0.010024608 0.03661431 -0.03244004 1.6986148e-06 0.054037448 0.014544378
0.02692536 -0.018911172 6.1355904e-06 0.03965668 0.0049535655 0.02969228 0.0065103476 0.039817385
-0.0102152955 -0.03608995 0.022189194 0.0075015207 -0.07609888 -0.05956307 0.03246388 0.030723667
0.052206602 0.010304387 0.021087233 -0.000981747 -0.04544394 0.08200171 0.018118387 0.020781092
-0.0035414167 -0.017476812 -0.056590907 0.01633695 -0.074969776 0.04273952 0.012528213 -0.07567175
-0.04879233 0.07110349 -0.08151337 0.04729591 0.08217536 -0.016617613 -0.004891034 0.02438606
-0.040607996 0.044161078 0.029764019 -0.050622296 0.047876652 0.036706217 -0.0077257 -0.07218347
-0.013225293 0.004558621 0.081839025 -0.041582767 0.0692422 -0.042122625 -0.011322858 0.06647777
0.025446523 -0.032534894 -0.003535116 -0.0030819217 -0.011975474 0.040009134 0.05001731 0.08450854
-0.04242758 -0.015135503 -0.043702416 0.023239521 0.07305255 0.074531615 -0.06436296 -0.0028873917
0.0118335 -0.08527925 -0.050836205 0.010520569 -0.049389113 0.040078904 -0.030720294 0.049765013
0.0064443857 0.033671476 0.07270819 0.03398287 -0.010764965 -0.053690795 -0.013250666 0.006332319
-0.041579977 -0.06452809 -0.040334422 -0.020325067 -0.083834894 -0.066880584 -0.052887063 -0.07185178
0.07354693 -0.06505047 -0.04747471 0.05955455 0.01507499 0.025198698 0.07250405 0.07968935
-0.07639183 0.040898245 -0.040611226 -0.04014707 -0.07566951 -0.08686948 0.03482724 -0.029798767
0.0722059 0.028328698 -0.0017710255 -0.034594387 0.017990397 -0.04315929 0.08281112 -0.019190282
-0.022880888 -0.037200563 -0.049032643 -0.018138811 0.048809636 -0.059294887 0.048603274 0.018811226
0.025774764 0.012153852 0.054457795 0.03606766 -0.05313902 -0.056451946 -0.07027057 0.0034094325
-0.007816457 0.028628074 -0.06339333 0.0027186882 -0.087637335 -0.08736291 0.040195026 0.011040085
-0.08042134 0.055926114 -0.039878543 -0.007963464 -0.0794986 0.051355068 -0.08394498 0.0042251837
0.024533179 0.04563746 -0.039617937 0.013638598 0.0031620362 0.044759892 0.0058267927 -0.086947955
-0.023549609 0.0036199237 -0.056705 0.0022070357 0.0028437192 -0.07969616 0.047084253 -0.059785634
-0.039894808 0.04069589 -0.0034892987 0.08303451 -0.00043751972 -0.076113105 0.07765349 0.02947258
0.07134075 0.07343363 -0.08683916 0.018155642 0.07545758 -0.019742796 0.08492652 0.029017465
-0.07525963 0.0023345025 -0.043311458 0.06639001 -0.069810316 -0.043657355 -0.03296771 -0.00976461
-0.048219856 -0.09009583 0.08016912 -0.014015572 -0.023497699 0.06044319 0.055680413 0.07851904
0.009423779 0.02757743 0.047358807 -0.035559453 -0.0058489414 0.058658503 0.008488018 0.06266767
-0.056976207 -0.06783165 -0.07196707 0.002000813 0.007726041 0.004678543 -0.023286106 0.052445054
0.02731958 0.042673998 0.03997022 -0.076962836 -0.05774665 -0.0073114424 0.043189447 -0.07833482
0.051060814 0.04855948 -0.03930989 0.007900427 -0.009619623 0.008068212 -0.03471961 0.06265451
-0.07381853 -0.07583524 0.0127153 0.05203982 -0.07631988 0.07469791 -0.08074207 -0.035330854
0.014184259 0.018903583 0.05334465 0.031832423 -0.021930173 0.08165164 0.007550336 0.026785618

weight_hh_l0 f4 [512, 128]
00000000: 9fbd acbd 1737 f3ba 1243 dabc 4e2a 87bc
00000010: c139 a1bd 2b9a 543d 8e4b 13bd 22ba 5fbc
00000020: 58a6 9f3d 9999 44bd f595 493d f54d 833d
00000030: c295 8f3d dc27 80bd ceb0 053b 9b13 183d
00000040: 8292 9bbd bf77 7d3d 20f7 73bd 5f5e b1bd
00000050: 833c 9a3d a777 853d 516f a73c 7c9d 65bb
00000060: b0eb 4c3d caad ebbc 19e9 9b3c e2c2 00bd
00000070: f09d 2a3d 17af 75bd 90e2 bb3a e66d fe3c
00000080: caec 8dbd e748 22bd c2b1 263d c914 7a3d
00000090: 97d9 04bc 67e5 793d 3d44 a93c 1572 903d
000000a0: 43bf 643c 305d 9dbc 3297 21bd 55ea 233d
000000b0: 923d 363d c383 c43c 9ffd 6f3d 966a 5a3d
000000c0: f082 edbc b51c 06bd 2617 99bc 6f5b 203d
000000d0: f0fd 983d 3d45 18bc 66cf 38bd d9da adbc
000000e0: c10f 83bd d997 92bd c745 8e3c 7145 e3bc
000000f0: b178 0cbd db1b 86bd dea7 56bd a995 523d
00000100: b277 15bd db0c 51bd 7b39 1cbd 66e0 a5bd
00000110: a17d 833b 31dd 72bd 7de7 6e3d cc0b 6cbd
00000120: 5190 99bd eb41 19bc 1cf8 3cbd e8a6 e2bc
00000130: 79e5 89bd 6833 1a3d 645b 34bd 182f ab3c
00000140: 0665 dc3c e8ca a9bd efa0 813d 1172 9cbd
00000150: bb6e 28bc dfc3 d53b 0f30 7f3d 296f a0bd
00000160: b849 403d 6696 2e3d 830b 193d 3c47 30bc
00000170: ffce 3e3d 3939 393d 359a 903d 2827 4c3c
00000180: b013 5c3d b323 2fbd c2ae 143d 7e33 543c
00000190: a56c a93d f83c 703d e891 98bd 6263 70bd
000001a0: 54dd 13bd 64f6 583d eada 3b3d 2a4f 1d3c
000001b0: 917b a13d 3095 aabd 4ab4 d8bb eb34 bebc
000001c0: 17c8 963d ccc9 503d d83d 923d db38 68bc
000001d0: f58a c03c 8774 8fbb ea58 5e3d 7862 41bc
000001e0: 91ba 0ebd ab00 a03d 42a2 81bd 822b 87bd
000001f0: f4fc 153d f299 47bb cccc a13d fa1b d3bb
00000200: 0086 85bc 770b 923c be58 6cbc b08e c8bc
00000210: 1431 2e3d 0fdb 79bd f80f 28bc 308f 80bd
00000220: 12f4 2fbd bfc8 74bd 3515 a43d 06fe b4bc
00000230: d1ce 98bd 7413 873d 4694 04bd 07da b7bc
00000240: f5e0 74bd e3e1 a5bd 6c80 593d 535a 28bd
00000250: 48b1 633d 89f0 693d 33ba e2bc 59f0 a3bc
00000260: d69c 1abd 8700 8f3d 2ab0 b2bd 7e88 a03d
00000270: e7b5 46bd 5465 493d c8fb 79bd 3dda 38bd
00000280: 1955 56bc 9c31 913b 3bfa 93bd e152 733d
00000290: 53e7 843c 165f 813c 53eb 78bd e5cd e5bc
000002a0: 459b 24bc 9959 9bbc 6871 8bbd bba9 6abc
000002b0: c97a 963d 9f20 6f3d 8a3f 62bc 6c9f 043d
000002c0: 2c20 7b3d 6c51 993d 698d 8abd 49aa 61bd
000002d0: d2ac e93a 9a35 aabd 1979 95bc 300e 653d
000002e0: 6502 623d 67c4 0abd a52d 903d 5446 20bd
000002f0: 7293 d2bc e565 43bb 9b31 abbd 2696 a23d
00000300: fbed a8bc a881 433d f11b 89bd 065d 8dbb
00000310: ece2 ef3c 3831 393c 3f49 93bd 03ca 99bc
00000320: 5ede 6739 fc69 9bbd 614f 443d 88bf 5a3c
00000330: 73b5 a33d f760 72bd deac 52bd 3312 24bd
00000340: ff7f 7e3d ebb3 27bd b6ec 10bd c31f 913d
00000350: 8fe0 ae3d e635 80bc f395 d13c 1b5f 40bc
00000360: 0fc2 243d 135d c2bc f1a7 37bd e903 823d
00000370: 943f 42bd ee3a 05bd a795 9ebd 27ed c03c
00000380: 4b09 a5bd 3670 5fbd 5501 f1bb d8d2 ad3d
00000390: 9abc ab3d 4a70 d7bc f938 993d 5f08 8cbd
000003a0: 6b20 783c f70e aabc 7d99 98bd 1d9c 5e3d
000003b0: d3aa a73d 790e 0b3d 652b 593d 24ad 97bd
000003c0: 1ff2 6fbd ac1b 4a3c 2f2c 473d 57b9 9dbd
000003d0: 01e4 1c3d 1a11 893d ce36 813c 2636 dc3c
000003e0: ba6f 9e3b b425 92bd 51df 523d d87e 2c3d
000003f0: 9b71 df3c 5630 45bd a755 c13a 97aa 853c
-0.08434605 -0.0018555847 -0.02664331 -0.016499665 -0.07872344 0.05190484 -0.035960726 -0.013655217
0.077953994 -0.047998045 0.049215276 0.064113535 0.07010986 -0.062576026 0.0020399573 0.037128072
-0.075963035 0.061881777 -0.05956185 -0.08660578 0.07531073 0.065169625 0.020438822 -0.0035036495
0.050029457 -0.028769393 0.019032048 -0.031435855 0.041654527 -0.05998143 0.0014334489 0.031058263
-0.069299296 -0.039620306 0.040696867 0.06105498 -0.008108518 0.06100979 0.020662421 0.070530094
0.013961616 -0.019209474 -0.03945083 0.0400184 0.04449231 0.02398861 0.05859148 0.053324305
-0.0289931 -0.03274222 -0.018687796 0.039149698 0.0747031 -0.009293851 -0.045119666 -0.021222519
-0.06399489 -0.07157869 0.017367257 -0.027743073 -0.034294788 -0.06548282 -0.052406184 0.05141226
-0.036491103 -0.05103765 -0.038140755 -0.08099441 0.004012779 -0.059292976 0.058326233 -0.057628438
-0.07498229 -0.009354095 -0.046135053 -0.027667478 -0.067332216 0.03764668 -0.04403247 0.02089648
0.02690364 -0.082906544 0.06329524 -0.07638944 -0.010280306 0.006523594 0.06230169 -0.07833702
0.046945304 0.0426239 0.037364494 -0.010759171 0.046584126 0.045220587 0.07060663 0.012460507
0.053729713 -0.042758655 0.036299475 0.01295173 0.082726754 0.058651894 -0.074497044 -0.05868853
-0.036099747 0.05296935 0.04586307 0.009601394 0.078848965 -0.083292365 -0.006613289 -0.023218593
0.07362383 0.0509737 0.07140702 -0.014173712 0.02350376 -0.004377905 0.054284014 -0.011803262
-0.034845892 0.078126274 -0.06329776 -0.06600095 0.036618188 -0.0030456749 0.0790039 -0.006442544
-0.016299248 0.017827732 -0.014425455 -0.024482101 0.042527273 -0.060999926 -0.0102577135 -0.06277311
-0.042957373 -0.05976176 0.080118574 -0.022093784 -0.07461322 0.06595507 -0.032367967 -0.02244283
-0.05978485 -0.08099725 0.05310099 -0.041101765 0.05558899 0.057114158 -0.027676677 -0.020012068
-0.037747227 0.069825225 -0.08725007 0.07838534 -0.04851332 0.0491689 -0.061031133 -0.045130003
-0.013081812 0.0044309627 -0.07225462 0.05940521 0.016223585 0.01579241 -0.060771298 -0.02805228
-0.010046785 -0.018963622 -0.0680874 -0.014322693 0.07347638 0.05838072 -0.013809094 0.0323786
0.06130998 0.07486233 -0.06765253 -0.055094037 0.0017827994 -0.08311005 -0.01824622 0.055921733
0.055178065 -0.03387871 0.07039956 -0.03912957 -0.025705073 -0.0029815373 -0.08359071 0.07938795
-0.02062129 0.04773107 -0.066947825 -0.004314068 0.02928301 0.011303239 -0.07191705 -0.018773085
0.00022112715 -0.07588574 0.047927264 0.013351329 0.07993593 -0.059174504 -0.05143439 -0.04005642
0.062133785 -0.040943068 -0.035381995 0.07086136 0.08538925 -0.0156507 0.025584197 -0.011741425
0.04022413 -0.023726022 -0.044837896 0.06348402 -0.047423914 -0.032526903 -0.07743388 0.023550583
-0.08058413 -0.054550372 -0.007354895 0.08487481 0.08385582 -0.02629866 0.0748157 -0.06837534
0.015144448 -0.020759089 -0.074511506 0.0543481 0.08186879 0.03394935 0.0530199 -0.07406071
-0.058580514 0.012335699 0.04862612 -0.077013664 0.03830338 0.06692715 0.015773203 0.026881289
0.004835096 -0.071360976 0.051482502 0.042113155 0.027275851 -0.0481418 0.0014750258 0.016316695

bias_ih_l0 f4 [512]
00000000: 312f d73c 27ac 463d d09a 17bd d446 123d
00000010: 2b8c e63c 79b8 0a3c e569 e53c 873a 44bd
00000020: 2d68 a03c c991 b3bd 1c2d 203d f8d8 a5bd
00000030: 453e f4bc 4b56 523d 88f6 05bd bd4c 06bc
00000040: fc30 9c3d b11f 20bc 1448 a13d af66 3abd
00000050: 4bcb 0d3d 140f 8b3c defe 9cbd 9784 1dbd
00000060: 2cf7 9dbd c421 9c3d 6f78 4ebd 3881 823d
00000070: 6450 33bc 56a8 9fbd 2fb0 aa3d 127e 83bd
00000080: 512d 793b 3d70 8c3d dd8d a5bd f025 13bc
00000090: 9893 163b 271f 723d 355a 78bd 587f 0abd
000000a0: 8a8a cdbc 7691 f8bb a582 ee3c 02e3 78bd
000000b0: 24dd 543d e6ed adbd 2dad bf3c 8d54 aebd
000000c0: fb42 393d af57 593d 861b aebd 48a0 ac3c
000000d0: b4cf 083d 15d8 7fbd 2fbc ab3d 2417 9c3d
000000e0: ea99 a83d 0c94 893d be34 8e3d 578e 1bbc
000000f0: bd3f a93d b9b5 56bd 1286 30bd 16ad 4c3d
00000100: 4053 83bd ec96 483d 2944 903d 3268 93bd
00000110: dcd4 27bd c6ed ea3c 9f9a 15bd 1197 95bd
00000120: 6497 51bd ec2d 9ebc 4b9a 76bd d50d df3c
00000130: ed3a 8ebd bcb9 b9bd 20d5 aabd 0316 fdbb
00000140: ecca 2e3d be53 8a3b c769 df3b 64b8 5a3d
00000150: 1d51 06bd 3359 f1bc 8b33 653d 48d0 bf3c
00000160: f18f 6dba 177d 863c cb48 433c ad9c b33d
00000170: 9f05 8abd 6dd1 30bd 6853 41bd 5600 6d3d
00000180: a28c 5d3d 06de 99bc c21a 90bd 0513 4dbd
00000190: 7b66 babc 4997 5bbd a92a 69bd eda0 46bd
000001a0: f42f 42bd 2291 a5bd f9b2 d03b de21 b4bd
000001b0: 7496 52bd c8ac b4bd 4d2d 68bc b520 963b
000001c0: a8c4 91bd 7563 adbd 144c 9fbd 4a76 3abd
000001d0: af6b 9c3d 8a83 acbd 9d66 21bd 8dc5 a93b
000001e0: 1443 03bd e017 473a 7d20 933d 22a5 14bd
000001f0: 9a0f f8ba 8e2b edbc 3cb9 fabc fd1d b83c
00000200: 4e31 bf3c 4e8f 913d 0355 b4bd e9ef ff3c
00000210: 6cbd 18bd 4fa1 90bd 6a27 553d 071e 8038
00000220: a2e9 39bd 1d16 6ebd 4caa 5f3d 21ff 233d
00000230: 0f17 883d 93d6 c8bc bc4b bbbd 6988 0c3d
00000240: 9ce8 6dbd a3b7 b4bd b3ac 4fbc 3a21 acbd
00000250: 6936 27bd 1777 17bd 9256 bbbd 3ee0 00bd
00000260: 9a14 abba 88e4 acbd 309f 73bd 7d50 d6bc
00000270: 220c 883c 366d 02bd 3bf1 0c3c 690c 99bd
00000280: 75b5 bd3c a128 b6bd 4b90 d43c 30d4 603c
00000290: fca3 a33d 3197 b9bd 9eef 51bd 96ea 933d
000002a0: 8c42 af3d 9e41 373d e39e 6e3d 70e0 abb9
000002b0: e9b8 a33d 24d0 a0bd e87d 333d bc52 b8bd
000002c0: e346 333d 21a9 6f3d f6ad aabd 6fdb 893d
000002d0: d238 953d 960c a03c 3de1 593d bba9 b1bc
000002e0: b3d2 97bd a0f9 2c3c 52db 0bbd 739c 863b
000002f0: 9e7e a2bd f008 613c e1b4 a9bd bcd4 9bbd
00000300: 0e5d d43b 6fba 35bd 07b4 03bc 3bbc 89bc
00000310: b96a dabc 9b04 a2bd 9bf6 31bd 1ea9 683d
00000320: 5d8a 6fbd 0c09 893d b5f1 2c3d 56d6 80bd
00000330: 577d 97bd 9053 3d3d 7b9c d03b 375e c6bb
00000340: 809c fabb fbf5 8c3d a7f3 043d 1134 843b
00000350: a5eb a7bd 01e7 a23d 921b df3c 102c c7bb
00000360: f84a e3bc 2632 463d 7f8f bb3c 828d 093d
00000370: 09db 313d b291 7b3c eaa7 093d e77f e63c
00000380: 1665 553c 044b f63c 5253 82bd 58fa 703c
00000390: cf20 3b3d 3e57 2f3d 767b 17bd aee0 883b
000003a0: 20a9 8cbd 54f9 9e3d fefd 023b 7792 a0bd
000003b0: 4df1 aa3c cfeb 21bc 22b4 ab3d b7bc 8ebd
000003c0: 0fbb edbc f348 aebd 9eb4 923d 3bd2 8e3d
000003d0: 3f10 933d cc95 4e3c 02ff db3c 28e3 abbb
000003e0: 8783 993c a053 2d3d edf3 623d 2acc a33d
000003f0: 3ad9 10bd 0b7b 853c ca28 97bd 9ebc 65bd
0.02626762 0.04850402 -0.037012875 0.03571208 0.02814301 0.008466833 0.028004596 -0.04790738
0.019580925 -0.08768041 0.03910552 -0.08098024 -0.029814849 0.051351827 -0.032705814 -0.008197007
0.076265305 -0.009773181 0.07875076 -0.045508083 0.034617703 0.016974963 -0.076657996 -0.038456526
-0.0771316 0.07623628 -0.050407823 0.06372303 -0.01094446 -0.077957794 0.083343856 -0.064205304
0.0038021395 0.06857345 -0.08083699 -0.008981213 0.0022976156 0.05911174 -0.060632903 -0.03381285
-0.025090475 -0.0075856997 0.02911503 -0.060763367 0.05196871 -0.08492641 0.023398006 -0.085122205
0.045229893 0.053062137 -0.085013434 0.021072522 0.033401206 -0.06246193 0.083855025 0.07621601
0.08232482 0.06717691 0.069436535 -0.009494386 0.0826411 -0.052419398 -0.04309661 0.049969755
-0.06412363 0.048972055 0.070442505 -0.07197608 -0.040974483 0.028677832 -0.03652441 -0.07304204
-0.051169768 -0.019309007 -0.06020574 0.027228275 -0.06944833 -0.09068629 -0.083414316 -0.0077235713
0.04267399 0.0042214086 0.0068180296 0.053398505 -0.0327922 -0.029461479 0.05595736 0.023414746
-0.00090622815 0.01641707 0.011919211 0.08770118 -0.067393534 -0.043168474 -0.047198683 0.05786165
0.054089196 -0.018782627 -0.07036354 -0.050066967 -0.022753945 -0.053611074 -0.05692545 -0.048493315
-0.047409013 -0.080843225 0.0063689915 -0.08795522 -0.051413015 -0.08822018 -0.014170957 0.0045815357
-0.07117587 -0.084662355 -0.077781826 -0.045522965 0.076377265 -0.084235266 -0.0394045 0.0051810206
-0.032046393 0.0007594805 0.07183931 -0.036290295 -0.0018925548 -0.028951433 -0.030605905 0.022475237
0.02333894 0.07107411 -0.08805277 0.031242328 -0.03729002 -0.07062017 0.05203954 6.109109e-05
-0.045388825 -0.058126558 0.054605767 0.04003823 0.06645023 -0.02451638 -0.091453046 0.03430978
-0.05808316 -0.088240884 -0.012675452 -0.08404775 -0.040823374 -0.036978807 -0.09147371 -0.031463854
-0.0013052404 -0.084420264 -0.059477985 -0.026161427 0.016607348 -0.031842433 0.008602436 -0.0747307
0.023157815 -0.08894468 0.02594771 0.013722464 0.07990262 -0.090620406 -0.051253907 0.07222478
0.08557615 0.04474031 0.058256995 -0.0003278288 0.07994253 -0.078522 0.043821245 -0.09000155
0.043768775 0.058510903 -0.08333962 0.06731307 0.07286228 0.019537251 0.05319332 -0.02168738
-0.074132346 0.010557562 -0.034144707 0.0041080057 -0.079343066 0.013735041 -0.08286453 -0.07608935
0.0064808195 -0.04436725 -0.008038527 -0.016813388 -0.026662217 -0.07911035 -0.043448072 0.056801908
-0.058481563 0.06691179 0.042222697 -0.06290881 -0.073969536 0.04622227 0.00636631 -0.0060537118
-0.007648051 0.068828546 0.032458927 0.004034527 -0.081992425 0.07954217 0.027234826 -0.0060782507
-0.027745709 0.04838767 0.022895573 0.033582218 0.04342178 0.015354561 0.0336074 0.02813716
0.013024589 0.030065067 -0.06363548 0.014708124 0.045685586 0.04280781 -0.036982976 0.0041771745
-0.068681955 0.07762399 0.0019987817 -0.07840436 0.020867014 -0.009882881 0.08383967 -0.06969588
-0.02901986 -0.08510008 0.07163356 0.06973692 0.07180833 0.012608957 0.026854996 -0.005245585
0.018739475 0.04231608 0.055408407 0.079979256 -0.035363413 0.016294023 -0.07380827 -0.056088082
