trained_models/ppo/me5418-Cassie-v0/0524-08-31-04-s3737/critic.pth (torch, 96254 bytes, 5 tensors)

weight f4 [128, 50]
-0.0680055 0.017810952 0.015160215 0.0015116002 -0.06952484 0.16349778 -0.10665707 0.00069812645
0.035559088 0.03224318 -0.016816488 -0.13041434 0.03054545 -0.04976751 -0.06527811 -0.28215042
-0.043953937 -0.03191334 -0.15041308 -0.1487632 0.037415486 0.036405515 0.05201646 -0.10759561
0.10650164 -0.14246222 -0.06054874 -0.020447696 -0.10307202 -0.10810238 0.08955073 -0.03595859
0.011788093 -0.07577379 0.18609391 -0.14162064 -0.07284306 0.049348332 0.08839502 -0.017597575
0.052112933 -0.083657406 0.101350576 0.096057884 0.01323039 -0.112415016 -0.0014842743 -0.0683995
0.05915187 -0.023605049 -0.120227136 0.045134507 0.021057213 0.03413809 -0.09480232 -0.08078219
-0.024040302 0.037913006 -0.11321035 -0.01041316 0.20023265 -0.115474254 -0.063269824 0.11937835
0.10590623 0.0682603 0.09444666 0.04324051 0.006263773 -0.014261158 -0.1849307 0.037655983
-0.11066558 0.10205627 -0.10304006 0.06488721 0.12978289 -0.13548324 -0.010308366 -0.032580845
0.18375097 -0.013825848 0.048614584 -0.07715755 0.10339082 0.034065403 -0.008333335 0.17819913
-0.092118636 0.035297778 0.14928524 -0.18005478 -0.055970114 0.015131683 -0.05867623 -0.21692339
0.04547257 0.015031495 -0.17753269 -0.004741133 0.091057375 -0.037317388 0.003379691 0.1166227
-0.06439449 0.06752654 0.028536113 -0.0563139 -0.13354397 -0.018468995 0.166247 0.096622355
-0.016448306 0.121295385 -0.025266051 -0.15547392 -0.14577809 0.018275702 0.10726506 0.14263855
-0.060069963 0.025115008 0.0054274094 0.12083004 0.056153618 0.0042449245 -0.06385001 -0.077350296
0.12712117 -0.055930246 0.2745778 -0.09590987 0.09373105 -0.0075008245 0.02569451 -0.15277332
0.020277375 -0.10301319 0.015772888 0.11146226 -0.048294097 -0.08381108 -0.11209838 0.007988073
0.056526415 0.026524995 0.11187861 -0.036249373 -0.019209353 -0.026034433 -0.18149549 0.06548589
0.039984394 0.07151794 -0.16061537 -0.18088387 -0.19152427 -0.01766205 0.064486 -0.07678178
-0.080265716 0.08206766 0.1253554 0.12192107 -0.050969046 -0.09038737 0.10340515 0.0407497
0.12479086 0.116630875 0.012058751 -0.0047689783 -0.026413696 -0.11633799 -0.009115608 0.03361303
0.121661544 -0.0316839 -0.12938647 0.17311963 -0.06635257 0.0074863164 0.019814083 -0.1768914
-0.0097831385 -0.07107656 0.0035626462 -0.106134094 0.012017482 -0.12210091 -0.07832121 -0.09264175
-0.025732009 -0.113574184 0.031726036 -0.076412134 0.19077264 0.052435078 -0.0867848 0.033367336
-0.06447416 0.043397676 0.113602005 -0.16586182 -0.058464844 0.008255968 0.054140814 -0.003122546
0.20213212 -0.22055441 0.01727183 -0.010305291 0.08079381 -0.032841526 -0.042537965 0.06666232
0.0214328 -0.022661595 -0.079313144 0.17169927 0.065502055 0.03410896 -0.08257819 0.012444934
0.08845416 -0.016685575 -0.038521722 0.092216 -0.07733947 -0.08272406 0.039975766 -0.0016064951
-0.042756163 -0.11951007 0.025123347 0.07865122 0.045178924 -0.01873813 0.059169337 0.05606088
0.21087341 -0.010296156 -0.05152343 0.18482135 -0.0052082404 0.0010244952 0.03961588 0.0341882
-0.1414458 -0.24034265 -0.08964884 0.07364415 -0.086709626 0.03687563 -0.153978 -0.11426394
00000000: 7846 8bbd 46e8 913c 8d62 783c e320 c63a
00000010: 0a63 8ebd f66b 273e 066f dabd 7902 373a
00000020: 68a6 113d 6d11 043d bbc2 89bc 568b 05be
00000030: 743a fa3c 04d9 4bbd 88b0 85bd 0576 90be
00000040: 0b09 34bd 90b7 02bd e305 1abe 6155 18be
00000050: fb40 193d f31d 153d 360f 553d 165b dcbd
00000060: 881d da3d 9ee1 11be f501 78bd ed81 a7bc
00000070: 6c17 d3bd c864 ddbd 6066 b73d 5149 13bd
00000080: d822 413c 4a2f 9bbd 678f 3e3e 0005 11be
00000090: be2e 95bd 7a21 4a3d 7308 b53d ca28 90bc
000000a0: 5f74 553d 9354 abbd e490 cf3d ffb9 c43d
000000b0: 47c4 583c d839 e6bd fb8b c2ba 0915 8cbd
000000c0: 3b49 723d 605f c1bc a539 f6bd f6de 383d
000000d0: 2d80 ac3c 62d4 0b3d b827 c2bd 2271 a5bd
000000e0: 2bf0 c4bc ab4a 1b3d d4da e7bd f59b 2abc
000000f0: ca09 4d3e c47d ecbd 9c93 81bd a37c f43d
00000100: 5ee5 d83d 0ecc 8b3d 406d c13d f61c 313d
00000110: 5640 cd3b a2a7 69bc 795e 3dbe 293d 1a3d
00000120: a3a4 e2bd e102 d13d ab06 d3bd 96e3 843d
00000130: cee5 043e 1ebc 0abe 6ce4 28bc 7e73 05bd
00000140: 3729 3c3e cf85 62bc 1620 473d c704 9ebd
00000150: 91be d33d 2a88 0b3d 8a88 08bc d579 363e
00000160: b2a8 bcbd 6794 103d 3bde 183e 4860 38be
00000170: eb40 65bd e1ea 773c 7d56 70bd 2a21 5ebe
00000180: 7241 3a3d a946 763c 21cb 35be 825b 9bbb
00000190: 4a7c ba3d 1eda 18bd ce7d 5d3b e2d7 ee3d
000001a0: 42e1 83bd 5b4b 8a3d 91c4 e93c 67a9 66bd
000001b0: c0bf 08be 4a4c 97bc a73c 2a3e f1e1 c53d
000001c0: 99be 86bc b769 f83d c0fa cebc 8e34 1fbe
000001d0: da46 15be edb6 953c c9ad db3d d70f 123e
000001e0: ec0b 76bd fdbd cd3c 69d8 b13b bd75 f73d
000001f0: 5601 663d 0219 8b3b cbc3 82bd d569 9ebd
00000200: 0d2c 023e 1d17 65bd 7695 8c3e 656c c4bd
00000210: 11f6 bf3d 7ac9 f5bb 4b7d d23c 9c70 1cbe
00000220: bd1c a63c 94f8 d2bd 2536 813c 5346 e43d
00000230: 08d0 45bd 25a5 abbd d693 e5bd 68e0 023c
00000240: 3e88 673d f24a d93c 9d20 e53d 397a 14bd
00000250: ef5c 9dbc 2a46 d5bc f4d9 39be 771d 863d
00000260: adc6 233d ff77 923d 5b78 24be 9f39 39be
00000270: f01e 44be 01b0 90bc 3c11 843d c43f 9dbd
00000280: 5a62 a4bd 1713 a83d 2a5d 003e c1b1 f93d
00000290: ebc4 50bd 031d b9bd 14c6 d33d 28e9 263d
000002a0: 5a92 ff3d 2bdc ee3d 1192 453c 1745 9cbb
000002b0: 8961 d8bc 9d42 eebd a259 15bc d1ad 093d
000002c0: b029 f93d fac6 01bd e37d 04be 4646 313e
000002d0: dbe3 87bd c64f f53b 2551 a23c 0523 35be
000002e0: 7549 20bc 9690 91bd 497b 693b d55c d9bd
000002f0: f9e4 443c 0b10 fabd df66 a0bd f5ba bdbd
00000300: efcb d2bc 9599 e8bd 29f3 013d f77d 9cbd
00000310: e759 433e 2ac6 563d 3bbc b1bd 30ac 083d
00000320: 070b 84bd c3c1 313d 2ba8 e83d aed7 29be
00000330: d578 6fbd 0a44 073c c2c2 5d3d a1a3 4cbb
00000340: b9fb 4e3e 04d9 61be a77d 8d3c 86d7 28bc
00000350: 3a77 a53d d684 06bd 4a3c 2ebd 4186 883d
00000360: d793 af3c cfa4 b9bc ee6e a2bd efd1 2f3e
00000370: f125 863d d6b5 0b3d c11e a9bd d6e5 4b3c
00000380: 7427 b53d 30b0 88bc f4c8 1dbd bedb bc3d
00000390: 2864 9ebd 3b6b a9bd a1bd 233d 0891 d2ba
000003a0: 1621 2fbd b2c1 f4bd 7acf cd3c e413 a13d
000003b0: 890d 393d b580 99bc 8c5b 723d 18a0 653d
000003c0: 33ef 573e 35b1 28bc 3b0a 53bd cf41 3d3e
000003d0: e3a9 aabb 5b48 863a 4344 223d ed08 0c3d
000003e0: 2bd7 10be 621c 76be d099 b7bd bed2 963d
000003f0: d194 b1bd e70a 173d 69ac 1dbe 3603 eabd

bias f4 [128]
-0.0057061277 -0.0061867503 -0.005990101 0.006152246 -0.0052681835 -0.006089983 -0.0016702855 0.006182731
0.0045437673 0.005649609 0.006203421 -0.005140552 -0.0060688606 0.0058513707 0.0058818124 -0.00555685
0.0060478784 -0.0025332794 0.005832152 -0.006142629 0.006206937 -0.0061151176 0.005851211 -0.0061351927
-0.0062636756 -0.006208889 0.0060312017 -0.0054871803 0.006142416 -0.0054313643 -0.005882557 0.0061411886
-0.0060140886 -0.0061964546 0.0059200297 -0.005975891 -0.0059315893 0.0060447287 0.0055739796 0.0059765396
-0.005900671 -0.0060693934 -0.0056628925 -0.0058511454 -0.0059158253 0.0051659867 -0.006135059 -0.0058360123
-0.005889826 0.0048268363 0.0061606513 -0.005928596 0.00606169 0.006187413 0.005903284 0.0059998464
-0.00586578 -0.0059516993 -0.00090985856 0.0061411844 0.005993441 0.006218148 0.006122825 -0.0061004357
0.005893487 -0.006014358 -0.005617327 -0.005733486 -0.0059215436 -0.0061675073 0.005860277 -0.0058662733
0.0052888077 0.0059679397 0.0032615482 -0.0061041256 -0.005607445 0.006111594 0.0055080643 -0.0055871266
-0.0061242077 0.0009853321 0.0059199804 -0.006074883 0.0060062343 0.00406293 0.0057200883 0.005999141
0.005590875 0.005825683 0.0009904855 0.0057444773 -0.006123912 -0.0058863205 0.0060640704 0.0052701076
-0.0048206076 0.0040442245 -0.005817043 -0.006015919 0.0059513464 0.0059619136 -0.006119521 0.005956491
0.000604299 -0.0055587515 -0.0058818627 0.00582589 0.005604363 0.0060792016 -0.0058045913 0.0059608174
-0.006124473 0.00608367 0.005961139 -0.005749499 0.006130244 0.0061539975 0.0062444303 -0.0059344107
-0.006108264 -0.0058833724 0.0022460788 0.005909011 -0.005422285 0.005631033 -0.0051361276 -0.006212005
00000000: 78fa babb 39ba cabb 9c48 c4bb c898 c93b
00000010: baa0 acbb 7b8e c7bb 7bed daba 8298 ca3b
00000020: e2e3 943b 5b20 b93b 1146 cb3b 1372 a8bb
00000030: 4bdd c6bb dbbc bf3b 38bc c03b 3d16 b6bb
00000040: 482d c63b 6005 26bb a31b bf3b 1b48 c9bb
00000050: 9063 cb3b 5361 c8bb 84bb bf3b ba09 c9bb
00000060: 853f cdbb f073 cbbb 63a1 c53b cecd b3bb
00000070: 5246 c93b 96f9 b1bb 77c2 c0bb 063c c93b
00000080: d511 c5bb a10b cbbb cffc c13b 68d1 c3bb
00000090: c75d c2bb dc12 c63b eea5 b63b d9d6 c33b
000000a0: 6a5a c1bb c3e1 c6bb c98f b9bb f7ba bfbb
000000b0: 8ad9 c1bb 7047 a93b 9b08 c9bb 053c bfbb
000000c0: 71ff c0bb 702a 9e3b 4adf c93b ab44 c2bb
000000d0: 24a1 c63b c8bf ca3b 5670 c13b 5c9a c43b
000000e0: bb35 c0bb 7906 c3bb 9383 6eba fd3b c93b
000000f0: a164 c43b 9bc1 cb3b fba1 c83b 2ae6 c7bb
00000100: 271e c13b 1714 c5bb 8e11 b8bb f7df bbbb
00000110: 8209 c2bb cd18 cabb 9107 c03b de39 c0bb
00000120: bc4d ad3b b58e c33b b3bf 553b 1e05 c8bb
00000130: a8be b7bb c443 c83b fe7c b43b 3714 b7bb
00000140: 94ad c8bb 4226 813a 65fc c13b d00f c7bb
00000150: f2cf c43b 5422 853b 946f bb3b 7194 c43b
00000160: a933 b73b 5fe5 be3b 2ed3 813a 2b3c bc3b
00000170: 19ab c8bb 09e2 c0bb 1cb5 c63b deb0 ac3b
00000180: 30f6 9dbb 6a85 843b e59c bebb 3021 c5bb
00000190: 8303 c33b 285c c33b 4386 c8bb ab2e c33b
000001a0: d269 1e3a 3026 b6bb a4bc c0bb 1ce7 be3b
000001b0: cea4 b73b 0a34 c73b 7134 bebb f652 c33b
000001c0: ceaf c8bb 8659 c73b a955 c33b 4b66 bcbb
000001d0: 37e0 c83b 79a7 c93b 149e cc3b 7275 c2bb
000001e0: d527 c8bb 4ec9 c0bb f332 133b 60a0 c13b
000001f0: 6cad b1bb 8784 b83b f64c a8bb 138e cbbb

weight f4 [128, 128]
0.09952195 0.08693939 0.016634174 0.029948585 0.15285219 -0.058318585 -0.025831595 0.04050328
0.014081006 -0.041313276 -0.019161364 0.061516 0.03741121 -0.008312985 -0.07684124 0.19796206
0.021256017 0.012309796 0.030768113 -0.08942921 0.06753149 -0.12183377 0.08329224 -0.083229624
-0.004393619 -0.0337077 -0.06551832 -0.12817404 0.13361858 0.03530359 -0.15324046 -0.16165228
0.025031343 0.03037815 -0.10437272 -0.035771467 0.07468303 0.075267114 -0.016888982 -0.019195754
-0.11032275 -0.004509504 0.11006469 -0.041474793 -0.11988943 0.12077811 -4.154996e-05 0.013895388
0.03722734 -0.014628553 0.03778499 0.0018764568 -0.0375916 0.036421377 -0.059103236 -0.13521133
0.01786184 0.0041361414 0.0045282003 -0.07619387 -0.016043857 -0.133207 0.12498211 0.06308915
-0.047170393 0.0010417453 0.029302929 0.13543 -0.055384774 -0.05666797 0.024619184 -0.060209155
0.1680761 -0.018526854 -0.010436151 0.012187325 -0.10301018 -0.045401596 -0.051407002 -0.025781577
0.14734016 -0.054138813 0.12233169 -0.11314116 -0.36660084 -0.12099997 0.00069437013 -0.048358057
0.0008299587 0.095416434 -0.06603475 -0.015584368 -0.061600797 0.0321237 -0.07518405 0.074160814
0.064302266 0.026107475 -0.10016287 0.08582114 0.0764663 -0.05275058 0.045434885 -0.12024276
0.04137419 0.04815433 0.1318024 -0.18632674 -0.2091552 0.018917164 -0.10579131 0.033486348
-0.122434184 0.04580706 -0.046479177 0.15787697 -0.057375822 -0.008409169 0.009246698 -0.119702496
0.15209927 -0.11432127 -0.10590639 -0.09665833 -0.08306447 0.13249028 0.023142375 0.03745377
-0.012963037 -0.031754848 0.11457975 -0.15077128 0.2736513 -0.026224298 0.09036791 0.0896706
0.011477373 0.052780315 -0.03274233 -0.08324022 0.03511528 0.027377985 -0.16904052 -0.09319414
-0.17266297 -0.06177782 0.004302866 -0.20589896 0.03715505 -0.10062788 -0.13368838 -0.027330263
-0.05065888 0.05962171 0.0985809 0.097625874 -0.06001721 0.2001047 -0.022531785 0.0737384
-0.061897725 -0.12563224 0.0016628585 0.21167305 0.08651416 0.027855959 0.015990347 0.109714895
0.119757086 -0.0780188 0.05643108 -0.041528832 0.0682279 -0.056841973 0.045592703 0.065257795
0.16271728 0.07016722 -0.026081642 -0.036585204 -0.0056108604 0.05338152 -0.081847936 0.067846514
-0.010834187 -0.059031796 0.037630614 -0.05831526 -0.026841965 0.028455893 -0.06274976 0.21900849
0.028756296 -0.015773261 0.0013399797 -0.09909108 0.114113435 0.020119917 0.00509429 -0.16135775
0.041403525 0.121138215 0.10486606 0.09429988 0.0796078 -0.028545897 0.0200683 0.04351238
-0.09817834 0.123867854 0.014111815 -0.041362174 -0.017715354 0.06162619 -0.080258444 0.099261984
0.06755418 -0.013116228 -0.056561124 -0.042275306 0.0024589926 -0.037946243 0.009884337 -0.05535055
-0.05881223 0.082052104 0.13489658 -0.056398287 -0.04520561 0.02228865 0.04042756 0.023620594
-0.05745644 -0.14736323 0.028882395 -0.26297495 -0.14987366 0.085116744 0.059655167 0.086809315
0.07899484 -0.061123863 -0.072853096 0.15863006 -0.07457063 -0.06774917 0.054754924 0.04684422
-0.026407184 0.095264554 -0.013780685 0.0374549 0.005644274 -0.010925948 -0.071537 -0.047727257
00000000: 2ad2 cb3d 470d b23d 6444 883c bc56 f53c
00000010: 4985 1c3e 78df 6ebd c89c d3bc c4e6 253d
00000020: 05b4 663c 1c38 29bd 4bf8 9cbc 34f8 7b3d
00000030: 7f3c 193d 3033 08bc f15e 9dbd 91b6 4a3e
00000040: 1921 ae3c 07af 493c 690d fc3c a926 b7bd
00000050: f34d 8a3d fc83 f9bd 1f95 aa3d 4b74 aabd
00000060: 59f8 8fbb 1611 0abd 782e 86bd 0e40 03be
00000070: 4fd3 083e 7f9a 103d 11eb 1cbe 2d88 25be
00000080: 880e cd3c 99db f83c 5dc1 d5bd 1a85 12bd
00000090: 6bf3 983d a525 9a3d c35a 8abc 6a40 9dbc
000000a0: e5f0 e1bd 76c4 93bb 9969 e13d 79e1 29bd
000000b0: 9788 f5bd 845a f73d ee45 2eb8 7ba9 633c
000000c0: b27b 183d 99ac 6fbc 6fc4 1a3d 71f3 f53a
000000d0: a6f9 19bd 952e 153d 3c16 72bd d774 0abe
000000e0: fe52 923c 7888 873b 4c61 943b 880b 9cbd
000000f0: 686e 83bc 6a67 08be 9ff6 ff3d e234 813d
00000100: be35 41bd 2c8b 883a b20c f03c 29ae 0a3e
00000110: 25db 62bd ac1c 68bd 2cae c93c e09d 76bd
00000120: 241c 2c3e a1c5 97bc 64fc 2abc 59ad 473c
00000130: 00f7 d2bd 06f7 39bd 2690 52bd e333 d3bc
00000140: 57e0 163e a9c0 5dbd 0989 fa3d 8db6 e7bd
00000150: 1bb3 bbbe d5ce f7bd 6406 363a 1913 46bd
00000160: 9691 593a b169 c33d 3a3d 87bd 9455 7fbc
00000170: 1e51 7cbd 2494 033d 18fa 99bd a0e1 973d
00000180: e8b0 833d 58df d53c 3122 cdbd fec2 af3d
00000190: 5d9a 9c3d fe10 58bd ee19 3a3d d641 f6bd
000001a0: fc77 293d 7a3d 453d 35f7 063e 70cc 3ebe
000001b0: c82c 56be 2bf8 9a3c 1da9 d8bd fb28 093d
000001c0: c6be fabd 2fa0 3b3d f360 3ebd 80aa 213e
000001d0: e902 6bbd 9cc6 09bc 767f 173c 9526 f5bd
000001e0: e9bf 1b3e 4521 eabd 73e5 d8bd cdf4 c5bd
000001f0: b41d aabd 88ab 073e 1495 bd3c 2069 193d
00000200: eb62 54bc 5f11 02bd caa8 ea3d c963 1abe
00000210: 061c 8c3e 57d4 d6bc d012 b93d 38a5 b73d
00000220: 970b 3c3c 2c30 583d d21c 06bd d979 aabd
00000230: 0ad5 0f3d cc47 e03c f518 2dbe 92dc bebd
00000240: 90ce 30be bd0a 7dbd 0eff 8c3b 2dd7 52be
00000250: e52f 183d fd15 cebd 9be5 08be b7e3 dfbc
00000260: b07f 4fbd e535 743d c8e4 c93d 13f0 c73d
00000270: 9bd4 75bd 3fe8 4c3e 9494 b8bc 2904 973d
00000280: 7888 7dbd bda5 00be 46f4 d93a d2c0 583e
00000290: 562e b13d 2e32 e43c 30fe 823c 34b2 e03d
000002a0: 3443 f53d 52c8 9fbd 4724 673d 231a 2abd
000002b0: 12bb 8b3d 21d3 68bd 6abf 3a3d e1a5 853d
000002c0: 5c9f 263e d5b3 8f3d 2ba9 d5bc 5eda 15bd
000002d0: 4fdb b7bb 95a6 5a3d e49f a7bd 1df3 8a3d
000002e0: e081 31bc 53cb 71bd 8f22 1a3d fbdb 6ebd
000002f0: aee3 dbbc 551c e93c f282 80bd c343 603e
00000300: 5392 eb3c ed36 81bc 42a2 af3a 44f0 cabd
00000310: 4eb4 e93d 86d2 a43c 00ee a63b f73a 25be
00000320: be96 293d 5017 f83d 04c4 d63d 4c20 c13d
00000330: 6a09 a33d 16d9 e9bc 4766 a43c 0a3a 323d
00000340: ba11 c9bd 6eae fd3d 3e35 673c 626b 29bd
00000350: ca1f 91bc be6b 7c3d 8a5e a4bd de49 cb3d
00000360: d959 8a3d 73e5 56bc a3ac 67bd df28 2dbd
00000370: 0d27 213b 856d 1bbd eaf1 213c 42b7 62bd
00000380: 18e5 70bd ef0a a83d 5422 0a3e e401 67bd
00000390: 8529 39bd b096 b63c 5f97 253d fa7f c13c
000003a0: 7257 6bbd 63e6 16be c69a ec3c a7a4 86be
000003b0: 7b78 19be b051 ae3d fa58 743d 15c9 b13d
000003c0: 0cc8 a13d 045d 7abd 0134 95bd eb6f 223e
000003d0: 7db8 98bd 14c0 8abd b346 603d badf 3f3d
000003e0: e153 d8bc 101a c33d 62c8 61bc 4f6a 193d
000003f0: 9af3 b83b bf02 33bc fe81 92bd a87d 43bd

bias f4 [128]
-0.006015721 -0.0060340604 0.006078533 0.006056583 -0.005978641 0.0059813526 0.005990687 0.0061026416
-0.00606873 -0.0060957978 -0.0060635484 0.005982576 -0.0046664034 -0.006082637 -0.0060418323 0.0059412546
0.0060834647 -0.006117213 -0.006056206 0.0060050283 -0.0060939654 0.0059980275 0.0060121305 0.0059953285
-0.0058964826 0.005828672 -0.006112747 -0.005927912 0.006089602 -0.0061089825 0.006048906 0.006052314
0.006058162 -0.0060845586 0.0060640415 -0.006141773 0.0060713394 0.006184549 -0.0060300566 0.006050959
-0.006009246 -0.0060025626 -0.006146523 -0.006093167 0.005991184 -0.006062909 0.0060236226 -0.006110397
-0.0061522597 -0.0060346182 -0.006051703 0.0060415035 -0.0060905656 0.0060914997 0.006046096 0.0060095596
0.0060949926 0.0059935506 -0.0026872049 -0.006057296 -0.004474638 -0.006043546 0.0061011394 0.005927354
0.005979969 -0.00608693 -0.0060952012 -0.005974135 -0.0060736635 -0.006090825 -0.006089602 0.006109619
0.0060810107 -0.0060132006 0.006085046 -0.006022503 0.0060319523 0.0060720365 0.006037164 0.0060341186
0.0060015433 0.0059966864 0.0060996916 0.006039121 -0.0060287076 0.006086647 -0.005949357 0.0059918114
-0.00607464 -0.0056377444 0.00608155 -0.006023673 -0.0060674245 -0.005940321 0.0060375184 0.0059988596
-0.006066091 -0.006039556 -0.0060382043 0.0061092484 -0.0061171628 0.006099355 0.0055910223 -0.0060431785
-0.006047391 0.006030096 0.0060487343 -0.0060814805 -0.0060046855 -0.0061629876 -0.006072735 -0.0061143613
0.0060806745 0.006041725 0.0060208314 0.006066728 0.00598015 -0.0060391845 -0.0061126025 -0.0061269742
-0.006026546 -0.0060514747 -0.0060831783 0.0060454644 -0.0060127494 0.006048052 0.006014194 -0.0061169663
00000000: 861f c5bb 5eb9 c5bb 6e2e c73b 4d76 c63b
00000010: 7ae8 c3bb 39ff c33b 864d c43b abf8 c73b
00000020: 32dc c6bb 42bf c7bb bbb0 c6bb 7c09 c43b
00000030: a1e8 98bb db50 c7bb 90fa c5bb dbae c23b
00000040: cd57 c73b e772 c8bb 2373 c6bb d4c5 c43b
00000050: e3af c7bb 1a8b c43b 6801 c53b 7674 c43b
00000060: 4837 c1bb 72fe be3b 704d c8bb ee3e c2bb
00000070: 498b c73b dc2d c8bb e735 c63b 7d52 c63b
00000080: 8c83 c63b fa60 c7bb deb4 c63b ed40 c9bb
00000090: 16f2 c63b c2a7 ca3b c897 c5bb 2047 c63b
000000a0: 36e9 c4bb 25b1 c4bb c668 c9bb 30a9 c7bb
000000b0: b251 c43b 5eab c6bb cf61 c53b ba39 c8bb
000000c0: e598 c9bb 0cbe c5bb 5d4d c6bb cef7 c53b
000000d0: 5e93 c7bb 349b c73b 541e c63b d7eb c43b
000000e0: 81b8 c73b 8c65 c43b d11b 30bb 487c c6bb
000000f0: fc9f 92bb f008 c6bb 11ec c73b 403a c23b
00000100: 9ef3 c33b df74 c7bb 41ba c7bb adc2 c3bb
00000110: 9505 c7bb 8b95 c7bb 498b c7bb 3333 c83b
00000120: 3743 c73b 620a c5bb 1165 c73b 6b58 c5bb
00000130: afa7 c53b eff7 c63b 67d3 c53b dbb9 c53b
00000140: 98a8 c43b da7f c43b ecdf c73b d2e3 c53b
00000150: 778c c5bb 7f72 c73b d3f2 c2bb f556 c43b
00000160: c60d c7bb d4bc b8bb bd47 c73b 3b62 c5bb
00000170: 3fd1 c6bb 06a7 c2bb 60d6 c53b 1592 c43b
00000180: 0fc6 c6bb 78e7 c5bb 21dc c5bb 1730 c83b
00000190: 7b72 c8bb 19dd c73b e534 b73b db05 c6bb
000001a0: 3129 c6bb 1d98 c53b 7634 c63b 2847 c7bb
000001b0: f4c2 c4bb e3f2 c9bb cbfd c6bb fb5a c8bb
000001c0: 6540 c73b aaf9 c53b 654a c53b 67cb c63b
000001d0: 22f5 c33b 5ae4 c5bb 3a4c c8bb c9c4 c8bb
000001e0: 557a c5bb 734b c6bb 6655 c7bb 0819 c63b
000001f0: 9906 c5bb bd2e c63b b712 c53b d570 c8bb

weight f4 [1, 128]
-0.07184178 -0.16741933 0.15795952 0.16463242 -0.015391542 0.020151976 0.02022664 0.06540737
-0.06573921 -0.0444901 -0.017717183 0.0066174045 -7.637373e-05 -0.055130914 -0.16902585 0.024729634
0.1317823 -0.0130265 -0.11193128 0.026452497 -0.13053586 0.14805703 0.04733083 0.0263884
-0.008159764 0.0065884017 -0.014980399 -0.043863393 0.047842477 -0.071020216 0.07172078 0.07920499
0.0076342477 -0.05355524 0.114676535 -0.097526535 0.04276692 0.04631855 -0.05655569 0.0757379
-0.0439622 -0.04021996 -0.010710246 -0.13553661 0.22061022 -0.083984025 0.060063533 -0.054962453
-0.010753639 -0.038470645 -0.07738001 0.19273327 -0.25593546 0.070490405 0.03253438 0.030303285
0.17124608 0.026213907 0.0021254437 -0.06318247 0.0009407798 -0.07131567 0.15064235 0.024219401
0.02990701 -0.30747378 -0.07226002 -0.07506332 -0.026890894 -0.011087551 -0.0142215295 0.02096585
0.02540794 -0.014503868 0.069923855 -0.02523311 0.13040139 0.015557699 0.12490408 0.07326512
0.08172543 0.08646711 0.12562509 0.037032325 -0.0074896575 0.15614884 -0.03142705 0.025580972
-0.08139351 -0.000521046 0.06014786 -0.050730202 -0.08782755 -0.026574112 0.18361433 0.021353114
-0.04385232 -0.044296455 -0.12883803 0.05248147 -0.087712355 0.043061692 0.0019854086 -0.041442815
-0.107505955 0.07160733 0.048301104 -0.006801428 -0.012805993 -0.012156152 -0.10091625 -0.044981483
0.10474533 0.112230375 0.1382981 0.070596084 0.042675838 -0.020267216 -0.02826396 -0.06677699
-0.17865007 -0.06131922 -0.074052155 0.05921301 -0.044617604 0.13871779 0.159958 -0.014336274
00000000: c821 93bd f96f 2bbe 24c0 213e 6795 283e
00000010: ce2c 7cbc c215 a53c 57b2 a53c 4df4 853d
00000020: 47a2 86bd 403b 36bd a023 91bc d0d6 d83b
00000030: d62a a0b8 f4d0 61bd 1d15 2dbe cd95 ca3c
00000040: f0f1 063e 1a6d 55bc 3a3c e5bd e8b2 d83c
00000050: 31ab 05be 439c 173e f9dd 413d 7c2c d83c
00000060: 88b0 05bc 85e3 d73b 5970 75bc 1aaa 33bd
00000070: 79f6 433d 0c73 91bd 58e2 923d 3a36 a23d
00000080: b628 fa3b bd5c 5bbd 88db ea3d febb c7bd
00000090: 5e2c 2f3d 85b8 3d3d f0a6 67bd 791c 9b3d
000000a0: b511 34bd afbd 24bd 077a 2fbc 1cca 0abe
000000b0: a5e7 613e d1ff abbd 2e05 763d 4f20 61bd
000000c0: 0830 30bc 6593 1dbd 6979 9ebd df5b 453e
000000d0: f909 83be 465d 903d c542 053d 983e f83c
000000e0: 225b 2f3e 8cbe d63c 074b 0b3b d065 81bd
000000f0: aa9e 763a f30d 92bd fd41 1a3e c467 c63c
00000100: 8cff f43c 346d 9dbe 10fd 93bd ccba 99bd
00000110: 4b4a dcbc 8fa8 35bc 6b01 69bc 93c0 ab3c
00000120: 5024 d03c a2a1 6dbc 3d34 8f3d abb5 cebc
00000130: f187 053e b8e5 7e3c b6cd ff3d 060c 963d
00000140: aa5f a73d ab15 b13d dda3 003e 35af 173d
00000150: cd6b f5bb 7be5 1f3e a6b9 00bd 308f d13c
00000160: a4b1 a6bd ce96 08ba 9a5d 763d 79ca 4fbd
00000170: eede b3bd f4b1 d9bc 6505 3c3e baec ae3c
00000180: 7e9e 33bd 3370 35bd 1eee 03be cff6 563d
00000190: 89a2 b3bd 7561 303d a11d 023b f1bf 29bd
000001a0: 152c dcbd dda6 923d 61d7 453d 83de debb
000001b0: 3ad0 51bc 992a 47bc 2ead cebd 813e 38bd
000001c0: b884 d63d 0ad9 e53d 049e 0d3e ae94 903d
000001d0: dccc 2e3d 6f07 a6bc d289 e7bc 60c2 88bd
000001e0: 0bf0 36be dd29 7bbd a8a8 97bd 5789 723d
000001f0: f3c0 36bd 090c 0e3e 08cc 233e b1e2 6abc
