trained_models/ppo/me5418-Cassie-v0/0528-15-42-05-s3737/critic.pt (torch, 319998 bytes, 5 tensors)

weight f4 [256, 50]
00000000: adbc c4bb ad48 a7be 1913 053f e672 18bf
00000010: 5444 ccbf 4004 bbbc 91af 113d 3d59 0f3e
00000020: 2f55 473d 4b03 1ebd eb8b 253e 0c05 86bd
00000030: c95a 123e 0bbf e43c ded2 c3bb f985 07be
00000040: 3b15 583d 7254 0fbe 976d f53e 2073 e5b9
00000050: 9c48 4fbf 311e f63d 8aeb 26be d9d9 6cbd
00000060: db2b 7abc a0eb 2ebc c1d9 303e 6ccf 8dbd
00000070: 3b09 b13c c56d 423d 81b1 ae3a b4f8 83bb
00000080: 4d54 2d3c 11a2 793c ed0e 843e b0a2 f7bd
00000090: 9740 0d3e 0e40 1d3e 89c3 9fbd 0abd 283d
000000a0: 037b 14bc 9458 16bc 6183 5d3d 8451 2a3d
000000b0: 64ee 7bbd d125 6e3d d327 153e 6764 da3d
000000c0: de6e 213d 7f91 9dbd 9d05 4fbc 2887 0dbd
000000d0: 853c d1bf 4893 d03c 5ecc b3be e7d0 06be
000000e0: 13d7 24be b8a3 0ebe 575c 26be 799b 113e
000000f0: 4e56 7ebe c641 0a3d 5286 6e3e 7bc3 523e
00000100: b0d2 58bb 69bc 923e 5495 20bd ced8 523e
00000110: fc0b 8dbe dab7 c03d 2f95 383c afa8 ecbd
00000120: 1ed9 4d3d 7f45 afbd 67f1 5bbc ab6d 00bd
00000130: 9449 60be 6f46 ed3d d325 9d3d df4e 343d
00000140: 0b8a 043d be72 c63c ef24 14bc 431c 12bb
00000150: 1174 04be 4bb2 5d3e 89c7 0f3e 6f37 45be
00000160: 93f9 26bd 273d 36be 34b0 813e fadf 203e
00000170: 1c9f 1d3c 64f9 103e 3271 18bc ce07 98bd
00000180: eab6 e93e fc96 923e e472 533d 80d5 d73a
00000190: f4d8 ac3d 3c76 08be 1751 37c0 1d51 c5be
000001a0: d056 a9bf 7752 a5be 7948 1ebd 7f27 263e
000001b0: fa57 e5bd bb2f d33d be99 eabd 6582 a1bd
000001c0: c2ee 0d3e 13c9 c63d e091 20be eac3 b23d
000001d0: 7007 63bd 912b 22be eb61 a4be fd1d fe3d
000001e0: 6d18 7cbe 7af2 1bbd f959 773a 739f 8a3d
000001f0: 7452 bdba 5227 483d 4176 a4be d8bb c03d
00000200: c1d0 85bd 9a31 93bd 8a3b 393c ae7c dfbc
00000210: 57e3 20bb fbb0 2d3c 2a3b aa3d c071 0b3d
00000220: f3e5 513d 6cbb 77bd 8aa8 58be f964 96bd
00000230: 1abd d33c 4e8e 06ba d07a f5bc ac53 b6bc
00000240: 028e d2bc 620e f73a 971d 8c3d 67cb 63bd
00000250: 57f0 cbbc 05f4 dabd 5ae0 43bd 7153 c4be
00000260: 5f9f 0e3f 6277 abbe 813d 163f c9ce b23d
00000270: 0cf6 36bd 8242 263d 2ea3 553e 570b fb3d
00000280: dcac 2c3e 5342 e23d ea13 123d b2de 4e3e
00000290: e833 483e 44f3 a13d 4acb ecbd d592 c4bc
000002a0: 5375 ac3e 6955 bd3d dd4c e53e 27fd 163e
000002b0: ac7a e13a d96c 893b 6686 803d 9aef b0bc
000002c0: d36d f0bd ff91 e03c 05e2 53bd eee1 f4bd
000002d0: 66bb 8ebc 93aa 453c e2b9 b2bd b6c8 21be
000002e0: 1c18 143e 6b96 6cbe 9821 eb3c 9c01 053e
000002f0: a60e 63be f534 2c3e 7b21 5a3d 2c72 0f3d
00000300: 2ea3 5cbc a320 ae3d 3b15 813d 047f 36bd
00000310: eee5 dbbe 6b87 97bd e751 78bd 9464 373d
00000320: 3735 d13c d771 6bbd f7b2 d0bf b97c 22be
00000330: b1a6 29bf 0901 7fbd 8bcf 12bd a791 47be
00000340: eaa5 27be ce6c da3d 880d 27bd f7ed c0bd
00000350: 6f9a 3b3d 913b 8d3e 2a5e 9c3c 2e4f 2e3d
00000360: 127a bb3c 5268 9cbd 1c75 f5bd 6f1d 33bd
00000370: 3d33 05be aa17 f2bc ce19 383d 9e6f e4bb
00000380: b9c2 863d 76ac 1abc b505 1fbd afc8 753c
00000390: ea38 633d 1a1a 80bc 2926 b93c 928b 133c
000003a0: f273 863d 9c0a 98ba 161f 3d3e 3a63 8a3d
000003b0: 7d64 e13c 51f2 c83d 7244 e7bd 4f20 353d
000003c0: ef7f 2c3c ad52 edbb 08e3 37bd f22c 62be
000003d0: e493 e33d a297 bb3d e5bf 1ebe 3c98 11be
000003e0: ceaf 033e a4f3 e93d fa63 53bc 383d 10be
000003f0: 7c86 2d3f ed31 b2bd 466b 60bf 08ec 2b3e
-0.006003937 -0.32672635 0.51982266 -0.5955032 -1.5958352 -0.022829175 0.035567824 0.13998885
0.04866522 -0.03857736 0.16166656 -0.06543931 0.14292444 0.027923128 -0.005976065 -0.132347
0.052754622 -0.13997057 0.47935173 -0.00043764059 -0.8097017 0.12017477 -0.16300789 -0.057824943
-0.015269245 -0.010676295 0.17270567 -0.06924328 0.021610847 0.047467966 0.0013328047 -0.0040274505
0.010579181 0.015236394 0.25792637 -0.12091577 0.1379417 0.15356466 -0.07800967 0.041195907
-0.009062531 -0.009176392 0.05408037 0.041581646 -0.061506644 0.058141533 0.14565973 0.106636815
0.03941237 -0.07693767 -0.012635616 -0.034552723 -1.6346594 0.025460854 -0.35116857 -0.13165627
-0.1609767 -0.13929641 -0.16246162 0.14219464 -0.2483761 0.033754133 0.23293427 0.20582382
-0.0033084564 0.2865937 -0.03920491 0.20590517 -0.27548206 0.09410067 0.011266037 -0.11555611
0.050255887 -0.08558177 -0.013424254 -0.031354588 -0.21903068 0.115857 0.0767323 0.04402053
0.03235821 0.024224635 -0.009042009 -0.0022294677 -0.12934901 0.21650045 0.1404096 -0.19259427
-0.040765356 -0.17796765 0.25329745 0.1571044 0.009620454 0.14157635 -0.009304332 -0.074233636
0.45647365 0.28630817 0.05162324 0.0016466826 0.08439818 -0.13326353 -2.8643243 -0.38538447
-1.3229618 -0.32289478 -0.038643334 0.16226004 -0.11198421 0.10311838 -0.11455105 -0.07886199
0.1386061 0.097063206 -0.15680647 0.08728774 -0.055427015 -0.15836932 -0.32105955 0.124080636
-0.24618693 -0.03807304 0.0009435709 0.06768694 -0.0014444129 0.048865624 -0.3212147 0.09410828
-0.06533957 -0.07187195 0.011305699 -0.027281132 -0.0024549568 0.010601277 0.08312066 0.034044027
0.051244687 -0.060481474 -0.21158043 -0.07343478 0.025847007 -0.00051328994 -0.029965788 -0.022256695
-0.02570248 0.0018848891 0.06841581 -0.0556139 -0.024894876 -0.10691074 -0.04782138 -0.3834491
0.5571193 -0.3348952 0.586876 0.087308474 -0.044668242 0.04059077 0.2086303 0.12258022
0.16862816 0.110478066 0.035663523 0.20202139 0.1955105 0.07907727 -0.11562212 -0.023995796
0.3368326 0.09244806 0.44785205 0.14745007 0.0017202697 0.004193884 0.062756345 -0.021598626
-0.11739697 0.027413366 -0.05172922 -0.11957155 -0.017423343 0.012064594 -0.087268606 -0.15799221
0.14462322 -0.23104255 0.028702542 0.12988895 -0.22173557 0.16817077 0.053254586 0.035020992
-0.013466639 0.08502319 0.063028775 -0.044554725 -0.4294886 -0.07398876 -0.060624983 0.044773653
0.02553807 -0.057481613 -1.6304616 -0.1586789 -0.66269976 -0.062256847 -0.03584246 -0.19489156
-0.16371885 0.10665284 -0.04078439 -0.09420388 0.045801576 0.27584508 0.01908787 0.04255598
0.022885356 -0.07637085 -0.119852275 -0.043729242 -0.13007827 -0.0295523 0.044946484 -0.0069713136
0.06580109 -0.009440532 -0.038823802 0.01500146 0.0554742 -0.015637446 0.022601204 0.009005444
0.065650836 -0.0011599842 0.1846889 0.06757207 0.027513737 0.09811843 -0.11292352 0.044220265
0.010528549 -0.0072425217 -0.04489425 -0.22087458 0.11112192 0.09159781 -0.1550289 -0.14218229
0.12860033 0.11423424 -0.012902254 -0.14085853 0.6778333 -0.08700929 -0.87663686 0.16789258

bias f4 [256]
00000000: 8645 2abd dd27 a6bd fca0 70bd bcd0 913d
00000010: ae80 c43d 364c a53d 4663 f33c c385 e2bc
00000020: ac82 f3bc ecf7 833e f0c5 b43d 99b5 1b3d
00000030: c8e4 5f3d 3330 71bc e374 2ebd 8c44 f63d
00000040: 4a9c 1bbe 2246 aa3d 254e e63d 04e3 f93c
00000050: 0619 86bc 1dd5 993d 3583 e9bb 8efa 95bd
00000060: ebb3 663d 6751 fbbc 2112 123e 28dd e6bc
00000070: acc7 9a3c eb89 2b3d 8ede f5bd 21ea ba3d
00000080: a83d dabd 93f5 57bc d53f 7fbd d63f 6e3c
00000090: e14d 3ebd ec80 2cbb 8c8e d43d 7fe9 1b3e
000000a0: 7f49 293c b62a 043e 7588 bbbc f869 713c
000000b0: 7c22 85bc f2c2 edbb 05c7 98bd ec33 aabd
000000c0: dd28 5a3d be68 013e 13f3 35be b309 36bd
000000d0: 925a 133d f894 95bd 27bf c4ba d5e0 db3b
000000e0: acd5 a13d 2087 d43d b0c0 f93c 0ff9 5dbd
000000f0: 9b48 f93d d231 e7bd 4b5f 85bd 2022 5fbc
00000100: fd51 583c 314a 343d 41b5 35bd 4965 f9bc
00000110: fb2a bcbc 230f 7a3c 7c31 843d c1d9 903d
00000120: 7b96 3bbd bd3b bb3d d0a2 8b3c a1b9 1dbd
00000130: 5147 963c 704e 753d e3b6 063e cb7d 053d
00000140: 47eb 773c 0e08 6f3b 8aa6 863d 089d e13d
00000150: 6891 55bd b34f 1dbd feda c43d af6e a8bd
00000160: bd0c ce3c 4a4d 05be fb25 f83c cd0b 9abc
00000170: 1a79 d73a eb56 023c f3c7 3abc a02c f9bb
00000180: 6a29 e43c d5c8 cabd db6e e7bc e45f 443a
00000190: 9265 a63d e7c5 453b 6952 893d 9d5f e1bc
000001a0: a0b0 213c 39ec d3bd 8675 133d b4e5 e2bc
000001b0: e00c 32bd a367 e43d 37f2 053e fd3f 7fbc
000001c0: 2248 48be ee2e 5a3d 4606 103d 3379 5a3d
000001d0: c0a0 423c 4c20 013e cd7e 26bd e96c bebd
000001e0: e6d5 d5bd 53a3 a1bc 820e cdbd 6d95 a53d
000001f0: 0b38 2c3d d587 af3d e4e5 0c3e 0f08 8cbc
00000200: cef6 e63d 35e5 f4bd 8aa5 153c cd15 9e3d
00000210: 27b4 46bd 6b2c eabd de7b 3e3c 0591 dd3c
00000220: c471 b1bc 7f17 01bd 52ae 953d f26e 723d
00000230: 0c47 b9bd 6712 a93a 7a68 ae3c 1185 96bd
00000240: 0191 4dbd 20de e2bd 97df b2bc abec 99bd
00000250: 89ea 363c 4395 b4bd fec7 d7bc df5f c53d
00000260: 8375 03bc b204 443e aa79 d63d 30d7 0a3d
00000270: c407 593d a477 c03c 0466 71bb c14a 2cbd
00000280: ba57 df3d 8fc3 b1bd 4d19 46bd 5435 4a3d
00000290: 7dbf 84bd c187 edbb 6429 adbc 4234 10be
000002a0: c7e7 433d ae8d f53a f3e8 183e 1602 8dbc
000002b0: 99f8 04bc 1140 0cbd 60a0 f6bd be17 463b
000002c0: 112b 963c 43b8 993d 0232 ac3d 28d9 f43c
000002d0: d84c 37bc 3c71 c53d 661c 0bbd 1564 b03d
000002e0: 326c 1fbc ef98 f538 4e6e ae3d 0fd0 273e
000002f0: c5a6 a43c aa3a 79bd 288b 113d 9162 043e
00000300: 6ec6 0a3e 5ee0 e7bd 0c44 743d 3bfd 9c3d
00000310: 212a 483d 3b6c 763d 890a 233d d405 ce3d
00000320: 4829 29bc 4be3 453d 339c 24bc fc13 a4bd
00000330: f8fe 363c 178e b8bd 247d f13d 39c1 60bd
00000340: ebc2 a4bc cd3a b83d 8899 c6bd c454 693d
00000350: 71af 27be b5d1 1a3c 17d2 4c3d 390b fcbd
00000360: 9ee3 adbd 2eea b63d 37eb 36be 6f4c 2e3e
00000370: 9f8d 1e3d 8d73 83bd ea58 1f3d c5f1 7a3d
00000380: 6066 1f3c 3413 24bd c427 c13c 32e1 10bd
00000390: c03e 03be 0565 c03c 0e9d 9b3d 22f0 fcbc
000003a0: 9f44 67bb bdb8 e73b 8e58 0c3d dd60 80bd
000003b0: c2a6 623e c786 2e3d 2107 eb3d 94ce fd3b
000003c0: 4ea3 613c 4e8c 433c f5b8 92bb 764d 673d
000003d0: 8122 6bbd e46f ad3d a6d0 873d 08ad 9b3d
000003e0: 6a58 1bbd fe69 7cbb 4b46 193c 25c9 de3c
000003f0: e072 91bc 7115 9a3c 91e0 b6bd 146f a8bd
-0.04157021 -0.08113072 -0.058747277 0.07119891 0.09594856 0.08071177 0.029710423 -0.027651673
-0.029725395 0.25775087 0.08826816 0.038014982 0.054661542 -0.014720964 -0.04259194 0.12024793
-0.15196338 0.08314158 0.11245374 0.030503757 -0.016369354 0.07511351 -0.007126237 -0.0732318
0.056323927 -0.030678464 0.14264728 -0.028181627 0.01889404 0.041879576 -0.120053396 0.09126688
-0.10656291 -0.013181108 -0.062316734 0.014541587 -0.04646099 -0.002632196 0.10378751 0.1522579
0.010332464 0.12906918 -0.022892216 0.014734738 -0.016251795 -0.0072559053 -0.07459835 -0.083106846
0.053261627 0.12637612 -0.17768507 -0.044442844 0.035975046 -0.07303804 -0.0015010581 0.0067101517
0.07902083 0.103773355 0.030487388 -0.0541926 0.121720515 -0.11288799 -0.06512316 -0.013618976
0.013203141 0.044016067 -0.04436231 -0.030443804 -0.022969713 0.015262398 0.06454751 0.07072783
-0.045797806 0.091422535 0.017045408 -0.038507108 0.018344553 0.059889257 0.13155703 0.03259067
0.015131778 0.0036473307 0.065747336 0.110162795 -0.052140623 -0.038406085 0.09612082 -0.08224236
0.025152558 -0.13017765 0.030291548 -0.018804455 0.0016439289 0.007955293 -0.011400211 -0.0076041967
0.027851779 -0.09901587 -0.028251102 0.00074910955 0.08124842 0.0030177773 0.067051716 -0.027511412
0.009868771 -0.1034779 0.03600075 -0.027697422 -0.04346931 0.1115258 0.13080679 -0.015579221
-0.19558766 0.053267412 0.035162233 0.05333824 0.011879146 0.12609977 -0.04064827 -0.09298117
-0.104411885 -0.0197312 -0.10012533 0.08085141 0.042045634 0.0857083 0.13759571 -0.017093686
0.11277543 -0.1195778 0.009133706 0.07719002 -0.04851165 -0.11434253 0.011626212 0.02704669
-0.021660693 -0.03151655 0.073086396 0.059187837 -0.09046754 0.0012899161 0.021290053 -0.07349599
-0.050187115 -0.11077523 -0.021835132 -0.07515844 0.011164316 -0.08817532 -0.02634048 0.096374266
-0.008023622 0.19142416 0.10472424 0.033896625 0.05298592 0.02349455 -0.0036834488 -0.04206348
0.109054044 -0.08679878 -0.048363972 0.049367264 -0.06481836 -0.007248849 -0.0211379 -0.14082435
0.047828462 0.001873424 0.14932613 -0.017212909 -0.008115911 -0.034240786 -0.12042308 0.0030226554
0.018331083 0.07505848 0.08407976 0.029888704 -0.011187755 0.09640738 -0.03396263 0.08612839
-0.009730386 0.000117109965 0.08517133 0.16387962 0.020099053 -0.060846962 0.0355331 0.12928225
0.13552257 -0.113220915 0.059635207 0.076654874 0.048868302 0.06016181 0.03980497 0.100597054
-0.010324784 0.048312467 -0.010047006 -0.08011624 0.011169188 -0.090114765 0.11791447 -0.05487177
-0.020112475 0.0899559 -0.096972525 0.056965604 -0.1637552 0.009449412 0.050005045 -0.12306828
-0.0849068 0.08931385 -0.17863165 0.17021345 0.03870928 -0.06418524 0.038903154 0.061265726
0.009728998 -0.040057376 0.023578532 -0.035371013 -0.12816906 0.02348567 0.07598315 -0.030876223
-0.0035288704 0.007071583 0.03426414 -0.06268475 0.22133926 0.042609002 0.11475969 0.0077455733
0.013771845 0.011935307 -0.004477615 0.056470357 -0.057405952 0.08468607 0.066315934 0.076013625
-0.037926115 -0.0038515325 0.009355138 0.027195523 -0.017754972 0.018809052 -0.089295514 -0.082243115

weight f4 [256, 256]
00000000: 7724 f43d 11ae 6f3c e223 a83d 33ec c33c
00000010: ccca b53d b412 813d 192a 4b3e fe91 85bd
00000020: 3476 223e b079 d13d 55f8 bc3b d6bb ecbd
00000030: 3807 903d c47a f23d 820a 2e3d 09fb 7abc
00000040: 957c 1a3e f58f d13d f968 94bc f3bc 233d
00000050: cd03 d5bd 16ed 72bd ee3e f93d 6e9f 323e
00000060: e373 72bd a3a8 853e 3997 6f3e 3de9 4e3e
00000070: 9047 823d 5065 d2bc 4e23 14be 4382 753e
00000080: 8792 20be 3c11 943d f6ae e5bd 8246 133e
00000090: ab49 673d 5228 81be 5388 953b a7a1 bf3d
000000a0: e37f 37be dd41 94bd e47f 753d 25e8 06be
000000b0: f466 c83d f8c9 a6bd 8758 92be a218 643e
000000c0: bba3 703e b1ee 583d 668e 8dbd 385a 6cbe
000000d0: ba02 57bd 6796 11bc 0ecb d2bc 57cc 04bd
000000e0: 7179 85bd 8b0e aebd 1dcc 4a3d da99 d03c
000000f0: b332 943d 5a47 673e 292a 103e bac0 ce3d
00000100: 95ab a1bd 72d8 bd3c 6855 bb3c cc0f e6bd
00000110: 55da 22be 61a8 b2bc 8487 f43d 6697 20bd
00000120: 2004 b53d a7b5 943d e957 a7bb cbdb b0bb
00000130: 2a27 32be f428 023b 4cad 93bc 67f8 4d3d
00000140: 62ed 29be d7bd 34be ffc7 b9bd f178 793d
00000150: b168 9e3d fd14 793d 19fe af3d e02e a73e
00000160: f716 973c d824 16be a654 f2bd 03c9 753d
00000170: 3074 413e ee28 c63b cc39 debb dda3 02be
00000180: d57c 6cbe 5b82 dc3c 971d 833c ae02 16bd
00000190: 547e cbbc cce1 a33d 2e07 aebd 3c6f 8f3d
000001a0: d39f 683d 2ecf 37bd 04bd 5bbd f51a 54bd
000001b0: c52c f9b9 6631 4f3c d055 2cbd 9a62 bebb
000001c0: 8a22 603d a679 10bd 070a cb3d 5040 9b3d
000001d0: b157 f0bc 02da 79bd abb7 3f3e bcbc 17be
000001e0: 4934 ba3d 122a efbd d23d 8d3d ad5f 0a3e
000001f0: 04dc f4bd eb54 053e de88 5c3d 0440 c6bd
00000200: e8bd f43d 8445 bd3d f08b a7be d2be 60be
00000210: 3c0c d9bd f758 d1bd 90f1 dcbd 10eb 083e
00000220: 267e 3dbd c516 11bd dfe7 063e 7449 cf3d
00000230: 5b5e 70bc ee13 1e3b c5a1 0fbe 8138 f6bd
00000240: 5b61 27bd 2085 18be 5ae0 623e 6c6a 3c3d
00000250: ec08 d0bd 840b f4bb 41f3 51bc 558f 4a3a
00000260: 1c0d 0c3d c0a6 eb3d 5f0c 383e 05ef 6b3b
00000270: c57b 2d3e e9d6 b0bd 310b 92be a220 583e
00000280: f4cf e93d a5cc dfbd 20c6 4abd 84a2 6e3e
00000290: b7a0 13be a7a4 933e 0e9f ad3d b97d 033e
000002a0: fcb8 663e 2ccb a53e b596 54be f9de a6bd
000002b0: ff2e e73d 7e5a 15be a27e afbd 03de c73e
000002c0: 5b66 9cbe 4398 803d 9bf7 08be 961d 893d
000002d0: 57a3 da3b c8bc 3b3e 88f5 52bd a7ca 8d3d
000002e0: b9d9 0c3e d4d0 e03d 68eb fa3c 7b0c 05bd
000002f0: f37b 053b f241 3fbb 8fef b23d b253 6d3d
00000300: 18e0 97bd fe48 993d f2b6 053c 0523 a83d
00000310: 1e32 73bd 68d5 93bd 92c0 d23b c573 c23d
00000320: 23f3 28bc 3cbe db3d 6672 f9bd 09f2 4b3e
00000330: 58bc ddbd c9cf 783d 2b0a 8dbd a3d7 a83d
00000340: ede6 683e e84e 16bd acad b93d 1087 68be
00000350: db4d b0bd 1cb3 a5be f142 adbd ec16 b23d
00000360: 926a b23c f76e 273e ecd1 913b 75e7 b33b
00000370: a05f 7fbe 4f46 b13e 49fd e13c dfb9 083e
00000380: c881 bc3d cb8f 15bd 0602 1a3e 4639 50be
00000390: 82ad ff3d d856 29be ceed 1dbe 765b 69bd
000003a0: 3660 4dbd 8184 c1bd 4cc1 113e da50 963d
000003b0: 8d53 a6bd 9861 013d faab 32bd 3793 ffbd
000003c0: 8416 343e ee4f 343d f553 ed3d e803 cb3c
000003d0: 1bd8 113e f6ad 9abe 200b 8a3d 628a b53c
000003e0: 4756 b4bc 685a 2d3e f47e 64be 4a00 c8bd
000003f0: d8d9 733c ed4c 71bc dc32 23bd 129e 03bd
0.119210176 0.014628903 0.08209969 0.02391634 0.08876571 0.063023955 0.19840278 -0.065219864
0.15865403 0.10228288 0.005766908 -0.11559264 0.07032627 0.11839822 0.04249049 -0.0153186405
0.15086587 0.10232536 -0.018116461 0.039975118 -0.104011156 -0.059308134 0.12170206 0.1744363
-0.05919255 0.26105222 0.2339753 0.20206161 0.06361306 -0.025683075 -0.14466593 0.23975472
-0.15680896 0.0722985 -0.11215012 0.14382365 0.05646674 -0.25226074 0.0045633703 0.093570046
-0.17919879 -0.07239125 0.05993642 -0.13174494 0.09785262 -0.08143991 -0.28583166 0.22275022
0.23499958 0.05296201 -0.06911926 -0.2308129 -0.052492835 -0.008885956 -0.02573159 -0.032421436
-0.06517304 -0.084988676 0.049511064 0.025463987 0.072362326 0.22585812 0.14078583 0.100953534
-0.07894055 0.023174498 0.022867873 -0.11233482 -0.159036 -0.021808805 0.1193991 -0.039206885
0.088386774 0.0726121 -0.0051069153 -0.005397295 -0.17397752 0.0019860836 -0.01802697 0.050285723
-0.1659446 -0.17650543 -0.09071349 0.060906354 0.07734812 0.06081103 0.08593387 0.3265295
0.018443568 -0.14662492 -0.11832552 0.060006153 0.18891978 0.0060473597 -0.0067817923 -0.12757821
-0.23094495 0.026917627 0.01600532 -0.03662365 -0.024840511 0.08002052 -0.08497463 0.07003638
0.056793045 -0.044875316 -0.053647056 -0.05178352 -0.00047526337 0.012646055 -0.042074025 -0.005810094
0.05472044 -0.035272263 0.09914022 0.07580626 -0.02933869 -0.060998924 0.18722408 -0.1481809
0.09092004 -0.11677946 0.06896557 0.1351306 -0.11956027 0.13020675 0.053841464 -0.09680179
0.11950284 0.09241775 -0.3272395 -0.21947792 -0.10598037 -0.10222047 -0.10788262 0.13370919
-0.046262883 -0.035422105 0.1317439 0.10121432 -0.014670934 0.0024120766 -0.14026554 -0.12022496
-0.04086433 -0.14894533 0.22155896 0.04599993 -0.10157952 -0.007447662 -0.012814344 0.00077270466
0.03419219 0.115064144 0.17973469 0.003600062 0.16941746 -0.08634741 -0.28524163 0.21106198
0.11416617 -0.10927705 -0.049505353 0.23304182 -0.14416777 0.28836557 0.08477603 0.12840928
0.22531503 0.3238157 -0.20760615 -0.081479974 0.11288261 -0.14585301 -0.08569075 0.3903657
-0.3054684 0.062790416 -0.13375704 0.06695096 0.0066723037 0.18333733 -0.051503688 0.069234185
0.1375493 0.10977331 0.030629829 -0.032482605 0.002036807 -0.0029183594 0.087370984 0.057941146
-0.07415789 0.07484625 0.008161293 0.082098044 -0.059373967 -0.072184384 0.0064316476 0.094947375
-0.010311875 0.10729644 -0.12180023 0.19916548 -0.10826939 0.060745034 -0.06886705 0.082442544
0.22744341 -0.036696345 0.090663284 -0.22707772 -0.086086 -0.32363212 -0.08460034 0.08695778
0.021779332 0.16350923 0.0044500735 0.0054902383 -0.24938822 0.34623954 0.027586596 0.13352154
0.09204441 -0.036514085 0.15039834 -0.20334348 0.12484266 -0.16537035 -0.15422747 -0.05697199
-0.050140582 -0.09449101 0.14233893 0.0733964 -0.08121405 0.031587213 -0.04362104 -0.12479251
0.17586714 0.04402154 0.11588279 0.024782136 0.14242594 -0.30210847 0.06740403 0.022160713
-0.022013796 0.16929018 -0.22314054 -0.0976568 0.014883481 -0.014727813 -0.039843425 -0.03213317

bias f4 [256]
00000000: ac43 9dbd 85b5 93bd c28e 7a3d 0a55 433d
00000010: 6965 2b3d 0821 67bc bc77 80bb 210c c83d
00000020: 1394 f3bb f4aa ab3c 897a ac3d a7a6 e33c
00000030: 9f65 0abd 358e 9ebc 1ce7 203d 3e1c b0bb
00000040: 719c 9fbc 9f7d ff3c f846 e63c 2d5b 8a3d
00000050: 9419 93bc bf72 d53b ea58 243c 4b23 a03c
00000060: b112 b93d d8e1 02bd dcf6 82bb ee2a 1c3d
00000070: ccd7 dbbb 9829 4dbd 432f d6bd 0112 de3c
00000080: 5af5 87bc cb81 62bd bb4c 873c 797b 863d
00000090: 399a a13d bd2f 53bd 5437 bdbc e5cf d23a
000000a0: e00a 5e3c 4c8b dcbc 8643 ab3d 7ee3 2fbb
000000b0: 3a46 8d3c 301f 053e f2bb 81bc 2176 3bbc
000000c0: 8dcb 71bd c243 6fbc 0c5b e73d ae6b f1bd
000000d0: 0d75 b4bc e408 e9bd 72bb dbbd c31d 023d
000000e0: 7bcb 4fba 4b77 29bc 5dee 87bb ecb8 33bd
000000f0: 0b5e c5bc a123 09bd a9e3 693d d32d d6bc
00000100: 7533 c2bc 5a21 0c3e c021 373e df80 be3d
00000110: e5ec b3bc 63c9 cdbb 13cf c9bc 8cfd 72bc
00000120: c119 0cbc 18c7 0bbd 3ee5 08bd b0e9 f13c
00000130: 5ce4 5c3d 8722 4a3d 6f33 0bbd 23a1 0ebd
00000140: d01b a23b 5cd6 743c aab2 a4bc ceb4 cf3d
00000150: 48bd 3cbc 3c96 1bbd 5ff8 edbd 1e52 b2bc
00000160: 7513 a43d e4fc e23c 99f2 febc d418 82bc
00000170: eba3 cc3d d78a c5bc ac72 bbbc 1f10 82bc
00000180: 5c41 d43d 43f8 ae3c 650d 1b3e ae3c ff3c
00000190: 1dd1 ccbd 5e75 d1bc cade aabc 0483 e63c
000001a0: d17f b53c dcea d7bd 94bc 1bbc 4e6a 7cbd
000001b0: b410 683d 79ce 40bd e7c8 d73d 5008 9c3d
000001c0: 45af d93d dd54 a4bd d9fe d03b d28b 673d
000001d0: 4c75 f33d ccd8 9abc 95ff c7bd bca0 67bd
000001e0: fde2 0ebe 8076 863c d3ad 793c 7feb 273c
000001f0: 168f bebd 6cd9 ccbb eb0d 123d 23e1 2b3d
00000200: cc1e 35bd e0a2 e43c 0bb8 86bd e9c0 b1bd
00000210: 4278 0f3c 73f3 e23c 4be9 78bd 730e a23d
00000220: a4e5 cbbd ab1b 89bd 25e2 bcbc 2eb1 c23c
00000230: 4baa 733d f895 0f3e e56d 333d cebe aa3d
00000240: 66c5 e03c 669c 1abb 6818 5e3c 2d59 073d
00000250: 1931 db3b 3ee9 87bc 4452 25bd 8e21 adbd
00000260: d4aa ee3d ae12 b3bd 9f12 5dbc d611 1cbd
00000270: 466d d43c 6f97 b9bc 2747 9ebc fc1c 993c
00000280: f888 c03c 3524 12bd 52d2 253e a3ed 253d
00000290: 772c 58bd 9480 cdbd a7be e43d f803 123d
000002a0: f31e 7bbd 15e3 b23c c0ba 5e3d 0873 913c
000002b0: 0e9b a1bc 42f3 413d 0193 973d f451 5d3c
000002c0: 2aa4 85bc fdc7 493c 8ba6 653c d15c e4bd
000002d0: f1aa 89bd 8d8b 6e3c 73e8 153d 3a16 af3d
000002e0: 7633 4fbd 93e9 0bbe d96a 533d f199 bcbd
000002f0: f684 a03c 1cc3 133c 511e 29bd f3a1 e33d
00000300: 8e37 98bb 7ec0 973d d760 21bd dcc1 a13c
00000310: 5c40 f93d a036 f4bd 9da8 b1bd fafb 97bc
00000320: 29db 0fbd 57fc c6bd 095a 443c 2259 aebc
00000330: 3469 0fbd 7ea9 30bd c6f5 8dbc ad61 3d3d
00000340: 90f0 a13c cafe 57bb 4cdf 92bd d5ce a03d
00000350: 99c6 24bc d12c bfbd 356a b13d 773b a6bd
00000360: 99a9 d43c 490f d03c a34c 89bc 3cb0 97bd
00000370: b48b 453d a96f 533d 90f7 ecbc 36c0 ebbd
00000380: cf91 b2bd 24a0 3dbc 9926 b9bc cbce adbc
00000390: 934f e2b9 711b 923c 94c7 d5ba 507e d73d
000003a0: 3d77 263d b8c4 13bc 76d9 85bc 5251 9c3d
000003b0: 25f4 cdbd 9195 8ebd 3620 35bd efd9 b9bd
000003c0: 3078 403c d8e1 6bbc fccb b93b 0ed6 c73b
000003d0: 84c8 d83d 90f7 fcbc 26f0 96bc fa42 cd3c
000003e0: d6f1 ef3b b9d2 bebd b593 a43d 620c 16be
000003f0: 722a d5bb c459 5f3c 5b34 dc3c 49c6 2b3b
-0.07678923 -0.072123565 0.0611713 0.04768852 0.04184476 -0.014106996 -0.0039205234 0.097679384
-0.0074334233 0.02095554 0.08421809 0.027789427 -0.03378832 -0.019354919 0.039282903 -0.0053744605
-0.019483777 0.03118783 0.028110012 0.06755672 -0.017956533 0.006513923 0.010030964 0.019548079
0.09036768 -0.031953663 -0.003996713 0.03812688 -0.0067090746 -0.050088495 -0.10458233 0.027108194
-0.016596485 -0.05529956 0.01651608 0.06566519 0.07890744 -0.0515592 -0.023097672 0.0016083686
0.0135523975 -0.02692189 0.083624884 -0.0026838477 0.0172454 0.13000178 -0.01583669 -0.011441738
-0.05903201 -0.014603557 0.11296663 -0.117881164 -0.02202847 -0.11378649 -0.10729112 0.031766664
-0.00079267443 -0.010343383 -0.004148288 -0.043877527 -0.024092695 -0.033481244 0.05710188 -0.026144898
-0.023706177 0.13684598 0.17883968 0.09301924 -0.021963546 -0.0062801107 -0.024634873 -0.014830958
-0.008551062 -0.034125417 -0.033421747 0.029530376 0.053928718 0.049349334 -0.033984598 -0.03482164
0.004947163 0.014943685 -0.020104725 0.10141908 -0.011519738 -0.03798507 -0.11619639 -0.021767672
0.08011524 0.027708478 -0.031121539 -0.01588098 0.09992202 -0.024114056 -0.022881828 -0.015876828
0.10364029 0.021358615 0.15141828 0.031156864 -0.10000823 -0.02556866 -0.020858187 0.028138645
0.022155674 -0.10542843 -0.00950541 -0.061624818 0.056656554 -0.047071908 0.10536366 0.07618773
0.10629133 -0.08023999 0.0063780365 0.056529827 0.11887607 -0.018902205 -0.09765545 -0.056549773
-0.13953777 0.016413927 0.015239197 0.010249018 -0.09304635 -0.0062515046 0.035657804 0.041962754
-0.044218823 0.027909696 -0.06578072 -0.08679373 0.008756699 0.027703976 -0.06076936 0.07912912
-0.0995591 -0.0669473 -0.023057053 0.023766126 0.059488576 0.14022052 0.043805975 0.08337174
0.027437877 -0.0023591756 0.013555624 0.03304403 0.0066892025 -0.01659071 -0.040361658 -0.08453666
0.11653677 -0.08743797 -0.013493209 -0.038102947 0.025931012 -0.022655217 -0.019321037 0.018690579
0.023502812 -0.03567906 0.16193512 0.04050983 -0.05277678 -0.1003429 0.111691765 0.035648316
-0.061308812 0.021836797 0.054377317 0.017755046 -0.019727256 0.04735113 0.07401086 0.013508309
-0.016313631 0.012315747 0.014016758 -0.11150516 -0.067220576 0.014559639 0.036598634 0.08549161
-0.050586186 -0.1366332 0.05161557 -0.092090495 0.01959465 0.009018686 -0.041288678 0.11114874
-0.0046452945 0.07409762 -0.039398994 0.01974576 0.12170479 -0.119244814 -0.086747386 -0.018552769
-0.035121117 -0.09716099 0.011984357 -0.021282736 -0.03501244 -0.04313039 -0.017329108 0.04623573
0.01976803 -0.0032958263 -0.07171497 0.0785195 -0.010057115 -0.0933472 0.086628355 -0.08116811
0.025959777 0.025397914 -0.016760176 -0.07406661 0.048228934 0.05162016 -0.02892664 -0.11511271
-0.08719217 -0.011573825 -0.022601413 -0.02121677 -0.00043165367 0.01783535 -0.0016310089 0.10522139
0.04064106 -0.009019069 -0.016339045 0.07632698 -0.100563325 -0.06962121 -0.044220172 -0.09074771
0.011747405 -0.014397107 0.005670069 0.0060985154 0.1058512 -0.030879766 -0.018425059 0.025056351
0.0073225303 -0.09317536 0.080359854 -0.14653161 -0.006505304 0.013632242 0.026880434 0.0026210716

weight f4 [1, 256]
00000000: fe2f f4bd aced 04be 9dd3 9b3d 99ff a53d
00000010: 6eb1 ee3a 510c 233e dfdc 13be 86dc 973d
00000020: 4887 f9bd 6049 adbc 785a ab3d b9d1 6e3d
00000030: 9290 d8bd 35a8 103e 445b 963d 51a6 80be
00000040: b8cd b53d cb0e b63e 9942 ceb9 8195 0c3e
00000050: 9193 dc3d a029 a7bd 1796 90ba bdeb 75bd
00000060: 7529 b93d 6c19 fdbd 1e57 a1bd 29aa b8bd
00000070: dadb 83bd d061 39be 7302 19be 5f82 0f3e
00000080: 21fc 743d c634 51be 6d37 103e cc2b 843e
00000090: 1b7d 263e 13e2 bfbd 85b0 b73d 612e 20bd
000000a0: d94c 9db9 55c8 8a3d 9043 423c 3232 563e
000000b0: 624a f43d 4b04 043e 17c0 edbd 21f0 c53d
000000c0: a378 2fbe 6769 93bd 9657 483e b236 ecbc
000000d0: 6410 e6ba 90c7 81be 426f 78be d419 f73d
000000e0: ee1f 503e 22cc 973d 4930 5a3e d5de d6bd
000000f0: 89e2 b7be 95d9 c33d 3cc2 d03d a846 073a
00000100: 5036 f739 01fa 393e 48f5 273e 658f 063d
00000110: 8734 853d 4a87 c63c b735 00be d021 12be
00000120: 9168 5fbd a02b d3bd 4c9b 003e 3032 353a
00000130: 69bb 853d d164 26be 11d8 24be 60f0 90bd
00000140: 7024 fc3c cb4e 343b 4d82 22be 171f b63e
00000150: dd33 11bc b38b 12be 4ecb 60be 3d2c 25be
00000160: 644b 643e 23aa 17be dbbb c1bd 5b77 873c
00000170: 177d 4f3e 4b62 64bd ea11 09be 43d4 efb9
00000180: 2b9f 983d bb7e f0b9 095d 253e bf5c f53d
00000190: 84df 8ebc 178d d3bd c936 90bd 3541 39bd
000001a0: 7ad2 6bbd cd06 cebd 3ce0 643e 4e2b 14be
000001b0: a61f 033e 3e02 45bd 54d8 883d c21e dd3d
000001c0: 9e8f 9d3d 33bf 67bd 48c4 ddbd d993 273c
000001d0: 8106 973e e40e a53d 79d2 8dbd 30a2 9dbd
000001e0: 3be8 79be 36d2 14bd 3435 28bb 3e58 ed3d
000001f0: 7944 62be 61eb 943d d5da fc3d 9f1e 013e
00000200: 8722 89bb 18af fb3d 0734 dabd c1e8 1dbe
00000210: 0a88 8a3b 1229 b0ba b311 cabd bfd3 cf3e
00000220: a32d 5abe c2ae 02be ae06 4ebe a524 fc3d
00000230: 3fdb 933e 5c87 6f3e 2d96 a43e a9ea 5a3d
00000240: 5504 e43d 4850 00be f87b 12bd 28c2 25bb
00000250: ac1a 0d3e 77be 9e3d 6ed0 0c3e 6e83 6ebe
00000260: 5e74 303e a6ac 23be 9bd9 c93d be52 0ebd
00000270: c08b 1cbd 29bd a3bd 2954 17be 8b12 cdbd
00000280: 2043 ec3d e1f6 c4bc 3d59 4e3e 7868 273d
00000290: 80b3 20be 41b3 22be c0a3 fe3d f442 bfbd
000002a0: 1a2b c1bd e670 cc3d 538e 513e e3f4 21bb
000002b0: 305b 493e 3bff 803d ef53 c23e 7a7a b23d
000002c0: 729a e2bd fe3a d1bd de50 08bd c8d4 a9bd
000002d0: be12 4fbe 0482 2cbb 452d b83d 1b01 723d
000002e0: e005 abbd d079 ddbd ac90 b43d f580 03be
000002f0: 1ca0 0ebe 9e0f 0dbd ed99 24be cc5e 6f3d
00000300: 9cc0 743d 3a93 b23d f73a 06be 169f efbd
00000310: 6954 3b3e b66f 1bbe 50b3 f7bd f412 45be
00000320: eafe 433e 0dbf 61be fd50 c33a 3243 eebd
00000330: 7634 cebd b96c 5c3d ca2b 65ba 1fbb 123e
00000340: 0eb6 093e 9d27 263e 9d3f 2fbe 3450 02bc
00000350: 1176 4c3d 23ba 09bd 040a f83d b82a 07be
00000360: 951d 153e 6f80 bc3d 5d32 b7ba 33d1 afbd
00000370: 63ea ce3a 54ca 613d fe74 9d3d cb85 74bd
00000380: b453 44bd 0bc3 1539 790c 80be 4471 71bd
00000390: 1bff d7bd b71b 873d eac4 c0bd ef8a ec3d
000003a0: db4c 933a 405b 10be 3b06 453d 7e7d 153e
000003b0: 1799 50be a233 1fbe 3765 3ebe 0b47 5bbe
000003c0: 72e8 d0bd bcc3 843d d8fc e53d d2d9 c1bc
000003d0: da37 023e 35cf a8be faa0 acbd 1aeb 4c3b
000003e0: 0197 c9bd b992 0bbe dbac 713d 34a8 eabd
000003f0: e687 d73d a4d2 bb3d f1ec 0b3e f6d2 8ab9
-0.11923216 -0.1298129 0.076087214 0.08105392 0.0018210837 0.15922667 -0.14439724 0.074151084
-0.12184006 -0.021153152 0.08366865 0.058305476 -0.105744496 0.14126666 0.07341626 -0.2512689
0.08877128 0.3555816 -0.00039341 0.13728906 0.107703336 -0.08162236 -0.0011031058 -0.06003927
0.090411104 -0.123583645 -0.078779444 -0.090168305 -0.06438418 -0.18103719 -0.1494234 0.14014576
0.05981076 -0.20430288 0.14083643 0.25814664 0.16258661 -0.09369292 0.08969215 -0.03910673
-0.0003000263 0.067764916 0.0118569285 0.20917585 0.1192825 0.12892263 -0.11608904 0.096649416
-0.17135863 -0.07197838 0.19564661 -0.028834675 -0.0017552492 -0.25347567 -0.24261191 0.12065473
0.2032468 0.07411982 0.21307482 -0.104917206 -0.3591502 0.09562985 0.10193297 0.000516037
0.00047151977 0.18161775 0.16402161 0.032851595 0.065041594 0.024234433 -0.1252049 -0.14270711
-0.05454308 -0.10311055 0.12559241 0.00069120806 0.06529886 -0.16249396 -0.16098048 -0.07077098
0.030779094 0.0027512785 -0.15870018 0.35570595 -0.008862463 -0.14311104 -0.21952555 -0.16130157
0.22294384 -0.14810996 -0.09459659 0.016536405 0.20262562 -0.055757802 -0.1338574 -0.0004574378
0.07452234 -0.0004587079 0.16148771 0.119805805 -0.017440565 -0.10329645 -0.070416994 -0.045228202
-0.057573773 -0.10059891 0.22351164 -0.14469644 0.12805042 -0.04809784 0.06681886 0.10796882
0.076934084 -0.056578826 -0.10828453 0.010228121 0.2949715 0.08059481 -0.0692491 -0.076969504
-0.24404995 -0.036333285 -0.0025666477 0.115890965 -0.22096433 0.072714575 0.123464264 0.12609337
-0.004185024 0.12289256 -0.10654455 -0.1542082 0.004227643 -0.0013439974 -0.09866657 0.40591237
-0.21306472 -0.12761977 -0.20119736 0.12311677 0.2887821 0.23391479 0.32145825 0.053446446
0.11133639 -0.12530625 -0.035762757 -0.0025292728 0.13779706 0.07751172 0.13751385 -0.23292324
0.1723189 -0.15983829 0.09855958 -0.034746878 -0.038219213 -0.07995064 -0.14778198 -0.100133024
0.115362406 -0.024043502 0.20151229 0.040871114 -0.15693474 -0.15888692 0.124335766 -0.09338942
-0.09432049 0.09982471 0.20464449 -0.0024712614 0.19663692 0.06298681 0.3795466 0.08714767
-0.11064614 -0.1021633 -0.033280246 -0.08292538 -0.20221993 -0.0026322613 0.089930095 0.059083086
-0.0835073 -0.108142495 0.088166565 -0.12842162 -0.13928264 -0.03443872 -0.16074343 0.058440015
0.059754 0.087194875 -0.13108431 -0.11700265 0.18293919 -0.15179333 -0.12094748 -0.19245511
0.19140211 -0.22045536 0.0014901456 -0.1163391 -0.100686 0.053814624 -0.0008742182 0.14329194
0.13448355 0.16226049 -0.1711411 -0.007953692 0.049917284 -0.03362478 0.12111285 -0.1319989
0.14562066 0.09204184 -0.0013976801 -0.085848235 0.0015786405 0.055124596 0.0768833 -0.059697907
-0.047931388 0.00014282406 -0.25009516 -0.05894591 -0.105467044 0.06597083 -0.094125584 0.11549937
0.0011238115 -0.14097309 0.048101645 0.14598653 -0.20370899 -0.1554704 -0.18593298 -0.2141382
-0.102005854 0.06482646 0.11229867 -0.023663435 0.12716618 -0.32970586 -0.08429141 0.003126806
-0.09843255 -0.13630189 0.05900274 -0.114578635 0.105239674 0.09171036 0.13664605 -0.0002647859
