trained_models/ppo/me5418-Cassie-v0/0528-10-51-56-s1231/critic.pt (torch, 319998 bytes, 5 tensors)

weight f4 [256, 50]
00000000: de0c c8bd 7b7b 9abd 4072 bd3b ca9f 633d
00000010: 175a a03c ef99 4fbd 3fcd bcbd d4b7 26bd
00000020: cf2c 5cbc fe53 54bd dc36 933c 4baa f03d
00000030: 586d 093d fd6f 133e 49ab ee3d 2934 f8bc
00000040: 825e cfbc e6cd 76bd 711f 6c3c 9f54 12bc
00000050: 274e 99bd 4174 da3a f767 f83d e2d4 623d
00000060: 7903 ab3d d98a 22bd 5cf8 6ebc 6294 a03c
00000070: 07f5 92bd a1c8 79bc 18b5 9a3a 1343 2fbd
00000080: 0052 2fbd a6c0 013d 253b a1bd b268 b1bc
00000090: c30c 79bd 85a4 5cbd a9e5 c7bc 80e0 cfbc
000000a0: 5685 4bbd 31c5 7c3d d25f 22bd 3553 46bd
000000b0: f300 efbb 10e2 d13c 8bf3 a03c 1ce3 d2bb
000000c0: ff13 b5bd 70d3 debb 640d 223e c480 453c
000000d0: c75e fc3d ed9f e8bc b25b dabc 2c02 1ebd
000000e0: 1647 e53d a83f 9b3c 728b 563c 642b a9bc
000000f0: d5aa 92bc de42 933d 680a 723d 84a4 a4bc
00000100: 3b53 e3bc cf38 213d cd7e 88bd 1e87 9b3d
00000110: 3c33 e1bc c46d ea3b b126 61bc b5b2 87bd
00000120: 744c 72bd fd04 93bd 6d68 3abd d23d 2cbd
00000130: 7344 af3d 8af9 fabd bad5 b53c 03bb 2cbd
00000140: 8823 98bc 1057 553d 0589 c8bc e4ee 653d
00000150: 8c8f eb3c ba7f a63c 9ca5 adbc 3594 9fbc
00000160: cb04 833b 7074 a7bd 5df8 bc3d c385 c4bd
00000170: 0171 cf3d bb14 27bc 0a59 02bd 6470 25bc
00000180: 3a5d 603d bfbc d0bc e046 8cbc 0611 093e
00000190: 7a1c 4c3d 04b4 283e 6f3f 263a 12b9 bc3b
000001a0: fea9 29bd 0ef8 b33c 6c58 f8bc e738 3dbd
000001b0: 8b33 72bd 0d88 7a3d 2007 3d3d 954c 81bd
000001c0: 5242 813d 3325 c93c 7fe7 deba efed 263d
000001d0: 3bc2 01bd c117 b8bb 58a1 8dbd a068 a43d
000001e0: f4f9 0f3d 064c 94bd 8cd4 493a 4d1b 3b3d
000001f0: c1b9 403d 8577 50bd bd72 a7bd f5af bd3c
00000200: 7f11 8b3d f46f dc3c e27f 3f3d 06d8 52bd
00000210: 131d 9f3d f8c1 97bd 8b3b b1bc f5dc cd3c
00000220: 5ae0 51bc 5cc5 1bbd 2540 a1bd 6664 bbbd
00000230: 5d49 d53d d500 28bd 2cd8 8f3c f780 17bd
00000240: 6721 38bd 6138 b93c e730 92ba 56c0 30bd
00000250: d83d 5f3d 8b6e 9e3d 1fab a9bd 41df 09be
00000260: 6f5b 6ebb 3455 433b 8c5e 75bd 483e 1c3d
00000270: f812 503d f62c 4fbd fccd c83d cb7b a73d
00000280: b3a3 c8bd ce5a 9dbc 43de 54bd 5f9f 0fbd
00000290: e32f cabd 75e2 ffbc 0729 22bd efef 9f3d
000002a0: b28c f7bd 0a9f e2bc 81e2 253c 79e5 433d
000002b0: 22e9 9b3d 6a51 dfbd a936 c93c 9a91 473c
000002c0: 6648 0c3d f2b8 6fbd 96fb acbd e428 703d
000002d0: b944 803d d54a 993d 5d14 283d 263a 683d
000002e0: b86c a63d 45fe f23d 7abb a8bd c75b a9bb
000002f0: b5a2 04bc 154a 24bc 5d8e 9abd b137 d93b
00000300: a701 133c 5dab 7d3d faba 153d d254 473d
00000310: 9a73 a6bd a13d 153e 883c 83bd ebd5 1d3d
00000320: f66c 853d 1271 e7bd 0c6f f3bd d1b3 94bd
00000330: 2900 27be f6a4 3b3a 20b9 233c 31d9 4fbd
00000340: b844 40bd e504 603e 35f0 fc3c 6de2 11be
00000350: 33f3 f1bd 1f71 b23b c313 82bd 5442 67bd
00000360: 3027 6fbd ba5a 6f3d f3f7 fa3b e1f9 193d
00000370: 79e8 95bd 5f84 2dbd 8f68 653c 2dbe c1bc
00000380: 1a46 fd3c 15cb 203c 9acd 903d 5e80 24bc
00000390: 00cf 32bb 0271 24bc 263b e7bc de7b bebd
000003a0: 0543 75bc 795f ff3c 9948 503d ae85 2fbd
000003b0: 1bad 6d3d a87d 93bd f2d3 b43d 84a5 2abd
000003c0: a3b3 dd3d 5592 4fbd 4bec dcbb 1ce5 9bbd
000003d0: 5469 cfbd c47d 3f3d 9931 8fbc 26c9 713d
000003e0: 1659 473d 28ff de3c 4c9e b5bd c405 cabd
000003f0: e1fa 903d 1b99 e23d 65b3 083e 0476 2e3d
-0.09768079 -0.07543083 0.005781442 0.05557231 0.019574208 -0.050683912 -0.09218835 -0.040702656
-0.013438418 -0.051837914 0.017970495 0.11751231 0.033551544 0.14398189 0.11653764 -0.03029831
-0.02531362 -0.060254954 0.014411793 -0.008931308 -0.074856095 0.0016666726 0.12129205 0.055378802
0.08350272 -0.039683197 -0.014585581 0.019602004 -0.071756415 -0.015245588 0.0011803238 -0.042788576
-0.04280281 0.031677864 -0.07872609 -0.021656368 -0.060803186 -0.053867836 -0.024401503 -0.025375605
-0.049687706 0.061711494 -0.039642163 -0.048419196 -0.0072938143 0.02562049 0.01964738 -0.006435765
-0.088417046 -0.0068001077 0.1582542 0.012054626 0.12322765 -0.028396571 -0.026655052 -0.03857629
0.11195199 0.018951252 0.01309477 -0.020650573 -0.017903725 0.07190488 0.059091955 -0.020097978
-0.027749648 0.039360818 -0.0666481 0.07594131 -0.02749025 0.0071541984 -0.013742135 -0.066258825
-0.059154943 -0.07178686 -0.045509744 -0.042051144 0.085579775 -0.12254627 0.02219664 -0.042170536
-0.01857163 0.052084982 -0.024479399 0.056136027 0.028754972 0.020324577 -0.021197133 -0.01947985
0.003998374 -0.081765056 0.09227059 -0.095958255 0.10128976 -0.010197814 -0.031823196 -0.010097597
0.054776408 -0.025480626 -0.01712364 0.133854 0.049831845 0.1647492 0.000634185 0.005759367
-0.041421883 0.021968868 -0.0303156 -0.046196844 -0.059131186 0.061164904 0.046149373 -0.06313435
0.06311478 0.02455387 -0.0017006247 0.040754255 -0.031679373 -0.005618066 -0.069155395 0.08027768
0.035150483 -0.07241063 0.00076992135 0.045680333 0.04705215 -0.050895233 -0.081761815 0.023155192
0.067904465 0.026908852 0.046752818 -0.051475547 0.07769217 -0.074100435 -0.021634838 0.025129775
-0.012809837 -0.038030013 -0.07873563 -0.09150009 0.104143836 -0.04101642 0.017559133 -0.036988225
-0.04495373 0.022609891 -0.001115349 -0.043152176 0.05450234 0.07735928 -0.08284592 -0.13464071
-0.0036370417 0.0029805424 -0.05990462 0.038145334 0.05079934 -0.050579987 0.098049134 0.081779085
-0.09796848 -0.019208338 -0.051969778 -0.035064097 -0.09872415 -0.031235913 -0.039589908 0.078094356
-0.120873824 -0.027663726 0.0101248035 0.047826264 0.07612826 -0.109042004 0.024562197 0.01218071
0.034248732 -0.058525987 -0.08446424 0.058632746 0.06263108 0.07484976 0.041035045 0.05669608
0.08126205 0.11864904 -0.08238883 -0.0051684114 -0.008095433 -0.010027428 -0.07546685 0.0066289534
0.008972562 0.061931003 0.036555268 0.048664875 -0.08127518 0.14574291 -0.0640803 0.038534086
0.06514923 -0.11300863 -0.11886415 -0.0726086 -0.16308655 0.0007158065 0.009992868 -0.05074424
-0.046940535 0.21876867 0.030876258 -0.14246531 -0.11813965 0.005445614 -0.063514255 -0.05645974
-0.05838698 0.058436133 0.0076589524 0.03759182 -0.07319731 -0.042362567 0.0140019795 -0.023650253
0.030917216 0.0098140435 0.070704654 -0.010040371 -0.0027284026 -0.010036709 -0.028226446 -0.093009695
-0.014969592 0.031173455 0.050850485 -0.042852096 0.058026414 -0.072017014 0.08829488 -0.041661754
0.108252786 -0.050676662 -0.0067420355 -0.076120585 -0.101275116 0.0467508 -0.017479705 0.05902972
0.048668943 0.027221277 -0.08868083 -0.09864381 0.07079101 0.11064359 0.13349684 0.042593017

bias f4 [256]
00000000: bac3 653a 14f2 863b 24da 6f3b 4079 b4ba
00000010: cd11 1c3c 04d4 26bc e033 a63c cb6a d43b
00000020: 1c0c 893c 958a ac3c 7b35 883c f789 80bc
00000030: 1a05 c93b 96bd 703b 1b09 303c 3bdf a93b
00000040: 3748 08bc 022d 383b 0a34 5abb ab9e 55bc
00000050: da27 15bc d333 58bc 8dfe 8f3c bf3c fcbb
00000060: d28f f0bb 6738 1fba 24d6 b3b8 eeb8 0abb
00000070: 5418 2b3c d0e4 023c 92b8 79bc c4dd d03b
00000080: a531 183c ccf4 233c 2849 4eba ad1e 32bc
00000090: dc12 90b9 bc5a b13b ec8a 153c 7be4 2eba
000000a0: 823f ec3b 59ed 4a3a b0a4 98bb c238 b5bb
000000b0: ce88 10bc 0ff5 8cbb 3b67 f8bb 50ec 2a3c
000000c0: 0b82 943c a47b 123c a79c e7bb 04fe 223b
000000d0: 00e4 18bb 9bb1 e33b 1c48 d1bc 8c3b e93a
000000e0: 5374 12bc bb16 2b3b 06ca cebb 8c80 3ebc
000000f0: 6461 9f3a 8b70 14bc 0820 2abc 3488 07bc
00000100: 79be 2a3b 7bf4 61bb a35a f43b 0af0 e6bb
00000110: 6e16 8b3b 393a aeba 060d 87bb 1d58 163c
00000120: 4c0a ae3b 701a cfbb af0f 3ebb 6ca2 613b
00000130: 1710 003a d8f2 f338 e923 73bc 8690 29bb
00000140: 489c 9cbb 79db 3dbb 222c d23c 5b79 5abc
00000150: 1b4f 2a3c 0f4e e93c 3f4b 95bc 1187 ec3a
00000160: 2d23 0ebc 7e27 75bc fb29 9c3a 8442 9f3b
00000170: dcd7 153c a77d 0abd e028 2cbc 32f3 3f3c
00000180: b72f bfbc 2d9f 8236 0eea 46ba 4c96 cb3a
00000190: ec10 55ba a099 70bc 6b4f 1cbc c6aa 66bc
000001a0: 30ed 57bc c836 783c a9ee f63c 74db d8bc
000001b0: 6713 933b 3840 e9bb 984c 013b bc5c 213b
000001c0: 8a7f 713c 5a7e 1c3b 4da2 2fbc 17fe 1a3c
000001d0: bff9 c4bb 784c 0f3b e95f 90b9 e272 13bb
000001e0: 8e3b b43c 21f2 bdba 50b5 503b 0a0f 5dbc
000001f0: e4c4 023c 63bf 793b 8241 583b 9ad9 d83b
00000200: 0b7b 653c 835b 493c c314 243c 200a b83b
00000210: 482a 1fbb 9677 e1bb aed7 23bb 5e53 60bb
00000220: 8d24 fc3b b1ee c93b c17a 8cbc 576b 12bb
00000230: 7de8 82bb 2afb e0bb eb45 67bb 82c3 9cbb
00000240: e2ba 603c 1293 4cb8 fd90 593c a0c0 b5bc
00000250: deaa 59ba 301c 473c de5f 383c 023e 5cbc
00000260: d090 16bc ca16 0e3c 32d5 ce3c b4ce 9fbc
00000270: 2d9b 6abb ce33 733b 5dee 8d3b c0b1 e0ba
00000280: a1cb 043c 4adc 4b3c f655 d73c 0425 563c
00000290: f928 96bc cbe4 8d3a cbe5 20bb dc0e bebb
000002a0: 2f56 33bc 1529 8a3b e568 d7ba 31f2 53bc
000002b0: 9a8d 9fbb ea74 b13a a09e 6abc bb1f 86bb
000002c0: 55cb ba3b 75b5 33bc 7e4c 5fbc 49a6 c8bb
000002d0: 9713 c7bb 20cf 57bc e4a9 bb3a 598d 613b
000002e0: 1ead 843a e23f fabb 25e9 fb3a f82c 89ba
000002f0: 3e62 ff3b 1dfc ac3b a2fd d0bb d7cd ad3c
00000300: 29b2 7abc c984 b0ba 532c 623b 6062 80bc
00000310: ecd5 a7bb 352f 283b 6295 3d3c cdb8 d3bc
00000320: 4eaf 103c 5dee 8f3c 0a88 423c 42ff ad3b
00000330: 7647 9f3b c505 0d3b e581 3fbc c8a1 03bc
00000340: 6173 9f3c 5bce 9a3c f83d a33c 73ac 98bb
00000350: 0644 8fba df72 fdbb d37b ac3c 5463 26bc
00000360: 6ee9 8cbb 1c0c 553c 7600 67bc db0b d43c
00000370: a2a0 de3b 7a34 753c 2ff1 5739 9690 973c
00000380: 438e 31bc 70d6 b73b 8cb3 883a f19a 6cbc
00000390: fcfa fbbb 156b 09bc 4cd8 583c 5413 863c
000003a0: a0d9 60bb 0d43 80bb 9516 2c3c 2552 2fbc
000003b0: f2e1 60bc d456 9ebc 2759 d139 12d6 0b3c
000003c0: 949f 74bc d548 003b 45aa 1fbc 202c 0b3c
000003d0: 8c3a 4a3c d212 a43c 24db 863b 2e84 833a
000003e0: af7d 093b 9199 8abc 7c0b 9cbc 3bab 2abc
000003f0: 9968 f6bb 6606 80bc e977 503c c403 4d3c
0.0008764822 0.0041182134 0.0036598528 -0.0013769045 0.009525728 -0.010182384 0.020288408 0.0064824573
0.016729407 0.021062175 0.016627064 -0.015690787 0.0061346414 0.0036734096 0.010744358 0.005184082
-0.008317999 0.0028102999 -0.0033295178 -0.013038318 -0.00910374 -0.01319595 0.017577434 -0.007697671
-0.0073413635 -0.0006073773 -8.575272e-05 -0.0021167356 0.010442812 0.007989123 -0.015241759 0.006374093
0.00928918 0.010007095 -0.00078691775 -0.0108715715 -0.00027479872 0.0054124277 0.00912736 -0.00066716195
0.007209719 0.0007741056 -0.004658304 -0.0055304477 -0.008821679 -0.004301674 -0.0075806654 0.010432318
0.018128416 0.008940611 -0.007068235 0.0024870643 -0.0023329258 0.0069486625 -0.02554708 0.0017794236
-0.008938867 0.0026106078 -0.006310704 -0.011627328 0.0012159762 -0.009060035 -0.010383613 -0.008272219
0.0026053472 -0.0034477997 0.007457094 -0.007047658 0.004244617 -0.0013292498 -0.0041214256 0.009176281
0.005311286 -0.0063202903 -0.0029001047 0.0034429086 0.000488521 0.00011632376 -0.014840105 -0.0025873496
-0.0047793724 -0.0028969927 0.02565581 -0.013334597 0.010394837 0.028479604 -0.018224357 0.0018045624
-0.008675379 -0.014963029 0.0011914367 0.004860224 0.009145703 -0.033811238 -0.010507792 0.011715697
-0.023338182 3.8928324e-06 -0.00075879775 0.0015532463 -0.0008127827 -0.014685065 -0.009540419 -0.0140788015
-0.0131791085 0.01514978 0.030143099 -0.02647183 0.004488397 -0.007118251 0.0019729491 0.0024621924
0.01473988 0.0023879022 -0.010719848 0.009459994 -0.0060112174 0.0021865647 -0.0002753728 -0.0022498895
0.022001054 -0.0014491716 0.0031846352 -0.013492355 0.007981513 0.003810846 0.003299803 0.006617737
0.0140063865 0.0122898845 0.010014716 0.0056164414 -0.0024286676 -0.006880711 -0.0025000381 -0.0034229378
0.007694787 0.0061624874 -0.017148377 -0.0022341812 -0.003995 -0.0068658786 -0.0035289477 -0.0047840485
0.013716431 -4.877436e-05 0.013279197 -0.022186577 -0.0008303354 0.0121527165 0.011253325 -0.013442518
-0.009189799 0.0086724255 0.025248144 -0.019507743 -0.0035798058 0.0037109735 0.0043313936 -0.0017142817
0.00810519 0.012442658 0.026286107 0.013070349 -0.018330084 0.0010825632 -0.002455103 -0.005800111
-0.010945841 0.004216323 -0.0016434459 -0.012936161 -0.004869175 0.0013538871 -0.014320046 -0.004093138
0.0057005086 -0.010968556 -0.013629077 -0.0061233384 -0.0060753333 -0.013171941 0.0014317599 0.0034416525
0.0010122394 -0.00763701 0.0019219263 -0.0010465672 0.007793694 0.0052790777 -0.0063778916 0.021216316
-0.015301266 -0.0013467307 0.0034511283 -0.015671909 -0.005121937 0.0025662903 0.01157126 -0.025844956
0.008830858 0.017569715 0.011873255 0.00530997 0.0048608137 0.0021518331 -0.011688684 -0.008034177
0.019464197 0.018897226 0.01992701 -0.0046592294 -0.0010930307 -0.007734641 0.021055138 -0.010155518
-0.004300288 0.013003375 -0.014099231 0.02588456 0.0067940513 0.014966125 0.00020593846 0.018501561
-0.0108371405 0.0056102797 0.0010429486 -0.014441238 -0.007689832 -0.008387347 0.013235163 0.016366638
-0.0034309402 -0.003914243 0.010503431 -0.010700737 -0.013725745 -0.019328512 0.0003993001 0.008534925
-0.0149306245 0.0019574661 -0.009745185 0.008494407 0.01234306 0.020028505 0.004115479 0.00100339
0.0020979454 -0.01691893 -0.019048445 -0.010416801 -0.007519793 -0.015628051 0.012723901 0.012513105

weight f4 [256, 256]
00000000: 8dbb 8c3c a09b 403c 72b0 d03c d0c2 103d
00000010: b3a1 88bb 9007 2e3c fe87 4ebd 05b3 163d
00000020: f1ee 9fbd 05b2 4c3d 6d7a d33c cf6b 2fbd
00000030: 8aa1 ec3d e295 90bd ed67 d7bd cd4d dc3c
00000040: 257a 95bd a7c6 93bd 3221 71bd 21cf 07be
00000050: 4127 363e d56c 40be 8252 1e3c 201b 49bd
00000060: 0bf7 4abd 163f 003e 0d35 f5bc 863e 1fbd
00000070: 0661 c6bc 9b22 793c a05d 633d fcda 033d
00000080: e434 0ebd 5b1f cebc bbb7 54bd 3d02 f33d
00000090: 3180 713d 8f8b 98bc 54e9 c5bb 8ebc 183d
000000a0: 2681 c03d e6cf febc 04a5 8ebd 600a e5bd
000000b0: d9fe f43c 3fe1 7c3c 99ce 023d 0dcb 2c3d
000000c0: 4c03 c33c ccd7 763c 54cb 973d 1ed8 003e
000000d0: bd20 65bc 43ef b43d 521b 54bd 2971 363c
000000e0: 125d 88bd 1261 a9bb 44e4 8fbd afce 90bc
000000f0: a1f9 b4bd 1814 6fbd c30f 0e3d 8e8a 6b3d
00000100: ba17 92bc a7b0 3e3d 0c9c f5bc 3c84 cfbd
00000110: 66a6 76bd c6bf 303d 3b4f e1bb 29a8 7dbd
00000120: aae3 b93d 9ebd 2abd 309c 8abd 66df f83d
00000130: de79 d23c 992e 2e3b d5af dcbc bc96 25bd
00000140: a2e2 513d 790c febd 6ea8 f7bd 4e95 4f3d
00000150: 2e76 ad3c c28e 4cbc 3a81 da38 e1d8 21be
00000160: 9c8e 02be 6f83 a23b 0162 9e3b 8d4e d5bc
00000170: e956 55bc 6199 80bc 25b9 18bb 9d77 3bbd
00000180: 4446 463c 3763 90bd b0fb a63d 90d9 473d
00000190: 5df2 03bd 2f09 d93c 5abf babd 6790 6c3c
000001a0: d15b 9b3d dfa5 1d3d 907a 3b3d ef56 eebd
000001b0: fc11 67bd 1f5c 40bd addb d13c eb6c a83d
000001c0: f605 1abd ab2e 943d 0af4 73bd 352d 1ebe
000001d0: 97ea ce3d ccff 03be 82b8 163d b827 a23c
000001e0: 5d46 d13d d7ef 4cbd 13b5 873d 8325 2a3d
000001f0: d2ac 8dbb a33c 393b 1913 053d 9586 3ebd
00000200: 2470 d23c 19c5 623d 0824 9c3c 29d6 073d
00000210: 9dcb fc3d e21d c9bd 28b8 1e3b 52fd e43c
00000220: a5ab a13d c627 c4bb 7527 67bd 062a 8eb9
00000230: a4b6 debc b796 863d 7bc7 9bbc 7bc8 853d
00000240: e119 363d 5b0b 0e3d 6640 d93a b510 833d
00000250: 4882 77bd 5b4f cbbd 82cc 853d ae52 3e3c
00000260: 6e26 be3a 0ac7 1e3c 047e 19bd 32a2 053d
00000270: f2d9 e0bc 2899 a03d cc75 f8bc 383d 69bd
00000280: 7650 43bd 14bb 02be 6b22 183d d003 e63c
00000290: 513c 9f3c ede9 31be 5ddc 773d 7538 e63a
000002a0: 8f94 45bd 96af babd 9435 cfbc 9fa7 de3c
000002b0: d94c f83d 5765 893d 80b1 08bd 46a8 0c3e
000002c0: 9aa3 85bd 93ab 603d a07b 1abd 32ed 843c
000002d0: dfe8 073d ad6b c838 c8fa a73d 5618 803d
000002e0: e3c8 0fbc 4d64 823c 8105 763d 4dc9 90bc
000002f0: c7fc cd3d 8e56 fb3c 792e 99bd c562 eebc
00000300: b254 b4bb f102 e43d c378 eabd 0052 173c
00000310: 9d68 13bd 10cb c6bd 6009 ca3d d270 c73d
00000320: 56bf 963d db9f e1bc a8e4 1cbd f2e1 063e
00000330: 4eaf 183d 84e8 eabd a2b5 90bd 3ab8 253d
00000340: 140f 0c3e ce52 003d be43 eabd f7b1 c53a
00000350: d3ea 60bd 7203 163c d757 6abd fedb 9e3d
00000360: b3f7 4abd d96e ea3d a1fc acbc 370b eb3d
00000370: d3fd ecbc 6e31 15bc 9c9b 2cbe 330d 563d
00000380: debc 2dbd 9498 d1bc 5d48 203d 35c4 bbbc
00000390: 25aa 1e3c 984e f1bc 100a a03d 22b2 9abb
000003a0: b56c debb 0c6f 28bd 2002 c2bd d369 b7bc
000003b0: 673b ce3b d076 a63b c82a 813d 1c3c 73bd
000003c0: 870f 543c ae20 23bd a159 f73b b334 093d
000003d0: ba6c 893d ac82 ea3d fe8f eebc 49b2 d9bd
000003e0: 2eab fe3d ef59 8c3d e601 c2bc 3c2c a8bc
000003f0: c37f 093d ce68 76bd 7382 b2bd fb81 993d
0.017179275 0.011755854 0.02547476 0.035342038 -0.0041696667 0.01062192 -0.05042266 0.03679182
-0.07809246 0.04997446 0.025815213 -0.042827424 0.11554249 -0.07059838 -0.10517869 0.026892567
-0.07298688 -0.07215624 -0.05886955 -0.13262607 0.17788412 -0.18791516 0.009663226 -0.049098134
-0.049552005 0.12524065 -0.029932523 -0.038877986 -0.024216186 0.0152060045 0.05550921 0.03219126
-0.03471841 -0.025161436 -0.05193303 0.11865661 0.058960143 -0.018621234 -0.006039778 0.037289195
0.09399633 -0.031104993 -0.06965068 -0.111836195 0.029906677 0.015434562 0.031935308 0.04218583
0.023805283 0.015066098 0.07411829 0.12582442 -0.013984856 0.08834698 -0.051783867 0.011135378
-0.06658377 -0.0051690424 -0.0702596 -0.01767668 -0.088366754 -0.058368772 0.034683 0.057505183
-0.01783358 0.046555188 -0.029981636 -0.101326436 -0.060217284 0.04315164 -0.0068759 -0.06192795
0.090766266 -0.04168474 -0.06768072 0.12151985 0.025692876 0.0026578067 -0.026939312 -0.040426955
0.051241525 -0.12404723 -0.12092672 0.050679497 0.021174517 -0.012485208 0.000104191204 -0.15805389
-0.12749714 0.0049595158 0.0048334603 -0.026038432 -0.013021209 -0.015698137 -0.0023303714 -0.04576837
0.012101714 -0.07050174 0.08153474 0.04879147 -0.032213558 0.026493637 -0.09118529 0.014438725
0.07585872 0.038488265 0.04577118 -0.11637675 -0.056413636 -0.046962854 0.025617445 0.082238995
-0.03760334 0.07235464 -0.059558906 -0.15446933 0.10103338 -0.12890548 0.036797054 0.01979433
0.10218499 -0.050033417 0.06626334 0.04153968 -0.0043235803 0.0028264902 0.032488916 -0.046515066
0.025688238 0.05536375 0.01906015 0.033163223 0.12343524 -0.09820153 0.0024218652 0.027952824
0.07894067 -0.0059861867 -0.056434114 -0.0002711566 -0.0271867 0.06571715 -0.019016018 0.06532379
0.044458274 0.0346788 0.0016574978 0.06399671 -0.06042698 -0.09927245 0.065331474 0.011616392
0.0014507303 0.009691009 -0.037473693 0.032625385 -0.027447674 0.07841712 -0.030329607 -0.05694315
-0.047684155 -0.12766677 0.0371422 0.02807799 0.01943794 -0.17374392 0.06051289 0.0017564433
-0.04823738 -0.091155216 -0.025294103 0.027179537 0.121240325 0.06708782 -0.033372402 0.13736066
-0.06525345 0.054851126 -0.037715554 0.016226385 0.033181068 9.556799e-05 0.082021296 0.06254642
-0.0087759225 0.015916968 0.060063843 -0.017674113 0.10057979 0.03068092 -0.07479567 -0.029099831
-0.0055032605 0.111333735 -0.11448815 0.009235859 -0.03598844 -0.097067 0.098650694 0.09738316
0.07360713 -0.027542045 -0.038304 0.13172129 0.03727656 -0.1147013 -0.07065894 0.040458895
0.13677627 0.03132897 -0.11438702 0.0015082945 -0.054911446 0.009156095 -0.057212677 0.07756804
-0.04955263 0.11446924 -0.021116557 0.114767484 -0.028929627 -0.009106023 -0.16856235 0.05225868
-0.042416446 -0.02558545 0.03913151 -0.022920707 0.00968412 -0.029456422 0.07814419 -0.004720942
-0.006787861 -0.041121528 -0.094730616 -0.022389328 0.0062937024 0.0050800815 0.06306988 -0.059383497
0.012943155 -0.039826088 0.0075485264 0.033497524 0.06710191 0.11450705 -0.029121395 -0.10629708
0.12434994 0.06853091 -0.023682546 -0.020528905 0.03356911 -0.060158543 -0.087162875 0.07495495

bias f4 [256]
00000000: 9162 dabc 1c8c 663c 01ca 3f3c aad4 5bbc
00000010: b20f 66bc 7d35 613c 7fd5 89bc 50cf 723c
00000020: 8ccd 6e3c 42b0 41b9 1802 b23b ff34 a8bc
00000030: 7602 2c3c 3c26 9c38 2d80 d1bc 73ba 95bc
00000040: 0013 a4bc 30fc 8fbc 63bb 52bc 51c3 893c
00000050: 4f22 a1bb 4039 ba3c 826c 7bbc 0181 82bc
00000060: 9eb2 a73b 39e8 a3bc 9361 8e3c 9212 42bc
00000070: da35 4a3c 7e9e 313c c5f6 7ebc fe2e 7c3c
00000080: e496 953c 6ff1 85bc 8547 363c bfc4 4e3c
00000090: bc58 5ebc 9077 8dbc 4822 163c 4a9a 603c
000000a0: 7e88 5bbc b289 843c cc98 8dbc d88a 84bc
000000b0: 8773 e2bb ab3f 703c f84c 5cbc 0702 873c
000000c0: 2540 31bc 4e80 1f3c 9a14 603c a808 65bc
000000d0: cccb 21bc c32a 7e3c 1758 903c 071d 27bc
000000e0: b0ca afbc d44f 623c 1923 abbc 8ea2 903c
000000f0: 68f3 4c3c 6a9a b6bb 068c 84bc f2ee 733c
00000100: 1c40 98bc 2727 78bc 7f2a 62bc ba4b 41bc
00000110: 2f80 55bc 80dd 2c3c 939b 5d3c 20d5 8cbc
00000120: a909 7e3c 925b 7abc 4e6a 9cbc d208 2d3c
00000130: 7465 793c 4a15 38bc af82 8f3c e522 61bc
00000140: f449 93bc 098a 4c3c d803 c4bb 7bcd 413b
00000150: 2886 2f3c 31e6 4ebc a976 b2bc 617a 8abc
00000160: 49a3 ccbc 79a9 173c c466 3a3c 40a6 99bc
00000170: 3479 9dbc 0c13 9c3c 4ab6 923c 775a 693c
00000180: 9749 153c 87e3 8fbc abf0 523c ff64 0cbc
00000190: 1ce0 ddbb 8173 09bc 6082 eabb f470 86bc
000001a0: 46b6 81bc 5f6c 6fbc 6daf 56bc 68b1 41bc
000001b0: 4fcb 14b9 d4d9 8f3c 2830 4339 2bc6 83bc
000001c0: e30f 823c eb38 2abc 1b70 4dbc 8a36 4cbc
000001d0: b295 f43b 8c2e 8bbc 318b 843c 38bb 19bc
000001e0: 49ea 3f3c 46ae 243c 8f40 61bc f070 833a
000001f0: 2551 02bc d991 743c 729d 5e3c af7a 93bc
00000200: 28d0 3d3c 1bca 22bc 8e40 093c 370d d6bc
00000210: 2712 763c cfed a43b 7306 ee3b a632 863c
00000220: ef66 e43c fd77 823c 2616 19bc 7c3c 73bc
00000230: 813c 9eba 1403 643c 6a49 2f3c 4911 5ebc
00000240: 6c77 9d3b ac51 9a3c 0b60 9abb 7b2a 733c
00000250: 3216 79bc 2eff 913c c7fd 44bc 7b0c 95bc
00000260: 2f94 c6bb 52b5 b8bc 0464 1cbc 63e1 aa3c
00000270: 994a 4bbb a66e 14bc 792c 97bc 28af 0fbc
00000280: b462 3b3c a0c7 793c 6011 9cbc c895 a23c
00000290: 1b3a 903c 2ead 783c 93aa 163c 7924 a8bc
000002a0: f3ae 46bc b6df 97bc 69d9 943c 3d4e 9b3b
000002b0: d2cb b1bb 89cc c9bb 435d afbc 02cb b43c
000002c0: 1e5e 9a3c 20ae 07bc 46d1 563c b35b 99bc
000002d0: 9c07 0e3b 096c 1c3c e506 28bc f9e7 6c3c
000002e0: b50e 803c 6d89 3a3c e985 973c dc96 8f3c
000002f0: 80f3 59bc afe3 4cbc b6cf e1bc 7226 d03c
00000300: ff2b a6bc 9ef3 82bc 7e34 66bc d2d0 213c
00000310: cc08 4bbc e1a5 783c f2e2 7cbc 9cf5 59bc
00000320: b8c7 a5bb b82a 86bc 3a4a 903b 7591 8dbc
00000330: 66f1 a4bc e6a0 993c 4866 73bc 0a17 8c3c
00000340: d4bc 95bc f8ef 97bc bd21 803c 3e31 363c
00000350: 1fa8 613c 3570 763c be3e a13c 4aeb 7b3c
00000360: d012 843c c181 803c 3b4f 87bc 27db 8c3c
00000370: 18d8 7ebc ba6b 963c fbba 98bc 9d6d a8bc
00000380: 3270 943c c9e7 6a3c 1b6d 35bc 1385 80bc
00000390: b41d 1c3c 357e 753c 52fc 7d3c 2885 673c
000003a0: fa56 4e3c 7b12 6d3c 2473 5b3c a98b d83b
000003b0: b62e 853c d5c3 9bbc f1fb 5b3c 76af 823c
000003c0: 6c0d a33c 9656 5dbc 4387 c6bb c58b 2f3c
000003d0: 0c45 acbb 3da2 823c 8c88 253c fa85 413c
000003e0: f331 8a3c ddfe 413c c470 62bc 21de dcbb
000003f0: bfcf 953c 3b39 223c 3a18 523c cf1f 743c
-0.026658328 0.014071491 0.011705876 -0.013417402 -0.014041828 0.013745663 -0.016825436 0.014819935
0.014575373 -0.00018471575 0.0054323785 -0.020533083 0.010498634 7.4457814e-05 -0.025573814 -0.018277382
-0.020028591 -0.017576307 -0.012862059 0.016816767 -0.00491742 0.022732377 -0.0153456945 -0.015930654
0.0051177284 -0.020008193 0.017380511 -0.011845248 0.012341941 0.01084101 -0.015561764 0.015392063
0.018260427 -0.016350476 0.01112545 0.01262015 -0.013570961 -0.017268926 0.009163447 0.01370866
-0.0133992415 0.01617894 -0.017284773 -0.016179487 -0.0069107446 0.014663617 -0.013446085 0.016480459
-0.010818516 0.00973518 0.013676787 -0.013979115 -0.009875249 0.015513125 0.01762013 -0.010199792
-0.021458954 0.013812978 -0.02089076 0.017655637 0.012509204 -0.005572607 -0.01618005 0.014888512
-0.018585257 -0.015146053 -0.013804077 -0.01179784 -0.01303105 0.010550857 0.013525861 -0.01719147
0.015505233 -0.015280621 -0.019093659 0.010561185 0.015221942 -0.011235544 0.01751837 -0.01374123
-0.0179796 0.012484082 -0.0059819035 0.0029571939 0.010713138 -0.012628124 -0.021785097 -0.016904058
-0.024980204 0.009256714 0.01137704 -0.018756032 -0.019222833 0.019052051 0.017909188 0.01424276
0.0091117835 -0.017564548 0.0128747625 -0.008569001 -0.0067711007 -0.008389355 -0.007156655 -0.016411282
-0.015833985 -0.01461324 -0.013103348 -0.011822082 -0.00014190118 0.017559923 0.00018614589 -0.016085705
0.015876716 -0.010389547 -0.012538935 -0.012464175 0.007464134 -0.016989969 0.016179653 -0.009383015
0.011713573 0.010051316 -0.013748302 0.0010028165 -0.007953917 0.014927351 0.013587343 -0.018002836
0.011585273 -0.009935881 0.008377207 -0.026129348 0.015018976 0.005033232 0.0072639524 0.016381573
0.027881114 0.015926355 -0.0093436595 -0.014845964 -0.0012072475 0.0139167495 0.010698656 -0.013553926
0.004805496 0.018837772 -0.0047111562 0.014841671 -0.015203046 0.017821874 -0.012023396 -0.018194428
-0.0060601453 -0.022547398 -0.00954533 0.020859426 -0.0031019805 -0.009059584 -0.018453823 -0.008769788
0.011437107 0.015245348 -0.019051254 0.019846812 0.017605832 0.015178008 0.0091959415 -0.020525204
-0.012126672 -0.01853929 0.018170075 0.0047395513 -0.0054259086 -0.0061584157 -0.021406775 0.022069458
0.018843707 -0.008281261 0.013111418 -0.018720483 0.0021672016 0.009547242 -0.01025555 0.0144596035
0.015632013 0.011385304 0.01849647 0.01752799 -0.013302684 -0.012505456 -0.027564865 0.025408957
-0.02028465 -0.015985306 -0.014050601 0.009876447 -0.012392234 0.015176267 -0.015434967 -0.013303187
-0.0050592087 -0.016377792 0.0044033797 -0.017281273 -0.020134639 0.01875348 -0.014855929 0.01710083
-0.018278517 -0.018547043 0.015641088 0.011120139 0.013772993 0.015041401 0.019683238 0.0153759215
0.016122252 0.015686871 -0.016517272 0.017194344 -0.01555445 0.018361915 -0.018643847 -0.02056008
0.018119905 0.014337488 -0.011073376 -0.015688455 0.009528566 0.014983703 0.015502052 0.014130868
0.012593979 0.014469738 0.013394151 0.0066084457 0.016257625 -0.019014278 0.013426767 0.015952807
0.019903861 -0.013509413 -0.006058605 0.010714476 -0.0052572545 0.015946502 0.010103356 0.011811728
0.01686952 0.011840549 -0.013820831 -0.006740347 0.018287538 0.00990134 0.012823159 0.014900162

weight f4 [1, 256]
00000000: 705e d7bd eed9 b6ba e18d 303d b145 8ebd
00000010: 8a24 a7bc 031f 243c 5ae5 74bd 39fc 003d
00000020: 2ded ba3d 2c79 0b3c aa75 9f3c a99e a0bd
00000030: da4a 963c cb35 be3a 44e1 9ebd b3c1 25bd
00000040: 820e ffbd e5d7 d7bd c703 bbbc 5385 ef3b
00000050: dfda 1bba bfba 373d d06d 9ebc fb1c 1fbd
00000060: de35 ca3c 698b 20bd cf3d 843d 3a59 22bc
00000070: ac70 dd3c 0e19 923c 6d3c 93bc f521 1a3d
00000080: 4d76 3f3d e25d 8abc 1635 c13c 6021 773d
00000090: 5e27 58bd 82d3 70bc b7c2 773b ecbd b33a
000000a0: 22a7 1bbd 5258 853b 8bcf 34bd 7ab0 99bd
000000b0: 2113 e9bd 4c17 093d 6114 a2bd 2a84 f73c
000000c0: 0974 e4bd d764 31bb 4ff0 2c3d 2e09 53bd
000000d0: d512 3cbd aa60 0d3d 75f3 d03c 82a8 963b
000000e0: c817 62bc d31a b73d 9dd2 4cbd db05 c73c
000000f0: 3074 823c c937 3dbd 0cb6 bdbb 9c18 1b3c
00000100: ac7f 2bbe ed87 27bd fb8f 25bc 04b4 29bd
00000110: 3128 9dbb e1c1 053c fd9d 223d b1cb adbd
00000120: adab ac3d dea1 b3bc 3f60 c7bd 896f 053b
00000130: e76c b93c 35b8 89bd bd34 ba3d 23a5 cdbc
00000140: 589f 33bc 3926 593b 2492 25bb c5b6 d53b
00000150: ff3d cc3c 7cc6 82bd fc35 e3bc 2dc6 41bd
00000160: 9b47 f6bd 25a4 883d 9b27 1f3d 54af 7cbd
00000170: d61f 1abd cfb5 553d 3a1c bb3c d11d bc3a
00000180: c4ee 4e3c 4030 a6bc 1bb3 383d 10a4 70bd
00000190: ab36 01be d504 57bd 9383 8ebd 8f94 99bd
000001a0: 5986 1bbd 37a8 99bc b66b 82bd 7a8c 7cbd
000001b0: 8ac2 23bc 7568 303c babf 9fba f58f e1bd
000001c0: a4c4 723d 4592 4abd e80e ddbc 5ff2 f13a
000001d0: 71f3 e43d 4a0b 58bd ff40 893d 7e0e 79bc
000001e0: ce1b 2b3c 1629 de3c e242 06be ab80 eb3b
000001f0: 856c 31bd f953 993c 5715 383a cb96 94bd
00000200: 885b c53c 5956 96bc 05c8 aa3d dd15 06be
00000210: 7eae ce3c deaf e23b 9646 233d 2f0e ab3b
00000220: f76a 163e d1d4 343d 7fb5 33bb ccee 60bc
00000230: 836a 2d3b 00db 613c 1067 803d e3b0 89bb
00000240: 0092 1a3b a582 9e3d caa9 f4bd 04ab 0b3c
00000250: 7a45 15bd 54d0 273d ed0c e9bd b4ea f6bd
00000260: 0f6c c339 9b75 aebd a210 8ebd b882 e93d
00000270: b140 4ebd 3b8a 8e3b 99e0 8fbd 3a79 8bbd
00000280: 0e51 113c e0f4 503d 2f85 1fbd ef7d 3b3b
00000290: 687f 2f3d 6021 573c aaa8 4e3b 8cb7 29be
000002a0: b7a6 54bd c8e6 30bd b9e6 fb3c 98dc 72ba
000002b0: ae52 80bc ca1c 6cbb c98d a8bd f6f2 b43d
000002c0: 45a4 2c3d 1c05 c0bd 17dc 233d 1181 0abd
000002d0: 13d4 38b9 f8ec 4d3d 2861 aebb 4bd3 3b3d
000002e0: ecfa af3d 11e3 243d 72f4 893c 0746 613d
000002f0: 595d b6bb 516e 1abe 3541 eebd 5f10 e73d
00000300: 0994 3cbd f60d 2fbe bfec 89bd af64 c13c
00000310: a81a 6cbd 16f3 633d 7878 26bc 30f6 3dbd
00000320: 3874 b0bd 871f 4bbd 1157 4f3d 0bd6 54bc
00000330: 2285 5cbd 43db 853d dcb9 ebbb 203a bc3d
00000340: dd6a 9bbb e13c ffbd ecc3 f13c 5dee c43d
00000350: 51a0 f83c a9a2 543d 7214 a93d 5d41 ab3c
00000360: 09e6 d63b 9445 bf3d 566a f2bd bb6c 553d
00000370: d1ba 70bd 4f8e f63d fbcb 29bc e416 11bd
00000380: 4fb9 303d 4a96 ed3c 0f55 13bd 60d0 b4bc
00000390: 9ad8 6b3d bbf6 f83b 96a5 853d 5bd1 663d
000003a0: c198 0d3d ab6b 373c 254f 323d 0201 923d
000003b0: 7d7b 8e3c 01e4 cdbd a587 883c 384e 1f3d
000003c0: a796 393d 3b4d 9abd 2a5d 78ba 3b49 4c3c
000003d0: d588 9ebd 59c6 603d 9e25 96b9 bab0 323d
000003e0: 17ac c13c 73c9 903c e726 6dbd b4d7 53bc
000003f0: ae38 373c 5a42 3a3c c424 b03b 116f 31bb
-0.105160594 -0.0013950446 0.043104056 -0.06946886 -0.020403165 0.010017159 -0.05978904 0.03149054
0.09127269 0.008512776 0.019465286 -0.07842762 0.018346239 0.0014511881 -0.0775781 -0.04046793
-0.12453939 -0.105392255 -0.02282895 0.0073095947 -0.0005945395 0.04485583 -0.019339472 -0.038845997
0.024683889 -0.039195452 0.064571016 -0.009908969 0.027031265 0.017834213 -0.01797315 0.03763004
0.04674368 -0.01689047 0.023584884 0.060334563 -0.05277192 -0.014698865 0.0037805268 0.0013713217
-0.038001187 0.0040693665 -0.04414324 -0.07504363 -0.11380602 0.033469483 -0.07914043 0.030214388
-0.111549444 -0.0027068162 0.042221364 -0.051522426 -0.045916397 0.034516014 0.025506714 0.0045977244
-0.013799615 0.08940663 -0.050005544 0.024294784 0.015924543 -0.04619578 -0.005789524 0.009466317
-0.16747922 -0.040901113 -0.010105128 -0.041431442 -0.004796051 0.0081639 0.03970145 -0.08486117
0.08431182 -0.02192777 -0.09735154 0.002036067 0.022634936 -0.06724588 0.0909209 -0.025103157
-0.0109632835 0.0033134355 -0.0025264109 0.006522032 0.024931906 -0.06385514 -0.027735703 -0.047308136
-0.120253764 0.06671933 0.03885613 -0.061690643 -0.037628017 0.05217534 0.022840608 0.0014352148
0.012630168 -0.02028668 0.045092683 -0.058750212 -0.1261851 -0.052494843 -0.069586895 -0.074990384
-0.03796992 -0.018756969 -0.063682005 -0.061657406 -0.009995112 0.010767092 -0.0012187876 -0.11013786
0.059269562 -0.0494559 -0.026984647 0.0018459073 0.11179245 -0.05274514 0.0670185 -0.015201209
0.010443641 0.0271192 -0.13111451 0.0071869693 -0.043316383 0.0187168 0.0007022223 -0.07255324
0.024091497 -0.01835172 0.08338932 -0.13094278 0.025229689 0.0069179377 0.039862238 0.0052201967
0.14689241 0.04414827 -0.0027421413 -0.013728809 0.002646119 0.013785124 0.062696576 -0.0042019947
0.0023585558 0.07739762 -0.11946447 0.00852466 -0.03644321 0.04097016 -0.113794185 -0.12056485
0.00037273808 -0.08518525 -0.06936766 0.11401886 -0.050354663 0.0043499744 -0.070252605 -0.068102315
0.008869423 0.05101478 -0.038945373 0.0028608998 0.042846113 0.013130516 0.0031533637 -0.16573924
-0.051916804 -0.04318884 0.030749666 -0.00092644384 -0.015664425 -0.0036027902 -0.08230168 0.088354036
0.042148847 -0.093759745 0.040004816 -0.033814494 -0.00017626611 0.05027482 -0.0053216405 0.0458558
0.085927814 0.04025561 0.016840193 0.054998424 -0.005565327 -0.15081145 -0.11633531 0.112824194
-0.046039615 -0.1709517 -0.06734609 0.02360758 -0.05764261 0.055651747 -0.010160558 -0.04637736
-0.08615917 -0.049590614 0.050620142 -0.012990485 -0.053837903 0.065359615 -0.007193787 0.09190774
-0.0047429637 -0.124627836 0.029512368 0.09615777 0.030349882 0.051912937 0.08255853 0.020905191
0.006558184 0.09339443 -0.11836688 0.052105647 -0.058771912 0.12038862 -0.010363574 -0.03542222
0.043145474 0.029002327 -0.03596979 -0.022072017 0.057579614 0.007597772 0.06525724 0.056352
0.034569506 0.011195104 0.04353251 0.071290985 0.017392868 -0.10053254 0.016666243 0.038892955
0.04530969 -0.07534262 -0.0009474332 0.012468631 -0.077409424 0.05487666 -0.00028638256 0.04362557
0.02364163 0.017674183 -0.05789843 -0.012929846 0.011182947 0.0113683585 0.0053754766 -0.0027074257
