trained_models/ppo/me5418-Cassie-v0/0528-10-51-56-s1231/critic.pt (torch, 319998 bytes, 5 tensors)

weight f4 [256, 50]
000000 27 0a df bc bd c0 0c 3d b4 4e 65 be 98 d2 da bc
       -0.02722652 0.034363497 -0.22393304 -0.026711747
000010 1c 6f 1c 3e 09 68 8b be 7a a7 87 be 64 c8 76 3d
       0.1527676 -0.2722781 -0.26494962 0.0602497
000020 d7 83 c5 3d fc 17 0b be 8f 3e af 3e 49 fe 7f 3e
       0.09644287 -0.13583368 0.34227416 0.24999346
000030 5f 4f e8 bd 4f 9a 60 3e b1 55 17 3e fa 0d 08 3d
       -0.11343264 0.21933864 0.14778782 0.033216454
000040 18 e5 aa bb 84 21 29 be 2a b2 91 bd df e8 bb 3c
       -0.0052152984 -0.16516691 -0.0711406 0.02293819
000050 21 b9 db bc d2 1a 58 3d 8b 19 f4 3d 9e a8 2c 3d
       -0.026821675 0.052759953 0.119189344 0.042152993
000060 2d ff d5 3d ab 0c 6a bd 09 73 ff bb 8f e2 91 3d
       0.104490615 -0.057140987 -0.0077956957 0.07123291
000070 00 7c 36 bd 67 94 ac bc 2d aa f9 bc b1 82 34 bd
       -0.04455185 -0.021066858 -0.030476654 -0.04406995
000080 04 db c1 bc 53 6c 38 bc c6 f7 bd bd e7 e0 d2 bd
       -0.023664005 -0.011256295 -0.09275775 -0.10296803
000090 a5 91 14 be dc fd 02 3e ee 09 c2 bd 60 e1 e3 3b
       -0.14508684 0.12792152 -0.0947455 0.006954357
0000a0 ae 2f 60 3d 4c fc a9 3c f9 21 05 bb 6b 50 49 bd
       0.05473297 0.020750187 -0.0020314439 -0.04914896
0000b0 3e 12 dc 3c 2a d8 f6 3c 3b 86 b1 bd cc 91 e7 bd
       0.026864167 0.030132372 -0.086681806 -0.113071054
0000c0 23 ed 9c be 93 a1 be 3d 10 b1 54 3e c9 a5 81 bc
       -0.3064967 0.093081616 0.20770669 -0.015826123
0000d0 35 ac cb 3e f7 df 5c 3c 90 e1 3a be 39 9f 63 3e
       0.3977982 0.013481132 -0.18250108 0.22228707
0000e0 1a a0 d5 3e 9d 10 11 bd 1c 6f 27 be 53 49 ec 3b
       0.4172371 -0.035416234 -0.16350979 0.0072108894
0000f0 1a 9d 53 be 32 e5 2b be 02 92 6d 3e 87 ea 3e be
       -0.20665398 -0.1678665 0.23200229 -0.18644153
000100 ac a6 04 be cb 55 7e bb 53 d3 17 be 54 2e ff 3d
       -0.12954205 -0.003880846 -0.14826708 0.12460008
000110 22 01 61 bc c6 03 a5 3c d6 ad 27 be 9f 57 12 3d
       -0.01373318 0.0201434 -0.16374907 0.035728093
000120 8f 18 01 bc 94 e6 e5 bb 93 bb af bd 9f bf 88 bd
       -0.00787939 -0.0070160124 -0.08580699 -0.06677174
000130 05 9c 87 3c fa 47 bf bd f4 d6 ad 3d b7 20 6e bd
       0.016553888 -0.093399 0.08488265 -0.058136668
000140 ec c6 28 be 99 9b 1e 3c 5e ec e9 3c 3c e6 bc 3c
       -0.16482133 0.009680652 0.028555091 0.023059003
000150 c4 69 0b 3e 41 a1 27 3e 36 15 01 3c 74 d3 95 be
       0.13614565 0.16370107 0.007878592 -0.29262888
000160 89 ea 29 3e 5c 28 3d be bb 9d 84 bd 58 77 ef 3c
       0.16593374 -0.18472427 -0.06475397 0.029231712
000170 93 ee 12 3d 95 f2 9a bd f9 8b de bc 6b fa 14 be
       0.035872053 -0.075658 -0.027166354 -0.14548652
000180 47 93 b0 3e a7 8b 86 3c 5d b6 7f 3d c7 49 e8 3c
       0.34487364 0.016424013 0.062429775 0.028355492
000190 f4 d0 ce 3c df 19 69 3e 14 4a f3 be 26 64 0e be
       0.025246121 0.22763775 -0.47517455 -0.13905391
0001a0 94 f0 32 be 76 07 8a bd 9b c9 5d bd df 15 4d 3c
       -0.17474586 -0.06739704 -0.054147344 0.0125174215
0001b0 14 15 5e bd c1 80 2d 3d 05 e5 c0 bd 46 35 83 bd
       -0.05421932 0.042359117 -0.09418682 -0.064066455
0001c0 99 5f 9a 3d d5 3f d5 3d 8a 8a 07 bd 4b 0c 94 bc
       0.07537765 0.104125656 -0.033091106 -0.018072268
0001d0 b3 fa 0a 3e 63 9f 9a bc 2d 9e 86 be 42 6f 59 3d
       0.13572197 -0.01887483 -0.26292554 0.05308462
0001e0 ad 77 12 3d cd d1 c7 bd be 3d 0a bd d0 7d 98 3d
       0.035758663 -0.09756813 -0.03375029 0.07445872
0001f0 5e 03 b6 3d 9e 5b 26 bd 16 fc b2 bd 4c 03 17 3d
       0.08887361 -0.040614717 -0.08739488 0.03686838
000200 2a f8 bf 3d 64 d3 83 3d d1 b4 1d b9 2f d7 89 bd
       0.093735054 0.06436804 -0.00015040046 -0.06730496
000210 fc ea 16 bd ac 4c e8 3c fb 21 20 be 52 aa 07 3d
       -0.036845192 0.028356872 -0.15637963 0.033121414
000220 c6 eb fe bc ce 1e e9 3d 95 29 1d be 26 fb f9 bd
       -0.031118285 0.11382829 -0.15347894 -0.12206106
000230 cb a6 63 3d 90 79 c2 3d b3 86 5f bd cd 54 1b be
       0.055578988 0.094958425 -0.05457182 -0.15169068
000240 c8 89 25 bc c5 ee 01 3d 5c 46 54 bc be 3a b7 3e
       -0.01010365 0.03172185 -0.012956228 0.35787004
000250 97 30 31 3d 6c 81 db 3d 45 ac 3c 3d 87 93 09 be
       0.04325923 0.10718045 0.046062727 -0.13435183
000260 7d 9a af be 67 4d 4a be 33 9f 9a be 32 3a 75 3e
       -0.34297553 -0.19756089 -0.30199584 0.23947981
000270 53 9c e7 3d 91 68 72 be 42 f3 54 3c 19 74 ef 3d
       0.11309113 -0.23672701 0.01299745 0.11692066
000280 75 4c fb be 85 d6 38 be ad 4d a3 3d 02 02 b1 bc
       -0.4908177 -0.18050583 0.079738 -0.021607403
000290 ad 1d 32 be fb 80 c2 bc 3d af 99 bd 7f 63 28 bd
       -0.17394133 -0.023743143 -0.07504127 -0.041110512
0002a0 5a 33 31 be 3b 73 17 bd 75 c0 59 3d c2 c6 cf bc
       -0.17304745 -0.036975127 0.053162057 -0.02536333
0002b0 b8 ce db 3d 51 14 e2 bc 30 dc ab 3d 43 1e 66 bc
       0.10732788 -0.027597578 0.08391607 -0.014045301
0002c0 3f 04 3a 3d 75 23 cf 3c 1b 66 18 be fc ea 33 3d
       0.045414206 0.025285462 -0.148827 0.04392527
0002d0 c1 be 9f 3c 54 d3 81 3d b9 55 ea bc 63 1d f5 3c
       0.019500138 0.06339136 -0.028605329 0.02992124
0002e0 a2 2e 37 3d a5 56 49 3e fa 40 3c bd 58 59 b0 3d
       0.044722207 0.19661959 -0.045960404 0.08610791
0002f0 44 63 7f bc b6 ce ab bd 68 41 db 3d 2b 24 08 3d
       -0.015587632 -0.08389036 0.107058346 0.033237617
000300 b1 0a 2f 3c 9a 25 0d 3e 4d a5 fe 3d 71 fc cb 3b
       0.010683701 0.13783875 0.12433872 0.0062251617
000310 07 5d 0f bf 20 a1 2d 3f c4 ff fa bb 9b b2 3a 3d
       -0.56001323 0.6782398 -0.007659884 0.045580488
000320 9f 37 a6 3d 0b 19 5f be 4f 44 b4 3b b4 b4 85 bd
       0.08116078 -0.21786897 0.005501307 -0.06528607
000330 9e 2c 76 be 97 29 1d 3e 01 d4 d3 3d ec 60 ff bd
       -0.24040458 0.15347897 0.10343171 -0.12469658
000340 95 c0 09 be f9 ce 91 3e 49 9b fb bd eb 30 53 be
       -0.1345237 0.2847822 -0.12285478 -0.2062413
000350 13 11 1b bc e2 83 80 bd e0 a2 a8 bd 31 69 b2 bc
       -0.00946452 -0.06275155 -0.08234191 -0.021778675
000360 10 2d ca bd 6e b9 bc 3c a9 6a 74 3d 21 28 04 bd
       -0.09871876 0.023037639 0.05967203 -0.032264832
000370 5a cd 85 bd 17 42 ab bd 30 b7 8f bb b0 8a 84 3c
       -0.06533308 -0.08362215 -0.0043858513 0.016179413
000380 8f 45 47 3b ce b9 3d 3c 5b 62 47 3e 8d 70 5f bd
       0.003040645 0.011579944 0.19471113 -0.054550696
000390 87 e4 2d bd c0 05 cd bc 38 de 5b 3a 68 64 24 bc
       -0.04245427 -0.025027156 0.00083873 -0.010033704
0003a0 e4 d6 1c bc fe d9 51 3c 6a b8 6a bd f2 fb ec 3c
       -0.009572718 0.012808321 -0.057304777 0.02892873
0003b0 d0 75 fe 3d a1 e7 fd bd 0d ef 13 3e 0a ed 7b bd
       0.12424815 -0.12397695 0.1444666 -0.061505355
0003c0 20 de 46 3d 18 c4 2b 3d 3e c0 9a 3d 37 6c ec bd
       0.04855168 0.041935056 0.075561985 -0.11544078
0003d0 05 8b 76 bd 26 ff 62 3c 1f 6d 10 3e 9d d2 b8 bd
       -0.060191173 0.013854777 0.14104126 -0.09024546
0003e0 67 e4 02 3e f9 73 00 bd 65 bc 99 3c 7c c2 f5 bd
       0.12782441 -0.0313606 0.018766591 -0.119999856
0003f0 ae 68 6f 3e 7e 7a 03 3f 55 6a a6 3e ec 74 58 bc
       0.23379776 0.51358783 0.32503 -0.01321147

bias f4 [256]
000000 ad ba d0 3c 15 70 96 bc a7 8c 3a bd b7 74 e3 3c
       0.025479639 -0.018363992 -0.045544293 0.027765615
000010 d7 8b 3f 3b d8 60 95 bb 30 f8 2f b9 f4 ab c5 bc
       0.0029227638 -0.004558664 -0.00016781758 -0.024129845
000020 08 25 73 bd 7c ec f8 3d 95 ce b6 3c b6 e7 70 bd
       -0.059361488 0.12154481 0.022315303 -0.058814727
000030 55 a4 58 3d e0 5e 02 3b 27 48 c4 bc c0 2d 07 bd
       0.052891094 0.0019892976 -0.023960186 -0.033002615
000040 e3 43 e2 3c c4 3d 75 bd 8d 48 82 bc 98 f4 99 bc
       0.027620262 -0.059873357 -0.015903736 -0.01879339
000050 72 a9 2f 3d 6a c3 c8 bd 59 16 43 bc da 45 91 bd
       0.042886205 -0.09802897 -0.011907184 -0.07093401
000060 8a 93 5f 3d f0 07 96 bc 23 8c ba bd d0 e4 ac 3c
       0.054584064 -0.018314332 -0.0910876 0.0211052
000070 65 df 34 bd 4c 25 bb bd 4a 8c e2 bd 0d b1 4c 3d
       -0.044158358 -0.09137973 -0.11061914 0.049973536
000080 14 47 d4 3c 01 48 b6 bc 2a 8c 5e bd d9 a7 19 3d
       0.025912799 -0.022251131 -0.05433289 0.037513588
000090 ca 44 8c 3c 38 de e9 bc e5 f5 5d 3d 66 23 6b bb
       0.017122645 -0.028548345 0.05418958 -0.0035879253
0000a0 bb f7 ad 3b 7d b0 54 3d 7a 9e dd 3b 65 4b f1 bc
       0.005309073 0.051926125 0.0067632766 -0.029454896
0000b0 b5 61 42 bd 68 39 d1 3d ab 87 4f bc d6 78 87 bc
       -0.047456462 0.102160275 -0.012666623 -0.016537111
0000c0 f5 51 ad 3d 9d d8 88 bc 0c 6e 9b 3d 73 c4 e4 bb
       0.08462898 -0.016704852 0.07589349 -0.0069814264
0000d0 a2 ca 16 ba 13 69 27 3d d4 28 1d bd df 23 d9 3c
       -0.00057522405 0.04087169 -0.038369015 0.026506362
0000e0 f9 db 0e 3d d4 54 a6 bc 12 6c 63 bc 96 7d 99 3c
       0.03487775 -0.020304121 -0.013880746 0.018736642
0000f0 a9 67 c1 3c 3c 9f 2b 3c 35 9c 31 bc c6 b7 7e 3c
       0.023609 0.010474976 -0.010840465 0.015546745
000100 5d 2f 66 3c 42 24 a3 3c b2 37 4c bd 84 1a 5f bd
       0.014049378 0.01991475 -0.049857803 -0.054468647
000110 7f 7c d4 3c 3e cf 23 3d c1 ad bc bb 50 67 25 bd
       0.02593827 0.039992563 -0.005758018 -0.04038173
000120 1f 1d a0 bb db a7 4f 3c 71 1f dc bc 6c 99 86 3c
       -0.004886284 0.012674297 -0.026870461 0.01643058
000130 ad 40 e9 bd 30 cf 68 bd 13 27 4f bd 5d 3e 31 3d
       -0.11389289 -0.056838214 -0.050574373 0.043272365
000140 95 88 14 3b 7a 31 3d 3d 64 f4 3e 3d 2a c3 98 bd
       0.0022664417 0.046189763 0.046619788 -0.074590996
000150 82 de 48 3d 7e 4e 39 3d 01 5a 99 bc 8b 71 7f 3c
       0.049040325 0.04524087 -0.018719675 0.015591036
000160 26 52 12 3c 1a df 4e bb c5 1a e6 bc a3 b2 5d bd
       0.0089307185 -0.0031566084 -0.028088937 -0.05412544
000170 71 99 3b bd f8 ee f0 bc 17 f0 82 bd 19 27 b4 bd
       -0.04580063 -0.029410824 -0.0639345 -0.0879652
000180 dc 93 0e bd 00 17 cd 3a 57 cb 4c 3e 96 9f 96 bb
       -0.03480898 0.0015647113 0.19999443 -0.004596661
000190 5b 21 3f bd a4 27 31 bd cd c0 3c 3b 6c 09 f3 bc
       -0.04666267 -0.043250695 0.0028801442 -0.029667579
0001a0 64 9b b0 bd 07 13 60 3b 7b 18 9e 3d 88 89 94 bd
       -0.086233884 0.0034191029 0.07719513 -0.072527945
0001b0 c7 3e 12 bb c6 51 0b ba dc 5e 8c bc de 82 75 bd
       -0.002231525 -0.00053146144 -0.017135076 -0.059939258
0001c0 e9 08 ae 3c 08 9f 4a bd b7 f1 10 bc e6 9b 8c bd
       0.021244483 -0.04946807 -0.008846692 -0.06865673
0001d0 4e 13 ba bc 26 ec 50 3d 8c 01 e2 bc be 23 35 3d
       -0.022714283 0.05100646 -0.027588628 0.04422354
0001e0 49 ec 82 bc 6c 4c 60 3d 37 86 26 3c e8 f1 76 bd
       -0.01598181 0.05476038 0.010163835 -0.060289294
0001f0 2c 86 ba 3c 37 ab e8 bc ea 13 74 3d 9e 43 b0 3c
       0.022769056 -0.028401954 0.059589304 0.021516617
000200 4b 0c 79 3c c6 a4 37 3c bb b9 fb bc 3c b2 5a 3d
       0.015200685 0.011208719 -0.030728212 0.053392634
000210 16 ef a2 3d b7 b2 10 3d 5f 56 4b bd c1 52 79 bd
       0.07955758 0.035326686 -0.049642917 -0.060869936
000220 e8 4e 01 3e 83 6b 8d bd 5f b6 e3 3c 3d a7 1c bd
       0.12627757 -0.06905272 0.027796922 -0.03824543
000230 d2 dc 8b 3c 63 3b 52 bc f5 ee b6 3a ac ab d3 3d
       0.017073069 -0.012831542 0.0013956713 0.10335478
000240 e7 76 d4 3c 8e 9a 91 3d 3c 7d ee 3b 45 76 6d bd
       0.025935603 0.07109557 0.0072781127 -0.05797412
000250 5c 7a 15 3d 11 b7 ee bc a1 59 a2 bd b4 df 46 3d
       0.036493644 -0.029140027 -0.079272516 0.048553184
000260 e8 01 9d 3c 8c 66 90 bc 74 65 1b bc c5 8a 06 bd
       0.019165948 -0.017627023 -0.0094846375 -0.032847185
000270 ff 0a 39 3e c4 10 15 bd 01 50 cf bd f5 11 e4 bc
       0.18070601 -0.036392942 -0.101226814 -0.027840594
000280 3b 83 43 bc f0 31 3c bd 14 75 90 3d c7 3c af b8
       -0.011933143 -0.04594606 0.07053581 -8.355971e-05
000290 f0 19 41 bc 03 7d f1 3c b2 7f 89 bc 3c cc d7 3d
       -0.011785969 0.029478556 -0.016784523 0.105370015
0002a0 75 1f 33 bd cf c5 a7 bd 34 9b df bb 42 17 96 bd
       -0.04373117 -0.08192026 -0.0068239216 -0.07328655
0002b0 43 76 31 bd 4b 84 79 3d 15 26 57 bc 8b 1c 8c bd
       -0.043325674 0.06091718 -0.013131638 -0.06841382
0002c0 43 c3 72 bd 59 81 a7 3d 1e b1 08 3c 2e 25 ae 3d
       -0.059268247 0.08178968 0.008343009 0.08503185
0002d0 4f 2e 74 3d 63 ca 49 bd 2e 79 ae bc 06 7a 3c 3d
       0.059614476 -0.049265277 -0.021298017 0.046014808
0002e0 67 12 9a bc d1 93 8c bd 44 65 ed 3c 9e 75 98 3c
       -0.018807603 -0.06864131 0.028978951 0.018610772
0002f0 89 5d fe 3c 1b 1e c4 3d ec 7e 0d 3d fe cd 60 3c
       0.03105046 0.09576055 0.03454487 0.013720987
000300 84 fe d5 bc ea 18 c5 3d e3 5f 25 bc dd 7b 66 bd
       -0.02612234 0.096238926 -0.010093662 -0.05627047
000310 0a 0c a5 3d de 43 8d 3d a2 8b 01 3c 9a 52 92 3d
       0.08058937 0.0689771 0.007906826 0.07144661
000320 18 31 09 3c 08 10 8f 3d 28 a6 36 bd 5f 7c 7f 3d
       0.008373521 0.069854796 -0.044592053 0.06237447
000330 a4 16 2f bd 69 83 cc bb 1d 62 08 bb 1e a8 ec 3b
       -0.0427462 -0.0062412512 -0.0020810433 0.0072221896
000340 c5 e8 13 bd e2 e6 60 3b 7c 41 92 bb 95 21 c3 bc
       -0.03611066 0.0034317304 -0.0044633728 -0.023819724
000350 44 60 5d 3d d3 4b 4c bd 0a 51 47 3d 05 dc 92 3d
       0.054046884 -0.049877 0.04866127 0.07170872
000360 2b cf fa 3c 6e 97 15 3c 12 7d b6 3b 1c e1 8b 3b
       0.030616364 0.009130342 0.0055691088 0.0042687785
000370 a5 a0 8a bc 1e 77 6b bb 69 da ad 3b 5e 11 93 bd
       -0.016922304 -0.0035929154 0.0053055775 -0.07181047
000380 15 99 6e 3d 82 87 8d 3c ce 75 1b bd ac 26 4a bb
       0.05825146 0.01727653 -0.037954144 -0.0030845804
000390 6c 39 01 3c c4 40 4d 3d cc b2 4c 3d 9b ea 1b bd
       0.007887226 0.050110593 0.0499752 -0.038065534
0003a0 12 01 80 3b af 81 7a bd 1c 16 90 bd 46 e7 fd 3d
       0.0039063776 -0.061158832 -0.07035467 0.123976275
0003b0 ec 9e 9b bd 3f 6c 05 bd ec 6b a7 bb db 32 7c bd
       -0.07598671 -0.032573935 -0.005109301 -0.061571937
0003c0 5d 7e a8 3c f9 29 7e 3d 8f 12 fe 3c da 6c a3 bd
       0.020568067 0.062051747 0.031014709 -0.07979746
0003d0 d8 53 92 3d e3 c2 26 3c 79 5f d5 bd 70 28 12 bb
       0.07144898 0.010178301 -0.104186006 -0.0022301935
0003e0 dc 29 02 3c 73 c3 bc bc 57 fa 20 3c c5 ff 77 3d
       0.00794455 -0.023042416 0.009825311 0.060546655
0003f0 a1 c0 17 bd ec f9 5a bc be 98 e4 3b 20 c5 36 3c
       -0.03704894 -0.01336525 0.006976216 0.011155397

weight f4 [256, 256]
000000 ba c2 e4 3c 28 48 24 bd 70 eb 0a 3d 43 ed 4e 3e
       0.027924884 -0.040107876 0.033915937 0.20207696
000010 30 80 80 bd 85 16 a0 3c 3c c1 96 bd 46 f1 b9 3e
       -0.0627445 0.019541988 -0.07361075 0.3631689
000020 be e0 8f be 6c 69 f2 3c 17 90 25 3e 78 f1 41 bd
       -0.28101152 0.029591285 0.16168247 -0.047349423
000030 89 05 e7 3d 8a eb 01 be 09 c3 d4 bd e5 58 c2 bc
       0.112803526 -0.12687507 -0.103887625 -0.023724029
000040 58 20 19 bd 79 42 96 3b df ff bc be c4 8f 8d be
       -0.03738436 0.004585561 -0.36913964 -0.27648747
000050 f5 73 3d 3e b0 70 e2 be 0a cf 06 bd f4 56 46 be
       0.18501265 -0.442266 -0.03291229 -0.19369107
000060 55 cc 6e 3b e2 17 09 3d bf 12 04 be b2 a4 8a bc
       0.003643771 0.033470042 -0.12897776 -0.016924236
000070 fb 1f 2f bd 8f da d2 3e ef 33 90 bb 42 4b f2 bd
       -0.04275511 0.41182372 -0.004400722 -0.118307605
000080 b8 93 1b 3c ee d5 a0 bd 26 65 5a be e0 63 12 3d
       0.009495668 -0.07853304 -0.21327648 0.03573978
000090 c5 14 59 3d bc 41 e4 bc a2 6c a9 bd 2d 69 cb 3d
       0.052998323 -0.027863376 -0.08272673 0.0993217
0000a0 34 57 9e 3e b0 ae b6 bd 20 50 1a be a3 92 b7 bd
       0.30925906 -0.08920038 -0.15069628 -0.089635156
0000b0 b3 e4 b8 bc c8 0f 0e bd 00 59 9c 3d 14 77 b1 3d
       -0.02256999 -0.03468302 0.07634163 0.086652905
0000c0 96 eb 60 ba 11 cc a2 3d d1 a8 72 3d fd 68 9f 3e
       -0.0008580027 0.07949079 0.059243027 0.31134787
0000d0 55 1f ca 3c 19 05 7f 3e ee 4a b3 bb 85 63 3c bc
       0.024673143 0.24904288 -0.005471579 -0.011498337
0000e0 3a fa 75 bd 92 a2 1d 3d 88 b8 66 bd a3 e7 11 bc
       -0.060053088 0.038485117 -0.056328326 -0.008905324
0000f0 ce 72 df bd 64 37 73 be b7 0c f9 bc 66 bc 58 3c
       -0.10910569 -0.23751599 -0.03040157 0.013228511
000100 1e bf 46 3e c2 04 8f bb 78 5b 86 3d 54 be 5a be
       0.19408843 -0.004364581 0.06560415 -0.21361667
000110 34 5f 7f bc 94 2c 13 3e 41 64 c4 3d 29 e2 39 be
       -0.015586663 0.14372474 0.095894344 -0.1815268
000120 09 a2 c4 3d 26 fa f2 ba 12 d4 00 be ea 4c af 3e
       0.09601218 -0.0018537685 -0.12580898 0.34238368
000130 54 f1 72 3b 14 d2 96 3d 8e c2 fc bd 1f 5b 23 be
       0.0037070112 0.07364288 -0.12341796 -0.15952729
000140 c1 33 3b 3d 37 a2 83 be ec 28 cc bd d8 4a 2e bd
       0.045703653 -0.25709698 -0.09968743 -0.042551845
000150 9d ba 16 3e df 36 8a bd 85 84 ab 3d 9a 66 c6 be
       0.14719625 -0.06748747 0.083748855 -0.38750154
000160 19 eb 6e bd 06 d1 c5 bd 8c f8 8e bc 28 65 03 bd
       -0.058329675 -0.09659009 -0.0174525 -0.032078892
000170 82 f1 c6 bd 7c a6 f6 3c 72 76 85 bd a7 d9 9e 3c
       -0.09714033 0.030108683 -0.06516732 0.019390894
000180 26 ae 21 3d 0a a4 9b bd 21 7c 27 bc 98 3d 53 3e
       0.03947272 -0.07599647 -0.010222466 0.20628965
000190 c1 4b b8 3d db c7 2b bb e5 86 99 3d 0d e2 4d bc
       0.08998824 -0.0026211652 0.07496432 -0.012566102
0001a0 f2 6d ab 3d bb 1b a7 bb 21 ed d8 bb 4a 90 77 be
       0.0837058 -0.0050997413 -0.006620065 -0.24176136
0001b0 2d 7e 96 be e1 d2 f1 3d c8 52 32 3c 4b 52 c3 3b
       -0.2939314 0.118078 0.010883994 0.005960738
0001c0 b9 0f be bc d0 81 59 3e 15 05 1c be 22 30 7e be
       -0.023200857 0.21240926 -0.15236314 -0.24823049
0001d0 1a 1b 22 3e 75 94 eb be d8 30 05 3e a2 af 0d 3e
       0.15830651 -0.460117 0.13006914 0.1383653
0001e0 05 41 85 3d 5f 83 c0 3c c6 36 0c 3d ce f5 19 bc
       0.06506542 0.023500143 0.034231924 -0.009396983
0001f0 37 77 60 bd 3f d0 ff bc 33 aa 7b 3e 45 25 b8 3d
       -0.054801192 -0.03122723 0.24576645 0.089914836
000200 62 89 a9 3c db ac 54 3d ca fb 96 3d 2c 88 3f bd
       0.020695392 0.05192266 0.07372244 -0.046760723
000210 25 a8 da 3d d5 bf eb bd 0b 98 bb bd 57 18 fc 3b
       0.10676602 -0.115111984 -0.09159859 0.007693331
000220 e3 69 67 3d e7 1e 41 3e 29 75 36 3d c2 58 8c bc
       0.056497466 0.18859445 0.044545326 -0.017132167
000230 b9 76 59 bc 09 0e a6 3c 0c d7 cf bc fe c1 ea 3d
       -0.013272935 0.020270364 -0.025371097 0.11462782
000240 e8 50 9c 3c 9b 52 85 3c e7 09 7e bc 0f 11 12 3d
       0.019081548 0.01627474 -0.015505291 0.0356608
000250 2c f3 fe 3d cf 22 02 bd c4 63 38 bc 5a 65 9e 3c
       0.12448725 -0.031771477 -0.011254255 0.019335438
000260 d5 46 a4 bc e5 50 46 3d a1 c8 ac bd aa 21 8c 3d
       -0.020053307 0.04841699 -0.084367044 0.068423584
000270 96 a7 1e bd 46 0b f6 3d dc cd 60 3d d7 3d d9 bd
       -0.03873404 0.12013869 0.054883823 -0.10607498
000280 03 d6 1b 3d a8 7e 57 be 3f 87 66 3e d6 ad 25 be
       0.038045894 -0.2104441 0.2251253 -0.16179594
000290 fb f1 bf bb 59 60 68 be b9 c1 2a 3d 0f 10 e6 3d
       -0.0058577037 -0.22693004 0.041688655 0.11233532
0002a0 bd fa bf bd b5 3d 83 bd a6 44 76 3c 3a ac 2e 3d
       -0.093739964 -0.06408254 0.0150310155 0.042644717
0002b0 cf e4 c6 3d f9 64 02 3e 23 53 a6 3c d4 a5 b3 3d
       0.097116105 0.1273383 0.020303315 0.087718636
0002c0 7e 5b 90 bc 3b 7e 0e 3d 63 c2 75 3d de 1a 07 3e
       -0.017621752 0.03478835 0.059999835 0.13193843
0002d0 45 c8 c3 3d ec 82 19 bd a7 2d 0d 3e 64 4b 9c bd
       0.09559683 -0.037478372 0.13786946 -0.07631567
0002e0 ed e2 8a bc a4 5f 85 3a fa a5 a0 3d dc 8b ec 37
       -0.01695391 0.0010175598 0.078441575 2.819852e-05
0002f0 ee 3e 3c 3e 1c 81 12 be 67 d6 1e be 4b 53 88 b9
       0.18383381 -0.14307064 -0.15511476 -0.00026002
000300 14 69 25 3d 5d 17 21 3e 61 5f 98 be 3f 08 bb b8
       0.040383413 0.15731569 -0.29760268 -8.918391e-05
000310 df 9f 42 3d 68 d4 4c be 1e 41 47 3c d9 10 38 3d
       0.047515746 -0.20002902 0.012161521 0.044937942
000320 37 47 b9 bc 24 4f b9 3d e8 2d 2a bd b6 2a d0 3d
       -0.022616966 0.09048298 -0.041547686 0.101643965
000330 59 0f 2b bd e6 e8 32 be 8f a1 73 bd 0d 09 ad 3e
       -0.041762684 -0.17471656 -0.059480246 0.33795968
000340 21 03 6e 3e 05 4a de bc 78 b5 25 be 38 93 7c 3d
       0.23243381 -0.027134905 -0.16182506 0.061663836
000350 46 4a bf 3c e6 b1 18 3d 3c f7 22 be 75 39 9a 3d
       0.023350846 0.037279032 -0.15914625 0.0753049
000360 1b 31 71 bd 30 48 60 3e 0a c3 03 bc 9b d8 3b 3e
       -0.05888472 0.21902537 -0.008042106 0.18344347
000370 09 ab 63 bb 80 2d f1 bd 7c 3e 01 be 04 4d 94 3d
       -0.0034739396 -0.117762566 -0.12621492 0.07241252
000380 32 87 e3 3d 4e 63 82 3d d3 58 4c bb 4e 7c 8f 3d
       0.11109771 0.06366597 -0.0031180873 0.07006131
000390 8d bd 99 3d 0b 97 12 3d f7 d9 a1 3d 11 68 15 3e
       0.07506857 0.035788577 0.079029016 0.1459048
0003a0 75 99 83 bd d6 5e f6 bd fe d5 22 be f9 9e a7 3d
       -0.06425754 -0.12029807 -0.15901944 0.081846185
0003b0 57 a3 51 3d 90 df 9e 3b 8a 6f b8 3e 1f 02 06 be
       0.051181164 0.004848428 0.36022598 -0.13086747
0003c0 75 b5 20 bc 11 4d 04 3e 05 a9 8f bc a6 e0 6a bb
       -0.009808888 0.12920024 -0.01753665 -0.0035839467
0003d0 20 59 ce 3d b2 86 93 3e 8c 5a 97 bd 30 3e 78 be
       0.10075593 0.28813702 -0.07390317 -0.24242473
0003e0 1f 10 2a 3e 3c 71 43 3e 11 2a 33 bd e3 c2 18 3d
       0.16607712 0.19086164 -0.04374129 0.037295233
0003f0 14 e6 26 3e 53 6f 4c be d8 8e f6 bd f2 af 07 3e
       0.16298705 -0.19964342 -0.12038964 0.13250712

bias f4 [256]
000000 40 7a ce bd 1f f7 01 3c 69 3c aa 3b 6e 77 ca bd
       -0.10081911 0.007932453 0.0051951897 -0.09886061
000010 69 85 db bc 21 6a 1f 3b 82 22 d6 bc 6c a5 ef 3b
       -0.026797013 0.0024324732 -0.026139501 0.007313421
000020 ae f9 97 3b bb 55 10 bc ec 5a ec 3c e8 18 ce bc
       0.0046379184 -0.008809502 0.028851949 -0.02515836
000030 9c f9 cc 3c ba 82 11 3d 5d 01 4c bd fd 36 27 bc
       0.025021367 0.03552506 -0.049805988 -0.010205981
000040 db 0f de bd 6f c2 89 bc f2 7c ce bc c7 f5 1d bd
       -0.10842868 -0.016816346 -0.025206063 -0.03856447
000050 c6 c5 41 bd 7f 81 6a 3d b1 fc 16 bc 69 7b bf bd
       -0.047307752 0.057252403 -0.00921552 -0.093497105
000060 b2 91 10 3d 4d b0 1d bd f9 ff 93 3d d9 b5 e6 3d
       0.035295196 -0.03849821 0.07226557 0.112651534
000070 66 d9 40 39 bf b1 57 3c 86 4c 8f ba ee c9 db 3c
       0.00018391534 0.013164937 -0.001093284 0.026829686
000080 3f 33 22 3d b4 9e 87 3a 63 ac 0f 3d f2 e1 17 bd
       0.039599653 0.001034698 0.03507651 -0.037080713
000090 f2 a7 c2 bd 08 db ea bc 69 e2 fa 3c ee ef 89 3d
       -0.09504689 -0.028668895 0.030625539 0.06735216
0000a0 ad 2d ad 3b 0c 68 3b bb 4e 9a 71 bc 25 2e 76 bc
       0.005284986 -0.0028595952 -0.014746262 -0.01502565
0000b0 da 55 39 3d 2b 31 4b bc be 8a a3 ba f9 50 11 ba
       0.04524789 -0.012401859 -0.0012477261 -0.0005543377
0000c0 e5 a5 9c bc 3a 73 89 bc 15 d9 d6 3c 6e 20 da bc
       -0.019122073 -0.016778577 0.02622656 -0.026626792
0000d0 c1 e8 88 bd c8 38 37 3d a4 52 10 3d 59 09 1a bc
       -0.06685019 0.044731885 0.035235062 -0.009401643
0000e0 bb ba fa bd 55 81 55 3c 96 af 9a bd e0 b2 c2 bc
       -0.12242647 0.013031323 -0.075530216 -0.023766935
0000f0 8d 12 10 3c 3d 11 36 3d d2 a9 30 bd 4e 1e 8a 3c
       0.008793485 0.044450033 -0.043130703 0.016860154
000100 5f 80 e3 bd 95 f5 db bc 1b 5f dd b8 95 30 e1 bc
       -0.11108469 -0.026850501 -0.00010555816 -0.027488986
000110 48 88 09 bd 28 21 34 3d 8d 71 05 3d 1d 89 8b bd
       -0.033577234 0.043976933 0.032578994 -0.06813262
000120 20 17 97 3d 06 82 82 bc 4f ca 35 bd 7c f1 f0 3c
       0.073774576 -0.01593114 -0.04438239 0.029412024
000130 a0 16 96 bd 0b 8d a3 bc 27 1b f8 3c 29 fe 55 bc
       -0.07328534 -0.019964715 0.030286385 -0.013061085
000140 a1 59 01 bd 20 cc b6 3b 4f af 87 bd ac 29 1a 3d
       -0.031579617 0.005578533 -0.06625234 0.037637398
000150 24 f1 9b 3c 5f 86 9b bc 01 bd 91 bd 0d 43 dd 3c
       0.019035883 -0.018984972 -0.07116128 0.027009511
000160 23 a6 e5 bd 9e ad 75 3d be 9e 75 3c 4c ef d2 3c
       -0.11213329 0.059980027 0.01499146 0.025748871
000170 49 db c3 bc fa 9a de 3d ed b1 18 3d e4 58 2d 3d
       -0.023908274 0.10869403 0.03727906 0.0423211
000180 70 fe 6a bc e9 21 70 bc 02 62 61 3d 47 00 01 3d
       -0.014342889 -0.014656522 0.05502511 0.031494405
000190 cc fc 96 3c 95 02 dd bc 93 c5 18 bd c1 54 39 bc
       0.01843109 -0.02697877 -0.037297796 -0.011311711
0001a0 94 2d 9e bc 94 c1 b0 3b f7 60 30 bd b2 c7 25 bd
       -0.019308843 0.00539417 -0.043061223 -0.040473647
0001b0 aa 0f 2a bd e2 1d e3 bb 71 4a 3a 3b 28 65 25 bd
       -0.041518845 -0.0069310525 0.0028425718 -0.040379673
0001c0 ed be da 3c 56 93 bd 3b 4e 26 23 bd 80 66 f6 bc
       0.026702369 0.005785386 -0.039831452 -0.030078173
0001d0 13 de 48 bd 45 78 85 bd 30 cd 70 3d 2a 29 47 bc
       -0.04903991 -0.0651708 0.058789432 -0.01215581
0001e0 40 97 1b 3b 5e 37 e0 3c ce ff 0b bd 0d 72 34 3c
       0.0023741275 0.027370151 -0.0341795 0.01101352
0001f0 37 35 1a bd 9a 6e 84 3c c7 e0 e7 bc 8a a7 93 bd
       -0.037648406 0.01616602 -0.028305424 -0.0720969
000200 a0 82 85 3c 99 2c dc bc 16 c7 1b 3d 2e 43 80 bd
       0.016297638 -0.026876735 0.03803166 -0.062628135
000210 06 a3 5a bc 13 f4 39 3d a5 78 57 3c 53 3e 7a 3c
       -0.013344532 0.045398783 0.0131513225 0.015273648
000220 09 35 33 3d 7d b2 c6 3b 43 64 49 bd 54 3b 08 bd
       0.04375175 0.006063758 -0.049167883 -0.033259705
000230 58 11 04 bd 11 af ab 3b 11 f4 7d 3d 45 34 b2 bd
       -0.032243103 0.0052393754 0.062000338 -0.08701376
000240 c4 eb 48 3c ec 78 9e 3d 1d 66 fb 3c 34 77 a1 3c
       0.012263242 0.07737908 0.03068834 0.01971016
000250 80 32 d6 bc 35 0c 99 3d 38 fc b7 bc 6b bc 12 bd
       -0.026147127 0.074730314 -0.022459134 -0.03582422
000260 ba 2e a2 bc 87 1c b1 bd 97 0a fe bb 88 81 96 3d
       -0.019797672 -0.08648019 -0.0077527273 0.07348925
000270 4f fc ce bb f6 88 8c bd e4 b7 9e bc b8 01 c2 bc
       -0.0063166986 -0.06862061 -0.019374795 -0.02368246
000280 38 5a 7d bc 90 eb 9d 3d 5e 14 8e bd 13 ee 52 3c
       -0.015463404 0.077109456 -0.069374785 0.012874144
000290 41 d2 6e 3d 77 48 23 3d 90 b3 3a 3c 7c f2 78 bd
       0.058305983 0.03986403 0.01139535 -0.060778126
0002a0 75 55 81 b9 be 40 2b bd 83 54 3c 3d 26 22 42 bd
       -0.00024668468 -0.04180979 0.045979034 -0.047395848
0002b0 9a de 33 bd f6 37 90 3c 03 0b 4f bd 5c 8c 4f 3d
       -0.04391346 0.01760481 -0.05054761 0.050670967
0002c0 78 83 6b 3c 97 7e 09 bd 07 e1 f1 bb 4e 31 62 bd
       0.014374606 -0.03356799 -0.0073815617 -0.055222802
0002d0 2d 16 85 bc 68 95 5a 3c 84 2d 36 bd 67 81 0c 3d
       -0.016245926 0.013341285 -0.044477 0.034303095
0002e0 38 13 9b 3d 14 dd e0 3c 57 ee b2 3c fe bb 7b 3d
       0.07572025 0.027449168 0.021842165 0.06145858
0002f0 16 be b8 3d 61 46 92 bd a6 23 81 bd d0 74 8a 3d
       0.09020631 -0.0714233 -0.063056275 0.067605615
000300 97 29 d8 bd 4c d7 05 bd 16 dc 05 bd f2 25 02 3c
       -0.10554808 -0.032676026 -0.032680593 0.007943617
000310 71 04 49 3c 0c e0 a8 3c 67 e7 94 bd 48 79 ce bc
       0.012269125 0.020614646 -0.07270699 -0.025204316
000320 fb 4f 4a 3d 82 9c 80 39 f6 c3 84 3c ca b2 a6 3c
       0.04939268 0.0002453067 0.016206723 0.020348925
000330 72 7f 39 bd e9 f0 6a 3d 45 db 19 bd 22 05 b4 3d
       -0.045287557 0.057358656 -0.037562627 0.087900415
000340 40 d6 c5 bd 55 f8 c2 bd 12 73 0e 3c aa d7 81 3c
       -0.096600056 -0.09520022 0.008694427 0.015849907
000350 3b ce 98 3b 5b 27 aa bc 10 ae fe 3c 21 1a 31 3d
       0.0046632565 -0.02077072 0.031088859 0.04323781
000360 88 2a ae 3b 2e 8d 14 3d 5a 0c 23 bd 79 43 ec 3c
       0.0053151287 0.036267452 -0.0398067 0.028840767
000370 c7 05 2d bc 18 14 6d 3d 97 e8 06 bb 2c be 95 bd
       -0.010560459 0.05788049 -0.0020585412 -0.07311663
000380 e3 c5 2d 3c 9b b6 a1 3c a5 5d 85 3c e6 3d eb bc
       0.010606262 0.019740393 0.016280005 -0.028716039
000390 2b 27 52 bd ec f9 8e 3c ea c1 57 3d c7 3e 22 bd
       -0.051306885 0.017453156 0.052675165 -0.03961065
0003a0 3f 18 63 bc 7f 2d ba 3c 46 11 54 3c 97 c0 d3 3c
       -0.013860761 0.022726772 0.012943571 0.02584867
0003b0 32 34 12 3c fc 95 cc bd 4d 62 41 3c 4b 6c 11 3c
       0.008923577 -0.09989545 0.011803222 0.008875917
0003c0 0e e6 be 3d 9a bd 36 bd 21 74 df bc b0 a3 14 3d
       0.09321223 -0.044614412 -0.027277054 0.036288917
0003d0 15 f6 46 3b 5f f2 cf 3c 92 42 f7 3c c4 0d 13 3c
       0.0030359079 0.025384126 0.03018311 0.00897545
0003e0 7a a5 62 3c f1 3b bd 3c 2b d2 bb bc c3 10 f6 3c
       0.013833398 0.023099871 -0.022927364 0.03003729
0003f0 86 4c ed 3d 6e 2c 23 3a 70 fc 08 bb 0c 56 f7 3c
       0.11586861 0.0006224577 -0.0020902418 0.030192398

weight f4 [1, 256]
000000 ef 67 38 be 7e 95 b3 3b 22 a7 a6 bb 62 2c e4 bd
       -0.18008398 0.0054804673 -0.0050858418 -0.11141278
000010 7c 47 36 3c 00 1b 02 3c f1 31 60 bc 56 e7 6f 3c
       0.011125442 0.007941008 -0.013683782 0.014642557
000020 e3 e7 6a 3c ff e5 08 bc 3f c8 a5 3a 20 1f 13 be
       0.014337513 -0.008355617 0.0012648179 -0.14367342
000030 5d 7e fe 3a 39 db 91 bb 9c d1 ba bd 48 51 0a bd
       0.0019416321 -0.004451182 -0.09122011 -0.033768922
000040 a7 92 26 be a3 e0 86 bd 03 9c 98 3b 6a 74 0b bc
       -0.16266881 -0.06585815 0.00465727 -0.008511642
000050 c0 49 cf 3b 77 ea 87 3d 83 f8 ec 3a 74 d2 df bc
       0.0063259304 0.066365175 0.0018079433 -0.027322032
000060 c8 9c 29 3d de ef b4 bd 24 30 4e 3d 96 60 90 3c
       0.041409284 -0.088348135 0.05033888 0.01762418
000070 a2 f1 73 3b ea 39 c1 3b 27 6f 8f ba b4 92 61 3c
       0.0037222882 0.0058967965 -0.001094316 0.013767887
000080 ad 9c e5 3a d3 e2 0f bc 23 01 50 b9 ce c9 ac 3d
       0.0017518006 -0.008782106 -0.00019836849 0.08436929
000090 41 fd 89 bd 0c ca 11 bd f8 13 1c 3c a7 57 35 3c
       -0.067377575 -0.035593078 0.009526245 0.011068261
0000a0 c2 c7 5e bd 1c fa b4 3c 27 0b 04 bc 8f 7f 1c bd
       -0.054389723 0.022091918 -0.0080593 -0.038207587
0000b0 54 4b 08 be 28 7d 10 3d 52 ee d0 ba 85 d6 19 3d
       -0.13309985 0.03527561 -0.0015940166 0.037558097
0000c0 f7 11 e6 bb 3f ad 44 3a 40 db 36 3c f2 d2 11 3c
       -0.0070211845 0.00075026223 0.011160672 0.008900391
0000d0 94 da fc bc 78 0a e8 ba 09 48 ec 3b f2 44 0f 3b
       -0.030865945 -0.0017703315 0.0072107357 0.0021861163
0000e0 1b d4 03 bd 92 28 5a 3d 58 ad 5f bd a5 2e f5 bc
       -0.0321847 0.053261347 -0.054608673 -0.029929468
0000f0 a1 85 6e bc 38 a7 6b bd 7a 55 c7 3b 6a 88 90 3b
       -0.014558227 -0.05753252 0.0060831876 0.004410793
000100 10 dc 3d be 17 15 c0 3b a1 32 9c 3b 05 7c 84 3b
       -0.18540978 0.005861889 0.0047667776 0.0040431046
000110 47 8b 0b bb d2 e9 39 bc 99 05 d9 ba cf 58 23 be
       -0.0021292733 -0.011347251 -0.0016557454 -0.15951847
000120 b9 b6 08 3e 34 b4 81 3c 03 2a bb bd 61 31 0b 3c
       0.13350953 0.015832998 -0.091388725 0.00849566
000130 13 18 84 3d 44 e7 c7 bc 78 2b 90 3b 37 ad 1f 37
       0.06449904 -0.024402268 0.004399713 9.517468e-06
000140 6e 74 8b bd 65 52 83 bb c0 f5 5f bc 09 aa c4 bb
       -0.068093166 -0.004007625 -0.013669431 -0.006001715
000150 1a 32 ff 3a 61 a3 e8 bb 47 da dc bb f2 14 09 bd
       0.0019469887 -0.0070995544 -0.006739888 -0.03346724
000160 e2 2d 38 be 1e 2c c4 3d 40 41 96 3d 5a 79 c1 bc
       -0.17986253 0.09578727 0.07336664 -0.023617435
000170 57 62 0c bc 80 11 79 3d 09 86 80 bb e9 26 9b 3a
       -0.008568368 0.060807705 -0.0039222282 0.0011837158
000180 d9 00 4d 3a dd a3 6f ba b6 87 bb 3b c6 29 b4 bc
       0.00078202557 -0.0009141544 0.005722965 -0.021992575
000190 c2 95 a7 bd 65 e6 38 bc d4 2b e0 b8 4b ae 33 bd
       -0.08182861 -0.011285399 -0.00010689316 -0.04386739
0001a0 76 f9 5c 39 18 ad 88 bb b4 c1 5a 3c 96 a9 3a bc
       0.00021073766 -0.004171025 0.0133518465 -0.0113929715
0001b0 6c 2e 71 3b 45 de 5f 3a 08 17 2d bc 3f 8c ca bd
       0.0036801351 0.00085398956 -0.010564573 -0.09890031
0001c0 52 5c 4c bc da d7 38 bd 1f 2b c0 3b a5 7a ba bb
       -0.012473183 -0.045127727 0.0058645154 -0.00569089
0001d0 ed 99 27 3e be a8 7a bd 80 09 9a 3d 09 60 db 3a
       0.16367312 -0.06119608 0.07521343 0.0016736995
0001e0 6a ef 05 bc 52 e5 03 bc 0c 85 e9 bd 76 70 ef ba
       -0.008174757 -0.00805028 -0.1140233 -0.0018267769
0001f0 62 f1 ab 3b bc 54 af bc 97 91 f2 3b 0b f2 b0 bd
       0.005247281 -0.02140271 0.0074026096 -0.08639916
000200 aa bf ae ba 61 a5 a9 3b 3b d7 f1 3c db 09 28 be
       -0.0013332267 0.0051771854 0.029521575 -0.1641001
000210 41 ea 71 3c 79 f2 61 bc 12 6b d4 3b c5 89 d1 3b
       0.014765323 -0.01379072 0.0064824903 0.0063945972
000220 cb 55 5f 3e 13 f0 e1 3c 02 76 9d 3b 72 06 9a 3b
       0.21810071 0.027580297 0.0048053274 0.0047004754
000230 49 6b 60 3b 2f 10 95 bc 2d c5 b6 3d df 3d 22 bc
       0.0034243634 -0.018196194 0.08924327 -0.0099024465
000240 fe f5 40 bb d6 a3 5d 3d b7 74 b9 bd 58 16 5c 3c
       -0.0029443498 0.054111324 -0.09055465 0.013433062
000250 09 21 b0 3a 1f 28 9e 3d df 4d d8 bd 1c 7a b6 bd
       0.001343758 0.07722496 -0.10561728 -0.08910009
000260 b1 4c 95 bb 26 25 81 bd 11 f2 14 bd 6f 33 fe 3d
       -0.0045562615 -0.063059136 -0.036363665 0.12412154
000270 21 7d 9f 38 bd c2 cd 3b 23 51 82 bc da d6 fc bc
       7.605018e-05 0.006279318 -0.01590783 -0.030864168
000280 33 d1 29 bc 62 b0 9a 3d e3 13 20 bd c4 50 6e bb
       -0.010364818 0.075531736 -0.039081465 -0.0036364058
000290 86 0d 02 3d 84 fd 85 3a 55 53 03 bc ee 3d 14 be
       0.03175118 0.0010222648 -0.008015473 -0.1447675
0002a0 7c 30 c7 ba 16 60 80 ba 41 4e af 3c 25 10 82 3b
       -0.0015196945 -0.0009794261 0.021399619 0.0039692097
0002b0 7a 39 04 3c 12 26 3f bb ae 19 0a be 71 ae 01 3e
       0.008070344 -0.0029166979 -0.13486359 0.126642
0002c0 f9 ca 4c 3c c9 f8 b5 bb 3f db f6 3b 36 e7 8d bd
       0.012499564 -0.005553339 0.0075334604 -0.069288656
0002d0 eb bc fb bb bc 4a 38 bc 19 6a b3 bb 57 90 24 3c
       -0.007682433 -0.011248287 -0.0054752943 0.010044179
0002e0 d8 1e 62 3e ce 66 26 3b 2c e7 b1 bc 6a 22 96 3d
       0.22082078 0.0025390866 -0.021716677 0.07330783
0002f0 24 89 e0 3c cb 0f 43 be 8b 28 26 be b3 28 20 3e
       0.027409144 -0.19048993 -0.16226403 0.15640526
000300 71 17 6e bd 70 4c 71 bd 47 35 46 bd 7b 55 88 3a
       -0.058127824 -0.058910787 -0.048390653 0.0010401452
000310 83 04 a6 bd e7 75 6c 3c 7b a8 24 bd 09 8d ef bc
       -0.08106329 0.014432407 -0.040199738 -0.029242055
000320 68 c6 5f bd 90 c5 b5 bc e7 4d 17 3b 66 d6 7c bc
       -0.054632574 -0.022188932 0.0023087205 -0.015431976
000330 13 a7 a7 bd 0e 8d fe 3b 09 5f 3e bc a9 34 86 3d
       -0.08186164 0.00776828 -0.011619338 0.06553013
000340 a9 81 15 bd 4e 0b 1c be 32 b8 05 bb f1 83 84 3d
       -0.036500607 -0.15238687 -0.0020403978 0.06470478
000350 4e 11 ae ba 5d 49 8e 3d e1 cf 4c 3d ad 7b 78 3b
       -0.0013280304 0.06947587 0.050002936 0.0037915513
000360 9a 60 95 3c 51 cc a2 3d 55 73 44 bc 1c 80 15 39
       0.01823454 0.079491265 -0.011990388 0.00014257472
000370 e9 96 db bb 6a d6 02 3e 92 61 0e bc 3e 7b b7 bc
       -0.0067013395 0.12777105 -0.008690255 -0.022397634
000380 3d 00 6f 3b e4 8b 7f 3d 24 f9 3a 3c 58 80 15 3b
       0.0036468648 0.06238927 0.011411939 0.0022812095
000390 68 f2 81 3d 99 ae 97 bb 73 d3 61 bb a3 d3 78 3d
       0.063450634 -0.004628968 -0.003445831 0.060748708
0003a0 b7 41 23 ba 6e ff 73 3b d4 fe c5 ba b4 5d ea 3c
       -0.0006227749 0.0037231105 -0.0015105852 0.028609134
0003b0 e3 23 23 3c 98 3b 49 be 5d 5b b1 3b 22 9e 4a 3c
       0.0099572865 -0.1965164 0.0054125027 0.012366803
0003c0 0d 06 6d 3d 69 ca 6a bc f3 d4 b0 3c f0 86 9b 3a
       0.0578671 -0.014330485 0.021585917 0.0011865776
0003d0 06 0e 64 bc b4 f5 11 3c b3 98 d9 3a 27 b2 3a 3c
       -0.013919359 0.008908678 0.0016601294 0.011395014
0003e0 2a 02 73 38 67 21 d3 3a d2 3c 32 bb 0b d0 00 bb
       5.793773e-05 0.0016107977 -0.0027196896 -0.0019655253
0003f0 a7 4f 0a 3d 35 64 97 b9 b5 19 bb 3b 23 f7 58 3b
       0.03376737 -0.00028875624 0.0057098516 0.003310629
