trained_models/ppo/me5418-Cassie-v0/0524-08-34-05-s3737/actor.pth (torch, 906874 bytes, 11 tensors)

log_std f4 [1, 10]
0	0x3987970d	0.00025861748
1	0xba9053cd	-0.0011011303
2	0x3bad3c0a	0.005286698
3	0x3aa1d129	0.001234566
4	0x3b997b88	0.0046839155
5	0xbb2d6d00	-0.0026462674
6	0x3bbbf6f2	0.0057362253
7	0x3ba7910d	0.005113727
8	0xba849eb5	-0.0010118099
9	0xbb080136	-0.0020752675

weight_ih_l0 f4 [512, 50]
0	0x3d8eaca3	0.069665216
1	0xbcba1979	-0.022717224
2	0x3c8b517b	0.017006626
3	0x3db4b473	0.088234805
4	0xbcadbc24	-0.021207877
5	0x3d36e0da	0.04464803
6	0xbd558c9a	-0.05213604
7	0x3d72c35b	0.059268337
8	0xbd3eba50	-0.0465644
9	0xbcba17a9	-0.02271636
10	0x3d277f81	0.04089308
11	0xbd321533	-0.04347725
12	0x3d827365	0.06369666
13	0x3d9c26c4	0.076245815
14	0xbd13d110	-0.03608805
15	0x3ca06e52	0.019583855
16	0xbd08c417	-0.03339013
17	0xbbf21808	-0.0073881187
18	0xbd25ed1f	-0.04050934
19	0xbcf92c50	-0.030416638
20	0xbc1179cb	-0.008879135
21	0xbd8df92b	-0.06932291
22	0xbc4fd189	-0.012684234
23	0x3c9c0a56	0.019047897
24	0xbda3af8b	-0.079924665
25	0xbdaaead0	-0.08345568
26	0xbdad78c5	-0.084703006
27	0xbcaed1fb	-0.02134036
28	0x3d78bace	0.060725026
29	0xba8f7a0c	-0.0010946407
30	0xbd025d04	-0.031826988
31	0xbbacd795	-0.005274723
32	0x3cb5b75f	0.022182165
33	0x3d965266	0.07339935
34	0x3d930a41	0.0717969
35	0xbd738232	-0.059450336
36	0x3a0144bb	0.0004931201
37	0xbd4f77ca	-0.05065135
38	0xbda3a1b1	-0.079898246
39	0xbd34f6f0	-0.04418081
40	0xba8a9319	-0.0010572403
41	0x3c5ddda6	0.013541615
42	0xbdbb0326	-0.0913146
43	0xbb1ba70c	-0.002375069
44	0x3d57238a	0.052524127
45	0x3b44ad72	0.0030010608
46	0x3d0f66b3	0.03501005
47	0x3d432312	0.047640868
48	0x3c714af7	0.014727346
49	0xbca28fb5	-0.019843915
50	0xbb9a72e5	-0.0047134035
51	0x3d3bbba2	0.045833237
52	0x3d9486a4	0.07252243
53	0x3d990040	0.07470751
54	0x3c6ccf5a	0.014453733
55	0xbdac0065	-0.08398513
56	0x3cefeb40	0.02928698
57	0xbdb917f0	-0.09037769
58	0xbc606e8d	-0.013698232
59	0x3d835571	0.06412781
60	0xbc7e0a66	-0.015505409
61	0xbcbd15c4	-0.023081668
62	0x3ab86018	0.0014066724
63	0xbcca6c7c	-0.024709933
64	0x3c1d92e5	0.009617542
65	0x3cc1b47c	0.023645632
66	0xbd61501a	-0.05500803
67	0x3d8544cd	0.06507263
68	0x3ccbf40f	0.02489665
69	0xbda22f31	-0.07919157
70	0xbc9eedc0	-0.019400477
71	0xbce0363f	-0.027369617
72	0x3ca322a8	0.019913986
73	0x3d99bdb1	0.07506884
74	0xbd02dbcc	-0.031947896
75	0x3c3366a0	0.010949761
76	0x3b8c60b1	0.0042839875
77	0xbd48c4e8	-0.04901591
78	0x3d6a6a58	0.057230324
79	0x3d6d4673	0.057928514
80	0xbd5d2ed7	-0.053999748
81	0xbd77add4	-0.06046851
82	0xbd8e8682	-0.06959249
83	0xbda3c242	-0.07996036
84	0xbd86db79	-0.0658483
85	0x3da05dec	0.07830414
86	0x3d24fbc8	0.04027918
87	0x3c25e7e4	0.010126088
88	0xbd826711	-0.063673146
89	0xbd7f1f69	-0.062285814
90	0x3d5d77f8	0.05406949
91	0x3d277b13	0.040888857
92	0x3d86f0e2	0.065889135
93	0xbd0aca34	-0.033884242
94	0x3dae761a	0.0851862
95	0x3c208309	0.009796866
96	0x3cf1554b	0.029459616
97	0xbc9299fa	-0.017895687
98	0x3d20a5f5	0.03922077
99	0xbbf3e0e6	-0.0074425815
100	0x3bcf9d99	0.006335926
101	0xbd45023b	-0.04809783
102	0x3da8ea44	0.082478076
103	0x3c27f56a	0.010251382
104	0xbd98c93f	-0.0746026
105	0x3d9ec8f5	0.07753173
106	0x3cca71e1	0.024712505
107	0xbbd8b5ce	-0.0066134697
108	0xbd958f6c	-0.07302746
109	0xbd9f3645	-0.07774023
110	0xbd201615	-0.03908356
111	0xbc9e181f	-0.019298611
112	0x3ba037ab	0.0048894486
113	0x3d521314	0.051287726
114	0xbd15298f	-0.036416586
115	0xbdb60533	-0.088877104
116	0xbd0d328b	-0.03447203
117	0xbd8a8323	-0.067632936
118	0x3b177289	0.002310904
119	0xbd8b37ba	-0.067977384
120	0xbd3e66b9	-0.046484683
121	0x3d2aa593	0.04166181
122	0xbd2bbaf8	-0.041926354
123	0x3d578d61	0.052625064
124	0x3ced898c	0.028996252
125	0xbd584f45	-0.052809972
126	0xbce30ce6	-0.027716111
127	0x3d9cd782	0.07658292
128	0xbd816a2f	-0.06319081
129	0x3d86c4f8	0.065805376
130	0x3c32126d	0.010868651
131	0xbbd7a452	-0.006580868
132	0xbcf9c372	-0.030488703
133	0xbd9de226	-0.0770915
134	0xbd7015e6	-0.058614634
135	0xbd2801f9	-0.041017506
136	0x3d713de3	0.05889691
137	0x3d331da2	0.043729432
138	0x3da6240b	0.081123434
139	0x3d68a4c9	0.056797776
140	0x3c569d27	0.0130989915
141	0xbd2ae71c	-0.04172431
142	0xbdb01ab0	-0.0859884
143	0x3dae072e	0.08497463
144	0xbd436dbc	-0.047712073
145	0x3d1719be	0.036889784
146	0xbd23dee9	-0.040007506
147	0xbd5f622d	-0.054536987
148	0xbd459c2b	-0.048244637
149	0x3d0801e8	0.033204943
150	0x3cb5b622	0.022181574
151	0xbcdfb997	-0.027310176
152	0x3d122646	0.03568103
153	0x3c9a722f	0.018853275
154	0xbd8c3606	-0.06846242
155	0xbd849b08	-0.06474882
156	0x3c447628	0.011991061
157	0xbbca6a35	-0.0061772116
158	0x3d8a7ead	0.06762443
159	0xbd64c382	-0.055850513
160	0x3d53faef	0.05175298
161	0xbd85e84c	-0.06538448
162	0x3bdb0caa	0.0066848593
163	0xbd1131fe	-0.035448067
164	0xbdb9cf16	-0.09072702
165	0x3d2be2ed	0.04196446
166	0x3d11758b	0.03551249
167	0x3c6bd5e1	0.014394254
168	0xbd62fff4	-0.055419877
169	0xbd4aecff	-0.049542423
170	0xbd1274f7	-0.035756078
171	0x3c916b08	0.017751232
172	0xbd9c2ce9	-0.076257534
173	0xbcb914e6	-0.022592973
174	0x3db6cc2c	0.089256614
175	0xbcb20d39	-0.02173482
176	0xbd831f4d	-0.064024545
177	0x3d7f6916	0.062356077
178	0x3d335149	0.04377869
179	0xbc405f67	-0.011741496
180	0x3d212063	0.039337527
181	0xbbe469e2	-0.00697063
182	0xbdad2d42	-0.08455898
183	0xbd66603f	-0.05624413
184	0x3c803f13	0.015655076
185	0xbd7ec7ec	-0.06220238
186	0x3ba80900	0.005128026
187	0x3d40aae7	0.047037985
188	0x3b16470f	0.0022930538
189	0xbd3cab06	-0.04606154
190	0xbd09c0c2	-0.033631094
191	0xbd3da46a	-0.046299376
192	0x3c8306a2	0.015994374
193	0xbd5eb778	-0.05437419
194	0xbd90718f	-0.070529096
195	0xbb948845	-0.004532846
196	0xbd30a640	-0.0431273
197	0x3da28902	0.079362884
198	0x3d5dc6bd	0.05414461
199	0xbc85014b	-0.016235968
200	0xbd5d0d83	-0.053967964
201	0xbdb5fd9a	-0.08886261
202	0x3a76ade9	0.000941007
203	0xbd1e3bdc	-0.038631305
204	0x3d0c1f9a	0.034209825
205	0xbd412262	-0.04715193
206	0xbc7c854b	-0.015412639
207	0xbd37853a	-0.04480479
208	0xbd00f5a1	-0.03148425
209	0xbcb9af2c	-0.022666536
210	0x3db60ca5	0.088891305
211	0x3ba0d4cc	0.00490818
212	0x3d8ef8ea	0.0698107
213	0xbd88979f	-0.066695444
214	0x3db0da74	0.086354166
215	0x3b4bab14	0.0031077312
216	0x3d452817	0.048133936
217	0xbc227453	-0.009915429
218	0x3b92765f	0.0044696773
219	0xbd924953	-0.07142892
220	0xbd92d645	-0.07169775
221	0x3d9d6398	0.076850116
222	0xbc30a307	-0.010781056
223	0x3d474d00	0.048657417
224	0xbcb49ffa	-0.022048939
225	0xbda7f39a	-0.0820076
226	0x3c78280c	0.015146267
227	0x3d4ed835	0.05049916
228	0x3d66124f	0.056169804
229	0x3cb177be	0.021663543
230	0x3c886ac4	0.016652472
231	0xbc40b549	-0.011761972
232	0x3d8510a1	0.06497312
233	0x3d9729c9	0.07381017
234	0xbd9257a6	-0.07145624
235	0x3d6937ec	0.056938097
236	0x3d8f4894	0.06996265
237	0xbd07efa7	-0.033187535
238	0xbd6b6ff3	-0.05747981
239	0x3da949e7	0.08266049
240	0xbd7ff636	-0.062490664
241	0x3d31906c	0.043350622
242	0xbd37a4d7	-0.044834938
243	0x3da5fb2a	0.08104546
244	0xbcb45a70	-0.02201578
245	0x3d14819a	0.03625641
246	0x3b4e3dcc	0.003146994
247	0x3d700498	0.05859813
248	0x3d396a2e	0.045267276
249	0xbd86d426	-0.06583433
250	0xbd9b7134	-0.07589951
251	0x3c680a5f	0.014162629
252	0xbd85afc0	-0.06527662
253	0xbc084b2a	-0.008318702
254	0xbce5b68e	-0.02804115
255	0x3d283464	0.04106559

weight_hh_l0 f4 [512, 128]
0	0x3d5cd383	0.05391265
1	0x3d8f94fa	0.07010837
2	0x3d14e576	0.036351644
3	0xbd500a86	-0.050791286
4	0x3cfe7bdc	0.03106492
5	0x3da7c369	0.081915684
6	0x3d999059	0.07498235
7	0xbc90c8f4	-0.017673947
8	0x3d0f213a	0.034943797
9	0x3c938401	0.01800728
10	0xbb0b4d99	-0.0021255969
11	0x3d9c263c	0.0762448
12	0xbcece057	-0.028915567
13	0x3c64d6dc	0.013967242
14	0x3d9ad393	0.07559886
15	0x3bcbcbd1	0.006219365
16	0x3db929a3	0.09041145
17	0xbdafa771	-0.08576859
18	0x3d4c49aa	0.04987494
19	0xbb771b1f	-0.0037705374
20	0xbb319d2d	-0.002710174
21	0xbd188f19	-0.037245844
22	0xbdbbc452	-0.091683045
23	0x3d6fdd39	0.058560584
24	0xbd67ffc3	-0.056640398
25	0xbd75fdee	-0.06005662
26	0xbd98075c	-0.07423279
27	0x3d4ce65e	0.050024383
28	0xbd5888ed	-0.052864958
29	0x3cd57f31	0.026061626
30	0xbd82268c	-0.063550085
31	0xbd2668f3	-0.04062743
32	0x3d6e33ff	0.058155056
33	0xbcf4d27f	-0.029885529
34	0xbc53c27c	-0.012924787
35	0xbd582eb9	-0.052778933
36	0xbc8718cd	-0.016491318
37	0x3d64ce78	0.055860966
38	0xbdb7e12f	-0.08978497
39	0xbd3b5819	-0.045738313
40	0x3d93f3d0	0.07224238
41	0x3d9497f7	0.072555475
42	0x3c9172c1	0.017754914
43	0xbd8ef971	-0.06981171
44	0xbd4c1600	-0.04982567
45	0xbcc05b19	-0.023480939
46	0xbd563f76	-0.052306615
47	0x3b211ed1	0.0024585018
48	0xbd5a23eb	-0.05325691
49	0x3d74d41e	0.059772603
50	0x3db12e14	0.08651367
51	0x3bf23ebc	0.0073927324
52	0x3d784c63	0.060619723
53	0xbd185f0c	-0.03720002
54	0x3b8a221e	0.004215493
55	0xbd5f0f24	-0.0544578
56	0x3c6d2975	0.014475216
57	0xbdb9de83	-0.09075644
58	0xbd448f84	-0.04798843
59	0xbd8e5242	-0.06949283
60	0x3dae62a2	0.085149065
61	0x3d9d0c77	0.07668393
62	0x3d44469b	0.047918897
63	0xbd373df8	-0.044736832
64	0x3cf4965f	0.029856859
65	0xbd5ec148	-0.054383546
66	0x3c75f5b4	0.0150121935
67	0x3d0e05ab	0.034673374
68	0xbd85c033	-0.065308
69	0xbd904739	-0.07044835
70	0x3d40c5ce	0.04706364
71	0xbd21822f	-0.039430793
72	0xbd7737bc	-0.060355887
73	0x3ce08ed3	0.027411854
74	0x3c64e735	0.01397114
75	0x3b03c9c3	0.0020109273
76	0xbc914282	-0.017731909
77	0xbc1b4f7a	-0.009479398
78	0x3d66965d	0.05629574
79	0x3d04ac1b	0.032390695
80	0xbd515f2f	-0.051116165
81	0x3d3a521f	0.045488473
82	0x3ccce520	0.025011599
83	0x3b855985	0.0040695095
84	0xbd98364e	-0.07432233
85	0x3da17468	0.07883531
86	0x3b4fc1c1	0.003170118
87	0xbbf9a3fd	-0.007618426
88	0xbda0da86	-0.0785418
89	0x3daea43c	0.08527419
90	0xbd7c4974	-0.061593488
91	0x3c77be94	0.015121121
92	0x3bc5b0e3	0.0060330494
93	0xbcfd6ec2	-0.030936603
94	0x3bc8e9ae	0.0061313724
95	0x3c78d2a2	0.0151869375
96	0xbd934c43	-0.0719228
97	0x3c3c4c87	0.011492855
98	0x3bdf5442	0.0068154642
99	0xbd392a8f	-0.045206603
100	0xbd5c6c82	-0.05381442
101	0xbd2310a6	-0.0398108
102	0x3d1ebd62	0.03875483
103	0xbd5ede1f	-0.05441105
104	0xbc9f8010	-0.019470245
105	0xbbcaee28	-0.006192941
106	0x3d00e15e	0.031464927
107	0xbcda19b7	-0.02662359
108	0x3c96f6e3	0.018428272
109	0xbd7afd64	-0.06127681
110	0x3d833a1d	0.064075686
111	0x3d0945ce	0.033513837
112	0xbda05286	-0.0782824
113	0x3d72d153	0.05928166
114	0x3d953c55	0.07286898
115	0x3d9c7794	0.07639995
116	0xbd6e400e	-0.058166556
117	0x3d3f18e1	0.046654586
118	0xbd77ae9a	-0.060469247
119	0x3d87c00a	0.066284254
120	0x3caa3c29	0.02078064
121	0x3d939dec	0.072078556
122	0x3d8624c8	0.06549984
123	0xbc5597fd	-0.013036725
124	0xbd3d7673	-0.04625554
125	0xbc81b83b	-0.015834918
126	0xbcc010da	-0.023445535
127	0xbc02516d	-0.007953984
128	0xbd1e05c4	-0.038579717
129	0x3cfa5c78	0.03056167
130	0x3d985848	0.07438713
131	0x3c640dc1	0.013919295
132	0xbd98dfd5	-0.074645676
133	0xbcdd59b4	-0.027020313
134	0x391d73a4	0.00015015766
135	0x3d9b7a89	0.07591731
136	0xbd3d97c8	-0.046287328
137	0x3c8c3196	0.017113488
138	0xbbd57dbe	-0.006515234
139	0x3d252ec6	0.04032781
140	0x3d957885	0.07298378
141	0x3d1cfdc4	0.038327947
142	0x3d11777e	0.035514347
143	0xbc8e373a	-0.017360318
144	0x3cb659f7	0.022259695
145	0xbd9bc2cf	-0.07605516
146	0xbc0c9562	-0.0085805375
147	0xbd9540ea	-0.07287772
148	0xba0127e0	-0.00049269013
149	0x3d140b66	0.036143683
150	0x3db21ee2	0.08697297
151	0x3cec96ff	0.028880594
152	0x3db2bda2	0.08727576
153	0xbda0ae58	-0.078457534
154	0xbcdc2fbf	-0.026878236
155	0xbd896f43	-0.067106746
156	0x3d4a1de1	0.0493449
157	0xbc8d07dc	-0.017215662
158	0x3c870636	0.016482454
159	0xba572fec	-0.000820874
160	0x3c7b4970	0.015337333
161	0x3da785e7	0.08179837
162	0x3d6efeb3	0.05834837
163	0xbcb2e6a2	-0.02183849
164	0x3c123921	0.008924753
165	0xbda9ad3f	-0.08284997
166	0xbd1447fe	-0.03620147
167	0xbd9e1208	-0.07718283
168	0xbd91ca52	-0.07118668
169	0x3d125528	0.035725743
170	0x3d7c9756	0.061667763
171	0xbd38968e	-0.045065455
172	0xbc4fa9a8	-0.012674727
173	0x3cf17b62	0.029477779
174	0xbd8f773a	-0.070051625
175	0xbb228d0b	-0.0024803306
176	0x3db1036f	0.08643233
177	0x3db8f3a1	0.090308435
178	0xbc98351b	-0.01858001
179	0x3ce1f3e5	0.027582118
180	0xbd19be3e	-0.037534945
181	0xbc77d3d1	-0.015126185
182	0x3db800d9	0.08984537
183	0x3d502622	0.050817616
184	0x3d8b729b	0.06808969
185	0x3d99fede	0.07519315
186	0xbc34bb9e	-0.01103106
187	0xbc2f7ca5	-0.01071087
188	0x3d10a945	0.035317678
189	0xbd526e8d	-0.05137496
190	0xbd125a85	-0.035730857
191	0x3c2b0ddb	0.010440315
192	0xbda45153	-0.08023324
193	0x3da5b75e	0.08091615
194	0xbc9a7092	-0.018852506
195	0xbcec7aa1	-0.028867068
196	0xbd3cb71d	-0.046073068
197	0xbd874f6e	-0.06606947
198	0xbcd30f39	-0.025764095
199	0xbda80053	-0.08203187
200	0x3d7c62eb	0.061617773
201	0x3c11ca52	0.008898335
202	0xbd5a7982	-0.053338535
203	0x3d2bc12b	0.041932266
204	0xbda2764c	-0.079327196
205	0x3d1e230d	0.038607646
206	0xbc5a6422	-0.013329538
207	0x3d130eb7	0.035902705
208	0x3d525608	0.051351577
209	0xbd884578	-0.06653875
210	0xbd4171c0	-0.04722762
211	0xbd7f07dc	-0.062263355
212	0x3d434972	0.047677465
213	0x3cd7747f	0.026300667
214	0xbd5f5015	-0.05451973
215	0xbd1ecff1	-0.038772527
216	0xbd6da898	-0.05802211
217	0x3c6a328e	0.01429428
218	0xbd9f49cd	-0.07777748
219	0x3a8d6917	0.0010788766
220	0x3d07614f	0.033051785
221	0x3c3b6cbc	0.0114394985
222	0xbc8534af	-0.016260473
223	0xbb6e4045	-0.0036354226
224	0xbcd549b9	-0.02603613
225	0xbcf728ad	-0.030170763
226	0x3db3f4cf	0.08786928
227	0xbd2fa0d3	-0.042877983
228	0x3d9a5b3a	0.07536931
229	0x3da10189	0.07861621
230	0xbd9245c3	-0.07142212
231	0xbd8b2b4d	-0.06795368
232	0xbc756e72	-0.0149799455
233	0xbc67dd4a	-0.0141518805
234	0xbc2129b4	-0.009836603
235	0x3bde47dd	0.006783469
236	0x3cf685be	0.03009307
237	0xbdaaae1a	-0.083339885
238	0x3cbd4ff2	0.02310941
239	0x3cf91898	0.030407235
240	0x3daf7833	0.08567848
241	0xbd77d6e2	-0.060507663
242	0xbd4b65a7	-0.04965749
243	0x3d6ee05b	0.05831943
244	0xbd71f847	-0.059074666
245	0xbd6b0617	-0.057378855
246	0xbd94eda2	-0.07271887
247	0xbdac753e	-0.084208
248	0x3d1c20a2	0.03811706
249	0x3d86c51a	0.06580563
250	0xbda15a33	-0.07878532
251	0x3d4b1366	0.049579047
252	0x3db06bd5	0.08614317
253	0xbbf11347	-0.0073570344
254	0x3c654bad	0.013995093
255	0x3da6e820	0.08149743

bias_ih_l0 f4 [512]
0	0xbc0a42b0	-0.008438751
1	0xbc1e5e98	-0.009666108
2	0x3d9f6ac4	0.07784036
3	0x3d116f06	0.03550627
4	0xbd27c37d	-0.040957917
5	0xbd7fbc7d	-0.062435616
6	0x3d305460	0.043049216
7	0xbd30c338	-0.043154925
8	0x3da4031e	0.08008407
9	0xbd14f193	-0.036363196
10	0xbd5e96b0	-0.054342926
11	0x3c7280c5	0.014801209
12	0x3d423f52	0.04742367
13	0x3c178f57	0.0092504835
14	0x3caedfe9	0.021347003
15	0xbc0f99ec	-0.008764725
16	0xbd2e465a	-0.04254756
17	0x3cd067a3	0.025440043
18	0xbd654b88	-0.055980235
19	0x3c5e1f7d	0.013557312
20	0xbbba91ee	-0.0056936657
21	0xbd3acc6c	-0.04560511
22	0x3c6e68d4	0.01455136
23	0x3cba82af	0.022767393
24	0x3cf2138d	0.029550338
25	0xbd622453	-0.055210423
26	0xbdad67b3	-0.08467045
27	0xbd65ac74	-0.056072667
28	0x3c2afb3e	0.010435877
29	0x3d3d6e26	0.046247624
30	0xb8beba5b	-9.0946174e-05
31	0x3cd49bea	0.025953252
32	0x3cc08b70	0.023503989
33	0x3be78451	0.007065334
34	0x3da6d0e0	0.081453085
35	0x3d80260c	0.06257257
36	0x3cd3f0de	0.02587169
37	0xbcd8f5e4	-0.026484437
38	0x3d916d4b	0.07100924
39	0x3c1d6302	0.009606125
40	0xbc8d2004	-0.01722718
41	0xbdb27fc5	-0.08715776
42	0x3d341d54	0.043973282
43	0xbd0e21c5	-0.034700174
44	0x3cdc5070	0.026893824
45	0x3b81ef74	0.0039653126
46	0x3d6344c6	0.05548551
47	0xbd23a8cd	-0.039955903
48	0x3d37fb5d	0.044917453
49	0xbd3302ef	-0.04370397
50	0x3d91fecf	0.07128679
51	0x3db5e370	0.08881271
52	0xbc974b3b	-0.01846849
53	0x3d010a6b	0.031504076
54	0xbb07e7e6	-0.0020737587
55	0x3cbbc1f3	0.02291963
56	0xbd38b4ba	-0.04509423
57	0x3d492fc4	0.04911782
58	0xbd53282c	-0.051551983
59	0x399e03a0	0.0003013881
60	0x3a6b36b3	0.00089726894
61	0xbcd51266	-0.02600975
62	0x3d149e44	0.036283746
63	0xbcfad9ba	-0.030621398
64	0x3d30b637	0.043142524
65	0x3cb0c075	0.021576146
66	0xbb724ed9	-0.0036973266
67	0xbc9e0d0b	-0.019293329
68	0x3cd5ab2e	0.026082601
69	0xbda70518	-0.081552684
70	0x3ce42e1c	0.027854018
71	0xbc793961	-0.015211434
72	0xbc1094f5	-0.008824577
73	0x3dba99f1	0.09111393
74	0x3d3d3343	0.046191465
75	0x3d98fb25	0.07469777
76	0x3bd71212	0.0065634334
77	0x3c15ca6b	0.0091424985
78	0xbd9d1a15	-0.076709904
79	0x3db245d4	0.08704725
80	0xbc967375	-0.018365601
81	0xbdadae17	-0.08480471
82	0x3d1fab3a	0.038981654
83	0xbd2faf49	-0.042891774
84	0xbd2ab9d2	-0.04168112
85	0x3d82b405	0.06381992
86	0xbc87d8b8	-0.016582832
87	0xbc56eaf8	-0.013117544
88	0xbc1085e2	-0.008820983
89	0xbd4d9fba	-0.050201155
90	0xbd189fda	-0.03726182
91	0x3d73a112	0.05947978
92	0x3d7353f4	0.059406236
93	0xbcf4b613	-0.029871976
94	0xbd96286f	-0.07331931
95	0x3d89dbf5	0.067314066
96	0x3db2694e	0.087114915
97	0xbd3cca5d	-0.046091426
98	0xbd8c5764	-0.06852606
99	0xbb7bfa7d	-0.0038448863
100	0xbd1a31af	-0.03764504
101	0x3c383786	0.011243707
102	0xbd96b7db	-0.073592864
103	0xbdb76c4c	-0.08956203
104	0x3d8ac98f	0.067767255
105	0xbd2a6c68	-0.04160729
106	0x3d48950d	0.04897027
107	0x3bdac44e	0.0066762334
108	0x3d443386	0.0479007
109	0x3da93969	0.08262903
110	0xbc90b636	-0.01766501
111	0xbd2f6cf7	-0.042828526
112	0xbd75a7ac	-0.059974357
113	0xbd201109	-0.039078746
114	0xbca19570	-0.019724578
115	0xbd96addd	-0.073573805
116	0x3d2b540b	0.041828196
117	0x3d2fe465	0.042942423
118	0xbca02dad	-0.01955303
119	0x3d87c1ff	0.06628799
120	0xbc371fbe	-0.0111770015
121	0x3d73a520	0.059483647
122	0x3ce1df23	0.02757222
123	0x3d9cece5	0.076623715
124	0xbd942337	-0.07233279
125	0x3d7f7066	0.06236305
126	0x3c850e44	0.016242154
127	0xbd82624d	-0.06366406
128	0xbda69303	-0.08133509
129	0x3d959ac5	0.073049106
130	0xbd53853f	-0.051640745
131	0xbd520884	-0.051277652
132	0x3d324d60	0.04353082
133	0x3db34a74	0.08754435
134	0x3d24b972	0.040215917
135	0x3d18994c	0.03725557
136	0x3ca356de	0.019938882
137	0xbcb4eb41	-0.022084834
138	0x3d250ec2	0.040297277
139	0xbb8302df	-0.003998145
140	0xbdadb91c	-0.084825724
141	0xbdadf0b0	-0.08493173
142	0x3cbf6ff4	0.023368813
143	0xbd8dcfba	-0.06924386
144	0xbb823ccd	-0.003974533
145	0x3d168f50	0.036757767
146	0x3c1f4757	0.009721599
147	0x3d201e87	0.039091613
148	0xbdab5ce2	-0.08367325
149	0x3be64560	0.007027313
150	0xbd4f5cfc	-0.050625786
151	0x3d6dcb5d	0.05805527
152	0x3d7f9431	0.062397186
153	0x3d99f216	0.07516877
154	0x3d3c4f7b	0.045974236
155	0x3d993b47	0.074820094
156	0x3d560745	0.052253027
157	0x3cacbfc0	0.021087527
158	0xbc8f46b4	-0.017489769
159	0xbd342a2b	-0.043985527
160	0x3c6be67b	0.014398213
161	0xbd4530ec	-0.04814236
162	0xbd87a4bc	-0.066232175
163	0x3d6f8304	0.058474556
164	0x3d39f5ae	0.045400314
165	0xbccce5e6	-0.025011968
166	0xbd920fa3	-0.07131889
167	0xbd85fe29	-0.06542618
168	0xbd3cdab3	-0.046107005
169	0x3d3c23f4	0.045932725
170	0xbcf9c0fc	-0.03048753
171	0xbd83f180	-0.06442547
172	0x3cfbc1a3	0.030731982
173	0x3d560cf0	0.052258432
174	0xbd6ca7d9	-0.05777726
175	0xbc669b8c	-0.014075171
176	0xbc5b2881	-0.013376356
177	0xbc48fc07	-0.012267119
178	0xbc74195e	-0.014898626
179	0x3d5fea37	0.054666724
180	0x3da60dab	0.08108076
181	0xbd0cddd0	-0.034391224
182	0x3d8a63b0	0.06757295
183	0x3d9f2733	0.077711485
184	0xbd6d34f7	-0.05791184
185	0xbca39930	-0.019970506
186	0xbb0b694b	-0.0021272476
187	0xbd949e1e	-0.07256721
188	0x3da60962	0.081072584
189	0x3d2b8f47	0.041884687
190	0xbcf3622e	-0.029709902
191	0x3d54443c	0.051822886
192	0x3cb9f583	0.022700077
193	0xbd85a96b	-0.065264545
194	0xbcb3556f	-0.021891324
195	0x3d7fb607	0.062429454
196	0xbc605ba8	-0.013693728
197	0x3d217a63	0.039423358
198	0x3d0072a9	0.03135935
199	0x3c99d33b	0.01877748
200	0xbbcd9172	-0.006273442
201	0xbd8f9d13	-0.070123814
202	0xbd913582	-0.07090284
203	0x3da98218	0.082767665
204	0x3c16210d	0.009163153
205	0xbda272bd	-0.07932041
206	0x3d4b9899	0.049706075
207	0xbbd8228a	-0.0065959143
208	0xbd715394	-0.058917597
209	0xbd6a7a5d	-0.0572456
210	0x3d259925	0.040429253
211	0x3db66314	0.089056164
212	0xbdab51cc	-0.08365211
213	0x3d024625	0.031805176
214	0xba0818a8	-0.00051916623
215	0x3d92c5ce	0.071666345
216	0xbd4e0682	-0.050299175
217	0xbd365e91	-0.04452378
218	0x3d87344c	0.06601772
219	0xbd6ad7da	-0.05733476
220	0x3db2bf67	0.08727913
221	0x3d342558	0.043980926
222	0xbb837227	-0.0040114108
223	0x3d35567e	0.04427194
224	0x3da39c5c	0.079888076
225	0xbd9a4a01	-0.075336464
226	0x3c81a7d6	0.0158271
227	0x3d3b0ced	0.045666624
228	0x3d066a29	0.032816086
229	0x3d281df0	0.041044176
230	0x3d0faa54	0.035074547
231	0x3da18dc3	0.07888367
232	0x3d9a4baa	0.07533963
233	0x3d1b2023	0.037872445
234	0x3d9df9ad	0.077136375
235	0xbdb7c7ca	-0.089736536
236	0x3beaed75	0.0071694204
237	0x3a3a9042	0.0007116833
238	0x3cb650c2	0.022255305
239	0x3c529b6d	0.012854439
240	0xbd6d6d44	-0.057965532
241	0x3d872d22	0.06600405
242	0xbb8bf307	-0.0042709145
243	0xbd741277	-0.059587922
244	0x3d691a86	0.05691006
245	0xbd7d5a92	-0.061853953
246	0xbcc5a513	-0.024126565
247	0xbc1ee196	-0.009697339
248	0x3cd7b442	0.02633107
249	0x3d2ca104	0.042145744
250	0xbd6f062d	-0.0583555
251	0xbd00bf71	-0.031432573
252	0xbc3ce5c4	-0.01152939
253	0x3ce34e7e	0.027747389
254	0xbb7159ac	-0.003682713
255	0x3cee655a	0.029101063

bias_hh_l0 f4 [512]
0	0xbd6759a5	-0.056481976
1	0x3d845b0a	0.06462677
2	0xbda3d2a5	-0.07999162
3	0x3ceb30d4	0.028709807
4	0xbd60e357	-0.05490431
5	0x3ca2c8e4	0.019871183
6	0xbc64d98b	-0.013967882
7	0xbdada87e	-0.08479403
8	0xbd6eaa0d	-0.05826764
9	0xbd208f2d	-0.039199043
10	0x3c9f1793	0.01942042
11	0x3cff1007	0.031135572
12	0xbce8eea2	-0.028434101
13	0xbd72f06e	-0.059311323
14	0xbd8e5002	-0.06948854
15	0x3b928b3a	0.0044721635
16	0xbd5ec62d	-0.054388214
17	0x3d5d5486	0.054035686
18	0x3d323bb2	0.04351396
19	0x3c50b0a6	0.012737429
20	0x3c0860cb	0.0083238585
21	0xbc51188d	-0.012762201
22	0xbcc7597e	-0.024334665
23	0x3d90dab8	0.07072967
24	0xbd489000	-0.048965454
25	0xbd0932b0	-0.033495605
26	0xbd66beed	-0.056334425
27	0xbabd59cb	-0.0014446316
28	0x3cdcccc5	0.02695311
29	0xbc1aac5e	-0.00944051
30	0xbd1c9720	-0.03823006
31	0x3d92711c	0.0715048
32	0xbd99a10b	-0.0750142
33	0x3d89b561	0.067240484
34	0xbc379b92	-0.011206524
35	0x3c097daf	0.008391782
36	0x3cf11bdf	0.029432235
37	0xbd99b1f1	-0.07504643
38	0xbd30acef	-0.043133672
39	0xbd9547bf	-0.07289075
40	0x3d397b22	0.045283444
41	0x3c9682db	0.018372944
42	0x3c51813d	0.01278716
43	0x3cd46471	0.0259268
44	0xbd3c97f6	-0.04604336
45	0x3c8b42b9	0.01699959
46	0x3d8e921a	0.069614604
47	0x3d50f425	0.051014084
48	0xbd9119c3	-0.07084992
49	0x3d052d59	0.03251395
50	0xbd70e01f	-0.05880749
51	0xbd966efe	-0.07345389
52	0xbc6c5f62	-0.014427038
53	0xbd593a41	-0.05303407
54	0xbd525fa9	-0.05136076
55	0x3ab41d1f	0.0013741589
56	0xbd817ae5	-0.063222684
57	0xbd046889	-0.032326255
58	0x3d41726e	0.04722827
59	0x3d38a7ac	0.04508178
60	0x3b8b73eb	0.004255762
61	0x39145284	0.0001414512
62	0x3d677eda	0.05651746
63	0x3c92a3e9	0.017900424
64	0xbd10e4c4	-0.035374418
65	0x3cdb87d7	0.026798172
66	0xbd908c24	-0.0705798
67	0x3d5f7299	0.05455265
68	0xbd26b4ef	-0.040699895
69	0x3cb679b6	0.022274833
70	0xbca99ac5	-0.020703683
71	0xbca6fd20	-0.020384371
72	0x3d5d2b7a	0.05399654
73	0xbd3f4ea4	-0.046705857
74	0x3d9df3ac	0.07712492
75	0xbc8782de	-0.016541895
76	0xbd980765	-0.074232854
77	0xbb56defa	-0.0032786713
78	0x3d8d2315	0.06891457
79	0xbc775ab7	-0.015097312
80	0x3d176263	0.036959063
81	0xbd84f9ee	-0.06492983
82	0x3d25ef3b	0.04051135
83	0x3d410f42	0.04713369
84	0x3d9e5bda	0.07732363
85	0xb8dfbdc1	-0.00010668813
86	0x3d9013e1	0.070350416
87	0x3ce7b5b9	0.028284894
88	0xbd49046d	-0.049076486
89	0xbd968dfe	-0.073513016
90	0x3ce20063	0.027588075
91	0xbd17eaea	-0.037089266
92	0x3d83a851	0.06428588
93	0x3d72dedf	0.059294578
94	0x3cba18e1	0.022716941
95	0xbd085f67	-0.033294108
96	0xbc1712a5	-0.009220754
97	0xbcc73d89	-0.024321334
98	0x3d026937	0.031838622
99	0x3d07f876	0.033195935
100	0xbcfb7021	-0.030693116
101	0xbb2050ca	-0.0024462217
102	0xb95be9ff	-0.00020972638
103	0x3d9a3277	0.07529157
104	0x3cb5a5c8	0.022173777
105	0xbd42655a	-0.047459938
106	0xbc1b33f6	-0.009472838
107	0x3dac09d5	0.08400313
108	0x3cadcaeb	0.021214923
109	0xbd807dc3	-0.06273987
110	0x3aa9085e	0.001289617
111	0xbccc0538	-0.024904832
112	0x3d501425	0.05080046
113	0x3cacc8cd	0.021091843
114	0x3d8e70d3	0.06955113
115	0xbd1e7248	-0.038683206
116	0xbcafd625	-0.021464417
117	0xbdb55e1d	-0.08855841
118	0xbd64ae87	-0.055830505
119	0x3d04c849	0.03241757
120	0x3bf6a159	0.0075265584
121	0xbd990d1d	-0.07473204
122	0xbc4bb964	-0.012434337
123	0x3daf7327	0.085668854
124	0x3da9858c	0.08277425
125	0xbcddfbf2	-0.027097676
126	0x3a55fa2b	0.0008162583
127	0x3cbe4ea1	0.023230853
128	0xbd85d44c	-0.06534633
129	0xbbbe4595	-0.0058066347
130	0xbd6105ea	-0.05493728
131	0x3d11b679	0.03557441
132	0xbc974952	-0.018467579
133	0x3d8104ca	0.062997416
134	0xbdb94c1e	-0.09047721
135	0x3d91c1eb	0.07117065
136	0xbd3fc94f	-0.046822842
137	0xbd75e5a7	-0.060033467
138	0xbd8bc6a6	-0.068249986
139	0xbc883d28	-0.016630724
140	0x3d824bc1	0.06362105
141	0x3dabb693	0.08384433
142	0x3d9c739a	0.07639237
143	0x3c10e6bc	0.008844074
144	0xbccbd859	-0.024883436
145	0x3daade73	0.0834321
146	0x3d9ed1be	0.07754849
147	0xbd8810ae	-0.066438064
148	0x3d38e03e	0.04513573
149	0x3ca434b3	0.02004466
150	0x3d974792	0.07386698
151	0xbda00b34	-0.07814637
152	0x3d69a558	0.05704245
153	0xbd544048	-0.051819116
154	0x3d844f12	0.06460394
155	0x3d73b90d	0.05950265
156	0x3d389b7a	0.04507015
157	0x3d470496	0.048588358
158	0x3c498d1e	0.012301711
159	0x3cb63c4b	0.022245547
160	0x3da19408	0.07889563
161	0x3cb03b63	0.021512693
162	0x3d87b832	0.06626929
163	0x3db3aa17	0.087726764
164	0xbca029ba	-0.019551147
165	0x3d6dd43b	0.058063727
166	0x3d364b60	0.044505477
167	0x3d90fcad	0.07079444
168	0xbd5cd080	-0.05390978
169	0xbda938be	-0.08262776
170	0x3da9f61a	0.08298893
171	0xbcff4e72	-0.031165335
172	0x3d576c17	0.052593317
173	0x3bd9650b	0.0066343597
174	0xbd6dbec7	-0.058043268
175	0xbd7cc129	-0.06170765
176	0x3d9a23f8	0.07526392
177	0x3c7e85ff	0.015534877
178	0xbc665268	-0.014057733
179	0x3d6111a8	0.05494848
180	0xbd01a99d	-0.031655896
181	0x3d592f00	0.05302334
182	0xbd1e82ad	-0.03869884
183	0x3af0cb1a	0.0018371076
184	0x3d2adc3a	0.04171393
185	0x3d122d3c	0.03568767
186	0x3da31ec0	0.079648495
187	0x3d1f1e0c	0.038847014
188	0x3cc9a095	0.024612704
189	0xbdaffeb0	-0.085935
190	0xbd386c62	-0.045025237
191	0x3d1043f9	0.035221074
192	0xbd8ccbf5	-0.06874839
193	0xbaff7b31	-0.001949167
194	0xbd9990bf	-0.07498311
195	0x3b9b29d1	0.0047352095
196	0xbcad3d85	-0.021147499
197	0x3c5bdecb	0.013419817
198	0x3c7cbab9	0.0154253775
199	0xbd6be1a3	-0.05758823
200	0xbd2b34e9	-0.041798506
201	0x3d5e58af	0.054283794
202	0xbd85b834	-0.065292746
203	0x3d655264	0.055986777
204	0xbc32cc8a	-0.010913024
205	0xbda6cb6c	-0.081442684
206	0xbd846b6d	-0.06465802
207	0xbd98b106	-0.074556395
208	0xbd7fa9b4	-0.0624177
209	0xbbd6e0c9	-0.006557558
210	0xbd9983a4	-0.074958116
211	0xbd7063b9	-0.058688853
212	0x3d38cccd	0.04511719
213	0x3d8eeb63	0.0697849
214	0xbc741de2	-0.014899703
215	0xbd8de416	-0.069282696
216	0x3d31d2b4	0.043413833
217	0xbb496426	-0.003072986
218	0xbcdbed28	-0.026846483
219	0x3cff7aca	0.03118648
220	0x3d699157	0.057023373
221	0xbd3b1524	-0.04567446
222	0x3d38ddfb	0.045133572
223	0xbd0f2058	-0.034942955
224	0xbc6ce77c	-0.014459487
225	0x3ca35515	0.019938031
226	0xbd38230a	-0.04495529
227	0x3d9de85c	0.07710335
228	0x3d16692c	0.036721393
229	0x3d073fbb	0.033019762
230	0x3d8b984e	0.06816159
231	0xbdafcf55	-0.08584467
232	0xbd5a2bcf	-0.053264435
233	0xbdb7890a	-0.08961685
234	0x3d20fb3f	0.039302107
235	0xbd88a715	-0.06672493
236	0x3c94190d	0.018078351
237	0xbbce7151	-0.0063001295
238	0x3d43068c	0.047613665
239	0xbd943e38	-0.0723843
240	0x3da78dbf	0.08181333
241	0xbda23ea2	-0.079221025
242	0x3bd6a266	0.006550121
243	0x3da36d23	0.079798006
244	0x3d8634d6	0.065530464
245	0x3ca4c3cc	0.020112894
246	0x3da6c848	0.08143669
247	0x39900ce8	0.00027475436
248	0xbda5ddba	-0.080989316
249	0xbd6fdca7	-0.05856004
250	0x3d9b5dba	0.07586236
251	0x3d84d51d	0.06485961
252	0xbd911c53	-0.070854805
253	0xbd3d4916	-0.04621228
254	0x3d88d155	0.06680552
255	0xbce59787	-0.028026355

weight_ih_l0 f4 [512, 128]
0	0xbda8ffba	-0.08251901
1	0x3d0a6916	0.033791624
2	0xbc680b27	-0.014162815
3	0x3ce88afd	0.028386587
4	0xbcff4c73	-0.031164384
5	0xbb29b9db	-0.0025898132
6	0x3d5e1ce4	0.05422677
7	0x3c8ae970	0.016957015
8	0x3caa89f3	0.020817732
9	0xbca8a0a0	-0.020584404
10	0xbb3948d5	-0.002827217
11	0x3d2d8b12	0.042368956
12	0x3be16334	0.006878281
13	0x3cc8b167	0.024498655
14	0x3c171b10	0.009222761
15	0x3d2fa419	0.042881105
16	0xbc0ece3f	-0.008716165
17	0xbd23eac5	-0.040018816
18	0x3ccd57c8	0.025066271
19	0x3c13684b	0.008997033
20	0xbd91a4f8	-0.071115434
21	0xbd6a6b33	-0.05723114
22	0x3d2368a1	0.039894704
23	0x3d06bf96	0.032897554
24	0x3d69cf7c	0.05708264
25	0x3c24d1f9	0.010059827
26	0x3c935d0e	0.017988708
27	0x398b29d2	0.00026543305
28	0xbd39b9b0	-0.0453431
29	0x3d9f36a9	0.077740975
30	0x3c8a6341	0.016893031
31	0x3ca995b7	0.020701272
32	0xbbb00ba7	-0.005372483
33	0xbca44c2f	-0.020055858
34	0xbd7034ce	-0.05864411
35	0x3c4a36ee	0.012342198
36	0xbd8ef36b	-0.06980022
37	0x3d3af322	0.045642026
38	0x3c222850	0.009897307
39	0xbd968286	-0.07349114
40	0xbd3aa686	-0.045568965
41	0x3d892043	0.066956066
42	0xbd9b8e9a	-0.075955585
43	0x3d5e6a7f	0.05430078
44	0x3da58cc7	0.08083492
45	0xbc818b33	-0.015813446
46	0xbb480aa6	-0.0030523925
47	0x3cc224e2	0.023699228
48	0xbd20e958	-0.039285034
49	0x3d25b1d7	0.040452804
50	0x3cfb2766	0.030658435
51	0xbd5b86b3	-0.053595256
52	0x3d3ad65f	0.045614596
53	0x3d23f10a	0.040024795
54	0xbc04184d	-0.008062434
55	0xbd8a827e	-0.06763171
56	0xbc5d1c83	-0.013495567
57	0x3a35017f	0.0006904825
58	0x3d9fac06	0.07796483
59	0xbd385787	-0.045005348
60	0x3d87225a	0.06598349
61	0xbd295978	-0.04134509
62	0xbc2de65a	-0.010614002
63	0x3d8b5322	0.06802966
64	0x3d0069da	0.031350948
65	0xbcfc5afb	-0.030805102
66	0x3ae1720e	0.0017200129
67	0xbb83f2a8	-0.0040267296
68	0xbc301902	-0.01074815
69	0x3d22d43d	0.039753187
70	0x3d4d26af	0.05008572
71	0x3da621db	0.08111926
72	0xbd14bcc9	-0.036312852
73	0xbca69748	-0.020335808
74	0xbd3551b0	-0.044267356
75	0x3cb861b3	0.022507524
76	0x3d96a8a7	0.07356387
77	0x3d9fb1c5	0.07797579
78	0xbd8f88fe	-0.07008551
79	0x3a8abbe8	0.0010584565
80	0x3bbda98b	0.0057880334
81	0xbda7c2d1	-0.08191455
82	0xbd55c48d	-0.0521894
83	0x3b4b2f11	0.0031003396
84	0xbd3b8c26	-0.045787953
85	0x3d2392ce	0.039934926
86	0xbd0569cd	-0.032571603
87	0x3d4666f1	0.048438016
88	0x3bbd05c2	0.0057685087
89	0x3cf7e537	0.030260665
90	0x3d94ea5f	0.07271265
91	0x3d072edc	0.033003673
92	0xbc61f45c	-0.01379117
93	0xbd4206e0	-0.047369838
94	0xbc8f1280	-0.017464876
95	0x3b868c3b	0.0041060722
96	0xbd43d3da	-0.04780946
97	0xbd8edbda	-0.06975527
98	0xbd23a573	-0.039952707
99	0xbca6179f	-0.020274935
100	0xbda53fbb	-0.08068796
101	0xbd88d700	-0.06681633
102	0xbd3e1165	-0.046403307
103	0xbd9490f1	-0.07254208
104	0x3d891469	0.06693346
105	0xbd889fcf	-0.06671106
106	0xbd3f5a47	-0.046716955
107	0x3d84f336	0.06491701
108	0x3c92bca6	0.01791222
109	0x3ca0a63b	0.019610515
110	0x3d9c6c69	0.07637865
111	0x3da4adad	0.080409385
112	0xbda2857c	-0.079356164
113	0x3d1807c2	0.037116773
114	0xbd1e7827	-0.038688805
115	0xbd3988b1	-0.045296375
116	0xbd97d5e1	-0.07413841
117	0xbdb6512f	-0.08902203
118	0x3d1967a9	0.037452374
119	0xbd09cc9c	-0.033642396
120	0x3d90a9df	0.0706365
121	0x3d141349	0.036151204
122	0xbb92a1ea	-0.004474868
123	0xbcea7828	-0.028621748
124	0x3c5549ae	0.013018055
125	0xbd35ee27	-0.044416573
126	0x3dbb1e5b	0.09136649
127	0xbc9bf8b5	-0.019039491
128	0xbcc66145	-0.024216304
129	0xbd1bbaf1	-0.038020078
130	0xbd52cae9	-0.05146304
131	0xbc7c3a48	-0.015394755
132	0x3d374611	0.044744555
133	0xbd7225be	-0.059118025
134	0x3d60583b	0.054771643
135	0x3cc7e751	0.024402292
136	0x3cf1d6ac	0.029521309
137	0x3bce287e	0.006291448
138	0x3d765023	0.060135018
139	0x3d1feb34	0.039042667
140	0xbd49d38d	-0.049274016
141	0xbd52fe55	-0.05151208
142	0xbd87c521	-0.06629396
143	0x3c1e86bd	0.009675679
144	0xbb5fa325	-0.0034124341
145	0x3cc62a03	0.024189955
146	0xbd784df2	-0.06062121
147	0xbb22fd40	-0.0024870187
148	0xbdb8bad4	-0.0902001
149	0xbdaeda7d	-0.08537767
150	0x3d225ef8	0.03964135
151	0x3be28f14	0.006914029
152	0xbd9eae79	-0.07748122
153	0x3d6130c5	0.05497815
154	0xbd2c6204	-0.042085662
155	0xbbf7953e	-0.007555633
156	0xbda0a6c1	-0.07844306
157	0x3d51fd0a	0.051266707
158	0xbdad48c9	-0.08461148
159	0x3c0ce0ce	0.0085985195
160	0x3cdb1ee0	0.02674812
161	0x3d4aeace	0.049540333
162	0xbd18474f	-0.03717738
163	0x3c5deaaf	0.013544722
164	0x3bf8e4b2	0.007595622
165	0x3d3ba42a	0.045810856
166	0x3be6ca7b	0.0070431805
167	0xbda4a720	-0.08039689
168	0xbcbd01ac	-0.023072086
169	0x3af8ea14	0.0018990659
170	0xbd7100d6	-0.058838688
171	0x3c0296ef	0.007970556
172	0x3b245b3a	0.002507879
173	0xbdaf25a6	-0.08552103
174	0x3d50f6f0	0.051016748
175	0xbd699435	-0.057026107
176	0xbd0ff414	-0.03514488
177	0x3d170ff3	0.036880445
178	0xb881ab6f	-6.183131e-05
179	0x3daba59a	0.08381195
180	0xbade324a	-0.0016952243
181	0xbd9b50c3	-0.075837635
182	0x3da398ea	0.079881504
183	0x3cdbe6cd	0.026843453
184	0x3d923000	0.071380615
185	0x3d9bc3b5	0.076056875
186	0xbdb8c00b	-0.09021004
187	0x3c87f891	0.016598018
188	0x3da1af4d	0.07894764
189	0xbccf093e	-0.025272962
190	0x3da40bfc	0.08010098
191	0x3cc6d6da	0.024272371
192	0xbd8dad14	-0.06917778
193	0x3c18a8ab	0.009317557
194	0xbd352e89	-0.044233833
195	0x3d8914ce	0.06693421
196	0xbd9865d1	-0.07441295
197	0xbd28e3e6	-0.041232966
198	0xbd1df9d6	-0.03856834
199	0xbc10402f	-0.008804365
200	0xbd28316d	-0.04106276
201	0xbdb85406	-0.09000401
202	0x3d9acb76	0.07558338
203	0xbc6fee9a	-0.014644289
204	0xbcf6c62c	-0.030123793
205	0x3d63eaca	0.055643834
206	0x3d6c84a4	0.057743683
207	0x3d98d8c2	0.07463218
208	0x3c8fe015	0.017562905
209	0x3cd3c0e4	0.025848813
210	0x3d2c7d73	0.042111825
211	0xbd1dffed	-0.038574148
212	0xbbdd8e12	-0.006761321
213	0x3d728734	0.05921097
214	0x3bca073e	0.006165414
215	0x3d5d87f4	0.054084733
216	0xbd6fa52f	-0.05850714
217	0xbd8ea886	-0.06965737
218	0xbd89a483	-0.06720831
219	0xbb5d3c61	-0.0033757912
220	0x3b90d0a1	0.0044194018
221	0x3b9eebc5	0.0048498833
222	0xbcf7601b	-0.030197194
223	0x3d6a6821	0.05722821
224	0x3cb77e38	0.022399053
225	0x3d0fa3e0	0.035068393
226	0x3d278901	0.04090214
227	0xbd9007a7	-0.070327096
228	0xbd681c4c	-0.05666761
229	0xbbce8b29	-0.0063032103
230	0x3d503b1f	0.050837632
231	0xbd9ac8ea	-0.075578526
232	0x3d58d783	0.052939903
233	0x3d42da99	0.047571752
234	0xbd240686	-0.040045284
235	0x3b93aebb	0.0045069135
236	0xbb958413	-0.0045628636
237	0x3b87fde2	0.0041501382
238	0xbce442b8	-0.027863845
239	0x3d84ebd2	0.06490292
240	0xbd8a6648	-0.0675779
241	0xbda76655	-0.08173815
242	0x3c46633a	0.012108618
243	0x3d41dde7	0.047330763
244	0xbda31fdc	-0.07965061
245	0x3d8cf212	0.06882109
246	0xbd9bc7a2	-0.07606436
247	0xbd0e74d5	-0.03477939
248	0x3c4624b2	0.01209371
249	0x3cb76a13	0.022389447
250	0x3d53a29e	0.051668756
251	0x3d139e10	0.036039412
252	0xbc8f7203	-0.01751042
253	0x3da6cf76	0.08145039
254	0x3c08d626	0.008351838
255	0x3cf998a2	0.030468289

weight_hh_l0 f4 [512, 128]
0	0xbdae60a8	-0.085145295
1	0xbbcd9587	-0.0062739286
2	0xbcc033e5	-0.023462245
3	0xbc6f3660	-0.014600366
4	0xbd9d5e3b	-0.07683989
5	0x3d439458	0.047748893
6	0xbd2016b6	-0.03908416
7	0xbc27492f	-0.010210319
8	0x3d9c8312	0.07642187
9	0xbd3cf0ec	-0.0461282
10	0x3d4b2d1e	0.049603574
11	0x3d85b00e	0.065277204
12	0x3d8709ba	0.06593652
13	0xbd87d59e	-0.06632541
14	0x39a97ebb	0.00032328613
15	0x3d2c3da7	0.042050984
16	0xbd9826f1	-0.074293025
17	0x3d7eccba	0.06220696
18	0xbd685e5a	-0.056730606
19	0xbdb2b426	-0.08725767
20	0x3d9a155c	0.07523605
21	0x3d8a601e	0.06756614
22	0x3c9fd901	0.019512655
23	0xbb955907	-0.004557732
24	0x3d4e0009	0.050293002
25	0xbcebe06f	-0.028793542
26	0x3c917af0	0.017758816
27	0xbcffbfb9	-0.03121935
28	0x3d279d42	0.040921457
29	0xbd85b041	-0.065277584
30	0xba5aa183	-0.0008340107
31	0x3cef0738	0.029178247
32	0xbd8e3929	-0.06944496
33	0xbd286f60	-0.04112184
34	0x3d26cb1b	0.04072104
35	0x3d7bc1a1	0.061463956
36	0xbc1da4ec	-0.00962184
37	0x3d7ef729	0.06224743
38	0x3c911ac6	0.017712962
39	0x3d940b61	0.07228733
40	0x3c789b5f	0.015173762
41	0xbcad110b	-0.02112629
42	0xbd26d385	-0.040729064
43	0x3d16ddc7	0.036832597
44	0x3d3c261d	0.045934785
45	0x3cd60918	0.026127383
46	0x3d707bd9	0.05871186
47	0x3d5c4129	0.05377308
48	0xbd078021	-0.033081178
49	0xbd0b57bd	-0.03401922
50	0xbc659300	-0.014012098
51	0x3d1e06c9	0.03858069
52	0x3d9f6223	0.0778239
53	0xbc028aa1	-0.007967622
54	0xbd34f23d	-0.04417633
55	0xbcad3072	-0.021141265
56	0xbd8238a6	-0.06358461
57	0xbd99c0d2	-0.07507481
58	0x3ca052d3	0.019570744
59	0xbcd79d56	-0.02632014
60	0xbd0ceccd	-0.03440552
61	0xbd82cd6b	-0.063868366
62	0xbd53dda5	-0.05172505
63	0x3d494c3d	0.049144972
64	0xbd24539c	-0.0401188
65	0xbd5e0eeb	-0.054213446
66	0xbd2011e0	-0.039079547
67	0xbda4a292	-0.0803882
68	0x3a00cb53	0.000491311
69	0xbd6ee26f	-0.058321413
70	0x3d613748	0.05498436
71	0xbd67fda0	-0.05663836
72	0xbd9afc17	-0.075676136
73	0xbbc4879a	-0.0059976103
74	0xbd3e7845	-0.046501417
75	0xbce7b9a9	-0.028286772
76	0xbd848487	-0.0647059
77	0x3d225a08	0.03963664
78	0xbd2fea2b	-0.04294793
79	0x3cb6c4a2	0.022310559
80	0x3caf8be7	0.021429015
81	0xbda56053	-0.08075013
82	0x3d820ce5	0.06350116
83	0xbda2e27c	-0.07953355
84	0xbc2b5047	-0.010456151
85	0x3c131f6f	0.008979662
86	0x3d808fe7	0.06277447
87	0xbda58fc5	-0.080840625
88	0x3d3a006e	0.045410566
89	0x3d2ac0cd	0.041687775
90	0x3d0fc481	0.03509951
91	0xbc6bdf7e	-0.014396546
92	0x3d34d58c	0.044148967
93	0x3d385002	0.044998176
94	0x3d95a604	0.073070556
95	0x3c1178ed	0.008878929
96	0x3d5ef2ce	0.054430775
97	0xbd2363c0	-0.03989005
98	0x3d0f4c59	0.03498492
99	0x3c7567d1	0.014978365
100	0x3dab4718	0.083631694
101	0x3d69e4e2	0.057103045
102	0xbd9d5dbd	-0.07683895
103	0xbd62112d	-0.05519216
104	0xbd1cf22f	-0.0383169
105	0x3d4e274e	0.050330453
106	0x3d2dd953	0.042443585
107	0x3c21ce45	0.009875839
108	0x3d9afbc8	0.07567555
109	0xbda74a71	-0.081684954
110	0xbbeab01b	-0.0071621067
111	0xbcd5cb5e	-0.02609795
112	0x3d995a1c	0.0748789
113	0x3d464065	0.048401255
114	0x3d9ab2ce	0.075536355
115	0xbc8dd989	-0.017315643
116	0x3ccfa1f8	0.025345787
117	0xbbc2fa94	-0.0059502814
118	0x3d46aa55	0.048502285
119	0xbc51eb19	-0.012812399
120	0xbd0dbd19	-0.034604166
121	0x3da2f85a	0.079575256
122	0xbd6eebb6	-0.05833026
123	0xbd8b875c	-0.06812927
124	0x3d264954	0.040597275
125	0xbaee9eff	-0.0018205344
126	0x3da71a83	0.081593536
127	0xbc2d8f2e	-0.010593219
128	0xbc9a4ba4	-0.018834896
129	0x3ca09af3	0.019605136
130	0xbc5b797b	-0.013395662
131	0xbcee09bf	-0.029057382
132	0x3d2b6b1c	0.041850194
133	0xbd88a8b7	-0.06672805
134	0xbb9fbf9a	-0.0048751356
135	0xbd68b4f9	-0.056813214
136	0xbd25e6d9	-0.040503357
137	0xbd6d42bd	-0.057924975
138	0x3dabee92	0.08395113
139	0xbca7f80f	-0.020504026
140	0xbd98e1b5	-0.07464925
141	0x3d851b1a	0.0649931
142	0xbd206200	-0.03915596
143	0xbc974242	-0.018464211
144	0xbd723574	-0.059133008
145	0xbda2cf89	-0.079497404
146	0x3d524530	0.051335514
147	0xbd1f4f79	-0.03889415
148	0x3d6efa4a	0.058344163
149	0x3d5cb5df	0.053884383
150	0xbccfdd87	-0.025374187
151	0xbc60e3db	-0.0137262
152	0xbd0ec395	-0.03485449
153	0x3d90a9e3	0.07063653
154	0xbdadc7b1	-0.08485354
155	0x3d9a2b48	0.075277865
156	0xbd38a03b	-0.045074683
157	0x3d5388a0	0.051643968
158	0xbd81668d	-0.06318388
159	0xbd4bdf0a	-0.049773254
160	0xbc37b645	-0.01121289
161	0x3a8ae903	0.0010598007
162	0xbd92a86e	-0.07161032
163	0x3d7165dc	0.05893503
164	0x3ca7e153	0.020493185
165	0x3c6c7150	0.014431313
166	0xbd897065	-0.06710891
167	0xbce58031	-0.028015228
168	0xbc77d8ec	-0.015127402
169	0xbca221af	-0.019791452
170	0xbd890e80	-0.06692219
171	0xbc7b4ad6	-0.0153376665
172	0x3d8ebaac	0.069691986
173	0x3d7c8f71	0.061660234
174	0xbc60a365	-0.013710831
175	0x3d074f80	0.0330348
176	0x3d7ae618	0.06125459
177	0x3d96164f	0.07328474
178	0xbd8830a6	-0.06649904
179	0xbd743a2b	-0.059625786
180	0x3b3a0ea1	0.0028390067
181	0xbda9ebee	-0.08296953
182	0xbc8d94ac	-0.017282806
183	0x3d59ab97	0.053142156
184	0x3d7255e4	0.059163943
185	0xbd11656f	-0.035497125
186	0x3d9a3439	0.07529492
187	0xbd213f9a	-0.039367296
188	0xbceb17f2	-0.028697941
189	0xbbbecad6	-0.00582252
190	0xbda4f080	-0.08053684
191	0x3da51532	0.08060683
192	0xbc94fa40	-0.018185735
193	0x3d3b8c37	0.045788016
194	0xbd88e7d1	-0.066848405
195	0xbb8f8bbe	-0.0043806722
196	0x3cee806f	0.029113976
197	0x3c21c8ee	0.0098745655
198	0xbd91d40d	-0.071205236
199	0xbc4f8a91	-0.012667314
200	0xb9f86c28	-0.0004738283
201	0xbd9472f9	-0.07248492
202	0x3d48fdf3	0.04907031
203	0x3c7f4872	0.015581237
204	0x3dac6436	0.08417551
205	0xbd5e5db1	-0.05428857
206	0xbd52ef42	-0.051497705
207	0xbd171cd8	-0.036892742
208	0x3d7fd750	0.062461197
209	0xbd33214a	-0.04373292
210	0xbd0eec55	-0.034893353
211	0x3d8ed4f7	0.069742136
212	0x3db5b833	0.08873024
213	0xbc85af28	-0.016318873
214	0x3cf9d5b9	0.030497419
215	0xbc2dd0c5	-0.010608857
216	0x3d13ddae	0.036100082
217	0xbcc4eada	-0.024037767
218	0xbd38d264	-0.04512252
219	0x3d6dba13	0.058038782
220	0xbd4007f3	-0.04688258
221	0xbd0ac09b	-0.03387509
222	0xbd9451b6	-0.072421476
223	0x3ca930ca	0.020653147
224	0xbd9fed9b	-0.078089915
225	0xbd4d3445	-0.050098676
226	0xbb52266b	-0.0032066356
227	0x3dba0b2e	0.090841636
228	0x3da2dd15	0.07952324
229	0xbce5df0f	-0.028060464
230	0x3d937517	0.072000675
231	0xbd89eb8f	-0.06734382
232	0x3c8ad08e	0.01694515
233	0xbcbbd3b3	-0.022928094
234	0xbd9269fd	-0.07149122
235	0x3d63b4d4	0.055592373
236	0x3da58801	0.08082581
237	0x3d073d08	0.03301719
238	0x3d55e03d	0.052215803
239	0xbd9a62cc	-0.07538375
240	0xbd6b1d9a	-0.057401277
241	0x3c56adde	0.013102977
242	0x3d338e91	0.043837134
243	0xbd993833	-0.07481422
244	0x3d33ad77	0.0438666
245	0x3d8f4781	0.0699606
246	0x3c92073b	0.017825713
247	0x3ccefc51	0.025266798
248	0x3b74fc2e	0.0037381756
249	0xbd97e001	-0.07415772
250	0x3d569491	0.052387778
251	0x3d258e09	0.04041866
252	0x3cfe59d0	0.031048685
253	0xbd4a6ea0	-0.049421906
254	0xb97f78ba	-0.00024363669
255	0x3c9807dd	0.018558437

bias_ih_l0 f4 [512]
0	0x3cd92fd5	0.026512066
1	0x3d31c990	0.043405116
2	0xbd0ea5c1	-0.034826044
3	0x3d09a7e6	0.033607386
4	0x3ce5d72d	0.028056705
5	0x3beb89a4	0.007188039
6	0x3cd01973	0.02540276
7	0xbd3c11b9	-0.04591534
8	0x3c8a5ac4	0.016888984
9	0xbdaf2bac	-0.085532516
10	0x3d1e09ca	0.038583554
11	0xbd9727f6	-0.07380669
12	0xbcdc8ae9	-0.026921706
13	0x3d4eabed	0.05045693
14	0xbd0daaa1	-0.034586553
15	0xbc3430ff	-0.01099801
16	0x3da10e1d	0.0786402
17	0xbc59c232	-0.013290929
18	0x3da1cf00	0.0790081
19	0xbd2f94a7	-0.042866375
20	0x3d0fbced	0.035092283
21	0x3c25cde0	0.010119885
22	0xbda2041e	-0.079109415
23	0xbd19025a	-0.03735576
24	0xbd9885fb	-0.0744743
25	0x3da39dc0	0.07989073
26	0xbd4477db	-0.047965866
27	0x3d805954	0.06267038
28	0xbc347274	-0.011013616
29	0xbdabd6e3	-0.08390596
30	0x3da8fbf0	0.08251178
31	0xbd82aeac	-0.06380972
32	0x3b6c08e4	0.0036016041
33	0x3d8c77b1	0.06858767
34	0xbda02209	-0.07818992
35	0xbc3542a3	-0.011063251
36	0x3aa2bc99	0.0012415826
37	0x3d73d8bc	0.059532866
38	0xbd8168f3	-0.063188456
39	0xbd0e1eb8	-0.034697264
40	0xbcf18705	-0.029483328
41	0xbc3effb0	-0.01165764
42	0x3d0ccf3f	0.034377333
43	0xbd814a6a	-0.063130215
44	0x3d639185	0.0555587
45	0xbdaa6f59	-0.08322019
46	0x3ca83d9d	0.020537192
47	0xbdae51c7	-0.085116915
48	0x3d1baea9	0.038008366
49	0x3d4cbaa5	0.049982686
50	0xbdadf836	-0.08494608
51	0x3cab4d8e	0.020911004
52	0x3cf19f0f	0.02949479
53	0xbd738494	-0.05945261
54	0x3dab1115	0.083528675
55	0x3d96119a	0.07327576
56	0x3dab8e66	0.0837677
57	0x3d8c5ae1	0.06853271
58	0x3d8b9288	0.06815058
59	0xbc241143	-0.010013881
60	0x3da099df	0.078418486
61	0xbd54232c	-0.051791355
62	0xbd29dfee	-0.04147332
63	0x3d4ac7fa	0.04950712
64	0xbd812c4c	-0.06307277
65	0x3d43c195	0.047792036
66	0x3d84d6aa	0.064862564
67	0xbd94156d	-0.07230649
68	0xbd1cc0ca	-0.038269795
69	0x3cfa3eff	0.030547617
70	0xbd05dacd	-0.032679368
71	0xbd93c3b4	-0.07215062
72	0xbd57aa7a	-0.052652813
73	0xbcb69f69	-0.02229281
74	0xbd819269	-0.06326754
75	0x3cde47b9	0.02713381
76	0xbd922b8a	-0.07137211
77	0xbdbaddcb	-0.09124335
78	0xbda93d8b	-0.082636915
79	0xbbb10039	-0.005401638
80	0x3d11779e	0.035514466
81	0x3b2f3a31	0.0026737566
82	0x3b8d195a	0.0043060007
83	0x3d5a708d	0.053329993
84	0xbd07dccc	-0.033169553
85	0xbcd96ca3	-0.02654106
86	0x3d488da1	0.048963193
87	0x3cc4b80c	0.024013542
88	0xbb9bae8f	-0.0047510336
89	0x3cc1ff3a	0.023681272
90	0x3c81c16b	0.0158393
91	0x3da92a3a	0.08260007
92	0xbd869788	-0.06571871
93	0xbd344a69	-0.044016276
94	0xbd36f056	-0.044662796
95	0x3d5e3cfd	0.05425738
96	0x3d586c77	0.052837815
97	0xbc891159	-0.016731905
98	0xbd8f950b	-0.070108496
99	0xbd3cd9c9	-0.046106134
100	0xbcea95b2	-0.028635833
101	0xbd66d737	-0.05635759
102	0xbd68f227	-0.05687156
103	0xbd4c8b22	-0.049937375
104	0xbd3c3bb7	-0.045955386
105	0xbda4f9de	-0.08055471
106	0x3bfb8297	0.0076754796
107	0xbda8a99b	-0.08235475
108	0xbd4b3895	-0.049614508
109	0xbdb7d7d0	-0.0897671
110	0xbcacacca	-0.021078486
111	0x3c312ce9	0.01081393
112	0xbd8c3cb7	-0.06847518
113	0xbdb7ae86	-0.089688346
114	0xbdaa8cf3	-0.08327665
115	0xbd47950d	-0.04872613
116	0x3d9d454a	0.076792315
117	0xbda9ec8f	-0.08297073
118	0xbd194b7f	-0.037425514
119	0x3c1d2cfa	0.009593243
120	0xbd0606b2	-0.03272123
121	0xbaa4f004	-0.0012583737
122	0x3d919c4e	0.07109891
123	0xbd1450cc	-0.036209866
124	0xbb20f4ae	-0.0024559903
125	0xbcc16703	-0.02360869
126	0xbd1c9022	-0.038223393
127	0x3cbf3bb1	0.023343893
128	0x3cc28bbb	0.02374827
129	0x3d90656a	0.07050593
130	0xbdb08c99	-0.08620567
131	0x3cf9834c	0.030458115
132	0xbd25dc5a	-0.040493347
133	0xbd92beb4	-0.0716528
134	0x3d459b26	0.048243664
135	0x3a8d4632	0.0010778366
136	0xbd4ea913	-0.05045421
137	0xbd7f84de	-0.06238257
138	0x3d55262a	0.05203835
139	0x3d4a065b	0.049322467
140	0x3d801731	0.062544234
141	0xbcbe12b4	-0.023202278
142	0xbdb02501	-0.08600808
143	0x3cfa0a35	0.030522445
144	0xbd65ea1f	-0.05613148
145	0xbdb96e33	-0.09054222
146	0xbc65147d	-0.013981936
147	0xbdadc99a	-0.08485718
148	0xbd1dbc6f	-0.038509782
149	0xbd18a8b2	-0.037270255
150	0xbdbc5909	-0.091966696
151	0xbd0adf25	-0.033904213
152	0xbac3de22	-0.001494352
153	0xbd9e097c	-0.07716653
154	0xbd6ba8b2	-0.057533927
155	0xbcdb2865	-0.02675266
156	0x3c9afd62	0.01891965
157	0xbd195799	-0.037437055
158	0x3c392737	0.011300853
159	0xbd98cb34	-0.07460633
160	0x3cce3600	0.025172234
161	0xbdb34440	-0.08753252
162	0x3cd53588	0.026026502
163	0x3c8ad862	0.016948882
164	0x3da0b047	0.07846122
165	0xbdb7ba4f	-0.089710824
166	0xbd610da1	-0.05494464
167	0x3d9a9f06	0.075498626
168	0x3da6c6c4	0.0814338
169	0x3d3c1ff3	0.045928907
170	0x3d77b05c	0.060470924
171	0xba7d4378	-0.0009661238
172	0x3da3df3e	0.080015644
173	0xbda2d8c2	-0.079514995
174	0x3d271660	0.040792823
175	0xbdb6c07c	-0.08923432
176	0x3d33abe1	0.04386509
177	0x3d79fab2	0.061030097
178	0xbdacc168	-0.08435327
179	0x3d8799d2	0.06621136
180	0x3d8c666d	0.06855474
181	0x3c9e3336	0.019311529
182	0x3d5b80a9	0.053589497
183	0xbceebf60	-0.02914399
184	0xbd9acd30	-0.07558668
185	0x3c22941b	0.009923006
186	0xbd0c7b6e	-0.0342974
187	0x3b87468d	0.0041282834
188	0xbda96ae7	-0.08272343
189	0x3c8d849c	0.017275147
190	0xbda21673	-0.07914438
191	0xbd9f9349	-0.07791764
192	0x3c0cd49b	0.008595611
193	0xbd435085	-0.04768421
194	0xbc73ea8e	-0.014887465
195	0xbc4a857e	-0.012360929
196	0xbcc16a4a	-0.023610253
197	0xbda04cf0	-0.07827175
198	0xbd37e07b	-0.044891816
199	0x3d685333	0.05671997
200	0xbd6ff984	-0.058587566
201	0x3d869991	0.06572259
202	0x3d279bae	0.040919952
203	0xbd82ac4e	-0.06380521
204	0xbd9b3e7f	-0.075802796
205	0x3d3d223c	0.046175227
206	0x3b9d8343	0.0048069074
207	0xbba30cb7	-0.004975881
208	0xbc591fde	-0.013252227
209	0x3d8bd792	0.06828226
210	0x3d034ffb	0.032058697
211	0x3bde299a	0.0067798616
212	0xbda30ead	-0.079617836
213	0x3da17c2c	0.07885012
214	0x3ca6dac7	0.020367993
215	0xbc0a2242	-0.008431019
216	0xbcf3b7d2	-0.029750738
217	0x3d5f33be	0.054492705
218	0x3c934a66	0.017979812
219	0x3cfa9084	0.030586489
220	0x3d3b685d	0.045753825
221	0x3c7c7d9b	0.015410806
222	0x3d0dd8c1	0.03463054
223	0x3cc8a998	0.024494931
224	0x3c5de79a	0.013543988
225	0x3d0fcdee	0.0351085
226	0xbd831674	-0.06400767
227	0x3c8c8e48	0.017157689
228	0x3d2cb8be	0.04216837
229	0x3d25af34	0.04045029
230	0xbd256834	-0.04038258
231	0xbaa9dbb5	-0.0012959155
232	0xbd8cb623	-0.06870677
233	0x3d9d11c2	0.07669403
234	0x3b97543a	0.004618195
235	0xbd910fab	-0.070830666
236	0x3cc59500	0.0241189
237	0xbc28721d	-0.010281113
238	0x3da64b4a	0.08119829
239	0xbd88fc2f	-0.06688725
240	0xbce5ac5e	-0.028036293
241	0xbdb4d298	-0.0882923
242	0x3d880e35	0.06643335
243	0x3d8a3a42	0.06749393
244	0x3d9026aa	0.070386246
245	0x3c4f86de	0.012666432
246	0x3ce422ba	0.02784859
247	0xbac5b080	-0.0015082508
248	0x3c76962e	0.015050454
249	0x3d3ce353	0.04611523
250	0x3d4ff45d	0.050770152
251	0x3d95e862	0.07319714
252	0xbd0e9bb8	-0.034816474
253	0x3c8fbd82	0.017546419
254	0xbd9faa1f	-0.0779612
255	0xbd5bf294	-0.053698137
