trained_models/ppo/me5418-Cassie-v0/0524-08-34-05-s3737/critic.pth (torch, 96254 bytes, 5 tensors)

weight f4 [128, 50]
000000 60 da 67 bd 51 22 92 3c e3 13 ad 3c 3d 6c 84 b9
       -0.056604743 0.017838629 0.021127647 -0.00025257646
000010 07 4e 8c bd c1 a4 27 3e 75 d5 d5 bd dd 22 33 3a
       -0.0685082 0.16371442 -0.10441104 0.0006833503
000020 02 b2 10 3d 2d 21 04 3d b2 a3 8a bc ff b5 09 be
       0.03532601 0.0322582 -0.01692376 -0.13448332
000030 df 88 f8 3c 36 13 4d bd b9 df 85 bd 75 dc 8f be
       0.030338703 -0.05006715 -0.06536812 -0.28097883
000040 30 2c 41 bd ce 76 02 bd c1 c5 18 be ca 2d 17 be
       -0.04716128 -0.031851582 -0.14919187 -0.14763561
000050 fc e8 18 3d 23 1d 30 3d f1 5f 52 3d 8c fd dc bd
       0.037331566 0.042996537 0.051361028 -0.10790548
000060 15 20 d5 3d 68 40 10 be 9c 46 61 bd 5a bd 96 bc
       0.1040651 -0.14087069 -0.05499898 -0.018400837
000070 7e be dd bd ce c4 e4 bd d8 10 b3 3d 56 7f 01 bd
       -0.10827349 -0.1117035 0.08743447 -0.031615578
000080 98 c5 4c 3c cb 63 9c bd 4a d8 3d 3e 9c cf 10 be
       0.012498282 -0.076362215 0.18539539 -0.14141697
000090 b3 25 95 bd e1 3f 3c 3d 64 9a b5 3d 85 e3 90 bc
       -0.07282581 0.045959357 0.08867338 -0.017686615
0000a0 08 f1 2f 3d b9 d2 ab bd 35 0e d0 3d a5 da c2 3d
       0.042954475 -0.083898015 0.1015896 0.095143594
0000b0 69 63 67 3c b7 6a e9 bd 7a 88 e5 b8 cf 7d 97 bd
       0.014122822 -0.11397307 -0.00010944992 -0.07397043
0000c0 c0 7f 79 3d 0e 5e a7 bc 14 bb df bd 5c a0 3b 3d
       0.060912848 -0.020430591 -0.10924354 0.045807227
0000d0 19 79 dd 3c 0f e2 07 3d d2 6e bb bd 29 42 a4 bd
       0.027035283 0.03317457 -0.09151997 -0.080204315
0000e0 de 11 bd bc 96 e7 1f 3d 79 b4 e9 bd 50 ae 34 bc
       -0.023079809 0.039039217 -0.114113756 -0.011027887
0000f0 a8 96 4c 3e 23 24 f3 bd 4d 38 80 bd 29 8f f2 3d
       0.19979346 -0.11872127 -0.062607385 0.11843712
000100 9e 75 d7 3d 87 47 8b 3d a5 ce b7 3d ae de 2d 3d
       0.105204806 0.06800752 0.08974961 0.042448692
000110 ef db 4a 3c 89 98 67 bc 9e fc 36 be f9 00 25 3d
       0.012381538 -0.014135488 -0.17869803 0.04028413
000120 1f 93 da bd 5b 51 cb 3d 0e 6f db bd 78 f6 84 3d
       -0.10672592 0.09927627 -0.107145414 0.06492323
000130 5e 97 05 3e e0 d0 0b be 5d cb 1c bc 01 c5 17 bd
       0.13046023 -0.13653898 -0.00956997 -0.037053112
000140 02 f6 38 3e ed 67 43 bc 83 0a 44 3d f0 df 9d bd
       0.18062595 -0.011926633 0.047861587 -0.07708728
000150 c0 b4 d2 3d 1b 0e 0f 3d 44 91 12 bc aa fc 31 3e
       0.102883816 0.03492556 -0.008945767 0.1738154
000160 c2 bc ba bd 09 b5 0d 3d 24 4a 15 3e ec 6c 37 be
       -0.09118034 0.034596477 0.14579064 -0.17912644
000170 2d 4c 5b bd e6 1e 0e 3c 7f b3 61 bd 23 61 68 be
       -0.053539444 0.008674359 -0.05510282 -0.22693305
000180 9f d8 18 3d 22 0d 72 3c ed d5 33 be 38 c5 3c bb
       0.03731596 0.014773639 -0.17562075 -0.0028804075
000190 14 63 d2 3d 1e b4 18 bd 41 0a fd 3b 13 27 ef 3d
       0.10272804 -0.037281148 0.0077221696 0.11677375
0001a0 7d 3f 7f bd e4 af 89 3d bd aa ed 3c 1d 14 66 bd
       -0.062316407 0.067230016 0.029012078 -0.056171525
0001b0 83 e8 08 be 8c 8c 97 bc fc cb 28 3e 1a d6 b7 3d
       -0.13369946 -0.018499635 0.16484064 0.089763835
0001c0 e1 05 87 bc 56 f3 f7 3d f3 5f cf bc 99 85 20 be
       -0.016482295 0.121069595 -0.025314307 -0.15675963
0001d0 68 ac 16 be 8b 35 95 3c 90 59 e1 3d c0 03 12 3e
       -0.14714205 0.018214008 0.11003411 0.14259243
0001e0 fd 49 73 bd 03 f1 da 3c 5b ec aa 3b 12 f1 f8 3d
       -0.059396733 0.026726251 0.005216164 0.121553555
0001f0 77 a0 5d 3d 62 63 0f 3c 06 3e 79 bd 4c dc a5 bd
       0.05410811 0.008751722 -0.060850166 -0.08098659
000200 36 a5 01 3e b4 5a 71 bd 91 2a 8c 3e a3 5e c1 bd
       0.12660679 -0.058924392 0.27376226 -0.09441879
000210 91 65 cb 3d c5 e1 fe bb 1d 6c d0 3c 2a 51 1c be
       0.09931482 -0.0077783787 0.025442177 -0.15265337
000220 39 e2 a5 3c ba 40 d9 bd a4 d1 82 3c 68 2d e4 3d
       0.020249473 -0.10608049 0.015969105 0.11141473
000230 29 71 49 bd 03 f1 ac bd b2 51 e4 bd 99 70 1f 3c
       -0.049180184 -0.08444407 -0.11148395 0.009731435
000240 ef 7c 65 3d 9e 4f d3 3c c1 55 e2 3d e4 35 15 bd
       0.05602735 0.0257948 0.110515125 -0.036428347
000250 e4 84 90 bc a4 b1 be bc 6b 8f 43 be c6 3a 85 3d
       -0.017641492 -0.023278065 -0.19097678 0.06505351
000260 51 cb 12 3d 41 d3 92 3d 78 87 23 be 9c d9 39 be
       0.03583843 0.071692 -0.15969646 -0.18149418
000270 cd bd 44 be 91 6e 95 bc 3d 40 85 3d 0d 8b 9c bd
       -0.19213028 -0.018241199 0.06506393 -0.07643709
000280 0f 20 a7 bd f7 26 b0 3d c8 cd ff 3d 57 f5 fa 3d
       -0.081604116 0.08601182 0.124904215 0.12253826
000290 d3 eb 4e bd 75 2b c9 bd 8a 0f de 3d 57 7c 27 3d
       -0.05051787 -0.09822742 0.108428076 0.040890064
0002a0 20 e6 06 3e 07 ab ee 3d 78 a9 42 3c d1 21 55 bc
       0.13173723 0.116537146 0.011881225 -0.013008551
0002b0 4f c8 cc bc 69 51 f1 bd 99 58 0c bc 5c 07 0c 3d
       -0.024997858 -0.11783106 -0.008566045 0.034186706
0002c0 66 78 ec 3d 87 47 00 bd 18 b8 06 be f4 13 31 3e
       0.11546402 -0.031318214 -0.13156164 0.17292768
0002d0 b9 d0 8e bd 15 fb 08 3c a3 21 95 3c 4f 92 34 be
       -0.069734044 0.008360644 0.018204516 -0.17633937
0002e0 6a 4f eb bb ed b4 92 bd b0 07 80 3b 55 0d d1 bd
       -0.0071810978 -0.07163415 0.0039071664 -0.10207621
0002f0 23 a4 3a 3c 3d 23 f9 bd f1 0e a5 bd 77 7b bd bd
       0.011391672 -0.12164924 -0.080594905 -0.09252065
000300 03 a5 d3 bc 1b 28 e7 bd 6c d4 f8 3c 00 f1 9e bd
       -0.02583552 -0.112869464 0.030374728 -0.07760811
000310 f0 9f 4c 3e a2 ac 5d 3d 5a fe b5 bd 5e 2d 0c 3d
       0.19982886 0.054119714 -0.08886404 0.034222953
000320 87 3f 61 bd e4 49 33 3d 37 97 f1 3d 94 51 2b be
       -0.054992225 0.04377164 0.1179642 -0.16730338
000330 c6 d5 6a bd 85 bd 14 3c af d4 6d 3d e6 7e 30 bb
       -0.057332776 0.009078388 0.05806416 -0.0026931106
000340 f5 2e 4e 3e 7b 0e 62 be 6f f7 89 3c 58 05 63 bc
       0.201351 -0.22075836 0.016841618 -0.0138562545
000350 63 5a a5 3d d6 b5 09 bd c1 00 30 bd 29 8c 8c 3d
       0.080738805 -0.033620678 -0.04296947 0.06862671
000360 ce af a8 3c ee cd ba bc 60 0a 95 bd ab 18 30 3e
       0.020591643 -0.022803273 -0.072773695 0.1719691
000370 86 93 78 3d 51 36 f3 3c a9 96 a4 bd 1a 3e 15 3c
       0.060687564 0.029688986 -0.08036549 0.009109044
000380 cd ca b1 3d 0c 11 6d bc 01 6f 24 bd 8d 36 ba 3d
       0.08681259 -0.014469396 -0.040144924 0.09092436
000390 b8 d8 92 bd 08 5d b2 bd e2 7d 2d 3d 68 f5 cf ba
       -0.07170242 -0.087091506 0.04235638 -0.0015865983
0003a0 c8 6c 34 bd 7d 9b fa bd 42 a7 c6 3c ae 73 a2 3d
       -0.044049054 -0.12236688 0.024249677 0.079322204
0003b0 2f 38 38 3d 33 39 ac bc 91 4b 75 3d fc da 63 3d
       0.044975456 -0.021023368 0.05988652 0.05562876
0003c0 97 9c 55 3e 89 5f 1c bc f9 b7 4d bd 17 30 3c 3e
       0.20860516 -0.009544262 -0.050224278 0.1837772
0003d0 ad 47 df bb 9c 5b 8f b9 c2 8f 07 3d 6a c4 0b 3d
       -0.0068139643 -0.0002734334 0.033096083 0.034122862
0003e0 61 4f 0e be a5 0a 75 be bb 8e 9f bd d3 dd 96 3d
       -0.13897468 -0.23929842 -0.077908956 0.07366528
0003f0 af 94 a6 bd d9 fb 0e 3d 45 f8 1b be 7a 9b e9 bd
       -0.08133828 0.03490815 -0.15231426 -0.11406608

bias f4 [128]
000000 51 fb b7 bb b6 16 b3 bb 9f aa c1 bb 18 78 ba 3b
       -0.005614676 -0.005465354 -0.005910232 0.005690586
000010 44 03 9f bb b3 09 c6 bb a7 73 ef ba dd 60 c6 3b
       -0.004852684 -0.0060436367 -0.001826872 0.0060540275
000020 34 de 33 3b c4 22 b0 3b 12 4e c3 3b 78 93 c2 ba
       0.0027445676 0.005375238 0.0059602344 -0.0014844975
000030 fc 51 c3 bb ff 6a b9 3b 8f 16 bf 3b d2 f2 a7 bb
       -0.005960701 0.005658507 0.0058315466 -0.005125382
000040 e7 b5 c1 3b 33 10 a9 bb 18 2a b8 3b 55 85 bf bb
       0.005911577 -0.005159402 0.0056202523 -0.005844752
000050 eb 45 c3 3b 7b d4 c2 bb 74 c4 9f 3b ed c1 c7 bb
       0.0059592626 -0.00594574 0.004875714 -0.006096116
000060 21 99 cd bb a6 1d c7 bb df 76 b0 3b 1d 76 b2 bb
       -0.006274358 -0.0060765324 0.0053852643 -0.005446209
000070 ec a7 c3 3b 87 ae 9a bb 21 75 b3 bb 88 57 b5 3b
       0.0059709456 -0.0047205123 -0.0054766093 0.005534116
000080 ad 85 c6 bb 7c 27 c4 bb 19 36 ba 3b 7d 1b b9 bb
       -0.006058416 -0.005986152 0.0056827185 -0.005649029
000090 af 93 b9 bb 59 ca ae 3b f0 57 ba 3b 6e 4f c2 3b
       -0.005663357 0.0053341803 0.0056867525 0.005929879
0000a0 b9 d5 c1 bb ac 3f c5 bb 77 07 b3 bb b6 eb c2 bb
       -0.0059153703 -0.006019553 -0.0054635364 -0.005948509
0000b0 67 fa bc bb 7d 1d a9 3b 7c a8 c2 bb 6d 75 be bb
       -0.005767155 0.005160986 -0.005940495 -0.005812338
0000c0 9f 1d c5 bb 71 63 84 3b f1 d2 c3 3b 15 2c bb bb
       -0.006015494 0.0040401747 0.005976074 -0.005712042
0000d0 f2 af c1 3b e9 62 c8 3b 93 0b c1 3b 68 02 99 3b
       0.005910867 0.0061153066 0.0058912723 0.0046694763
0000e0 3d 87 bc bb 64 6e b9 bb 0f 22 10 3b f6 15 be 3b
       -0.0057534263 -0.0056589115 0.0021992957 0.005800958
0000f0 5b 80 bb 3b 6b 8a c8 3b 1b 4a bb 3b e8 03 c4 bb
       0.0057220883 0.0061200163 0.005715621 -0.005981911
000100 54 61 ba 3b 97 15 b4 bb b2 c4 57 bb 88 51 bb bb
       0.005687872 -0.005495738 -0.0032923636 -0.0057165064
000110 d9 1f c1 bb 53 99 c8 bb f5 ae b8 3b 98 1c ba bb
       -0.005893689 -0.0061217933 0.005636091 -0.005679678
000120 e2 47 a6 3b a6 8e bd 3b 90 be fc 3a 34 f9 b6 bb
       0.005074487 0.0057848273 0.0019282866 -0.0055839065
000130 7a 99 c3 bb 79 e2 c6 3b b5 12 b7 3b ef f2 bb bb
       -0.0059692236 0.006069478 0.005586947 -0.005735747
000140 32 dc bd bb 02 51 1c 3b 6e 0b b3 3b 90 3c b9 bb
       -0.0057940716 0.0023851995 0.005464009 -0.0056529716
000150 93 c3 bc 3b f9 7f b2 3b 7a 00 b7 3b 74 9f be 3b
       0.005760619 0.0054473844 0.0055847736 0.005817348
000160 86 28 ba 3b 58 b4 be 3b 53 cd f3 38 ee 18 b9 3b
       0.0056811003 0.0058198385 0.000116253876 0.005648724
000170 ba a2 c5 bb e3 b4 c0 bb 39 2c bd 3b 8f c8 8b 3b
       -0.0060313614 -0.0058809384 0.005773094 0.004265852
000180 37 f2 b1 bb b2 ad b1 3b 51 78 c1 bb 0d db af bb
       -0.0054304856 0.0054223174 -0.0059042354 -0.005366689
000190 7b d0 c3 3b 93 2e c5 3b 53 92 c5 bb 0a 78 bd 3b
       0.0059757805 0.006017515 -0.006029406 0.005782132
0001a0 d4 05 0f bb 69 1e bd bb 6b cf b6 bb 17 20 bd 3b
       -0.0021823542 -0.0057714474 -0.0055789254 0.0057716477
0001b0 ad eb af 3b f1 ef 6e 3b 1a 73 b5 bb 32 0e c0 3b
       0.005368671 0.0036458934 -0.005537403 0.005861067
0001c0 d1 f8 c6 bb de 28 c5 3b e5 42 bf 3b 8b 66 ba bb
       -0.0060721417 0.0060168346 0.005836832 -0.0056884936
0001d0 c6 f0 c3 3b 81 d5 c4 3b d3 7f c9 3b 88 a0 be bb
       0.00597963 0.006006897 0.006149271 -0.0058174767
0001e0 3a d8 c4 bb 11 cb af bb 4c cd 1d 3b f5 8b df 3a
       -0.0060072215 -0.0053647836 0.0024078665 0.001705526
0001f0 17 24 ab bb de 1a b7 3b c9 42 b0 bb ef df c8 bb
       -0.005222808 0.0055879196 -0.005379055 -0.0061302106

weight f4 [128, 128]
000000 b5 df cb 3d 05 4a ab 3d eb 9d 8a 3c c4 4a 0e 3d
       0.09954778 0.083637275 0.016921004 0.03473927
000010 66 b4 1c 3e e6 d1 77 bd 88 0e d3 bc 56 91 25 3d
       0.15303192 -0.06050291 -0.025763765 0.040421806
000020 1f 32 6f 3c d3 1b 29 bd 9f 33 9d bc a5 10 80 3d
       0.014599352 -0.0412863 -0.019189654 0.06253175
000030 04 69 1c 3d a3 21 16 bc c6 e2 98 bd 5b cb 49 3e
       0.03818609 -0.009163293 -0.074651286 0.1970648
000040 1a 55 c4 3c 65 a3 64 3c 03 e9 f8 3c 5b 26 ba bd
       0.02396636 0.013954972 0.030384546 -0.09089347
000050 36 f1 8a 3d e8 02 ff bd 09 aa ae 3d 9c 31 ab bd
       0.067842886 -0.12451726 0.085285254 -0.083590716
000060 5f 56 9e bb a6 04 1b bd d5 10 82 bd a8 00 01 be
       -0.0048320736 -0.03784623 -0.06350867 -0.12597907
000070 09 c4 07 3e e5 51 08 3d 68 b3 1d be b6 68 25 be
       0.13258375 0.033281226 -0.1540047 -0.16153225
000080 f5 6f c5 3c 7d 2a c1 3c 5f 1f d6 bd 22 31 19 bd
       0.024101237 0.02357983 -0.10455202 -0.037400372
000090 aa a4 97 3d 01 d3 9b 3d 46 f8 8a bc f2 b6 ba bc
       0.07404454 0.07608605 -0.01696409 -0.022792313
0000a0 ad 58 e0 bd 8a b7 98 bb 4b a4 e1 3d 89 5f 30 bd
       -0.109544136 -0.0046605514 0.110176645 -0.04305986
0000b0 8a f6 f5 bd 69 f9 f2 3d b6 9c 62 ba b8 59 63 3c
       -0.12009914 0.118639775 -0.00086445676 0.013876371
0000c0 45 9b 18 3d 00 73 68 bc 6b 35 1a 3d 96 8b ae b9
       0.03725745 -0.014187574 0.0376486 -0.00033291866
0000d0 2b e5 05 bd 6f c3 15 3d 1e c2 75 bd bf 1f 0a be
       -0.032689255 0.036563333 -0.059999578 -0.13488673
0000e0 47 56 84 3c 3c 55 8a 3b e5 d3 7b 3b 40 94 9b bd
       0.016154421 0.0042215865 0.003842586 -0.07596636
0000f0 3e b0 85 bc 0a 91 07 be fb f5 02 3e a0 32 81 3d
       -0.01631939 -0.13238922 0.12789147 0.06308484
000100 47 62 47 bd 64 73 0e 3b 8b 1d d0 3c 7d 86 0a 3e
       -0.04867771 0.0021736259 0.025404712 0.13527866
000110 d7 e8 63 bd f0 ae 6a bd 33 d8 c8 3c b9 8b 74 bd
       -0.055641975 -0.05729574 0.024517154 -0.059703562
000120 56 8d 2b 3e 03 87 97 bc 74 9f 1d bc 1d 34 4c 3c
       0.16753134 -0.018496996 -0.009620536 0.012463597
000130 1f 68 d1 bd 2f 0a 2b bd 16 0e 49 bd 3e 64 b7 bc
       -0.10224938 -0.04175776 -0.0490857 -0.022386666
000140 15 da 16 3e b2 b9 5d bd 1d e3 f9 3d 90 55 ed bd
       0.14731629 -0.05413217 0.122015215 -0.115885854
000150 24 21 bb be 66 f9 fb bd 35 4d c5 ba 94 23 42 bd
       -0.36548722 -0.12303428 -0.0015052917 -0.04739721
000160 1b e9 3f bb 2c b4 c2 3d da f4 86 bd 53 ca 59 bc
       -0.0029283229 0.09507021 -0.065896705 -0.013292867
000170 a9 f8 7e bd 58 05 fb 3c fe a7 99 bd d5 20 98 3d
       -0.06224886 0.030642197 -0.07502745 0.07428137
000180 38 92 85 3d 84 ab d1 3c 7b 81 cb bd 8f 5f ac 3d
       0.0652203 0.02559448 -0.09936806 0.08416664
000190 c9 85 9a 3d e9 24 4b bd ea d3 36 3d de 76 f6 bd
       0.07545049 -0.049595747 0.04463569 -0.12034391
0001a0 48 a2 2d 3d bb bc 47 3d 48 0e 07 3e 56 f2 3e be
       0.04239109 0.04876397 0.13189042 -0.18647131
0001b0 6f d9 4f be fb 6e b9 3c 6e 3e d9 bd dd 29 18 3d
       -0.20297788 0.022635927 -0.10607611 0.0371493
0001c0 23 be fa bd ab f3 49 3d d0 70 40 bd de 77 22 3e
       -0.12243297 0.049304646 -0.046982586 0.15866038
0001d0 3e 3e 60 bd 56 4b 0e bc 5a 19 46 3c 7a ea f5 bd
       -0.05474686 -0.008684954 0.012091005 -0.120076135
0001e0 06 8d 19 3e 9e b7 eb bd 0c d7 db bd 8b 8b c3 bd
       0.14995202 -0.115096316 -0.10734376 -0.095481
0001f0 2e 11 a7 bd c7 a8 07 3e 06 0b b5 3c 76 f0 16 3d
       -0.08157574 0.13247977 0.022099983 0.036850415
000200 22 9a 53 bc cb 81 06 bd 2e 97 ec 3d 24 dd 16 be
       -0.012915166 -0.032838624 0.11552273 -0.14732796
000210 b8 0b 8c 3e e7 96 e3 bc c8 5b b9 3d 25 86 b7 3d
       0.2735269 -0.027781917 0.09050709 0.08961133
000220 c3 eb 45 3c 09 7e 59 3d 44 96 02 bd c5 63 a8 bd
       0.012080136 0.053098712 -0.031881586 -0.082221545
000230 34 e2 10 3d ea b1 e4 3c 95 da 2c be e2 d6 ba bd
       0.035371974 0.027916867 -0.16880257 -0.09123017
000240 9c a7 2f be 39 71 77 bd fe d4 09 3b 89 24 54 be
       -0.17153782 -0.060410712 0.0021031494 -0.20717062
000250 78 78 1b 3d 10 81 d4 bd 19 49 07 be 05 54 e3 bc
       0.037956685 -0.10376179 -0.13211478 -0.027750025
000260 0c 50 52 bd 4d 2b 6c 3d 59 2e ce 3d e8 23 c9 3d
       -0.05134587 0.057658482 0.10067434 0.09821302
000270 b7 77 78 bd fe b5 4c 3e 91 d2 bb bc ef f0 96 3d
       -0.060661044 0.199913 -0.022927554 0.07370173
000280 79 2d 84 bd 68 2f 02 be e6 98 18 3a 11 21 58 3e
       -0.06453986 -0.12713397 0.00058211235 0.21106364
000290 1b f9 af 3d f3 38 e4 3c 10 9b 82 3c 08 fb d9 3d
       0.08592435 0.027859187 0.01594308 0.106435835
0002a0 e8 ad f6 3d 52 f1 9f bd a4 19 68 3d 84 27 20 bd
       0.12044889 -0.078097 0.056665078 -0.039100185
0002b0 15 31 8b 3d ee a6 70 bd fe 74 38 3d 53 92 86 3d
       0.06796471 -0.058752947 0.045033447 0.06570878
0002c0 a7 8f 26 3e 60 f5 90 3d 7f 4e c1 bc 38 98 1e bd
       0.16265737 0.070780516 -0.023597 -0.038719386
0002d0 82 95 58 bb 82 47 5a 3d 15 1c aa bd e4 c3 8f 3d
       -0.0033048098 0.05329085 -0.083061375 0.07019785
0002e0 67 01 2f bc a5 58 71 bd 85 b3 18 3d f2 cb 6c bd
       -0.010681487 -0.05892243 0.03728058 -0.057811685
0002f0 86 d2 d8 bc b4 75 ed 3c 88 d1 73 bd 7c 7c 60 3e
       -0.026467573 0.02898679 -0.059525996 0.21922487
000300 f2 4a e6 3c 2d 9e 7a bc f0 2c 32 b8 36 4d cb bd
       0.028111909 -0.015296501 -4.248036e-05 -0.09926836
000310 78 1a e9 3d 7a 6d 9e 3c 44 42 9f 3b 6e e3 24 be
       0.11382002 0.019339312 0.0048601944 -0.16102383
000320 f2 2e 28 3d e9 cf f8 3d 4c 8b d7 3d 5e 1a c3 3d
       0.041060396 0.12149031 0.10524616 0.095265135
000330 8d 37 a5 3d 88 20 db bc 9f 4f a7 3c 54 48 3c 3d
       0.08067236 -0.02674891 0.020423708 0.045967415
000340 85 28 cf bd 27 0e fd 3d 8b 4a 35 3c 11 44 34 bd
       -0.1011515 0.12356215 0.011065136 -0.044010226
000350 37 49 95 bc 02 ff 76 3d 90 45 a2 bd 42 be c4 3d
       -0.018223388 0.06030179 -0.07923424 0.09606601
000360 fd be 83 3d e8 f5 5c bc 7b 2a 65 bd 63 f4 30 bd
       0.064329125 -0.013486363 -0.055948716 -0.043201815
000370 fb 38 12 3b 7d 96 1f bd f9 44 22 3c 40 2a 65 bd
       0.0022311795 -0.038961876 0.00990414 -0.055948496
000380 db 75 6c bd 21 04 a6 3d 2a 6c 0b 3e 5e 80 6d bd
       -0.057729583 0.08106256 0.1361548 -0.05798375
000390 b4 7b 3c bd 7d 03 b7 3c 84 08 24 3d 1a 26 c0 3c
       -0.04601641 0.02234053 0.040047184 0.023455668
0003a0 ae 43 67 bd 79 5a 16 be ff e2 ed 3c b1 b0 86 be
       -0.05646103 -0.1468295 0.029038904 -0.2630668
0003b0 21 db 13 be b7 68 b7 3d eb e5 79 3d 49 ca b8 3d
       -0.1443906 0.0895552 0.061010282 0.09022958
0003c0 51 e9 a1 3d e3 b0 72 bd b5 ca 8b bd a3 59 23 3e
       0.0790583 -0.059250724 -0.06825773 0.15952162
0003d0 ad 21 90 bd b2 60 8b bd e5 68 6c 3d ad d0 3e 3d
       -0.07037673 -0.068055525 0.057717223 0.046585727
0003e0 a7 ee e8 bc 95 f4 c1 3d 13 b0 6c bc 23 f8 27 3d
       -0.02843411 0.094704784 -0.014446276 0.041008126
0003f0 00 75 dd 3b 14 ae 34 bc 57 b5 94 bd 5f da 48 bd
       0.0067583323 -0.011027832 -0.0726115 -0.04903638

bias f4 [128]
000000 1f ed c0 bb 05 63 c4 bb 50 0c c7 3b a7 c1 c4 3b
       -0.005887642 -0.0059932494 0.006074466 0.0060045305
000010 58 2d c4 bb 62 1e c4 3b 8d 5a c3 3b b4 f7 c6 3b
       -0.0059868507 0.005985067 0.005961722 0.006072009
000020 67 fc c5 bb e1 ff c7 bb 85 8e c4 bb 9c e4 c1 3b
       -0.0060420516 -0.006103501 -0.005998435 0.005917145
000030 67 fe b6 bb 58 45 c5 bb 65 e9 c5 bb 56 0e c3 3b
       -0.0055845263 -0.0060202293 -0.0060397857 0.0059526367
000040 1f 9b c6 3b ab bf c3 bb 1b c0 c6 bb 76 d6 c5 3b
       0.0060609723 -0.0059737763 -0.006065381 0.0060375286
000050 8d 18 c7 bb 47 ed c7 3b b2 c8 c2 3b a6 90 c1 3b
       -0.0060759247 0.0061012837 0.005944335 0.005907136
000060 57 6f c2 bb 54 f3 bc 3b 20 a2 c5 bb 82 15 c1 bb
       -0.005933683 0.0057663117 -0.0060312897 -0.0058924565
000070 11 91 c8 3b 3b b3 c2 bb ad 36 c6 3b 61 77 c5 3b
       0.006120809 -0.005941776 0.0060489983 0.006026194
000080 93 94 c3 3b d4 06 c4 bb 20 3f c7 3b 0e 3c ca bb
       0.005968639 -0.0059822593 0.006080523 -0.00617171
000090 14 41 c6 3b 94 ce c9 3b 90 9b c3 bb 29 eb c5 3b
       0.0060502384 0.0061586592 -0.005969472 0.006039996
0000a0 a2 e5 c5 bb 11 6d c1 bb ec 5e c7 bb 52 23 c7 bb
       -0.0060393373 -0.0059028943 -0.0060843136 -0.0060772086
0000b0 a7 71 c3 3b 5a 3f c7 bb 64 c3 c4 3b cd ae c7 bb
       0.005964476 -0.00608055 0.0060047377 -0.006093836
0000c0 d6 fe c6 bb 10 ec c4 bb ef 59 c6 bb e6 f2 c5 3b
       -0.0060728593 -0.006009586 -0.0060532014 0.0060409186
0000d0 d3 1a c7 bb eb 1d c7 3b 20 30 c5 3b 8f da c3 3b
       -0.0060761957 0.0060765645 0.0060177 0.005976982
0000e0 6b c8 c6 3b 0f fe c3 3b f1 92 40 bb 63 f7 c5 bb
       0.006066372 0.005981214 -0.002938446 -0.0060414537
0000f0 df 0b 8c bb 2d 4b c6 bb 63 ca c7 3b c5 5f bf 3b
       -0.004273876 -0.006051442 0.0060971244 0.005840274
000100 1f cb c3 3b 6c 55 c6 bb 42 0c c7 bb 71 50 c3 bb
       0.0059751417 -0.0060526635 -0.0060744593 -0.005960517
000110 49 89 c6 bb 5b 1d c6 bb ab f0 c3 bb e6 35 c5 3b
       -0.006058846 -0.00604598 -0.0059796176 0.006018388
000120 f2 1f c5 3b 73 ee c3 bb d3 b9 c6 3b 2c 9f c4 bb
       0.006015771 -0.005979353 0.0060646324 -0.00600042
000130 cf e3 c5 3b 85 c8 c4 3b 21 b2 c5 3b 02 d7 c5 3b
       0.00603912 0.006005349 0.0060331975 0.006037594
000140 ea 4b c5 3b 78 b9 c2 3b 25 ea c6 3b 34 1a c6 3b
       0.0060210126 0.0059425198 0.0060703927 0.006045604
000150 36 ad c2 bb 46 0c c7 3b 2e 68 c1 bb 90 2f c7 3b
       -0.0059410585 0.006074461 -0.0059023118 0.006078668
000160 81 56 c8 bb 6b 83 c0 bb b4 d1 c6 3b f5 50 c6 bb
       -0.0061138277 -0.0058750412 0.006067479 -0.0060521313
000170 c4 f4 c5 bb d1 d0 c0 bb 18 97 c5 3b d7 24 c4 3b
       -0.006041141 -0.005884268 0.0060299747 0.005985837
000180 99 30 c5 bb 4d 44 c6 bb ac 48 c5 bb ae b9 c6 3b
       -0.006017756 -0.0060506226 -0.006020626 0.006064615
000190 26 8b c7 bb 27 05 ca 3b c6 4b b4 3b 7e fa c3 bb
       -0.006089586 0.006165165 0.005502197 -0.0059807887
0001a0 33 0d c5 bb 37 8d c3 3b ae ee c5 3b 47 27 c5 bb
       -0.0060135364 0.005967762 0.0060404157 -0.006016645
0001b0 39 46 c1 bb d2 32 c9 bb 94 72 c5 bb 89 6d c8 bb
       -0.005898264 -0.0061400915 -0.0060256217 -0.0061165732
0001c0 d6 48 c7 3b cc 86 c5 3b ad 0b c4 3b 1e 50 ca 3b
       0.006081681 0.006028032 0.005982837 0.0061741015
0001d0 61 21 c0 3b 1c cc c2 bb 76 11 c8 bb b9 ac c6 bb
       0.005863354 -0.005944742 -0.006105597 -0.0060630706
0001e0 fe 5c c5 bb a5 77 c7 bb b6 ba c5 bb b2 6b c5 3b
       -0.0060230484 -0.006087261 -0.0060342206 0.006024801
0001f0 20 0d c5 bb 27 b9 c6 3b 1e 5d c6 3b 31 26 c7 bb
       -0.0060135275 0.0060645523 0.006053581 -0.006077551

weight f4 [1, 128]
000000 75 ac 8f bd 7b 77 2b be ea cc 21 3e c4 85 28 3e
       -0.070153154 -0.16744797 0.15800825 0.16457278
000010 bc 3d 83 bc 33 98 a8 3c 41 b9 b1 3c 6f 67 84 3d
       -0.016020648 0.020580387 0.021694781 0.06465041
000020 9f 58 86 bd f5 c3 33 bd a5 ab 90 bc cd a0 d1 3b
       -0.06559872 -0.04388805 -0.017659971 0.006397343
000030 e8 ba 7f bb d4 74 5e bd 17 09 2e be f6 67 ce 3c
       -0.0039021317 -0.054310635 -0.16995655 0.025196057
000040 cd 08 06 3e 44 21 2b bc 27 fd e7 bd b8 88 e1 3c
       0.13089295 -0.010444943 -0.11327582 0.027531013
000050 aa 32 05 be a3 1c 17 3e ee f5 45 3d c5 90 f0 3c
       -0.13007608 0.14757018 0.04833024 0.029365906
000060 1e 8f 01 bc 04 d2 d0 3b 37 24 6d bc 1c ea 42 bd
       -0.007907657 0.006372692 -0.014473966 -0.047586545
000070 69 ac 3f 3d 09 5d 91 bd 86 3a 95 3d 13 ca a2 3d
       0.046795283 -0.07097823 0.07286553 0.07948699
000080 09 98 f8 3b f8 54 62 bd 1a 97 e8 3d 5c 2c c6 bd
       0.0075864834 -0.055256814 0.11356945 -0.0967643
000090 79 7b 2b 3d 62 98 3d 3d 4f c0 4f bd 61 80 98 3d
       0.0418658 0.0462879 -0.05072051 0.07446361
0000a0 bb fd 33 bd 8a 6e 32 bd cc 9f 1d bc 41 5e 06 be
       -0.043943148 -0.04356245 -0.009620618 -0.13121893
0000b0 4e bd 5f 3e ed 5e b1 bd 80 8e 85 3d 33 29 62 bd
       0.21849558 -0.08660684 0.0652132 -0.055215072
0000c0 69 a7 15 bc 3e 66 1d bd a9 72 9d bd eb 89 43 3e
       -0.009134152 -0.038427584 -0.07687885 0.1909558
0000d0 45 7b 83 be 42 75 8f 3d 39 22 03 3d 84 69 f1 3c
       -0.25679985 0.07004787 0.03201506 0.02946926
0000e0 4a 54 2f 3e a5 da e6 3c 5b bb 0a 3b 46 8b 7d bd
       0.17121997 0.02818043 0.0021168801 -0.0619004
0000f0 48 0e 90 3a 1f 6c 8d bd b7 62 19 3e 67 90 cf 3c
       0.0010990584 -0.06905388 0.14979063 0.025337411
000100 d3 5a f5 3c f2 23 9b be 89 6f 91 bd 19 de 9b bd
       0.029950535 -0.30300862 -0.07101352 -0.07610721
000110 1c eb c7 bc d9 1e 26 bc b1 c9 40 bc 6c 1b 8f 3c
       -0.024404101 -0.010139191 -0.011766837 0.01746913
000120 f0 f4 c8 3c 2f cf 53 bc da 88 8a 3d 5b 07 cf bc
       0.024530858 -0.012927814 0.067643836 -0.025272062
000130 1b a0 08 3e b3 a1 7c 3c 4f 18 fe 3d e9 40 97 3d
       0.13342325 0.0154194115 0.1240698 0.073854275
000140 95 1d a6 3d 32 df af 3d e9 60 fd 3d 5e b6 21 3d
       0.08111111 0.08587493 0.12372 0.03948056
000150 25 ef cc bb e3 64 1f 3e 96 a5 05 bd 82 f2 ec 3c
       -0.006254094 0.15565829 -0.03262862 0.02892423
000160 cd b2 ab bd 59 be 30 bb 09 ca 76 3d 3f fb 4c bd
       -0.08383713 -0.0026968925 0.06025127 -0.050044294
000170 a7 f1 b0 bd db 7e da bc 34 65 3a 3e d0 23 b4 3c
       -0.086398415 -0.026671818 0.18202668 0.021989733
000180 e4 7f 30 bd 8b bf 2a bd 4e cd 03 be 28 1d 53 3d
       -0.043090716 -0.041686576 -0.12871286 0.051541477
000190 27 9e a9 bd 47 b0 2d 3d b9 23 0e 3b aa 05 27 bd
       -0.08282118 0.04240444 0.0021688773 -0.040776886
0001a0 83 18 de bd c1 63 93 3d f5 e7 4e 3d 02 d6 cb bb
       -0.10844519 0.07196761 0.05051418 -0.00622058
0001b0 ee a8 4b bc 1e d9 45 bc 8a ab cd bd a6 ec 32 bd
       -0.012430413 -0.012075691 -0.10042484 -0.043682717
0001c0 26 c0 d5 3d 8a 6e e5 3d 22 da 0d 3e 24 52 92 3d
       0.1043704 0.11202724 0.13852742 0.07144573
0001d0 12 c3 29 3d 55 17 92 bc 97 2c eb bc 6b 14 89 bd
       0.0414458 -0.017833391 -0.028707786 -0.066933475
0001e0 4e 1a 35 be 53 da 7e bd 64 28 94 bd e1 02 6b 3d
       -0.17685816 -0.06221993 -0.072342664 0.057375792
0001f0 75 55 3a bd d7 c9 0c 3e f8 15 24 3e 45 d8 47 bc
       -0.045491654 0.13748871 0.16024005 -0.012197559
