trained_models/ppo/me5418-Cassie-v0/0614-18-01-39-s3737/critic.pt (torch, 319998 bytes, 5 tensors)

weight f4 [256, 50]
00000000: e999 2a3b 8f60 acbd d44f 0e3d 156f 2bbd
00000010: 7306 51bd f47f 64bd 483d 1e3e dc73 60bc
00000020: 931c 0cbd e136 2c3c fb01 b43d 548c c63d
00000030: 3cfd a73d bd2b a2bc 1008 3c3c 5ce1 a03c
00000040: 68ef 64be a0cc 79bc 4080 2c3d 0cf7 aebc
00000050: 2e8d 40be 0788 e83c e11e cbbc c9c0 5dbd
00000060: f2a4 5dbd c454 53bd 38d1 163c 761c 2abd
00000070: 9eb0 333d ddd3 973c 78df 15bd b6a1 33bd
00000080: eafb 11bb a201 dc3c 0e71 873c 9e2c 31bc
00000090: b027 413e f11b d83c 0f6b 55b8 818e 6f3d
000000a0: de62 27bc 4969 163d b428 973c b863 763c
000000b0: 0348 16bd d508 29bd 46c2 90bc b5f5 193c
000000c0: 72ea 5c3d f2f8 96bd 1f89 943d 0fab 1d3d
000000d0: cde2 67bd 09cf 923b 2406 c03d 7621 65bd
000000e0: 6091 8d3b e2f0 3e3c f809 003d 6c1f 3b3d
000000f0: a715 a7bd f02c a4bc 4a90 cc3d 9041 8e3d
00000100: fff4 ff3c a2fc dc3c 5d00 8dbd b989 9d3d
00000110: 6071 1abe 1b5e c33c 997b 37bd 6910 f43d
00000120: 35c5 ae3b 88b9 3d3d 8069 983d 8c9a 6cbd
00000130: 43aa 3fbd 5551 843d 4e44 ad3d 9614 4d3d
00000140: 61f5 813d 7116 883c 196c 6e3c b904 573e
00000150: 7118 fcbd 4fcb 843d 7311 363d 1726 4abd
00000160: f8fd 853d 6437 12be cba5 2a3d 2401 463e
00000170: 4bf4 393d 350b adbc 07e7 173d 76b7 9c3b
00000180: e523 ca3d 64c4 a3bc 987f 763d 0365 62bd
00000190: 1e04 4f3d fd14 66bb 63a3 08be f529 1f3c
000001a0: 7b6b 123d 95ae 2abd 1169 a9bc ae58 1b3e
000001b0: aa14 cb3c c035 933d c0d8 d6bc 9c83 fc3d
000001c0: 31b7 d13c 28ae 8ebd cf7e c0bd 9e54 9a3c
000001d0: 3c94 e33d 246a 3dbe c9eb 96bd a52f 453d
000001e0: d817 cfbd f3cf 9abd 7366 983c 32c2 bd3d
000001f0: 2bf3 bf3d 5819 3d3d 54b4 1ebe 602f 2d3d
00000200: 1f91 1e3d 051f 32bd f1b7 ac3c 93ec 993d
00000210: 536f 44be 7468 213d 6b86 cebc 3126 5abd
00000220: 731c a53c c607 69bd 49a9 76bd 7e88 27bc
00000230: 7eff 26bd 9232 c33c 21b9 d0bd d59d e93c
00000240: 4cd9 6ebc 07ab 06bd e48b 963d c2f3 76bd
00000250: 30ad 28bd c4d1 4c3c f9b2 fabc 0d01 56bd
00000260: f9da 9ebd 1bb8 893d a65b 073d ca4f 9e3c
00000270: 9b1f d4bd 5ec7 27bb 1ce2 643c b08c f43c
00000280: b63e a1bd 06ce 7ebd f261 d43c cd9b 023e
00000290: a1a8 ed3d 9bb4 493d 4fbb 263d f822 36bd
000002a0: f045 a13d 0ec6 e5bc 3db6 3e3d b874 a6bc
000002b0: 49e9 a4bd 43cc 8f3c 6d12 eb3c 47ff 403d
000002c0: 8f0b 56bd 5ec8 a83c bbe6 10bd 665b a1bd
000002d0: b178 0bbc 3900 38bc bccc 4ebd 4dfb d6bc
000002e0: d889 0a3c 9b96 86bc 3db4 82bd 952f a93d
000002f0: 2915 f5bd 14fb b33d 2c1d ff3c eb3c d93c
00000300: 8212 a93d 8962 dabd d850 b63c 2b7b b6bd
00000310: c5e8 a63a 0719 943d 444e 79bd cad8 edbc
00000320: 5f8c e33c e9cd 9abd c248 02bd a339 6ebd
00000330: beda ecbd e9d1 933c f1fc fd3d 7343 37be
00000340: 7d38 bcbd 7113 e03d c661 c63c 116f 7b3d
00000350: 8931 34bb c37b 003e 9e8a 923d 8f8c 2dbd
00000360: 7bef 3c3d 0296 73bd 37dd a13a 2788 d63d
00000370: cf78 f3bc 71e2 b73b 3252 033d 2e1b d4bb
00000380: 45d9 623c cf47 85bd 2d20 5cbc 75c8 ebbc
00000390: 1160 793d bc5b 4dbd 0875 2bbd dffa 05bc
000003a0: 4c85 f93d 8a35 d0bd 11ad 463c a09f b63c
000003b0: c9dc fd3c 92bd 013e 0b38 d73b 8fa4 c73d
000003c0: 7e64 963b 568c 193d 95d4 b2bd 4f4e 683a
000003d0: 683c 4d3d 72ca 1bbd 1f75 38be 77a1 01be
000003e0: 54b6 d13d 4583 e63d 4d82 44bb 21e8 afbd
000003f0: f721 b43d a420 9abd c1be 12be cdb3 0f3d
0.002603168 -0.084168546 0.0347441 -0.041853983 -0.05103154 -0.055786088 0.15453064 -0.013699498
-0.034206938 0.010511131 0.0878944 0.09694734 0.082025975 -0.019796247 0.011476532 0.01963871
-0.22356951 -0.01524654 0.042114496 -0.021358036 -0.18803856 0.028385175 -0.024794998 -0.054138932
-0.054112382 -0.05159451 0.009205155 -0.04153105 0.043869607 0.018533641 -0.03659007 -0.04385539
-0.0022275397 0.026856247 0.0165334 -0.01081386 0.18862796 0.026380511 -5.0882863e-05 0.05848551
-0.010216443 0.0367215 0.018452026 0.015038423 -0.03668977 -0.04126819 -0.017670762 0.00939696
0.053934522 -0.07371701 0.07252716 0.038493212 -0.05661278 0.004480247 0.09376171 -0.055940114
0.0043203086 0.011654111 0.031259507 0.045684263 -0.08158427 -0.02004096 0.099884585 0.06946099
0.031244753 0.026975933 -0.06884835 0.07692284 -0.15082312 0.023848584 -0.044795606 0.119171925
0.0053335675 0.046319515 0.074419975 -0.057764575 -0.046793234 0.06460825 0.08460294 0.05006846
0.063456304 0.016612263 0.01455214 0.20997895 -0.12309349 0.064840905 0.044450235 -0.04935273
0.06542581 -0.14278942 0.04166202 0.19336373 0.04539899 -0.021123508 0.03708556 0.0047826124
0.098701276 -0.019991107 0.060180277 -0.055272114 0.050541036 -0.0035107725 -0.13343577 0.009714593
0.035747033 -0.0416704 -0.020679982 0.15170547 0.024790127 0.071879864 -0.026226401 0.1232979
0.025600048 -0.069668114 -0.09399187 0.018839177 0.11112258 -0.1849752 -0.07369191 0.04814114
-0.1011197 -0.075591944 0.01860354 0.092655554 0.093725525 0.046166748 -0.15498477 0.04228151
0.038712617 -0.043486614 0.021083804 0.07515826 -0.19183092 0.039406255 -0.02521058 -0.05325908
0.020155167 -0.05689218 -0.060220037 -0.010225413 -0.040771 0.023827825 -0.101915605 0.028517643
-0.014578175 -0.032877948 0.07350901 -0.06029106 -0.04118079 0.012501184 -0.030602919 -0.052247096
-0.077566095 0.067245685 0.033046387 0.019325156 -0.10357591 -0.002560101 0.013969924 0.029852241
-0.07873289 -0.062208198 0.02592561 0.12754746 0.11604429 0.049244504 0.040705975 -0.044466943
0.07874668 -0.028048541 0.046560515 -0.020319328 -0.08052308 0.017553454 0.02869531 0.04711845
-0.052257117 0.020603355 -0.03537629 -0.07878761 -0.008512662 -0.011230522 -0.05048822 -0.026242876
0.008455716 -0.016429236 -0.06382034 0.08261029 -0.119669266 0.08788124 0.03114184 0.026518306
0.08255483 -0.10663325 0.022255346 -0.08910211 0.0012734166 0.07231336 -0.060865656 -0.029034037
0.027776895 -0.075588055 -0.03180767 -0.058160435 -0.11565159 0.018044429 0.1240176 -0.17896824
-0.09190462 0.10941208 0.024216544 0.061385218 -0.0027495346 0.12547211 0.071553454 -0.042370375
0.046126824 -0.05946923 0.0012349252 0.10475188 -0.029720692 0.0056117107 0.03206081 -0.0064729666
0.013845746 -0.06507837 -0.013435406 -0.028782109 0.06088263 -0.050136313 -0.041859657 -0.008177488
0.121836275 -0.10166462 0.012126223 0.022292912 0.030989068 0.12669972 0.00656796 0.09748184
0.0045896163 0.03748735 -0.08731953 0.00088617665 0.050106436 -0.038034864 -0.18013428 -0.1265925
0.102398545 0.112555064 -0.0029984892 -0.08589197 0.08795541 -0.07525757 -0.1433058 0.03508358

bias f4 [256]
00000000: 7c09 9dbb 8b20 66bc ad82 3bbc a2dc bfba
00000010: b6d1 be3c 06ca 693b 8bda bd3a 65b5 bc3c
00000020: 376a 9cbb 138d 673c c971 4b3c ec46 90bc
00000030: a8e4 5c3b 168d f33c 75da 973b 61a0 af3c
00000040: 3a65 383b c403 df3b 2fb8 063d 63b2 803c
00000050: df4a 28bb f9f2 1abd 0f8a 193c 82d6 84ba
00000060: b5a4 a3bc b65e 4dbb a8f8 973a 8e3f 3bbc
00000070: 8250 b2bb 2505 45bc aff9 903b 826c a73c
00000080: 073c 47bb ccd7 0d3c fbc5 5b3b 05cb 983c
00000090: dfb9 adbc b3e7 d1bc e912 873c a584 963a
000000a0: 004b 71bb b77c a6bc d0fb 0dbd f902 5137
000000b0: b57b c2bc fb8b d3bc 9dc5 afba daef 813c
000000c0: 14f4 65bb fb61 453c 41d1 57bc 92ef cdbc
000000d0: f392 823b 4d1c 933c 15db 9ebc c0d7 f4bc
000000e0: 896a a13c 7432 dabc 44b6 20b8 a806 b6bc
000000f0: 0654 bab9 2a58 68bc fc56 013d bd35 ed3b
00000100: 2169 2abc b7c8 b33b a39b 57b9 a536 beba
00000110: 05b0 083c 4766 9ebc 4e2a 653c de05 133c
00000120: f79c 653b a861 22bc 7f20 083c 67b4 1dbd
00000130: 85a4 9cbc d4e0 c33a 8180 80bc 932d 9cbb
00000140: eb70 b23c a9f9 ad3b 869f bfb9 9fdf 29bb
00000150: 85be 29bc 17b6 59bc cccd 94bc 16bf 623c
00000160: 5fef 0abb 3a30 24bc 2ed7 683c 0b83 603b
00000170: f7ad cdba 7018 973c 65dc c4bc 29b2 45bc
00000180: 881a e33c f3f5 49bc f955 0f3c e5da ad3b
00000190: 960f 6d3b 5951 e83c 7c1b 573c 4bc2 5b3b
000001a0: b304 b5bb 6c89 20bc 2761 063c 6810 893c
000001b0: f491 4f3b e563 90bb 550d 1db9 ce38 b23b
000001c0: 0a67 8abc 41aa 323b 4d75 41bb 65f6 7ebc
000001d0: 3957 353c 3315 98bb 5dca f43b e72a 7e3c
000001e0: 4d26 cb3c 06ff 4d3c e1bc 0abc ebbf 7d3c
000001f0: 3c89 763a 006a fe3b aa44 29bc 2d41 863c
00000200: 634a 25bb 4bf2 1d3b 9ace 76bc 41c3 763c
00000210: c81e b4bb 983c 5c3b bd83 ff3b 2238 003c
00000220: 9c6a a7bc 5cb5 9a3c 33c1 78bc 6c5b 133a
00000230: 0a75 4c3c ab60 163a eeb6 b03c 89c7 5d3b
00000240: 42c6 0fbb 6bef 973b 3e17 01bc 204f 1cbb
00000250: 0eca 44bc 654f 63bc 9db9 8b3c 3202 9d3a
00000260: 1dac fb3c 8258 9f3b 0cac dc3c 7b84 003d
00000270: ef13 a1bc 210f d43b 140d b8bb 1089 3a3b
00000280: fa2e cf3c db45 ebba 18de 193c ec90 9fbb
00000290: 84bf 0b3c 096a 00bc 41db 08bd ac69 78bc
000002a0: 7b72 73bc fc2c 8eba 0a38 05bc e7f9 133b
000002b0: 2cad d5ba ed2b 413c 550b b3bc a889 69bc
000002c0: 9035 82ba b3dd 253c 258f 88bc 0924 83bb
000002d0: a3b5 edbc c966 46bc 3488 cd3c 4c9d 5b3c
000002e0: 104b 1dbc a573 173c d4c6 35bb 1c50 413c
000002f0: 1469 893c fd82 f33c 0d52 2cbb bee8 d83a
00000300: a37a 8d3b 6de7 b1bc 11a5 293c d913 003c
00000310: 6962 e33b 3963 85bb a07d fc3a 7b14 543b
00000320: d5e1 e83c 80cd 1c3c 2836 00bc d850 543c
00000330: bd2d 803b 6e54 35bc 0406 3cbc 226a 2abc
00000340: e381 e63c 1ca3 b7bc e6e9 8abb 4e27 d8bb
00000350: 2c41 dc3b eaa1 7dbc cf4c b93c cd09 123c
00000360: 1eda 36bc 8ebf 773b 7048 40bc 261a 05bd
00000370: 2db8 b63b 3d3e b03c 5d14 5fbb 473b 993b
00000380: a2f2 9b3c aaf8 92bc 85dc c33a e8e1 d4bb
00000390: 3059 f0bc 8716 053b 9f7f 3abb 812f 69ba
000003a0: 18ee c8bc 8320 5fbb 9527 07ba f962 5dbc
000003b0: af0d caba 0268 f0bb eba6 cabc 503e 043b
000003c0: aedb f7bb b77a 30bc fcbc eabc 0800 4bbc
000003d0: 2a76 8f3c 8a41 263b 90c2 91bb 157c 1c3c
000003e0: 1080 4abc 9193 61bc 851c e13b 7026 69bc
000003f0: 1825 cbbc c887 9abc 29bb 39bc 6ee9 043d
-0.0047923904 -0.014045845 -0.01144473 -0.0014637897 0.023293357 0.0035673394 0.0014484687 0.023035714
-0.004773404 0.014132756 0.012417265 -0.017611943 0.0033705626 0.029730361 0.0046341964 0.02143878
0.0028136508 0.006805869 0.032890495 0.015710061 -0.0025679392 -0.037829373 0.009371295 -0.0010134729
-0.019976 -0.003133697 0.0011594491 -0.011428727 -0.005441726 -0.012025152 0.004424296 0.020437483
-0.003040077 0.008657407 0.0033534754 0.018651495 -0.021206794 -0.025623178 0.01648851 0.0011483623
-0.0036818385 -0.02032314 -0.034663975 1.2458063e-05 -0.023740629 -0.025823584 -0.0013410334 0.01586144
-0.003508811 0.012047286 -0.013172449 -0.02513865 0.003984803 0.01795783 -0.019391576 -0.029888034
0.01970412 -0.026635386 -3.831672e-05 -0.02221997 -0.00035539287 -0.014181176 0.031577095 0.007239072
-0.010401041 0.0054865736 -0.00020561977 -0.0014512135 0.008342748 -0.019335879 0.013987137 0.008973567
0.0035036185 -0.009910978 0.008308529 -0.038502123 -0.019121418 0.0014944323 -0.015686275 -0.004766175
0.02178236 0.005309303 -0.00036549213 -0.0025920642 -0.010360365 -0.0132880425 -0.018164538 0.013839504
-0.0021199805 -0.010021264 0.014211459 0.0034257795 -0.0015692104 0.01844427 -0.024030874 -0.0120664025
0.027722612 -0.012326705 0.008748525 0.0053056353 0.003617262 0.028359102 0.013129111 0.0033532556
-0.005524242 -0.009798389 0.008201874 0.016731456 0.0031672688 -0.0044064396 -0.00014977653 0.0054389006
-0.016894836 0.0027262124 -0.002951938 -0.015561675 0.011068159 -0.004641199 0.0074704126 0.015513158
0.024798537 0.012573009 -0.008467884 0.015487651 0.0009404605 0.007764101 -0.010331312 0.0163885
-0.002522134 0.0024100717 -0.015063906 0.015061201 -0.0054968335 0.0033605453 0.007797687 0.007825883
-0.020436577 0.018885307 -0.015182781 0.0005621228 0.012479076 0.00057364505 0.021571603 0.0033840856
-0.002193824 0.004636695 -0.0078790765 -0.0023850873 -0.012011064 -0.01387391 0.01705628 0.0011978804
0.030721718 0.004862846 0.026937507 0.031376343 -0.019662825 0.00647153 -0.0056167934 0.0028463043
0.025290955 -0.0017949896 0.00939133 -0.004869571 0.008529548 -0.007837781 -0.03341222 -0.015161913
-0.014858837 -0.0010847147 -0.008131037 0.0022579373 -0.001630222 0.011790258 -0.02185599 -0.014254011
-0.0009934176 0.010123658 -0.01666982 -0.0040020985 -0.029017275 -0.012109467 0.02508936 0.013404202
-0.009600416 0.00924388 -0.002773692 0.011798885 0.016773738 0.029725546 -0.0026294023 0.0016548855
0.004317598 -0.021716798 0.010354296 0.007817232 0.0069392216 -0.004070666 0.0019263513 0.003236084
0.028427998 0.009570479 -0.007825412 0.012958728 0.0039117024 -0.011067493 -0.011476044 -0.010401281
0.028138107 -0.022416644 -0.0042393086 -0.0065964824 0.0067216363 -0.015480498 0.022619633 0.0089134695
-0.011160402 0.0037803384 -0.01173602 -0.03249564 0.0055761547 0.021514053 -0.0034039237 0.004676256
0.019036595 -0.017940838 0.0014943039 -0.0064966567 -0.029339403 0.0020307617 -0.0028457416 -0.0008895323
-0.024527594 -0.0034046478 -0.00051557395 -0.013512366 -0.0015415455 -0.0073366174 -0.024737796 0.0020178743
-0.0075640297 -0.010771445 -0.028654568 -0.012390144 0.0175124 0.0025368654 -0.0044482425 0.009551068
-0.012359634 -0.013768093 0.006869855 -0.014230356 -0.024797961 -0.018863574 -0.011336126 0.03244918

weight f4 [256, 256]
00000000: 827c 843d aef0 13bd e3c9 93bd ebd2 b5bd
00000010: 2778 653d 29a8 7b3d 34fa 29bd 114a b2bd
00000020: 79e0 29bb be74 3f3d 88f3 70bd 2f03 7cbd
00000030: 0bed 45bd c4c5 8fbc c49b bc3d 344d 393c
00000040: 3ed5 833d adec 653d 792b 16bc 8233 96bc
00000050: 7f3b 72bd 091e 8ebd 22b1 af3d 4770 8b3d
00000060: 53cc 87bd 3ad8 0f3e a6a5 fb3d f1ce 913d
00000070: d6fc 7d3d 729d 6dbd ab35 26bd 8ca2 a63b
00000080: 2d52 27bd 6e26 ef3d afdb 5c3d 9df8 163d
00000090: e3bd d23d f4ed a9bd a9be b93d b21c 77bd
000000a0: 0085 4c3d 0654 d3bd d070 d9bc 7386 fabc
000000b0: 9027 8a3d 6e97 06be 9fcf 0abd 277b b93d
000000c0: 6def 093e 7ac4 fb3c 4d5b 8fbd 0bf5 f1bd
000000d0: 8f11 f1bd d711 0abd 73b3 1b3c 1940 8cbd
000000e0: e103 a03d b603 9bbd 94af c2bc 28a2 733d
000000f0: 2c51 943d ae07 9c3d 1010 3a3d 1362 d63d
00000100: c043 81bd 0e5a bd3c dfff e43d d1eb 12bd
00000110: fbda bcbd e406 14bd 3241 63bc f371 edbc
00000120: c9a3 043e bda3 9c3d 0cc6 13bc 8b64 90bd
00000130: 6e08 83bd 3725 c43b 5de7 6bbd 0523 e13c
00000140: 63f3 d3bd db36 643d c9ce fbbc 0d9d bc3c
00000150: 8694 87bd ccb5 2b3d 8ae4 07bd ee6a 9e3c
00000160: 58e7 f6bb ae1e b9bd 3c29 323d 2b2d 263d
00000170: c048 1b3d a858 b73c a9a9 08bd cede 25bd
00000180: d6eb c8bd c7cc acbd 0778 e23d f496 2bb9
00000190: da5a 67bd bbaf 8f3d 148a 86bb 41a3 0b3e
000001a0: e035 a73a 34d0 babc 1ec6 fa3d 978d 993c
000001b0: dbc6 283c 2bcb bfbc 0527 a43c a945 59bc
000001c0: a05e ad3c 6457 44bc 0274 043d 610c 4f3c
000001d0: ed45 9fbd f5b4 97bc 4323 9e3c 5404 b43b
000001e0: a14c d23d 4b04 e1bc 9e74 073d f043 07bd
000001f0: f8ab 09bd 10ba 433d 6a0b f4bc 9208 293c
00000200: 1d4e 9bbb e0b4 d03d 9a23 67bd bc7f 3c3c
00000210: a2b7 a6bc 0a0a 803b 98ae 9b3d 1f98 af3d
00000220: 2535 32bd 4e8a 90bc c612 923d e70d 2d3e
00000230: ba5c 4c3d f902 4d3b b795 b13c 704b 31bd
00000240: a8c9 43bc 8c0a b23b 94f9 ba3c 0cb0 573d
00000250: 425f d338 50a5 043d 93d1 e83d 7e85 10bc
00000260: b211 8e3d 4b34 0d3e d34b 443d 2587 a83d
00000270: d9f9 433d 1bfd 16be 9cf2 b5bd 5e49 3d3d
00000280: b4b2 673d 2747 dabc 97e6 853c bdd7 963c
00000290: ea6f a2bd 9e04 3c3d 13a3 b23b ca91 8f3d
000002a0: 04ea 8c3d 683f b43d 750c 6abe 2a5f 1abe
000002b0: 894c fa3b 8e41 32bd 13bf 79bd 007e ab3d
000002c0: 8470 17bd 26ca 903d 1386 ffbc 88c7 32bd
000002d0: ccfa 03bd 64ad 703d ecff 2f3b d40f a9bd
000002e0: b8c9 91bd 1c77 213d d78c 763d 631f 893d
000002f0: f720 f63d cf89 d6bc 00a0 aa3c 761f aa3c
00000300: 4069 d2bc 9fc3 cabc 59b8 28be 722b 433d
00000310: bdc9 50bd 564b b4bc 7416 3cbd eca7 783d
00000320: 694e a13d beb4 76bb 4e21 af3c d79d 6c39
00000330: 6709 b7bd 4c94 3d3d fe8c 2abd 3867 153d
00000340: 7156 d33d 1b79 7dbd 36da 3d3d e4a8 6abd
00000350: ba15 b7bd 33b1 41be bbce 14bd 000b 933d
00000360: f9ef 8d3d f254 1c3d d714 d83c 62e1 37bd
00000370: 4d23 86bd 75ef ab3d 58da 293d 5d0c a2bd
00000380: 74c1 43bb 7c2f 51bd dcbf 153d 1cf5 3a3b
00000390: 4833 b53d a3fd 13bd a3f9 98bd ec99 ef3c
000003a0: 6baf 1fbd c11b c9bd 2867 0cbc a5f1 74bc
000003b0: ea42 97bc 9796 3d3d 5ff3 c1bc 43fa 12bb
000003c0: 548c 6e3d 8660 b53d 5945 aa3a 4052 8ebd
000003d0: af49 e4ba 33bf 4cbd 7f21 19bd 24ff 403d
000003e0: f774 a0bb a548 a13c 1528 49bd b048 95bd
000003f0: 9033 cf3d e026 e1bc 45a9 15bd a8e2 c3bd
0.064690605 -0.036118202 -0.07216241 -0.0887812 0.05602279 0.061439667 -0.041498378 -0.08705533
-0.002592115 0.046742193 -0.058826 -0.061526474 -0.048321765 -0.017550357 0.092093974 0.011309911
0.06437157 0.056133915 -0.009165638 -0.018335108 -0.05913877 -0.069393225 0.08578707 0.068085246
-0.066307686 0.14047328 0.12287454 0.07119549 0.0620087 -0.05801148 -0.040578526 0.005085295
-0.040849853 0.11677252 0.053920444 0.03685819 0.10290124 -0.08297339 0.09069569 -0.0603301
0.049931526 -0.103187606 -0.026543051 -0.030581689 0.06745827 -0.13143703 -0.03388941 0.090566926
0.1347024 0.030733336 -0.06999836 -0.11814316 -0.11770927 -0.03370842 0.009503233 -0.06848163
0.0781324 -0.07569067 -0.023765363 0.059480816 0.07242045 0.07618652 0.045425475 0.10467925
-0.063117504 0.02311423 0.11181616 -0.035869423 -0.09221455 -0.036139384 -0.013870524 -0.028985
0.12953104 0.07648418 -0.009019386 -0.07050427 -0.06398092 0.0059858817 -0.057593692 0.027482519
-0.10349157 0.055716377 -0.030738251 0.023024106 -0.066201255 0.041921422 -0.033176936 0.019338097
-0.0075349025 -0.09039055 0.043496355 0.04057042 0.037911177 0.022381142 -0.033364926 -0.040495686
-0.09810607 -0.08437496 0.1105805 -0.00016364065 -0.056483127 0.0701594 -0.0041058157 0.13636495
0.0012757145 -0.022804357 0.12244819 0.018744273 0.010301317 -0.023412308 0.020038137 -0.013261237
0.021163285 -0.011983726 0.032337196 0.012637229 -0.07777009 -0.018518904 0.019303923 0.00549368
0.10268522 -0.027467867 0.0330702 -0.033023775 -0.033611268 0.047784865 -0.029790599 0.010316985
-0.0047395364 0.10190749 -0.056430437 0.011505064 -0.020351235 0.0039074467 0.076016605 0.08573937
-0.043507714 -0.017644074 0.07132487 0.16899835 0.04989312 0.003128229 0.021677835 -0.043284833
-0.011949934 0.005433386 0.022824086 0.052658126 0.00010079007 0.032384217 0.11368098 -0.0088208895
0.06936969 0.1378948 0.047923874 0.08228902 0.047845695 -0.1474499 -0.08884165 0.046212547
0.05656691 -0.026645256 0.016345305 0.018413419 -0.07931502 0.04590284 0.005451569 0.07010229
0.068805724 0.08801156 -0.22856314 -0.15075365 0.0076385182 -0.04351955 -0.06097324 0.08373642
-0.036972538 0.07069807 -0.031191861 -0.04364732 -0.0322216 0.05875911 0.0026855422 -0.08254972
-0.07118553 0.039420232 0.06019291 0.0669544 0.12018006 -0.02618876 0.020828247 0.020766955
-0.025684953 -0.024751483 -0.16476573 0.047648855 -0.050973643 -0.02200858 -0.04591985 0.060707018
0.07876284 -0.0037644352 0.021378186 0.00022565514 -0.0893734 0.046284005 -0.041638367 0.03647539
0.10319222 -0.061883073 0.04635068 -0.057289973 -0.08939691 -0.18915252 -0.036329966 0.071798325
0.06930537 0.038166948 0.026377125 -0.044892676 -0.06549702 0.08395282 0.041467994 -0.07912514
-0.0029869946 -0.051070675 0.036559924 0.0028527444 0.08847672 -0.03613056 -0.074694894 0.0292482
-0.03898565 -0.09819747 -0.008569516 -0.014950191 -0.018464524 0.04628619 -0.023675619 -0.0022427
0.058239296 0.08856301 0.0012990638 -0.06949282 -0.0017416979 -0.04998703 -0.03738546 0.04711832
-0.004896756 0.01968796 -0.04911049 -0.07289255 0.10117257 -0.027484357 -0.03653838 -0.095647156

bias f4 [256]
00000000: 1917 a2bc 97cb d6bc d830 f13c af96 973c
00000010: da64 ca3c e7eb a03c c43a c2bc 0ed0 003d
00000020: dc70 0cbd 80c2 dabc d864 c03c bf03 d13c
00000030: 3c08 90bc 496a 0d3d 4aab fb3c d56c 03bd
00000040: 59f2 d23c 7652 dd3c a3c8 4e3c 2b5f e93c
00000050: 222e b03c 66f0 abbc e382 99bb 49b2 e1bc
00000060: 2ca0 b73c 532b d1bc 98bc ccbc a130 90bc
00000070: 1500 b9bc 2588 e9bc 186d 0fbd 2a53 e53c
00000080: 96db 5a3c bd9c d8bc 74e2 083d 2861 f53c
00000090: 480c 0f3d f489 dbbc cd61 bd3c 6492 f5bc
000000a0: 7cc6 863c aefc 3a3c 9711 ee3c b26f a23c
000000b0: 6099 f13c b0d5 7dbc a6bf e4bc 8a81 c83c
000000c0: a169 02bd 6dae b4bc 65fb b83c d397 eabc
000000d0: 56cc 1bbc 1f4c febc b4bf ffbc 4268 a83c
000000e0: 2e21 d93c 9d24 ec3c 634f 0e3d 4e54 bcbc
000000f0: deea e8bc 763a e33c 2f86 da3c 0d53 acbc
00000100: dbea 813c fe5d a83c 3f09 cc3c 9c46 e73c
00000110: 01c3 023d ba9d af3c 12f3 59bc b458 01bd
00000120: aef7 04bd 7fc3 e7bc 3015 a13c 0cdb b63c
00000130: 8365 bd3c 9e5e f6bc 2133 f8bc 1c65 cebc
00000140: 2a26 9d3c e0ef d03c fdc7 f1bc 30b6 d33c
00000150: 03a1 9ebc 4a95 fcbc 01b9 edbc ced6 f8bc
00000160: 255a de3c 7e2d bfbc 2274 b0bc 7d67 d23c
00000170: 2d0d fa3c fcca dbbc 1fb5 d0bc 3aa0 b1bc
00000180: ceae b83c fdcf e23c 1d18 9d3c d982 f83c
00000190: c375 c5bc 1350 e7bc db4f cbbc f03b f0bc
000001a0: 8aff c7bc d317 983c 97a5 db3c ff9f 91bc
000001b0: 0e2b c93c 1388 5ebc a006 a3bc 1bd5 da3c
000001c0: 3c3c cb3c cebf edbc 469b 1fbd a540 573c
000001d0: 816c 1a3d 0220 c83c 6e4d dbbb 353e 0cbd
000001e0: 7a47 14bd 4d7d b4bc 86ac c13c 9eb5 fb3c
000001f0: 0b40 edbc 24df cb3c f0e9 c33c c74e f13c
00000200: 82f9 d1bc d6db ef3c 9805 2e3a 7b0b abbc
00000210: 7f40 b23c 1c8e fabc fd7d e7bc b86a f83c
00000220: 3c46 cebc b7c8 bebc fdbd 1abd c13f 043d
00000230: 7915 c13c 0c63 dd3c 8612 023d 8abd 8d3c
00000240: a7c3 ea3c 64e3 08bd 0bf5 b7bc e4d8 dc3c
00000250: 82e8 c83c 7400 d13c 0542 a23c ae60 afbc
00000260: 8bcb c43c 5a7c ebbc 9510 953c 8fbd a5bc
00000270: 19b5 763a 3de4 c9bc ffa0 b2bc bfe4 b6bc
00000280: 66ab 1d3d a75d c4bc 98c0 c93c 2947 c53c
00000290: 13c4 fabc 12a7 eebc 9a11 f03c 9b42 bdbc
000002a0: 3c8c e1bc 68ea 053d 3d72 053d 3a0d a03c
000002b0: d64e b83c 2a01 db3c 9ab2 043d 7a87 b83c
000002c0: 70b1 87bc 9b50 fcbc 4ae6 ccbc b8eb adbc
000002d0: e9da ffbc 5559 a83c 8e3b ce3c 00cd 983c
000002e0: a96e b4bc ed61 dfbc 3652 ff3c e86d b9bc
000002f0: adc3 a0bc 1c0d a3bc b2df 03bd 6fc4 db3c
00000300: 7156 e63c 03d3 d73c 6878 d4bc ea84 b8bc
00000310: e08f c83c 219f e1bc 7af6 adbc 5ebf fdbc
00000320: da19 da3c fbc1 d6bc fc4a 093c f8ff a9bc
00000330: ba73 85bc 9d83 623c b88c 4e3c fcf9 f53c
00000340: f79e e73c d952 003d 2085 f3bc 6943 be3c
00000350: f5c1 1c3d adc0 ffbc 0122 c43c 51c2 b9bc
00000360: 9309 fe3c dd37 bd3c 0037 cabc 415b ffbc
00000370: 2998 a33c 0319 733c 3bef c83c 3270 aabc
00000380: fabd 09bd 6696 27bc e3a5 bcbc 0a37 d4bc
00000390: 1a36 09bd f73d e13c c7a9 0bbd ed07 d93c
000003a0: 34cc df3c 3a12 ebbc 00a2 d63c 34d2 f53c
000003b0: 36e6 e2bc 58b7 f2bc 34f6 f5bc e567 01bd
000003c0: 336c b4bc 5306 a23c 029a c43c 72a8 bdbc
000003d0: 8bee e63c be3a 14bd f44e cfbc fde9 db3c
000003e0: da65 f8bc 8d63 c5bc 42e6 923c 8e79 eabc
000003f0: d816 b93c 245c e03c 6f73 033d 8fa9 e5bb
-0.019786404 -0.026220126 0.029442236 0.018504469 0.024706293 0.019643737 -0.023709662 0.031448416
-0.03428732 -0.026704073 0.023485586 0.025514482 -0.017582051 0.03452519 0.030721325 -0.032086212
0.025750326 0.02701686 0.012621078 0.028487762 0.021506373 -0.020988654 -0.0046847924 -0.027550833
0.022415243 -0.025533354 -0.024992272 -0.017601313 -0.022583047 -0.028507302 -0.03501615 0.027993757
0.013358017 -0.026441926 0.033419088 0.029953554 0.03492382 -0.02679918 0.023117924 -0.029977031
0.016452067 0.011412783 0.029061122 0.019828651 0.02949208 -0.015492842 -0.027923416 0.024475832
-0.031839017 -0.022055829 0.022580812 -0.028636849 -0.009509167 -0.031042157 -0.03121934 0.020557526
0.02650508 0.028826052 0.034743678 -0.022989418 -0.028432306 0.027737837 0.026675312 -0.021035695
0.015859058 0.020552631 0.024906753 0.028231911 0.03192425 0.021437515 -0.013302581 -0.031578735
-0.03246277 -0.028291462 0.019663423 0.022321247 0.023119694 -0.030074414 -0.030297818 -0.025194697
0.019183237 0.025505006 -0.029514307 0.02584371 -0.019363886 -0.030832905 -0.02901888 -0.030375864
0.027142594 -0.023337122 -0.021539751 0.025684113 0.03052386 -0.026830189 -0.02547699 -0.021682847
0.02254429 0.027687067 0.019176537 0.03033583 -0.024104005 -0.028236425 -0.024818351 -0.029325455
-0.024413843 0.018566048 0.026812358 -0.017776487 0.024556663 -0.013582247 -0.01990062 0.026712945
0.024808995 -0.029022124 -0.03896644 0.013137971 0.037701134 0.024429325 -0.00669258 -0.034239013
-0.036200978 -0.022032404 0.023641836 0.03072625 -0.028961202 0.024886675 0.023915261 0.02945651
-0.02563167 0.02927963 0.0006638407 -0.020879498 0.02175927 -0.030585341 -0.028258318 0.030324325
-0.025179975 -0.023289068 -0.037778843 0.032287363 0.02356981 0.027024768 0.031755947 0.017302293
0.028657747 -0.03341998 -0.022455713 0.02695889 0.02452493 0.025512911 0.019806871 -0.021408405
0.024022838 -0.028745819 0.018196383 -0.02023199 0.0009411141 -0.024644965 -0.021805285 -0.022325872
0.038493536 -0.023970438 0.024627969 0.024081783 -0.030611074 -0.0291324 0.029305268 -0.023103049
-0.02753269 0.03269425 0.03257965 0.019537557 0.02249853 0.026733954 0.03239689 0.022525538
-0.016564101 -0.030800154 -0.025012154 -0.021230564 -0.031232314 0.02055041 0.025174882 0.01865244
-0.022025423 -0.027268374 0.03116713 -0.022635415 -0.019624555 -0.019903712 -0.032195754 0.026827065
0.02811739 0.026345735 -0.02593632 -0.022524316 0.024482667 -0.027541699 -0.021235693 -0.03097504
0.026623655 -0.026215544 0.008379694 -0.020751938 -0.016290534 0.013825324 0.012606792 0.030026428
0.028274043 0.03132901 -0.029726565 0.023225503 0.03827091 -0.031219805 0.023941996 -0.022675665
0.031010425 0.023097927 -0.02468443 -0.031171443 0.019970017 0.014837506 0.024528136 -0.020805452
-0.03362844 -0.010228729 -0.02302832 -0.02590515 -0.03349886 0.027495367 -0.03409746 0.026493037
0.027319051 -0.028695215 0.026200294 0.03000746 -0.027697664 -0.02962844 -0.030024625 -0.031593222
-0.02202425 0.019778406 0.023999218 -0.02315161 0.028189918 -0.036188833 -0.025306202 0.026844973
-0.030322004 -0.024095321 0.017932061 -0.028622415 0.0225939 0.027387686 0.032092508 -0.0070087384

weight f4 [1, 256]
00000000: 6034 cebd c87e edbc 7aa5 513d 90f1 e13d
00000010: 6d4c dc3d 86c1 e83d c4f4 b3bd 103c 2a3d
00000020: a3d7 57bd 57bb c8bc 9ba9 883d 6f38 473d
00000030: 226b dcbd 4a33 893d b407 153d aee9 2abe
00000040: 6ab5 823d 583e 353d 927d 95bc e809 b73d
00000050: 8515 ec3c 4b78 3dbd 7c00 163c b9d6 9bbd
00000060: 360b 9a3d 8e6c 54bd 0e6b 2fbd 3bb9 febd
00000070: 84fc e5bc edc1 f1bd c494 2dbd 9ef4 9c3d
00000080: b209 133c 897f 27bd 68da c73d c2a9 113d
00000090: bb4e 563d 577f 27bd b194 943d 536c 2cbd
000000a0: 5283 da3b 81d7 843d 636e a33c 47ff bd3d
000000b0: d4f9 a63d d64d 77bc e7d5 31bd a96f 973c
000000c0: eb8e c7bd ad69 a7bd bc07 d73d c4e6 a5bd
000000d0: 1fda f1ba f373 1dbd 19f0 3abd a427 e83d
000000e0: 6943 e13d f2a3 933c c802 0e3e 9e71 9cbd
000000f0: 4e74 bebc 7263 b03d 2a38 e23d 80bd 18bd
00000100: f866 ba3c 7412 003e cdd0 c13c 65c4 9c3d
00000110: fd1a 6a3d b32d 2f3c bd9f 8ebd 7653 d0bd
00000120: d724 16bd e81f 18bd 9af8 ff3d fed7 073d
00000130: 06e4 293d e257 91bc b1c3 26be 52dc 13bd
00000140: 272e 863c 5599 d33c e424 c1bd a1a1 bd3d
00000150: b483 b9bd 259f b3bd 5ee1 52bd 524c fabd
00000160: 7cfc 423d 81e4 15be 1e8a 85bd c860 083d
00000170: 3c47 383d 46ed d6bc 70f3 15be c6cc 3abd
00000180: d29b f23c a742 223d da58 143d fb83 9b3d
00000190: c228 8bbc 0344 56bd 50ac 8dbc 4980 e2bc
000001a0: 8e4d bfbd 1e7f 013b 5184 943d b8c2 15bd
000001b0: 63c2 ac3d 5df9 bebc 2c78 f4bb 0701 043e
000001c0: 6ed7 df3d 939d 31bd bc90 a6bc e260 dd3b
000001d0: d4c1 d33c 7d91 633d b168 3fbc 5261 a7bb
000001e0: 6e14 4abd 267a 15bc d19a 563c 6f49 843c
000001f0: bd1a 6abc 1d3f 6a3c e26a 9b3d 6592 943d
00000200: 040f aabc 8cef ae3d dc0b b1bc 17f4 37be
00000210: 9082 083d 8514 ffbc 7d2b 9fbd ca8e 053e
00000220: c268 01be 6e99 b6bd f912 0bbe f4e2 573d
00000230: 1fc8 693d 4c7a 813d f26b f73d 0c62 833c
00000240: 1b94 5d3d 4203 41bd ec87 2fbd 67e7 2b3c
00000250: 7b14 053e d56b a83d 391e 063e e1a7 8bbd
00000260: a8fd 173d 3108 bdbd 8d96 7e3d 88e2 13bc
00000270: b6bd b93b 7158 55bd e031 c2bd cb8b cbbd
00000280: a36b 443d 6ff7 2dbe 6a90 653d 38f9 e13c
00000290: e7ff bfbd 1d0c 5bbd 08da bb3d 28de dbbd
000002a0: 7117 d7bd c120 1e3d 8fb9 e53d dc40 4d3c
000002b0: a098 e93d 7798 853d 5c32 d23d 6783 923d
000002c0: f2bf f5bd cb6c 5abd 499c 2dbd 7611 88bc
000002d0: d7a6 49bd 9638 273c 3d64 503d 8d2a 063d
000002e0: 760d 6dbd 771c acbc 5010 513d 4970 dbbd
000002f0: 9307 a3bd 0840 91bd 8584 b0bd a320 2a3d
00000300: a258 7e3d 8b87 8d3d a408 a1bd 0ac9 d0bd
00000310: 6522 2e3d e694 98bd 2c81 cbbd 724b f0bd
00000320: 85a8 033e 8884 0cbe 6819 25bb af20 79bd
00000330: 94e1 d6bd 2ea1 803b 1dbd 903a 8927 153e
00000340: 6da7 713d 3708 1a3e 4666 31bd a265 983d
00000350: 48fd ed3c a80a 53bd 2b40 c03c 23df ddbc
00000360: 15a4 ac3d 5901 963d 5f3a 05bd cc46 24bd
00000370: 45f5 e13c 38b1 6a3c 55cb 643d 1df8 9ebc
00000380: 917d 10bd 7af2 603c 0f1f 32bd 6533 f2bc
00000390: 7fa3 95bd c6d9 6f3d 2528 ffbc f120 9a3d
000003a0: 8b4e ce3c 932b 94bd 716e 243d a8eb 623d
000003b0: f746 b8bd e02a 0abd 0723 08be 82dc 70bd
000003c0: 955a b6bd 5374 e93d c0bf 6a3d dea5 1cbd
000003d0: 30c5 a43d 0039 dabd f262 9dbc 29f8 af3d
000003e0: da12 84bd 7981 9fbd 7479 393d 8712 00bd
000003f0: 31f2 f83d eba3 b73d 15c0 8d3d 9933 9c3b
-0.100685835 -0.028991118 0.0511832 0.110324025 0.107567646 0.11365037 -0.0878692 0.041561186
-0.05269588 -0.024503393 0.06672975 0.048637804 -0.107626215 0.06699236 0.0363843 -0.16690704
0.06382258 0.04424891 -0.018248353 0.08937436 0.028818855 -0.0462573 0.009155389 -0.076093145
0.075216696 -0.05186134 -0.042826705 -0.12437674 -0.02807451 -0.118045665 -0.042378202 0.076638445
0.0089744795 -0.04089311 0.097584546 0.035562284 0.052321177 -0.040892925 0.07254923 -0.042095494
0.0066684866 0.064864166 0.019950097 0.09277206 0.0815312 -0.015094241 -0.043416884 0.01848586
-0.09744056 -0.08174453 0.10499522 -0.08100656 -0.0018451846 -0.038440656 -0.04563913 0.11335686
0.109991856 0.018022511 0.13868248 -0.07638858 -0.023248818 0.08612718 0.11045869 -0.037290096
0.022754177 0.1250704 0.023659134 0.07654647 0.057154644 0.010692048 -0.069640614 -0.10172169
-0.036656227 -0.037139803 0.12498589 0.03316497 0.041477226 -0.017742101 -0.16285588 -0.036098786
0.016379429 0.02582995 -0.094308645 0.09259344 -0.090583235 -0.08770589 -0.05148446 -0.12221588
0.04760407 -0.14637949 -0.065204844 0.033295423 0.04498981 -0.026236188 -0.14643645 -0.045605443
0.029615317 0.039614346 0.036217548 0.07593533 -0.016987208 -0.052310955 -0.017294079 -0.027649062
-0.09340964 0.0019759606 0.072518 -0.03656265 0.08435514 -0.023312265 -0.0074606147 0.12891017
0.10929762 -0.043363165 -0.020332687 0.006755934 0.02584926 0.05555867 -0.011682675 -0.005108037
-0.04933589 -0.009123361 0.013098435 0.016148297 -0.014288601 0.014297274 0.07588746 0.07254485
-0.020759113 0.08541784 -0.0216121 -0.17964207 0.03332764 -0.031137714 -0.077719666 0.13042751
-0.12637618 -0.08915983 -0.13581456 0.052706674 0.057075616 0.063221544 0.12081136 0.016037963
0.054096323 -0.047122248 -0.042854235 0.010492182 0.12996094 0.08223692 0.13097467 -0.0681913
0.03710714 -0.09230078 0.062155295 -0.009026177 0.0056683673 -0.052086297 -0.09482169 -0.09938773
0.047954213 -0.1698892 0.056045927 0.027584657 -0.093749814 -0.05347835 0.091724455 -0.10735732
-0.10502518 0.038605455 0.11217033 0.012527671 0.11406064 0.06523221 0.102635115 0.07153969
-0.11999501 -0.05332641 -0.042385373 -0.016609889 -0.049231376 0.010206362 0.050876845 0.032755423
-0.057874165 -0.021009667 0.051040947 -0.10714776 -0.07960429 -0.07092291 -0.08619026 0.04153503
0.062096246 0.069106184 -0.07862976 -0.10194595 0.04251327 -0.07450275 -0.09936747 -0.1173314
0.12857254 -0.13722432 -0.0025192145 -0.060822185 -0.10492244 0.003925464 0.0011042688 0.14565863
0.05899756 0.15042196 -0.043310426 0.0744126 0.029051438 -0.051523834 0.023468098 -0.027083939
0.08429734 0.07324476 -0.03252637 -0.04010658 0.027582774 0.014324479 0.055857975 -0.019405419
-0.035276 0.013729686 -0.04348665 -0.029565522 -0.07306575 0.058557294 -0.031147072 0.07525814
0.025183937 -0.072348736 0.040144388 0.05540052 -0.089979105 -0.033732295 -0.13294612 -0.058804043
-0.08903996 0.1139914 0.057311773 -0.03824412 0.08045423 -0.10655403 -0.01921222 0.08592255
-0.06448908 -0.07788367 0.045281842 -0.03126767 0.12155569 0.08966812 0.06921402 0.004766893
