trained_models/ppo/me5418-Cassie-v0/0524-16-25-47-s42/critic.pt (torch, 319998 bytes, 5 tensors)

weight f4 [256, 50]
-0.080456056 0.7917135 0.2767951 0.19993949 -0.105422586 -0.37485227 -0.54113185 0.15609919
0.30303 -0.09731838 0.23933208 -0.29145363 0.0752783 0.051249158 -0.08152237 0.32979882
-0.123274684 0.30594596 0.013648492 0.28713956 0.043952383 -0.03449031 0.008997216 -0.15723911
-0.03798857 -0.081543356 0.022826359 -0.00047107405 -0.09335162 -0.07707691 0.056398526 0.032837868
-0.0044615422 -0.018403562 -0.58294845 -0.12242583 -0.19297193 0.13494126 0.04142372 -0.20154604
-0.011554327 0.05558399 0.044208206 -0.06957726 0.0075475406 -0.03122627 -0.022366963 -0.14968078
-1.2299 -0.30533072 -0.01993199 0.3772491 -2.9654183 0.60754764 -1.7976277 -1.084361
-0.41251338 -0.11682301 -0.34297028 -0.338784 -0.665285 0.11349734 0.67549825 0.16995543
-0.16697371 0.19119713 0.20675904 0.110321954 -0.05095873 -0.042397667 -0.45030206 -0.25269526
-0.14119187 0.023077786 0.10260446 0.23975639 0.14605582 0.21025552 0.08879651 0.06741411
-0.027827764 -0.01771605 -0.03009556 -0.055422567 -0.033575594 0.43531555 -0.18574382 0.13842058
0.051495835 -0.16160908 0.05500032 0.04555588 -0.23440732 -0.06828198 0.10065977 -0.21913959
0.6502493 -0.30622935 -0.3270675 0.23720008 0.11746195 -0.38050187 0.17592505 -0.13867506
0.08332845 0.12996025 -0.088038966 0.073737934 -0.58123165 -0.00954749 -0.73289645 -0.12386643
0.34259424 -0.45422322 -0.09792075 0.008336491 0.2678966 -0.091199435 0.11114097 0.02928403
-0.084948964 0.0016516278 -0.022473909 -0.09809926 0.043830324 -0.0620764 0.16287546 0.019410096
-0.069998026 -0.18387537 -0.015230802 -0.00021597245 0.00025542735 -0.046859045 0.06242761 0.43431747
-0.013826586 0.010469241 0.39314893 -0.22370085 0.018682372 0.0678835 0.08239721 -0.14120494
-0.027953204 -0.0019295346 -0.31924602 -0.14962295 0.51096445 0.16369286 -0.14386469 0.45070046
-2.5849445 -0.3368374 -0.727243 -0.99727625 -0.2087289 0.07070044 -0.13669866 -0.11744519
-0.88069236 -0.5762576 0.10530991 0.24987218 -0.013848982 -0.10976083 -0.078103274 -0.2698573
-0.0373676 0.21478122 0.029732544 -0.054508798 0.18590899 0.20393257 0.13560551 -0.0052567986
0.20991483 -0.030437373 -0.30086893 0.021931963 0.052984435 0.084338546 -0.22449352 0.2196856
-0.47752777 0.12444834 0.0034028369 0.30131838 -0.15322678 0.04044538 0.023034671 -0.3465852
0.36624998 0.19868538 -0.19959885 0.20713694 0.14481756 0.6678759 -0.09050588 -0.14553016
0.21777369 0.30417293 -0.54814196 0.3036229 0.23508582 -0.15490203 0.17042442 -0.051879514
0.1793053 -0.23894598 0.06904276 0.24537477 -0.17389803 0.15448926 -0.020135129 0.025608592
0.43007544 0.08219621 -0.07273292 0.15450364 -0.015109912 0.20521232 0.29247162 -0.04331786
0.045290355 -0.100871496 0.017694863 0.16269945 -0.23785844 -0.089049734 0.15186058 -0.015926957
0.24520876 -0.17095837 0.12072645 -0.0076277032 -0.061741162 -0.020842709 -0.12905706 -0.13471912
-0.39928678 0.26173583 -0.4445375 -0.0345226 -0.18483795 -0.18457052 -0.42937565 -0.16102685
-0.5503181 -0.051482774 -0.3503339 0.05313928 -1.141118 -0.19237551 -0.32257554 -0.48491088
00000000: 25c6 a4bd bcad 4a3f 16b8 8d3e f0bc 4c3e
00000010: cce7 d7bd a3ec bfbe 9e87 0abf 77d8 1f3e
00000020: c026 9b3e dc4e c7bd 7813 753e 6939 95be
00000030: 822b 9a3d a3ea 513d 33f5 a6bd 64db a83e
00000040: 7077 fcbd f3a4 9c3e ed9d 5f3c f503 933e
00000050: 6a07 343d b645 0dbd 0f69 133c 4a03 21be
00000060: e799 1bbd 3400 a7bd 58fe ba3c 7dfa f6b9
00000070: 222f bfbd 80da 9dbd 2402 673d 0081 063d
00000080: 2132 92bb 11c3 96bc 1c3c 15bf 65ba fabd
00000090: 6f9a 45be 0b2e 0a3e ebab 293d 1662 4ebe
000000a0: 5c4e 3dbc 0aac 633d aa13 353d 867e 8ebd
000000b0: 5c51 f73b 3cce ffbc ec3a b7bc eb45 19be
000000c0: 5d6d 9dbf 4f54 9cbe 6a48 a3bc cb26 c13e
000000d0: 6ac9 3dc0 3e88 1b3f aa18 e6bf 57cc 8abf
000000e0: f434 d3be e740 efbd cd99 afbe 1975 adbe
000000f0: 1e50 2abf 4b71 e83d 74ed 2c3f cc08 2e3e
00000100: 28fb 2abe 2ec9 433e a4b8 533e 7af0 e13d
00000110: 1aba 50bd 2da9 2dbd fe8d e6be 4661 81be
00000120: 9a94 10be a00d bd3c 4a22 d23d b382 753e
00000130: a88f 153e 394d 573e f2da b53d 6910 8a3d
00000140: 0df7 e3bc 4021 91bc f78a f6bc c602 63bd
00000150: 9086 09bd aee1 de3e a133 3ebe 20be 0d3e
00000160: 4ced 523d da7c 25be 0448 613d cd98 3a3d
00000170: 7908 70be 6cd7 8bbd b626 ce3d 2166 60be
00000180: bd76 263f 18ca 9cbe 6475 a7be 94e4 723e
00000190: e48f f03d 24d1 c2be b225 343e d600 0ebe
000001a0: 1ba8 aa3d 4d14 053e c64d b4bd ea03 973d
000001b0: 99cb 14bf 136d 1cbc 1a9f 3bbf afad fdbd
000001c0: 8368 af3e f28f e8be ad8a c8bd c795 083c
000001d0: be29 893e c5c6 babd e09d e33d 10e5 ef3c
000001e0: b9f9 adbd 6f7b d83a 341b b8bc 44e8 c8bd
000001f0: 6d87 333d d343 7ebd d3c8 263e ec01 9f3c
00000200: 205b 8fbd d349 3cbe 9d8a 79bc aa76 62b9
00000210: e1ea 8539 45ef 3fbd 18b4 7f3d dc5e de3e
00000220: e888 62bc 2e87 2b3c d14a c93e d611 65be
00000230: c60b 993c 8106 8b3d debf a83d 0798 10be
00000240: 1efe e4bc 70e8 fcba 3774 a3be c236 19be
00000250: 91ce 023f 1a9f 273e 4451 13be 36c2 e63e
00000260: bb6f 25c0 f475 acbe 992c 3abf 7f4d 7fbf
00000270: 07bd 55be 64cb 903d bcfa 0bbe 1b87 f0bd
00000280: 0e75 61bf 9e85 13bf b9ac d73d 7ede 7f3e
00000290: d7e6 62bc 49ca e0bd 9cf4 9fbd bc2a 8abe
000002a0: c50e 19bd 9cef 5b3e aa91 f33c 9e44 5fbd
000002b0: ed5e 3e3e b3d3 503e 2cdc 0a3e 3941 acbb
000002c0: eaf3 563e cc57 f9bc 7e0b 9abe a9aa b33c
000002d0: 3506 593d b0b9 ac3d a1e1 65be 43f5 603e
000002e0: 857e f4be c5de fe3d 2102 5f3b 6746 9a3e
000002f0: 7be7 1cbe 0eaa 253d 35b3 bc3c 9e73 b1be
00000300: 1e85 bb3e 2e74 4b3e a463 4cbe b51b 543e
00000310: 0e4b 143e eaf9 2a3f 265b b9bd dc05 15be
00000320: 1100 5f3e 8ebc 9b3e 0853 0cbf 7674 9b3e
00000330: 56ba 703e a39e 1ebe bd83 2e3e 9d7f 54bd
00000340: cf9b 373e 41ae 74be 4a66 8d3d 8643 7b3e
00000350: 5312 32be 6f32 1e3e 6df2 a4bc 1cc9 d13c
00000360: d932 dc3e 7d56 a83d fff4 94bd 3436 1e3e
00000370: 908f 77bc 2e23 523e d7be 953e 126e 31bd
00000380: 6182 393d b795 cebd d1f4 903c af9a 263e
00000390: 2a91 73be b55f b6bd 5781 1b3e 4079 82bc
000003a0: 0118 7b3e b60f 2fbe 6e3f f73d d0f1 f9bb
000003b0: 4de4 7cbd 54be aabc 8927 04be cff3 09be
000003c0: 516f ccbe 3d02 863e 6b9a e3be 9267 0dbd
000003d0: 2946 3dbe 0e00 3dbe 20d7 dbbe 39e4 24be
000003e0: a6e1 0cbf 9adf 52bd f75e b3be 93a8 593d
000003f0: 2810 92bf 16fe 44be 9f28 a5be 3d46 f8be

bias f4 [256]
0.29530907 -0.0045008776 0.011832362 -0.20620015 0.123407856 -0.25646767 0.17984197 0.0783379
-0.13745578 0.08471581 0.22645184 -0.09195483 -0.098397724 0.07584657 0.2018701 -0.08975577
0.14343269 -0.19610907 -0.23518755 0.18156186 -0.2208931 -0.14389347 -0.0774234 0.3117874
-0.2221549 -0.2944933 -0.17831117 0.13063908 0.11474105 -0.21354125 -0.096528545 0.039309364
0.038390033 -0.052626953 -0.25223225 0.03636524 -0.12713389 0.17739265 -0.0350244 -0.01801036
0.13587992 -0.24943978 0.016984062 -0.2928863 0.2718831 0.22852162 0.042147584 -0.20159769
-0.008856906 0.08061585 0.18684833 -0.20880443 0.15776691 -0.15020598 0.17693615 0.10678903
0.28228262 -0.23354389 0.03585463 0.042521566 0.013353833 0.009717107 0.10750669 0.34579906
0.05832077 -0.4150127 -0.27079338 -0.22307216 -0.025283586 0.011196175 -0.06010618 0.019748485
-0.15739831 0.28287208 0.32051522 0.15675361 0.19145656 -0.09911367 -0.2585786 0.2611348
0.27177095 0.0036065823 0.42556584 -0.050042737 0.23208205 0.22443107 0.13782018 -0.0820607
0.009335984 -0.21630388 0.18546897 0.16926603 0.053083893 0.014469076 -0.09654335 -0.103689946
-0.023809759 0.23001464 -0.048343956 -0.28618756 0.028602513 0.13114761 0.31787854 -0.33761823
-0.07464048 0.058691204 -0.46623713 0.23071091 0.29801354 0.009762134 0.47355536 -0.08186338
0.19492051 0.04229221 0.11067024 -0.21160717 0.026757136 -0.061224956 0.09208716 -0.13385332
0.10385803 -0.05966774 -0.1547397 0.06023996 -0.20515643 0.20054962 0.01952283 -0.06952071
-0.17495379 0.07954246 0.056453124 -0.19087471 -0.08242725 -0.02765914 -0.26728028 0.1988343
0.3185175 0.23010717 0.27096826 0.24469548 -0.21357545 0.14071882 -0.041846212 0.22698854
0.35793394 0.113749124 -0.10322996 0.15953618 0.33319294 0.013749764 0.043296907 0.35381693
0.17639709 -0.18550044 -0.2438558 -0.061613537 -0.01207647 -0.14246158 -0.18117243 -0.043591987
-0.27051345 -0.15953729 0.14864938 -0.12650599 0.22261865 -0.059052177 -0.16338015 -0.18833551
-0.08007408 -0.10819634 -0.16559666 0.26541775 -0.31605533 -0.07398379 0.17911103 0.01918642
0.027976872 0.010445677 -0.14032643 -0.27742273 0.012494956 -0.13950951 -0.22839692 0.3542352
0.17126486 -0.013572708 -0.26375195 0.05020771 0.17247136 0.27716222 -0.16937822 0.12132661
0.19313277 0.07076625 0.12176113 -0.12334032 0.33393186 0.14199838 -0.18119721 0.11939093
-0.12181151 -0.3095104 -0.12903035 0.06816964 -0.20952293 0.36117506 -0.023920069 0.22237049
-0.1038492 -0.22902502 -0.14048302 0.03314157 0.019028103 0.15123416 -0.0050889216 0.059567615
-0.04985474 -0.19120511 -0.34860906 -0.18114735 -0.07395147 0.34385154 -0.35022244 0.011659604
-0.24835381 -0.26679003 0.107305564 0.007808028 0.027860548 0.05746349 0.23354623 -0.08239051
-0.21382226 0.24045591 -0.23559254 0.102366865 -0.22476304 -0.122018546 -0.22001098 0.1210435
0.12858266 0.2781975 -0.13752235 -0.17906241 0.14088607 0.11847932 0.051364195 0.19001602
0.072150506 0.122054696 0.24874604 0.23478322 -0.18126342 -0.16367461 0.12170776 0.030755887
00000000: c032 973e 197c 93bb 86dc 413c 2226 53be
00000010: 42bd fc3d bb4f 83be 7e28 383e 9f6f a03d
00000020: 35c1 0cbe 7c7f ad3d fee2 673e d052 bcbd
00000030: bf84 c9bd 7255 9b3d 09b7 4e3e e0d1 b7bd
00000040: 05e0 123e d1d0 48be 01d5 70be 5aeb 393e
00000050: cd31 62be cf58 13be 2990 9ebd 99a2 9f3e
00000060: 937c 63be d3c7 96be 3497 36be 40c6 053e
00000070: 5bfd ea3d 8faa 5abe c2b0 c5bd db02 213d
00000080: de3e 1d3d 5c8f 57bd 9624 81be b8f3 143d
00000090: 632f 02be 6ba6 353e bf75 0fbd 768a 93bc
000000a0: 1b24 0b3e 246d 7fbe 2922 8b3c 31f5 95be
000000b0: 4334 8b3e 9201 6a3e f2a2 2c3d a06f 4ebe
000000c0: 8e1c 11bc ec19 a53d 2b55 3f3e d4d0 55be
000000d0: a68d 213e 99cf 19be c02e 353e 35b4 da3d
000000e0: 5987 903e 2126 6fbe 4edc 123d 182b 2e3d
000000f0: 09ca 5a3c 8034 1f3c 782c dc3d 930c b13e
00000100: c2e1 6e3d 8b7c d4be 6ea5 8abe 076d 64be
00000110: 861f cfbc 2970 373c e631 76bd 93c7 a13c
00000120: 062d 21be 9cd4 903e 921a a43e 0584 203e
00000130: 300d 443e 1cfc cabd 6a64 84be 76b3 853e
00000140: 9025 8b3e 695c 6c3b c4e3 d93e 9df9 4cbd
00000150: eba6 6d3e 42d1 653e bc20 0d3e 710f a8bd
00000160: f4f5 183c c47e 5dbe 94eb 3d3e 1354 2d3e
00000170: 7f6e 593d b40f 6d3c 85b8 c5bd 655b d4bd
00000180: af0c c3bc f588 6b3e 5004 46bd 2d87 92be
00000190: d14f ea3c 8f4b 063e fac0 a23e 4cdc acbe
000001a0: 1cdd 98bd 3066 703d a2b6 eebe 7b3f 6c3e
000001b0: 3b95 983e 5cf1 1f3c d975 f23e fda7 a7bd
000001c0: 3e99 473e 993a 2d3d 14a7 e23d 8daf 58be
000001d0: c831 db3c 05c7 7abd 3198 bc3d d810 09be
000001e0: 85b3 d43d 2966 74bd 1574 1ebe 2dbe 763d
000001f0: 8714 52be e15c 4d3e 58ee 9f3c e060 8ebd
00000200: 1627 33be 28e7 a23d 643b 673d a974 43be
00000210: 9ecf a8bd 6c95 e2bc f6d8 88be 389b 4b3e
00000220: ba14 a33e 37a1 6b3e 5abc 8a3e 7491 7a3e
00000230: 86b3 5abe 9818 103e ef66 2bbd af6f 683e
00000240: 1e43 b73e 4df5 e83d 3b6a d3bd 745d 233e
00000250: 4498 aa3e b146 613c 1958 313d 7e27 b53e
00000260: 70a1 343e d4f3 3dbe 56b5 79be 7a5e 7cbd
00000270: 63dc 45bc 73e1 11be 4485 39be 838d 32bd
00000280: bd80 8abe be5d 23be 8b37 183e c98a 01be
00000290: 25f6 633e b2e0 71bd 204d 27be 06db 40be
000002a0: e1fd a3bd 0b96 ddbd 2c92 29be d6e4 873e
000002b0: 01d2 a1be d084 97bd e268 373e d72c 9d3c
000002c0: c12f e53c 5824 2b3c bbb1 0fbe 5a0a 8ebe
000002d0: a5b7 4c3c 95db 0ebe e2e0 69be 515e b53e
000002e0: 0e60 2f3e 1060 5ebc 7f0a 87be 9aa6 4d3d
000002f0: 559c 303e 35e8 8d3e 7c71 2dbe 167a f83d
00000300: 99c4 453e e5ed 903d e65d f93d da99 fcbd
00000310: 1ef9 aa3e 0668 113e c38b 39be 3b83 f43d
00000320: 5078 f9bd 2678 9ebe 8820 04be 869c 8b3d
00000330: 2e8d 56be f0eb b83e 05f4 c3bc 17b5 633e
00000340: e4ae d4bd 8985 6abe c8da 0fbe 74bf 073d
00000350: d3e0 9b3c 21dd 1a3e f8c0 a6bb 2cfd 733d
00000360: 7c34 4cbd 46cb 43be e37c b2be b17e 39be
00000370: de73 97bd 4f0d b03e 5b50 b3be ec07 3f3c
00000380: 7650 7ebe b498 88be 05c3 db3d 7cda ff3b
00000390: ce3b e43c d65e 6b3d be26 6f3e 5bbc a8bd
000003a0: 39f4 5abe 133a 763e 2c3f 71be b8a5 d13d
000003b0: 4828 66be dce4 f9bd 8f4a 61be a8e5 f73d
000003c0: 2cab 033e e76f 8e3e a9d2 0cbe 235c 37be
000003d0: 7044 103e 49a5 f23d 4363 523d 8f93 423e
000003e0: a5c3 933d d0f7 f93d 48b7 7e3e 036b 703e
000003f0: 1e9d 39be 519a 27be eb41 f93d c5f3 fb3c

weight f4 [256, 256]
0.07178405 0.05695382 0.24082632 0.22725783 0.20407592 0.06761316 0.071046546 0.14552124
0.2871122 0.5631108 -0.085813135 -0.09696155 -0.010848811 -0.13168651 -0.15939713 -0.11097199
0.03275413 -0.5966957 0.040607262 0.10903833 -0.13299052 0.12170849 0.0017390804 0.061308216
0.5360295 -0.3388602 -0.15314472 0.11291331 0.017014917 -0.34311885 -0.1355879 -0.39178908
0.21268366 0.11618204 -0.2613003 -0.3622752 0.2271778 0.03473507 0.105975345 0.2754976
-0.015772147 0.076725684 -0.029089138 0.045771416 -0.17353135 -0.2565384 0.08591432 0.1457897
-0.22334367 0.12603426 -0.04883828 -0.03767663 -0.45512328 -0.059587568 0.20849596 0.058166053
-0.09494991 0.38642955 -0.35642272 -0.016568068 0.14109509 -0.10319585 0.16395654 -0.50507694
-0.041312337 0.15079139 -0.08290128 0.33978593 -0.15432125 0.41913125 0.23460644 0.011120912
0.062257037 -0.21087554 -0.06337359 -0.23131393 0.09766588 -0.19731094 0.24248463 -0.18440863
-0.08609772 -0.068756424 -0.20906831 -0.16661793 -0.09500325 0.023033237 -0.15796092 -0.24510017
-0.08934707 0.049234536 -0.2073423 0.2778125 -0.1164273 -0.15784086 -0.048849452 0.4663649
-0.14706783 -0.11108737 -0.028338056 0.006909207 -0.056439806 -0.30861565 -0.18053412 -0.076357365
0.08843258 -0.13303335 0.16119498 0.19390808 -0.044590127 0.030866018 -0.016073642 0.29351604
-0.101688355 -0.1867263 0.030768339 -0.13440764 -0.13184509 0.3003392 0.12514818 0.21470112
0.10388146 0.061242003 0.7307777 -0.18809195 -0.26553252 0.09854988 0.325442 0.16522999
-0.025249207 0.036752358 0.044401515 0.19333594 0.088720575 -0.07466349 0.3636568 0.15432368
-0.10990013 -0.018525189 -0.5357903 0.081552714 -0.31683132 0.10827402 -0.14555216 -0.18035188
-0.43283188 -0.0077159475 -0.20355193 0.18560623 -0.48963785 -0.08552382 0.09600165 0.114625104
-0.037050035 0.044419196 0.18933795 0.18422826 0.23136345 0.07530715 -0.442321 0.013973919
-0.15561406 -0.2516637 0.20426668 -0.056418568 0.098466545 0.43189776 0.20587555 0.016501896
0.22692227 0.21437325 -0.06722107 0.057382163 -0.08554936 -0.25967693 0.18949567 -0.21871151
0.09400124 0.0389138 0.21086775 0.56152403 -0.24598269 0.21828528 -0.44658002 0.29227212
-0.08553257 0.028644549 0.02295557 0.03615266 0.2955742 0.5094021 0.4016713 -0.13161966
0.05430792 0.3211752 0.15516107 0.23221397 -0.22326365 -0.515973 0.1058908 0.11660977
0.14953153 0.07425367 -0.16002989 0.352046 0.29429272 -0.5048398 0.050340366 0.19197148
0.30822217 -0.08857102 -0.03812326 0.047602184 0.08382208 -0.25126588 0.27770218 -0.073209025
0.07170397 0.4468579 -0.047855597 0.1249718 -0.24186802 0.15318914 -0.031389978 0.04207533
0.13561007 0.40460888 -0.07801176 0.15679449 0.00668786 0.053916864 -0.009401416 -0.33029667
0.005012283 -0.05409482 0.008191377 -0.05290546 0.0723986 0.07487542 0.19880986 0.020480998
-0.103195556 -0.04332415 -0.011504068 -0.0976401 -0.6157212 -0.08427586 0.14977436 0.13728815
0.042989556 -0.23290896 0.11501771 0.045143902 -0.02547021 0.2971674 -0.0018776734 0.08497812
00000000: 8403 933d 6948 693d 2d9b 763e 47b6 683e
00000010: 47f9 503e c578 8a3d da80 913d 8503 153e
00000020: 5f00 933e 0828 103f ccbe afbd c793 c6bd
00000030: 36bf 31bc d4d8 06be 0039 23be 4845 e3bd
00000040: 3229 063d 0dc1 18bf cd53 263d 7d4f df3d
00000050: ab2e 08be 4d42 f93d dbf1 e33a 531e 7b3d
00000060: 3b39 093f 167f adbe f8d1 1cbe 183f e73d
00000070: de62 8b3c 46ad afbe 8ed7 0abe 9498 c8be
00000080: bfc9 593e d9f0 ed3d 27c9 85be 237c b9be
00000090: 4ca1 683e 5c46 0e3d 9a09 d93d 050e 8d3e
000000a0: 9734 81bc 5b22 9d3d 584c eebc cf7a 3b3d
000000b0: 34b2 31be 0059 83be d9f3 af3d e549 153e
000000c0: 34b4 64be 200f 013e a60a 48bd cf52 1abd
000000d0: eb05 e9be 1812 74bd f77f 553e 873f 6e3d
000000e0: 1975 c2bd 18da c53e 0a7d b6be c2b9 87bc
000000f0: 3b7b 103e 5958 d3bd 39e4 273e b94c 01bf
00000100: 2037 29bd 0f69 1a3e 25c8 a9bd 6cf8 ad3e
00000110: 6406 1ebe 5f98 d63e ac3c 703e 7c34 363c
00000120: 3c01 7f3d c2ef 57be 03ca 81bd 8fdd 6cbe
00000130: 0d05 c83d e10b 4abe e44d 783e 9ed5 3cbe
00000140: 0054 b0bd 2bd0 8cbd 0116 56be e49d 2abe
00000150: 1091 c2bd 33b0 bc3c 82c0 21be 8afb 7abe
00000160: 99fb b6bd 27aa 493d 8a51 54be 713d 8e3e
00000170: 7071 eebd 09a1 21be 5d16 48bd 61c7 ee3e
00000180: f398 16be c681 e3bd 3625 e8bc a166 e23b
00000190: 6d2d 67bd df02 9ebe f0dd 38be 4061 9cbd
000001a0: 241c b53d e539 08be 4c10 253e d78f 463e
000001b0: 23a4 36bd bbda fc3c dfac 83bc bc47 963e
000001c0: fc41 d0bd 2e35 3fbe e20d fc3c 28a2 09be
000001d0: 6602 07be 0fc6 993e d826 003e 9cda 5b3e
000001e0: cebf d43d e5d8 7a3d 3f14 3b3f 2d9b 40be
000001f0: e1f3 87be 85d4 c93d 55a0 a63e 0d32 293e
00000200: 6dd7 cebc a489 163d 5dde 353d dbf9 453e
00000210: 22b3 b53d 2ce9 98bd 3931 ba3e 0707 1e3e
00000220: 5213 e1bd 23c2 97bc 8e29 09bf 1c05 a73d
00000230: b737 a2be c5be dd3d a00b 15be 2aae 38be
00000240: 249c ddbe 0fd6 fcbb eb6f 50be 8f0f 3e3e
00000250: d0b1 fabe 1d27 afbd 839c c43d 91c0 ea3d
00000260: c7c1 17bd e7f0 353d cfe1 413e 55a6 3c3e
00000270: 8aea 6c3e a33a 9a3d e677 e2be ddf2 643c
00000280: 4b59 1fbe 11da 80be 492b 513e 2817 67bd
00000290: d4a8 c93d b421 dd3e 0ad1 523e fc2e 873c
000002a0: 505e 683e a984 5b3e 33ab 89bd 8f09 6b3d
000002b0: 8134 afbd 60f4 84be 270b 423e e9f5 5fbe
000002c0: b983 c03d 1464 1f3d b7ed 573e 0ac0 0f3f
000002d0: e3e2 7bbe 2d86 5f3e 23a6 e4be b1a4 953e
000002e0: b32b afbd f9a7 ea3c 520d bc3c d014 143d
000002f0: 8055 973e 2d68 023f dca7 cd3e 4ec7 06be
00000300: fb71 5e3d 1371 a43e 8be2 1e3e 80c9 6d3e
00000310: 3a9f 64be ce16 04bf 47dd d83d 1ad1 ee3d
00000320: cb1e 193e 4f12 983d e0de 23be 603f b43e
00000330: 89ad 963e 2e3d 01bf b331 4e3d 2c94 443e
00000340: 4ccf 9d3e b964 b5bd 2327 1cbd 82fa 423d
00000350: e9aa ab3d eca5 80be fb2e 8e3e 9dee 95bd
00000360: 88d9 923d 8fca e43e 3b04 44bd 37f1 ff3d
00000370: 40ac 77be 9ddd 1c3e c792 00bd 2e57 2c3d
00000380: 5edd 0a3e e528 cf3e a1c4 9fbd bc8e 203e
00000390: d625 db3b eed7 5c3d 6608 1abc a51c a9be
000003a0: 143e a43b 8892 5dbd 2035 063c 65b3 58bd
000003b0: b845 943d 4958 993d d094 4b3e c4c7 a73c
000003c0: 3158 d3bd aa74 31bd 8f7b 3cbc 88f7 c7bd
000003d0: e89f 1dbf d298 acbd 735e 193e 4495 0c3e
000003e0: d115 303d b07f 6ebe 688e eb3d d0e8 383d
000003f0: e7a6 d0bc 5326 983e 441c f6ba 0209 ae3d

bias f4 [256]
-0.20780878 -0.5287298 0.67666465 0.39460108 2.4483876 -0.058157977 0.5059668 -0.17577659
-0.23422669 0.4428488 -0.0059215375 -0.36519182 -0.5520728 0.21230637 0.4048268 -0.5682806
0.25436276 0.43820545 -0.43455127 0.28857058 -0.4046223 0.13494757 -0.39607275 -0.12162001
-1.6837759 0.38714713 -0.14375864 -0.5030378 0.6368722 -0.1547784 -0.8669403 0.051389232
-0.4674833 -0.38503724 -0.4971846 1.775617 -0.06945999 -0.39282086 -0.36346656 -0.09712358
0.3768814 0.41158172 0.10095496 0.56559455 -0.18380164 -0.17314328 -0.0051304675 -0.4459288
1.4837064 0.019844703 -0.050800804 -0.11448918 0.65189046 -0.85885215 -0.13499688 0.22242339
0.20030984 0.2436959 0.14979342 0.15964231 -0.4014335 -0.123455815 -0.50445473 -0.10680902
-0.9973778 -0.8028903 0.002232805 -0.0770628 -0.15598518 0.0862522 -0.27185255 -0.10359036
-0.12603237 -0.16193843 -0.024951784 0.02046442 0.05092104 0.46072975 0.24050309 -0.13075584
0.74204713 -0.2031714 -0.3780637 -2.0564966 -0.42715248 0.4115018 -1.1960319 -0.016640484
-0.26855436 -0.3389771 0.5401145 -0.110042684 -0.15034965 -0.35945484 0.24452862 -0.73620135
0.5882281 -0.33764258 -0.014591893 -0.053380553 -0.0026420283 0.6465475 -0.071920395 0.29146427
-0.05678948 0.3159893 -0.49296382 -0.48610252 -1.1419113 0.24823125 -0.02603316 0.3401591
0.10325248 0.07328736 -0.17262532 0.01838003 -0.041833427 0.2051455 -0.052584026 -0.21371566
0.07158576 -0.14576484 0.14980094 -0.48020953 0.24098387 0.33253387 -0.8406551 -0.34953758
-0.36583674 0.38646686 -0.3363734 0.082071654 0.07558623 1.8997661 0.17292039 -0.03362971
0.29513776 -0.7466497 -0.331991 0.1504795 -0.43543467 -0.19114742 -0.31268203 0.50345606
-0.07716659 -0.40135118 -1.5242006 -0.117189236 -0.7188504 0.12064093 0.17235513 0.540908
0.38594258 -0.7143473 -0.27930224 0.383348 0.36960396 0.21301891 0.057287443 -0.6927219
-0.24788307 0.677024 -0.30475327 -0.38956863 -0.21031643 -0.51663244 -0.1931386 2.1115594
0.29085097 -0.23798275 -0.23630948 0.06084966 0.15174693 0.32464513 0.37498564 0.1645936
0.13610409 0.65670484 -0.035987783 1.0200766 0.24497855 0.40616536 0.029288601 -0.045188975
-0.5681978 -0.7843745 -0.22093713 -0.017035035 0.94916713 0.28399822 -0.5094872 -0.35223675
-0.017913623 -0.41902596 -0.09065787 0.12257908 -0.07225536 -0.5742544 -0.5538262 0.6740329
0.2221576 0.2034066 0.3298424 0.49606317 0.41948348 -0.27025068 -0.42412463 0.21093239
-0.09424874 -0.002234162 0.35416442 0.14526348 -0.04365384 -0.32906443 -0.17784192 0.46702096
0.07743703 2.2783391 -0.011264946 -0.124370985 -0.045714155 0.5409098 0.12390311 -0.20023899
-0.1499591 -0.16893306 -0.4266224 0.34750682 -0.42090607 0.18399505 -0.53883904 -0.5074213
0.5255696 0.023124505 0.4727943 0.21424854 -0.02251933 0.21066827 -0.1359884 0.46236148
0.19983879 0.04337773 0.3679283 -0.09756969 0.11236157 0.06010888 -0.22626469 0.2721202
0.204771 -0.02347184 0.20496978 0.20405242 -0.0031351768 -0.20073989 0.08914529 0.13791959
00000000: d3cb 54be d65a 07bf e539 2d3f 2709 ca3e
00000010: 62b2 1c40 0f37 6ebd 0a87 013f c7fe 33be
00000020: 1fd9 6fbe 14bd e23e 7509 c2bb 6cfa babe
00000030: a554 0dbf d766 593e 7545 cf3e d67a 11bf
00000040: d63b 823e 775c e03e 817d debe 86bf 933e
00000050: a72a cfbe b22f 0a3e 0cca cabe e913 f9bd
00000060: f885 d7bf 2638 c63e 7735 13be 16c7 00bf
00000070: 0e0a 233f 3b7e 1ebe cdef 5dbf 847d 523d
00000080: f959 efbe 9a23 c5be fb8e febe 6b47 e33f
00000090: 0a41 8ebd d11f c9be 4a18 babe bae8 c6bd
000000a0: 99f6 c03e d7ba d23e 79c1 ce3d ceca 103f
000000b0: 7f36 3cbe 794c 31be 7b1d a8bb c850 e4be
000000c0: 17ea bd3f 5c91 a23c 8114 50bd 4e79 eabd
000000d0: 4be2 263f bcdd 5bbf 9f3c 0abe f5c2 633e
000000e0: 061e 4d3e 6b8b 793e 7263 193e 4679 233e
000000f0: b188 cdbe 67d6 fcbd f223 01bf b0be dabd
00000100: 2754 7fbf 388a 4dbf 4054 123b 1ad3 9dbd
00000110: 94ba 1fbe fea4 b03d 4230 8bbe 2f27 d4bd
00000120: a10e 01be 30d3 25be af67 ccbc 00a5 a73c
00000130: 9592 503d c5e4 eb3e 7146 763e dce4 05be
00000140: cdf6 3d3f 2a0c 50be 9191 c1be a49d 03c0
00000150: bbb3 dabe 5db0 d23e 9317 99bf a051 88bc
00000160: f57f 89be 688e adbe f244 0a3f 0f5e e1bd
00000170: 42f5 19be 770a b8be b665 7a3e b177 3cbf
00000180: 1e96 163f 7ddf acbe d612 6fbc 91a5 5abd
00000190: e125 2dbb 2384 253f 004b 93bd ce3a 953e
000001a0: 169c 68bd 59c9 a13e c165 fcbe 6ee2 f8be
000001b0: 262a 92bf 5530 7e3e 7e43 d5bc 5529 ae3e
000001c0: 0976 d33d af17 963d b1c4 30be b791 963c
000001d0: 8759 2bbd a911 523e 5962 57bd 47d8 5abe
000001e0: 8e9b 923d 6143 15be 6b65 193e 06de f5be
000001f0: 7ac4 763e e141 aa3e 2c35 57bf 97f6 b2be
00000200: f44e bbbe fcde c53e 2239 acbe 2f15 a83d
00000210: f4cc 9a3d 892b f33f 0b12 313e 4fbf 09bd
00000220: 4c1c 973e 6f24 3fbf b9fa a9be 4c17 1a3e
00000230: 4bf1 debe 26bc 43be dc17 a0be 7fe2 003f
00000240: 8409 9ebd e77d cdbe 0119 c3bf e900 f0bd
00000250: 9406 38bf 9812 f73d dd7d 303e f278 0a3f
00000260: 449a c53e 77df 36bf b400 8fbe 3046 c43e
00000270: bb3c bd3e a121 5a3e 3da6 6a3d 3956 31bf
00000280: 0fd5 7dbe 7251 2d3f 9f08 9cbe 8a75 c7be
00000290: 315d 57be 0642 04bf 20c6 45be ca23 0740
000002a0: 6bea 943e c0b1 73be 1dfb 71be 7e3d 793d
000002b0: 8c63 1b3e e337 a63e 1efe bf3e 3a8b 283e
000002c0: df5e 0b3e cf1d 283f ed67 13bd df91 823f
000002d0: a8db 7a3e e8f4 cf3e a6ee ef3c 1318 39bd
000002e0: 6975 11bf c4cc 48bf 583d 62be 0f8d 8bbc
000002f0: 9efc 723f 3768 913e c16d 02bf 6058 b4be
00000300: 97bf 92bc 928a d6be d5aa b9bd be0a fb3d
00000310: 9efa 93bd 5602 13bf 8ec7 0dbf 6c8d 2c3f
00000320: 487d 633e d249 503e 1ae1 a83e fefb fd3e
00000330: 8ac6 d63e 4c5e 8abe dd26 d9be a9fe 573e
00000340: 7c05 c1bd 056b 12bb 0a55 b53e f3bf 143e
00000350: 5ece 32bd 227b a8be 311c 36be 5f1d ef3e
00000360: 4e97 9e3d 4fd0 1140 9c90 38bc 37b6 febd
00000370: c43e 3bbd 1179 0a3f eac0 fd3d 730b 4dbe
00000380: e18e 19be cafc 2cbe 406e dabe 6aec b13e
00000390: 0081 d7be 3369 3c3e 5bf1 09bf 5de6 01bf
000003a0: bb8b 063f 9a6f bd3c 1812 f23e f863 5b3e
000003b0: 757a b8bc 6cb9 573e 8b40 0bbe a5ba ec3e
000003c0: 8aa2 4c3e d9ac 313d 1961 bc3e 9ed2 c7bd
000003d0: d31d e63d bb34 763d eeb1 67be 5753 8b3e
000003e0: 7daf 513e 0448 c0bc 99e3 513e 1ef3 503e
000003f0: 8a77 4dbb c28e 4dbe ce91 b63d cb3a 0d3e

weight f4 [1, 256]
0.0065186047 -0.1324914 0.06330213 0.13530944 0.34435004 0.0027237188 0.095400184 -0.02409071
-0.011599601 0.043697514 -0.024498306 -0.10260798 -0.041017298 -0.010727926 0.009035696 -0.1069208
-0.0050718584 -0.0013280759 -0.022633 0.082062915 -0.055704042 0.0034807506 -0.048860386 -0.047125354
-0.14652576 0.032817032 -0.027283482 -0.0072591137 0.020856844 0.020889498 -0.18089743 -0.016742114
-0.16969286 -0.010656064 -0.05153667 0.27507198 0.007043667 -0.01927596 0.008272036 0.013346537
0.07207607 0.091788426 -0.0025243282 0.042313688 -0.014869207 -0.021355122 0.009085648 -0.05434688
0.2685051 -0.0042453804 0.0064498275 -0.011636378 0.078046426 -0.23981628 0.00047191733 0.0058118026
0.018836891 0.014806355 0.02304977 0.009723655 -0.023770696 0.020723281 -0.035393026 -0.00253437
-0.06326822 -0.16577595 -0.017060202 0.0072803693 -0.028164893 0.010259404 -0.0010841313 -0.010078647
-0.0020521479 -0.0064240093 -0.024919972 0.009828671 -0.0049945675 0.05511352 0.02120331 -0.006575392
0.15062647 -0.011127685 -0.12101098 -0.39545378 -0.02883191 0.049587 -0.03600098 0.009163933
-0.07544 -0.011260908 0.013371562 -0.008031854 -0.04661975 -0.01636351 -0.00433398 -0.03671316
0.21629193 -0.08550769 0.0030499385 0.040686827 0.016144024 0.17423618 -0.0014900484 -0.019734727
0.017972257 0.020132693 -0.13999705 -0.2508205 -0.27591047 0.012293408 -0.004230668 0.04507144
0.0029935134 0.020523995 -0.0105002085 0.0027208726 0.0016831395 -0.005675804 0.005432146 0.007200929
0.011826407 -0.0077881683 -0.0020808512 -0.13341163 0.014201249 0.04668284 -0.091260985 -0.024914164
-0.03168714 0.034433138 -0.009994393 0.0098114945 0.01827506 0.19011231 0.013893623 -0.024302945
0.02454466 -0.08529689 -0.051472627 0.026771965 -0.038953684 0.0046574674 -0.011750805 0.021703484
0.011066653 -0.04140945 -0.34091005 -0.012572811 -0.08269116 0.017485062 0.006522984 0.18796295
-0.0025108967 -0.0074913125 0.006977417 0.05926657 0.00047930708 0.0010521777 0.00083361554 -0.24069753
-0.020807207 0.1854356 -0.020069525 -0.021938346 -0.038145635 -0.079602316 0.00376003 0.28956735
0.034302827 -0.009213221 -0.0017707901 0.0014562213 0.0131778 0.0152835185 0.023970306 -0.009780011
-0.0020448884 -0.0025255652 0.01627721 0.22713877 0.064184956 0.050204493 -0.004248287 -0.009231569
-0.08619067 -0.15190308 0.009552751 -0.015259937 0.13551195 0.0054115686 -0.07082353 -0.022841986
-0.007151833 -0.038535744 0.009824145 -0.0027544226 0.018809177 -0.16223136 -0.06412616 0.12333759
0.0034943921 0.00806124 0.0056055505 0.012996427 0.0048403437 -0.019662298 -0.0060807588 0.02514928
-0.006603157 -0.013325978 0.05606209 0.0039101075 0.010663649 -0.012404836 -0.0031718041 0.20652987
-0.011360827 0.29229823 -0.011098909 0.02536911 -0.007665094 0.09398765 -0.0257611 -0.008169494
-0.014109311 -0.044530597 -0.02924195 0.024851287 -0.021662403 -0.0010774963 -0.033917043 -0.13737208
0.052623767 0.016324524 0.032668836 0.024799649 -0.029540814 -0.0069479095 0.009259292 0.08228678
-0.000925526 -0.0033027509 0.048803277 -0.009501019 -0.016880192 0.021562228 -0.00988037 0.058338456
-0.0041304613 0.017029198 -0.015060925 0.03858995 -0.013322089 0.0067893295 0.084264375 -0.031804144
00000000: 059a d53b d3ab 07be 8ca4 813d 8f8e 0a3e
00000010: a64e b03e 6b80 323b 2c61 c33d e159 c5bc
00000020: 410c 3ebc 2afc 323d acb0 c8bc 2224 d2bd
00000030: c101 28bd 2fc4 2fbc 750a 143c 4bf9 dabd
00000040: d531 a6bb d512 aeba d768 b9bc 9a10 a83d
00000050: ec29 64bd 4e1d 643b d421 48bd 8406 41bd
00000060: d90a 16be 276b 063d 9c81 dfbc dcdd edbb
00000070: f9db aa3c 7420 ab3c 2d3d 39be c226 89bc
00000080: f7c3 2dbe c696 2ebc 1e18 53bd 3cd6 8c3e
00000090: 90ce e63b 9ee8 9dbc 6f87 073c 6fab 5a3c
000000a0: 9e9c 933d 92fb bb3d 336f 25bb 1e51 2d3d
000000b0: f99d 73bc f0f0 aebc f8db 143c d69a 5ebd
000000c0: 8079 893e d51c 8bbb 1359 d33b 82a6 3ebc
000000d0: ced6 9f3d 6692 75be ac6b f739 ef70 be3b
000000e0: d34f 9a3c 5b96 723c dfd2 bc3c f74f 1f3c
000000f0: c3ba c2bc dfc3 a93c 47f8 10bd ac17 26bb
00000100: c592 81bd 2cc1 29be d6c1 8bbc 2a90 ee3b
00000110: 10ba e6bc 0f17 283c 6919 8eba e920 25bc
00000120: 547d 06bb 7f80 d2bb f824 ccbc 6f08 213c
00000130: 78a9 a3bb b7be 613d 90b2 ad3c 6376 d7bb
00000140: d33d 1a3e e550 36bc 9bd4 f7bd eb78 cabe
00000150: e630 ecbc bd1b 4b3d c375 13bd 5224 163c
00000160: 4980 9abd ac7f 38bc 6514 5b3c 0a98 03bc
00000170: 5af4 3ebd c50c 86bc 0f04 8ebb 8a60 16bd
00000180: a27b 5d3e a81e afbd 7ae1 473b 3ba7 263d
00000190: 7940 843c f86a 323e ba4d c3ba b9aa a1bc
000001a0: 8e3a 933c 51ed a43c 635b 0fbe 8b6b 80be
000001b0: 2344 8dbe 4a6a 493c 6aa1 8abb d59c 383d
000001c0: d22e 443b f021 a83c 1109 2cbc ab50 323b
000001d0: ca9c dc3a 18fc b9bb 2500 b23b c5f5 eb3b
000001e0: 8cc3 413c e433 ffbb e45e 08bb 0f9d 08be
000001f0: 5bac 683c 8136 3f3d 0ae7 babd ca18 ccbc
00000200: 60ca 01bd c309 0d3d 86bf 23bc 64c0 203c
00000210: 94b5 953c cdac 423e 14a2 633c f816 c7bc
00000220: e211 c93c 23b0 aebd f6d4 52bd e150 db3c
00000230: e68d 1fbd ab9d 983b 7386 40bc 81cb b13c
00000240: e850 353c f59c 29bd c38b aebe 31fe 4dbc
00000250: fc59 a9bd d53c 8f3c c1be d53b 5c79 403e
00000260: db8d 24bb af79 f5bb d1a2 e43b 81c1 723d
00000270: 824b fb39 3ae9 893a fe86 5a3a 6a79 76be
00000280: e073 aabc d4e2 3d3e d868 a4bc 0cb8 b3bc
00000290: 993e 1cbd 8a06 a3bd d66a 763b 2c42 943e
000002a0: 1f81 0c3d 0df3 16bc db19 e8ba aede be3a
000002b0: b3e7 573c b967 7a3c 605d c43c 573c 20bc
000002c0: 8903 06bb f483 25bb c957 853c 1197 683e
000002d0: 6773 833d 3aa3 4d3d 3735 8bbb 0240 17bc
000002e0: bc84 b0bd 7b8c 1bbe 2483 1c3c d104 7abc
000002f0: a5c3 0a3e 8753 b13b ed0b 91bd 1e1f bbbc
00000300: ec59 eabb a8d7 1dbd 73f5 203c 8b83 34bb
00000310: b415 9a3c fa1f 26be 9454 83bd 6b98 fc3d
00000320: 2c02 653b 4b13 043c c4ae b73b f7ee 543c
00000330: bf9b 9e3b d412 a1bc 1a41 c7bb dd05 ce3c
00000340: 4c5f d8bb 3455 5abc 5da1 653d 5c20 803b
00000350: 96b6 2e3c a73d 4bbc 0bde 4fbb 917c 533e
00000360: c322 3abc 1da8 953e 33d8 35bc e1d2 cf3c
00000370: 782b fbbb 997c c03d f108 d3bc 57d9 05bc
00000380: bd2a 67bc b765 36bd d08c efbc ed94 cb3c
00000390: 5a75 b1bc c73a 8dba 99ec 0abd 44ab 0cbe
000003a0: 058c 573d 02bb 853c c2cf 053d a228 cb3c
000003b0: 94ff f1bc 4aab e3bb 49b4 173c f985 a83d
000003c0: 009f 72ba f772 58bb f2e5 473d 29aa 1bbc
000003d0: 5448 8abc 45a3 b03c 47e1 21bc 4ef4 6e3d
000003e0: d258 87bb d180 8b3c 19c2 76bc 7f10 1e3d
000003f0: e444 5abc 0679 de3b cd92 ac3d 1045 02bd
