trained_models/ppo/me5418-Cassie-v0/0528-10-46-17-s1231/critic.pt (torch, 319998 bytes, 5 tensors)

weight f4 [256, 50]
00000000: a6a2 09be d232 87bd ae07 f83c d8c1 9b3d
00000010: 0778 11bd b261 0ebd bd06 e1bc 9266 97bd
00000020: a30e 11bc bd3c 4bbd 098c a23d 8aa3 dd3d
00000030: b88f 7b3d d9e5 163e c7fc d03d 7d57 55bc
00000040: c4c9 78bd e38f 4dbd 4774 303d 271e 3f3c
00000050: abcf 92bd 2431 8a3b 57af 0a3e c2d1 3e3d
00000060: 77f3 753d 8d71 89bd 5c22 dfbc 49bc fa3b
00000070: d44b 4ebd 5240 1cbd 60fb f43c 36d5 38bd
00000080: 496f adbc 63e8 083d aac0 1bbd b308 dcbc
00000090: 8141 6fbd 45eb a8bd 5aea c1bc df79 27bd
000000a0: 841d 4bbd c5a1 6c3d 4e10 4bbc 0800 27bc
000000b0: 1214 43bb 554d 733d 1b8e 38bd 7eb2 9c3d
000000c0: 5a7c b6bd c45e 0bbd 0cc6 f23d b98e 18bd
000000d0: 3460 1b3e fe75 a2bd b994 1d3c 1717 b7bb
000000e0: d34d b53d 05bf 98bc b5fb 973c d3be 993c
000000f0: 902a 36bc c557 a03d 2f15 103c 063c 77bc
00000100: 2103 e63b 7b16 32bc 6c0c cfbd 472f 4d3d
00000110: fce5 3ebc 6095 33bc 8dc7 343d b7e5 c8bd
00000120: e9a0 8ebd 0f36 d6bd 0f20 b6bc 36db 5bbd
00000130: 32c6 fb3d 00fe 11be 772b 9fbc 65af 20bd
00000140: 82b2 e7bc d6cb 963d ac6c 09bd 8234 a23d
00000150: 6353 b73c 6d2a 1f3c d32b 933c 278c 4cbc
00000160: b8f0 cfbb 87dd 3fbd 3f3d de3c a94a b2bd
00000170: f5b8 913d 8317 8ebc 5e51 fabc bedd 04bd
00000180: 7002 db3d 0da5 26bd f3a9 bcbc afeb 1b3e
00000190: bc83 293d 0caa ed3d b7d7 093d 95d6 5dbd
000001a0: 5e6d 0cbd 33da c13c 25db 15bd b374 a5bd
000001b0: 43fd 91bd dfae d63d 15e4 993d ca92 b7bd
000001c0: e5e9 0b3b bf0e 9e3c 7181 d43c 2621 11bc
000001d0: add2 15bd 321e 1dbd 7a73 79bc bb44 8c3d
000001e0: 8913 b83d dcc3 e7bd 2895 61bc f880 e23c
000001f0: 8910 473d df42 7fbd 0088 d9bd 3bca 0c3d
00000200: ee34 443d 1f3d 253d 420f 9c3d 5ccf 633c
00000210: 4fb5 bf3d c222 7dbd c652 253c f13a e13c
00000220: 80dc f83c 677d 61bd 2a7b 9ebd e35f 83bd
00000230: 74b5 bd3d db9c e9bc 898a e5bb 9045 a5bd
00000240: 19e3 24bd 2994 0d3d 4501 2a3d c09c 86bb
00000250: 2382 2e3d d727 be3d b71c a6bd 3e2d d5bd
00000260: ec5a a63c 47b0 553d a753 86bc ae1c a63b
00000270: 30e3 b9bb 32c6 dabc 712e fe3d 3521 743d
00000280: 71a9 c7bd 2256 633c 9726 d2bc 92da 8cbc
00000290: ace1 d1bd 4e98 79bd a44a 34bd 44a3 963d
000002a0: acf7 81bd ac96 69bc 5aef a43d 9457 893c
000002b0: 0655 073d 0e12 f1bd 5768 4b3d dbd3 23ba
000002c0: 7317 de3c 5215 c1bd 943b 40bd c2dd 163d
000002d0: 788f ff3d 56c0 df3d a971 bcba 9cc5 203d
000002e0: ce7a b83d ee3c cb3d 4395 d5bd 9298 72bb
000002f0: 2006 aabc a20c 63bc d1af 59bd 2a3f 78bc
00000300: 831d 5fbc 5786 823d a118 a33d 2c0b a13d
00000310: 854e dabd 83a2 053e 6fa3 cabd 3fd7 d53a
00000320: cd6b 033e 0d3e 03be b4f2 cfbd 3fe1 90bd
00000330: acd3 b2bd ac99 fabc af11 19bd 0b79 aabc
00000340: 696b 1ebd 4931 663e 8650 0d3b cde3 e6bd
00000350: cc6a 1fbe 47df 2e3c 2598 24bd cad5 7ebd
00000360: 32de fcbc c6f0 873d 8416 663b ad86 1b3d
00000370: a7da 8ebd 8534 09bd 199c bc3c 4535 d2bc
00000380: 9d0b ab3b f0b5 edba 454d c83d 362e b2bc
00000390: ef98 edbb 64ed f4bb 1261 f8bc fb9d a5bd
000003a0: 2e3a 2d3b 48bb 1e3d 3998 253c be44 4abd
000003b0: 4f87 823d c4b2 10bd 7c31 a33d 96d1 8dbc
000003c0: e0a2 ce3d 0d37 27bd 19d9 abbc 4df6 b1bd
000003d0: 2235 dcbd 5106 293d 4096 843c 960a febb
000003e0: eeb2 703d 09f1 643d 8303 aebd 01e8 09be
000003f0: 320d 2c3d 61d5 3a3d 0f55 d63d c106 773d
-0.13440952 -0.0660149 0.0302771 0.07605332 -0.035514858 -0.03476114 -0.027469033 -0.073926106
-0.008853587 -0.04961847 0.07936866 0.10822208 0.061416358 0.14736117 0.102044635 -0.013021347
-0.060739294 -0.05018605 0.04307964 0.011664904 -0.07168516 0.004217284 0.1354345 0.04658676
0.06004664 -0.06711111 -0.027238064 0.00765184 -0.050365284 -0.038147278 0.029905021 -0.04512521
-0.021171229 0.033424746 -0.038025536 -0.026859617 -0.05841208 -0.08247999 -0.023671318 -0.04088771
-0.049588695 0.057771463 -0.012394024 -0.010192879 -0.0029766602 0.05939992 -0.045057397 0.07651232
-0.08910437 -0.034025922 0.11854181 -0.037245486 0.15173417 -0.079326615 0.009617978 -0.0055874693
0.088527344 -0.018645773 0.01855264 0.01876775 -0.011118546 0.07829241 0.008794113 -0.015089994
0.007019416 -0.010869618 -0.10109791 0.050093915 -0.011651512 -0.010960907 0.04413562 -0.0980944
-0.06964285 -0.104595296 -0.022232084 -0.053675853 0.12293662 -0.1425705 -0.019429905 -0.03922977
-0.028283361 0.07363097 -0.033550903 0.07920171 0.02237863 0.009714705 0.017965233 -0.012484587
-0.0063458346 -0.046842124 0.027128814 -0.087056465 0.07115356 -0.017345196 -0.030556377 -0.032438032
0.10693824 -0.04068475 -0.023030257 0.15226625 0.041385397 0.116046995 0.033652987 -0.05415972
-0.03428399 0.023663616 -0.036585946 -0.08078899 -0.07128384 0.10482573 0.07514206 -0.08963545
0.0021349129 0.01929414 0.025940629 -0.008858001 -0.03657787 -0.038358875 -0.015225286 0.06849047
0.08988101 -0.11316654 -0.013768472 0.027649388 0.048599754 -0.062319633 -0.10621643 0.03437255
0.04790204 0.040341493 0.07620098 0.013904419 0.09360754 -0.061800726 0.0100905355 0.027493926
0.03037858 -0.055051234 -0.077383354 -0.06414773 0.09263125 -0.028517177 -0.00700504 -0.080699086
-0.04025564 0.034565125 0.041505117 -0.0041080415 0.042604577 0.092849426 -0.08110946 -0.1040902
0.020307027 0.052170064 -0.01639731 0.005069337 -0.005672835 -0.026705835 0.12411202 0.05960198
-0.09749115 0.013875516 -0.025653167 -0.017194066 -0.102481216 -0.060936265 -0.044016495 0.07355359
-0.06346068 -0.014257114 0.08053465 0.016765393 0.03304007 -0.11771022 0.049660053 -0.00062495255
0.02711079 -0.09427895 -0.046931818 0.03683258 0.12478536 0.10925357 -0.0014377135 0.039250955
0.09007798 0.09923731 -0.1042886 -0.0037017209 -0.020754874 -0.013857992 -0.053146187 -0.015151778
-0.013617876 0.063732795 0.07963682 0.07863459 -0.10659508 0.13050275 -0.09894454 0.0016314759
0.12834091 -0.12816639 -0.10153714 -0.07074212 -0.087317795 -0.030590855 -0.03737038 -0.02080967
-0.038676653 0.22479738 0.0021562888 -0.11273918 -0.15568084 0.010673351 -0.04018416 -0.062215604
-0.03086767 0.06637721 0.0035108635 0.037970234 -0.069752984 -0.033497352 0.023023652 -0.025660167
0.0052198903 -0.0018135887 0.09780363 -0.02175055 -0.007250897 -0.007474588 -0.030319724 -0.08086773
0.0026432383 0.038752824 0.0101070935 -0.049381964 0.06373464 -0.035326734 0.07968423 -0.017311852
0.1008966 -0.040823985 -0.020977544 -0.08689556 -0.10752322 0.04126579 0.016184926 -0.007752727
0.05876439 0.05589393 -0.084967636 -0.13467409 0.04200477 0.04561365 0.104654424 0.060309175

bias f4 [256]
00000000: e211 dabb 774d babb ca44 0e3c d1a7 a3bc
00000010: bf60 ec3b 779d c13c 23ab 753c 046b cf3c
00000020: 4fab babb 3bbd 273d 56cb 113c cfc3 5abc
00000030: 2efb 44ba 6a8f 843a 1423 983c b58d e3bb
00000040: 7f3b 283c 8c43 763b 8ab9 f9ba 3bef b2bc
00000050: 20a6 53bc 2df9 02bd 759a 8abc a696 5fbc
00000060: 7962 0e3b cf60 05bc 081b c2bb bb93 4f3c
00000070: 3a79 aa3c 2762 a43c eb47 d7bb 7158 d43b
00000080: dc50 83bb 60ac f63b 87f6 013b e728 dfbc
00000090: d386 843b f778 fd3b 6f1e 9c3c 73f3 553b
000000a0: 44ba 433c 1653 343c 52ef 33bc 2ae2 22bc
000000b0: e3f4 abbb 3e40 abbc f479 27bc 9014 773b
000000c0: 33a9 cb3c fb71 663c debe 94bc 2666 dcbb
000000d0: a2e8 6c3c 4d6b 8e3c c788 d9bc 84b5 a13b
000000e0: 1747 62bc a48d 373b 3b85 4dbc 6a65 99bc
000000f0: 61e8 4abc 947d bcbb 5b61 b9bc 54e8 42bc
00000100: 1207 643c e7cd 52bb 3704 073c 41da 84bc
00000110: 8a94 fd3b 096e 57bc 554b 0c3c 17eb e93a
00000120: a81d d53b 402c f9bb f94a 9bbc 2b74 893c
00000130: 063c 35bc 7030 92bc 1ed5 1d3c fb94 b4bc
00000140: e5d0 a3bc bcd5 35bd 22dc 2e3d b487 69bc
00000150: d756 233c d05a ea3c 892d 763c 3153 293a
00000160: ab7f c5bb 6af3 37bc e390 e5bc 102a 953b
00000170: 0911 803c b1f6 07bd 66b2 2dbc 4ed7 303c
00000180: f547 37bc 385f e63a ffa5 ccba e348 163b
00000190: 4b0c a4bb bfeb cfbc 8897 1abc 774c 04bd
000001a0: b127 bb3c afb5 0b3d 4b49 ec3c b673 23bd
000001b0: 8cb4 9d3b 86b8 65bb 9e34 753c 6ec3 9db9
000001c0: 35fa 8c3c 01f4 4ebb b724 5ebc d799 3d3a
000001d0: e7a9 973c 4fcf 52bb d8bc 5e3a 1bf7 d53b
000001e0: 688d 833c 15f9 be3b 00f5 4ebc 22a3 0abc
000001f0: ac59 713c 6d03 513b 3a40 5a3b 3161 a4bc
00000200: a152 8c3c ea11 eb3c 992a a63c d65d e93b
00000210: 022f eb3c 65b5 a63c 1c3e f6ba 83ae 76bb
00000220: e43a 313c 110b 393c 77b2 5ebc 847d 85bc
00000230: e638 ddbb d231 cabb 4c21 97bc d327 a3bb
00000240: 8966 973c b9fc babb 26b1 693c f769 e4bc
00000250: 620a 2abb 3df5 883c c24c 493b 2ff1 9bbc
00000260: 70a6 02bc 5f22 603c 340b 953a 7fa3 c6bc
00000270: 042e 523b 2ffa 15bc f86a db3b 4cb3 c6bb
00000280: 103b 5c3b e3df 99bb 91cb d63c bbdf c63c
00000290: 9c96 a1bc ca3b 24bb a823 18bc 5790 b4bc
000002a0: 748c 463c 4f45 383d 838e 413b 0b3e 0c3c
000002b0: 5e25 8c3b 89b0 82bb aa52 243b 927f b93b
000002c0: 1a16 5c3b d434 343a e5cb 63bc 243a 9d3c
000002d0: 387d 82bb 908d b1bc bc3d 833c 91b1 213c
000002e0: 9c6c 8abc 24d7 86bc 7f1c 973c 84ae 50bc
000002f0: 800e 393c a48d 2c3c 3dda 94bc 1d9f 573c
00000300: ea63 6bbc 4e5c 1abb 7c01 c7bb 6c63 b93a
00000310: 68a9 f93a c205 aa3b 2b36 4f3c fa43 183c
00000320: ad8d 393c f154 84ba 28a7 8d3c ce99 263c
00000330: 84ae 0a3c 32a4 1f3c 6037 47bc 0b91 473c
00000340: ed20 623c 5db5 fb3c 750d cb3c ba35 5ebc
00000350: 0cb6 3abc 26d7 9c3b 2212 de3c d88a 3e3c
00000360: 054b 9b3b 7135 c3bb d4b6 d4bb 06c5 6b3c
00000370: d3ff 033c 7f2d 0f3d 0926 513b eccd 0c3c
00000380: 281b 06bc a48f 69bc a066 8b3b e57c 023d
00000390: 434f 9ebc 0eb1 9d3a 0b7f 103d f0a9 a93b
000003a0: 3227 203c 32d2 8f3b 2ca8 73bc 9a15 7cba
000003b0: 6fe8 09bb 3d61 96bc a81f 69bb 46d5 663c
000003c0: 861a a7bc df3b 01bc a98d 923a db20 af3b
000003d0: 8ce0 f23c a8c5 933c b914 1fbc 7aa9 7dbc
000003e0: 0bd8 173b 75d7 2abc 7396 b1bc 3619 233c
000003f0: b99a 09bc 8138 ecbb 7c64 b7bc 9ce7 883c
-0.006654964 -0.005685504 0.008683393 -0.019977482 0.0072136815 0.023634655 0.014994415 0.025319584
-0.005696691 0.04095195 0.008898577 -0.0133523485 -0.00075142353 0.0010113542 0.018571414 -0.006944383
0.010268091 0.0037576882 -0.0019052487 -0.02184259 -0.012918025 -0.031975914 -0.016919354 -0.013646757
0.0021726175 -0.008140757 -0.0059236325 0.012669499 0.020809758 0.020066334 -0.0065698526 0.0064802696
-0.004007442 0.007527873 0.001983078 -0.027241183 0.0040443926 0.0077353674 0.01905748 0.0032646328
0.011946265 0.011006137 -0.010982351 -0.009941617 -0.0052476986 -0.020904656 -0.010221947 0.0037701465
0.024860954 0.014065261 -0.018157419 -0.006726044 0.014459761 0.01738515 -0.026554478 0.0049349684
-0.013810894 0.0028008008 -0.012543972 -0.018725116 -0.012384505 -0.0057522748 -0.02262943 -0.011896212
0.013917701 -0.0032166184 0.008240751 -0.016217353 0.0077386545 -0.013148793 0.008562882 0.0017846551
0.0065037794 -0.007604152 -0.018956648 0.016779026 -0.011061674 -0.017845362 0.009633331 -0.022043696
-0.01999707 -0.044393286 0.042690404 -0.014253546 0.009969435 0.028607756 0.015025505 0.0006459235
-0.006027182 -0.011227468 -0.028023189 0.0045521334 0.015633123 -0.033194248 -0.0106016155 0.01079352
-0.0111865895 0.0017575985 -0.0015613436 0.0022931627 -0.0050063482 -0.025380967 -0.009435542 -0.032299485
0.022846075 0.034108814 0.028843543 -0.039905272 0.0048127826 -0.0035052611 0.014966158 -0.0003009098
0.017209152 -0.0031578543 -0.013558558 0.0007232702 0.018513633 -0.0032167023 0.0008496768 0.0065297014
0.016058639 0.0058280327 -0.012631655 -0.008461745 0.014730852 0.003189291 0.0033302442 -0.020065876
0.017129244 0.028695066 0.020283984 0.007121782 0.028708939 0.020350168 -0.0018786821 -0.0037640638
0.010817263 0.011294142 -0.013592354 -0.016295202 -0.0067511676 -0.00617049 -0.018448494 -0.0049791127
0.01848151 -0.0057063964 0.014263427 -0.02788256 -0.002594613 0.016718501 0.0030715917 -0.019035904
-0.007974252 0.01368007 0.0011371137 -0.024247883 0.0032070884 -0.009153887 0.0066961013 -0.0060638543
0.003360454 -0.004695879 0.026220115 0.024276605 -0.019725136 -0.002506005 -0.009285845 -0.022041483
0.012118448 0.044987973 0.0029534406 0.008559714 0.0042769155 -0.00398833 0.0025073686 0.0056609595
0.003358251 0.0006874327 -0.013903593 0.019192763 -0.0039822124 -0.021673948 0.016020648 0.009868995
-0.016897492 -0.016460009 0.018446205 -0.01273692 0.011294961 0.010531817 -0.01817047 0.013160494
-0.014367083 -0.0023553553 -0.006073175 0.001414401 0.0019047679 0.0051886747 0.012647192 0.009293551
0.011325282 -0.0010096115 0.01729162 0.010168506 0.008464459 0.009743737 -0.0121591985 0.012180577
0.013801795 0.03072613 0.02478669 -0.013562614 -0.011395942 0.00478639 0.027108256 0.011629783
0.0047391676 -0.0059572984 -0.0064915214 0.014390236 0.008056599 0.034955498 0.003191354 0.0085940175
-0.0081851855 -0.014255438 0.004254177 0.03185739 -0.019324904 0.0012030916 0.035277408 0.005177729
0.00977497 0.004389071 -0.014871638 -0.0009616256 -0.0021043082 -0.018356914 -0.0035571847 0.014088934
-0.02039839 -0.00788781 0.0011181134 0.005344493 0.029648088 0.018038586 -0.0097095305 -0.015482301
0.0023169543 -0.0104273455 -0.021678185 0.009954741 -0.008398705 -0.007208884 -0.022386782 0.016712002

weight f4 [256, 256]
00000000: 7616 623c dd33 0f3c 0976 0b3d 3033 413c
00000010: d029 4ebb 101c 883c ce99 56bd 8ae6 213d
00000020: 42f4 bbbd 82d5 0f3d 0b8a 303d 0f67 51bd
00000030: 4b70 023e ee5a a9bd b713 dabd efd7 393d
00000040: 5255 36bd 5488 50bd 2aa6 84bd b080 00be
00000050: 7926 423e b64e 3ebe 9efb 143c 1173 59bd
00000060: 3da2 31bd 831e f53d 2566 aebc ca34 47bd
00000070: 7afd 4e3a 4be2 27b7 b5d9 603d 439f 193d
00000080: 3834 25bd dec8 41bc 8d74 2abd d27d 063e
00000090: 45d3 fd3c 720c fcbc 6193 0abb 99a1 6e3d
000000a0: 88fc d13d 0ea6 1ebd e554 8bbd 12f0 d2bd
000000b0: 8c54 f73c a3bc e63c 67bc 513c 6957 433d
000000c0: 1d56 4c3d 3848 f03c 4f8f bc3d c790 033e
000000d0: e464 8cbc c292 ad3d 68e9 41bd 0bf8 963c
000000e0: 9aea 80bd 60fc 6ebb 0613 81bd 014b d5bc
000000f0: 8238 b7bd 0df9 53bd 4e9c 2d3d 8c34 3e3d
00000100: e861 43bb 94c0 643d 6664 2abd fa19 e2bd
00000110: 67f0 64bd 48e6 dd3c 9448 613a 3472 81bd
00000120: a6b2 bd3d 8a9f 63bd b42a 55bd dc63 c83d
00000130: a560 593c 44f7 673c 73fe 30bc 0f17 02bc
00000140: 6432 663d 8888 e8bd cf44 f9bd 50ff 553d
00000150: ac7f af3c 6c88 87bc 90e0 50bc 266b 1fbe
00000160: 89e0 0dbe c593 d9bb ab1f 98bc 2845 9fbc
00000170: ef80 61bc b76e 07bb f94e f43c 8904 3cbd
00000180: dd53 f33a 1d55 2dbd 2205 aa3d a4c0 5a3d
00000190: 6b30 debc 6b47 ac3c d695 acbd e49f b43c
000001a0: 6dd7 8b3d 3697 aa3c eb11 c73c 18f3 dbbd
000001b0: d2e6 6dbd 2368 84bd 3a05 d83c 365a a53d
000001c0: 0a6f c4bc c770 973d ebe5 46bd 6024 1abe
000001d0: 7e6e b63d f8fe edbd dfe1 f33c df66 86ba
000001e0: 9d31 b53d 3520 39bd 3f15 9b3d a9f4 363d
000001f0: 63f3 ee3b f3a3 6dbb 55ec 5b3c e27a 2abd
00000200: 273b 1e3c 2ed8 893d 79f6 24bb b0de 3c3d
00000210: cbd1 e93d 9c45 d8bd cf92 593c d47e 103d
00000220: 9e6c 9f3d cff7 23bc c049 91bd c2a1 51bc
00000230: 930f 44bc ee16 9e3d 6896 ad3b 841a 8a3d
00000240: 4e30 373d 4e0f 323d c072 f73b cb9e 533d
00000250: 4a31 8ebd 89ee e6bd a3c3 9a3d f38c b63b
00000260: 4a1c 7e3c 3b7f b13c e49c 28bd 12bc 903b
00000270: 2b3b 83bc 4b0f 9e3d 09eb c0bc 3550 a5bc
00000280: 6230 8dbd a562 0ebe b5ba 0b3d ffe5 ed3c
00000290: bb73 d83c 5d83 16be abd9 853d 0f1f 37bb
000002a0: e577 82bd 0d1e b9bd 6db8 1fbd a950 2f3d
000002b0: 7187 fe3d 3762 643d e9cf 43bd 95ab 193e
000002c0: 0d48 64bd 1bb6 773d 7ce7 2cbd b1fd 293c
000002d0: 03cd d03c 6586 073c e975 a73d a32c 963d
000002e0: 92f9 98bc ea1e 2b3c 271d 4e3d fe12 10bd
000002f0: d04c d83d e00d 233d 1851 80bd 75a0 bdbc
00000300: 240f c5b9 5090 e53d 6060 f9bd 1bce c23c
00000310: 3159 0dbd b67a e7bd 404b e13d 73d2 e63d
00000320: da2d e13d b007 51bd 413e 47bd afad 053e
00000330: 4d0b b53c 69eb f2bd f28a 71bd b05b 393d
00000340: a238 083e 972a d63c 365a c8bd 1a9b b7bc
00000350: 6350 6bbd 9bef c7bc 0dac 2bbd 76be 963d
00000360: 6300 67bd 66fa d13d e684 29bc 0a66 d33d
00000370: 7c02 72bc f202 dc3b fa5e 39be 3875 7a3d
00000380: c3da 71bd 212d c0bc 7ec7 fb3c bf5b 53bc
00000390: 5d4b 043c 1770 66bc 75a7 9f3d e682 95bb
000003a0: eb9c d33b a94e 34bd f459 babd 3bf6 55bc
000003b0: 0c5f a13c c466 d739 6698 5c3d 9eae 8cbd
000003c0: ae8f d03c fc6e 09bd 85a6 9e3c 452d 3b3d
000003d0: 291b 6e3d 72a3 c13d 8b8b 19bc 31f7 d3bd
000003e0: 1a8b f33d 3375 a43d 714b debc dd95 52bd
000003f0: bf9d f43c 5068 51bd 3e8d c5bd 8476 773d
0.0137993 0.0087403925 0.034048114 0.011791989 -0.0031458028 0.016614944 -0.052392773 0.0395265
-0.09177448 0.035115726 0.043100398 -0.051123675 0.12738149 -0.082692966 -0.106482916 0.045371946
-0.04451496 -0.050911263 -0.06477006 -0.1254909 0.18959989 -0.18584713 0.009093193 -0.05308825
-0.043367613 0.1196871 -0.02128894 -0.048634328 0.00078960473 -1.0006664e-05 0.05489512 0.0375054
-0.040333003 -0.011827676 -0.041615058 0.13133934 0.03098453 -0.030767653 -0.0021144974 0.05825958
0.10253245 -0.03873258 -0.06803302 -0.10299696 0.030191682 0.02816612 0.012801266 0.047690783
0.04988681 0.029331312 0.092070214 0.12848197 -0.017137952 0.084752575 -0.047341734 0.018428823
-0.06294747 -0.0036466345 -0.063024566 -0.026036741 -0.08946325 -0.051751185 0.042385392 0.04643683
-0.0029812995 0.05584772 -0.041599654 -0.11040111 -0.055893328 0.027087346 0.0008593884 -0.06320611
0.0926259 -0.05557207 -0.052042678 0.09784672 0.013267671 0.014158074 -0.010802853 -0.007940068
0.0562004 -0.11354166 -0.12171327 0.052245438 0.021423183 -0.016544543 -0.012748852 -0.15568218
-0.13855185 -0.00663993 -0.018569788 -0.019442156 -0.01376365 -0.0020665356 0.029822813 -0.045902763
0.0018564422 -0.0423175 0.0830176 0.053406373 -0.027122697 0.021030148 -0.084270164 0.022048898
0.068281986 0.020824056 0.024300536 -0.10739726 -0.058081456 -0.06465175 0.02636968 0.08073847
-0.023978729 0.073945574 -0.04855911 -0.15052938 0.089077935 -0.11620897 0.02977079 -0.0010254047
0.088473536 -0.04519673 0.07572412 0.04466692 0.0072921976 -0.0036261051 0.013423045 -0.041621096
0.009657658 0.06730686 -0.0025171323 0.04611081 0.11416968 -0.10560152 0.013279631 0.035277203
0.07784389 -0.010007813 -0.07094145 -0.012794914 -0.011966604 0.07719217 0.005297471 0.06743339
0.0447238 0.043471627 0.007551521 0.05166511 -0.06942995 -0.11275966 0.07556846 0.0055710017
0.015509674 0.021667114 -0.041165248 0.004416951 -0.016019424 0.07717761 -0.023549573 -0.020179847
-0.06893994 -0.13904817 0.034113605 0.029040335 0.026422372 -0.14698549 0.065356575 -0.0027942096
-0.06370524 -0.09038935 -0.03899424 0.042801533 0.12428177 0.055757727 -0.0478057 0.1500686
-0.055732775 0.060476404 -0.04221295 0.010375426 0.025488382 0.008271788 0.081767865 0.073327325
-0.018673692 0.010444382 0.05032077 -0.035174362 0.10561526 0.039808154 -0.062654674 -0.023147801
-0.0003758605 0.11209166 -0.12176585 0.02377992 -0.034508888 -0.11302702 0.11000681 0.11270609
0.109950736 -0.051032722 -0.048643354 0.13054536 0.022100115 -0.11861307 -0.0589704 0.045253456
0.13302854 0.026143355 -0.09782831 -0.022412825 -0.05744971 -0.024406245 -0.041912127 0.07360546
-0.056396853 0.10252838 -0.010346627 0.10322197 -0.0147711 0.0067142183 -0.18102637 0.061146945
-0.059046518 -0.02345902 0.030734774 -0.012900292 0.008074609 -0.01406481 0.07795612 -0.0045627235
0.006457915 -0.04402033 -0.090991884 -0.013059194 0.019698642 0.00041084562 0.053856276 -0.06869243
0.025459137 -0.03355311 0.019366512 0.04569747 0.05813137 0.09455003 -0.009371649 -0.103498824
0.11891766 0.080301665 -0.027135583 -0.051412452 0.029860375 -0.05112487 -0.096460804 0.06041576

bias f4 [256]
00000000: 2874 e2bc 4638 523c 3da0 083c fe44 1bbc
00000010: 0946 16bc bc82 7d3c dd4a 8dbc 5f61 ac3c
00000020: 7e64 5a3c d887 343b fdd1 3c3c c364 95bc
00000030: 7778 583c 34d0 c03b 8368 acbc 798e c2bc
00000040: b0b8 adbc 5df9 adbc 03ba c0bc ec12 7a3c
00000050: 5dd7 2abb 494a e33c 96d0 98bc 2037 54bc
00000060: 9013 8d3c eb4d e6bc 77cd ac3c f637 debb
00000070: 59f9 553c b94e 2a3c f169 1abc bcb2 533c
00000080: 851a 3c3c 3448 7dbc 087d 7a3b f247 523c
00000090: 936a 98bc 0706 70bc 93ce 233c 4521 51bc
000000a0: b067 babc 3122 863c 04b0 b3bc 1734 3abc
000000b0: 2a6e 4ebc 9ecf 893c bcfa 21bc cff8 973c
000000c0: bf19 62bc d620 01b9 270c 863c 832b 95bc
000000d0: 663a aebb 6302 853c dc00 993c 13ec 5fbc
000000e0: 76f3 cebc 4111 953c 8698 9dbc 8228 603c
000000f0: 40c9 713c 705c 42bc b6cb 80bc ed2b 163c
00000100: 5434 78bc c48e 7dbc aff6 1dbc 8097 65bc
00000110: 0fb0 85bc 8283 203c 77fc 4f3c a092 90bc
00000120: c464 783c eb43 80bc 9685 7dbc 96bb d33b
00000130: d121 b43c 514a 39bc 10d7 6c3c 3f1d 4cbc
00000140: 36de 91bc 12c9 3dbb 5538 06bc 2824 203c
00000150: 9c3f 1c3c 5e28 f1bb c8a8 7abc 5eeb 9ebc
00000160: 73ca eabc cd50 6c3c 896c 2d3c f96b 9bbc
00000170: f6d3 b2bc b57d 943c 25a5 873c 2654 433c
00000180: 6c15 6e3c 9a16 7fbc ab7b 7b3c 2290 1dbc
00000190: 4fe3 4cbc bd62 0dbc ca02 bebb b8f3 88bc
000001a0: 7e1f 4bbc c038 5bbc 04c7 65bc 19de 58bc
000001b0: d98f f8bb e61d 0c3c 7d8d 8dbb 5cc2 3fbc
000001c0: e1b4 323c fd76 54bc 6216 78bc 51b5 c7bb
000001d0: 8dee 923c d55b d4bc 135d a63c 0f8b 81bc
000001e0: bcdd 6d3c 94e2 613c 0db6 81bc d624 a9bb
000001f0: 7103 aebc a99b 7d3c 8092 413c 841f 9dbc
00000200: 0cd7 4a3c 5330 3abc 53f7 273c eaa6 d4bc
00000210: 85b7 773c c62b 4cbc d392 563c aeb9 f73b
00000220: 8bea bf3c 2151 893c f91b 60bc 2f3b 6dbc
00000230: 3c12 eebb fa98 e63b 699b 903c 67ac 70bc
00000240: e3f4 253b ae82 953c fea8 d9bb 6b5c 7a3c
00000250: ddb9 39bc fe92 303c 7a29 35bc ec67 a7bc
00000260: 7d9b b7bc 159b 9abc 2633 55bc 7599 cf3c
00000270: a671 143a 8441 43bc 9261 7bbc c422 2abc
00000280: 314f 613c 9c17 8e3c 10db cbbc 2a72 913c
00000290: a378 763c b356 583c 2c9f 713c 2ebf a9bc
000002a0: d516 9bbb 9b5a 79bc 3ae8 883c 4b3b 83bc
000002b0: 79c7 25bc 88cc c1bb 063d d5bc d182 2b3c
000002c0: f074 343c 3fcf 78bc 784b a83b a1e3 87bc
000002d0: 48c3 2e3b 0d49 8e3b bbc1 38bc f3c8 ec3b
000002e0: ad78 223c 922a 233c c436 de3c f1e5 cb3c
000002f0: 6378 16bc f46e 3dbc 2f56 d5bc 9ce9 bd3c
00000300: 7836 95bc 2641 35bc e27f 52bc 33ff 253c
00000310: 072a 54bc 1289 9c3c 7bd4 b7bc 50b1 a4bc
00000320: 7887 44bb aa11 07bc 2c53 693c 0c9e 95bc
00000330: 6470 8abc ec55 893c e6a0 9dbc 931f 353c
00000340: fbd9 92bb 2ef3 c6bc 6828 593c b6e5 ea3b
00000350: db83 683c 8bd4 8e3c fd3d e23c c70f 8e3c
00000360: 3316 c63a 40f0 5d3c 0287 57bc 5b46 763c
00000370: 4f91 a7bc d915 8f3c f922 e4bc aa20 2dbc
00000380: eaf2 a93c ea85 913c 2479 1cbc e7f5 37bc
00000390: 67c0 343c bfe3 553c 9d52 ce3c 359a 053c
000003a0: e01f e63c 87a2 6b3c 7ce8 903c f094 943a
000003b0: 14e5 bb3c d4d9 7dbc feb8 253c 6aa9 523c
000003c0: cb01 9a3c 4b64 89bc 8d89 cdbb 2ed0 863c
000003d0: bc0d 23bc 7f95 5a3c 9bb1 5a3c 0967 233c
000003e0: 2cf0 813c 825d 883b fae2 55bc 5004 4ebc
000003f0: 2cd4 a13c 69a3 c13b bab3 733c a627 203c
-0.027643278 0.012830799 0.008338985 -0.009476898 -0.009171971 0.015473064 -0.017247612 0.021042524
0.013329623 0.002754679 0.0115246745 -0.018236523 0.013212315 0.0058841947 -0.021045929 -0.023749577
-0.02120623 -0.02123707 -0.023526197 0.0152633 -0.0026068308 0.027745383 -0.018654149 -0.012952596
0.017221242 -0.028113326 0.021094067 -0.0067815734 0.013059937 0.0103947455 -0.009424672 0.012921032
0.011480932 -0.015459109 0.0038221497 0.012834536 -0.018605506 -0.0146498745 0.009997982 -0.01276428
-0.02275452 0.016373726 -0.021934517 -0.011364958 -0.012599507 0.016822632 -0.00988644 0.018551258
-0.013800084 -0.00012314631 0.016363217 -0.018209225 -0.00531702 0.01623649 0.018677168 -0.013667124
-0.025262576 0.018196704 -0.019237768 0.013681533 0.014757454 -0.011862859 -0.015722137 0.009165746
-0.015149195 -0.0154759325 -0.0096413335 -0.014013171 -0.016319303 0.009796979 0.01269447 -0.017648041
0.015160743 -0.015657386 -0.015473744 0.006461571 0.021988781 -0.011309222 0.014455572 -0.012458145
-0.017806154 -0.0028958959 -0.008192142 0.009774245 0.00953665 -0.0073595485 -0.01529903 -0.019399341
-0.028660988 0.014423561 0.010584959 -0.018972384 -0.021829586 0.018126348 0.01655824 0.011921918
0.014531475 -0.0155693535 0.015349309 -0.0096168835 -0.0125053665 -0.008629498 -0.0057986723 -0.016717777
-0.012397645 -0.0133802295 -0.0140245 -0.013236546 -0.0075855074 0.00855205 -0.0043198452 -0.011704054
0.010907383 -0.012967822 -0.015142055 -0.0060946126 0.017936016 -0.025922695 0.020308053 -0.015813379
0.014518198 0.013786931 -0.015833879 -0.005161862 -0.021241875 0.015479007 0.0118147135 -0.019180067
0.012380373 -0.01136406 0.010251838 -0.025958497 0.015119438 -0.012461608 0.013096529 0.0075599765
0.023427268 0.016762318 -0.013678544 -0.0144794425 -0.0072653573 0.007037279 0.01765223 -0.014689541
0.0025322966 0.01825079 -0.00664246 0.015280823 -0.011335817 0.010777233 -0.011057252 -0.020435296
-0.02241301 -0.018872777 -0.013012683 0.025341729 0.0005662687 -0.011917476 -0.015343087 -0.010384265
0.013751791 0.017345242 -0.02488473 0.017754633 0.0150434105 0.013204264 0.014747422 -0.020721044
-0.0047329464 -0.015219356 0.016712297 -0.016019484 -0.010118359 -0.0059142746 -0.026030075 0.010468201
0.011014208 -0.01518613 0.0051359497 -0.016588034 0.002666669 0.0043422044 -0.011276658 0.0072261035
0.009916467 0.00995888 0.027125724 0.024889918 -0.009183976 -0.011562098 -0.026042072 0.023182683
-0.01821445 -0.011062896 -0.012847872 0.010131645 -0.012949473 0.019108329 -0.022440186 -0.02010408
-0.0029987972 -0.008243958 0.014241021 -0.01826384 -0.016899295 0.016764604 -0.019241761 0.011054891
-0.0044815517 -0.024285879 0.0132542625 0.007168497 0.014191593 0.017435333 0.027617449 0.017341508
0.0015112817 0.01354605 -0.013154747 0.0150314225 -0.02045503 0.017466472 -0.027848708 -0.01056687
0.020745713 0.01776405 -0.009550367 -0.011228061 0.0110322 0.013054787 0.025185877 0.008154442
0.028091371 0.014382011 0.017688982 0.0011335891 0.022936381 -0.015493829 0.010114906 0.012857774
0.018799683 -0.016771456 -0.006272501 0.01645669 -0.009952005 0.013341307 0.0133480085 0.009973296
0.015861593 0.0041615376 -0.013054604 -0.01257427 0.019754492 0.0059093726 0.014874393 0.009775078

weight f4 [1, 256]
00000000: 4af1 cabd 1a48 aa39 811b d33c 5e1d 3bbd
00000010: 3b62 6fbc bbaa 063c 6768 68bd d6b1 cb3c
00000020: fe2e 8c3d fd0a 0db9 b4bd 453c 94f8 b5bd
00000030: eb8b 2b3c 8ed9 523b 4c58 90bd cbc0 f5bc
00000040: ae78 f6bd 0ad1 bdbd 5d39 b2bc dc30 4dbb
00000050: 24c8 7839 5686 3b3d b21c 67bc b519 91bc
00000060: 2309 573c bc32 26bd 9ca2 833d 72d1 933a
00000070: c70d f13c 9bec b13c f676 94bb aee8 433d
00000080: ae07 223d c7a0 c43a 97af 043c 8436 743d
00000090: ae27 5abd d2f7 d3ba cbf9 36bb ca32 9739
000000a0: c5f8 1dbd c960 f0bb 7009 4abd d316 71bd
000000b0: 6654 aabd f80d db3c 5917 b4bd e972 153c
000000c0: 3f2e e6bd 9b4b 0cbb e286 003d 9f41 5abd
000000d0: 8a0f 44bd 3fae a13c 4576 cb3c ee52 90bb
000000e0: c9ba 40bc c536 b53d ef88 34bd 6f9f 743c
000000f0: e232 6a3c f24f 06bd 210d 84bb ac15 36bb
00000100: 1f86 2bbe ede2 2bbd 0da5 64bc 2917 2fbd
00000110: 337f aaba 74f0 ac3a 59b1 e43c 8722 37bd
00000120: a923 823d 63b1 97bc 499e c2bd bc26 c63b
00000130: 1135 8c3c d9cb 4bbd 595b 873d c17e 17bc
00000140: 8ee8 84bb 4119 923b f86f 66bc 79a7 5d3a
00000150: aeb3 bb3c 795c 80bd 79de 88bc 03c5 05bd
00000160: 5137 fcbd f2ed 523d 94ee 233d 066c 6ebd
00000170: b87d 14bd 2a20 093d 3e15 883c 7ba7 0b3c
00000180: a184 e23b 70c7 e33b babc 4a3d 3912 78bd
00000190: 96f7 f3bd ec44 3cbd f8c2 80bd 8931 b2bd
000001a0: 3360 93bc ea46 acbc 664d 78bd a8ed 35bd
000001b0: aaa6 c73b 53c1 313b 3d2c 513a 4e2a f6bd
000001c0: 04c7 643d 5228 29bd 3a89 80bc 7b4c 54bb
000001d0: 1130 c63d a268 45bd fbc7 643d 307b e2bb
000001e0: dfe4 483c 04f7 e63b 8285 dabd 3987 023b
000001f0: 0170 37bd 26d3 cd3c 7ab8 a93b 8838 84bd
00000200: 507e d73c 6028 e2bc 4c0e 703d fcf7 00be
00000210: 5849 d03b d92c 083c aeb5 093d a096 5cbb
00000220: 3d90 173e bf85 b53c 35f8 34bc 7c70 aabc
00000230: b57a 1a3b 789d aab8 0474 863d 9f4e 4e3b
00000240: f87a a0b9 eaa0 873d 818b d2bd cd57 783c
00000250: ad38 08bd fe44 0e3d 50f0 dcbd 9d47 f2bd
00000260: 1ef0 b7bb d448 a2bd e3f2 42bd 2780 cf3d
00000270: f85a 3bbd 6233 adba ce27 8ebd c6d1 54bd
00000280: 5e3a 863b e81d 3b3d 9b24 2bbd 2014 ec39
00000290: 995c cb3c 67f2 3b3c 9157 913b 7824 24be
000002a0: b754 38bd bd93 21bd f31d db3c 6a3b 5d3a
000002b0: 84dd b4bb 5b84 76bb c2a3 9dbd b8a5 a83d
000002c0: 6713 3e3d 2f45 b0bd 8e2a 0a3d 1505 ccbc
000002d0: be26 313b d3d4 723d c1ed 1dbc 1549 1e3d
000002e0: 5baa 9a3d d3df 0e3d dc53 243c 905b 793d
000002f0: 1e2c cfbb 6186 febd 6fa1 e8bd 4bc9 cc3d
00000300: 4b4d e8bc bcbd 10be 448a 7ebd 6a4d d33c
00000310: 2be3 7abd 26da 6f3d c100 25bc 8db7 2abd
00000320: 04ef dcbd d3af 93bd 806f 123d 1afa 41bc
00000330: 887e 22bd 9203 8a3d 50a1 2e3c 0a23 9b3d
00000340: 7752 f3ba e7d3 0abe 055d 123b 19be 893d
00000350: e8e8 9e3c f539 ad3c b745 b63d 8633 853c
00000360: a528 d43a 1152 cc3d 9fb4 d0bd e113 523d
00000370: 3a3b 6ebd 2aaa cf3d a80b 0cbb daaf e0bc
00000380: d68c 4d3d ebfe ea3c d7b6 0abd a2fb 7abc
00000390: 4f9f 2d3d 96f7 1b3b f384 893d 9b6c 5f3d
000003a0: f278 f03c 5b15 9e3c 769d 143d e0a9 893d
000003b0: 2d83 c3bb ad89 afbd 441c aa3c 2417 123d
000003c0: 58d6 223d c1e3 99bd 6781 143b 4c2c eb3a
000003d0: a91c 96bd 3f99 093d f4fd 093c e2f5 253d
000003e0: c3c8 2b3d 15c5 943c e6e2 44bd 301b 61bb
000003f0: fcd6 e6ba 5e41 2c3c 6139 183c e6c9 9d3b
-0.099093035 0.00032478647 0.02576995 -0.045682304 -0.014610822 0.008219416 -0.05674019 0.024865072
0.068449005 -0.00013450901 0.0120691545 -0.08885303 0.010470371 0.003217313 -0.07048091 -0.029999157
-0.120347366 -0.09268387 -0.021755869 -0.003130964 0.00023725681 0.04578241 -0.014105963 -0.017712453
0.013124737 -0.040575728 0.064275 0.001127763 0.029425515 0.021719268 -0.004530783 0.047829323
0.039558105 0.0015001529 0.0080985045 0.059622303 -0.053260498 -0.0016171879 -0.0027919884 0.00028838805
-0.038567323 -0.0073357564 -0.049325407 -0.058859657 -0.08316879 0.02674006 -0.08793516 0.009121635
-0.112392895 -0.002140737 0.031378634 -0.053285237 -0.04786638 0.019736407 0.024836669 -0.0044044172
-0.011763283 0.08848337 -0.044075903 0.01493059 0.014294358 -0.032791086 -0.0040298854 -0.0027783914
-0.16750382 -0.04196446 -0.013955367 -0.042746697 -0.0013007879 0.0013194219 0.027916597 -0.044710662
0.06354458 -0.018517202 -0.09502847 0.006047098 0.017115148 -0.04975495 0.0660922 -0.009246529
-0.004056043 0.004458577 -0.014064781 0.00084554363 0.022912826 -0.06267638 -0.016707646 -0.03265859
-0.12315238 0.051496454 0.040022448 -0.058208488 -0.036252707 0.03347794 0.016611692 0.008523817
0.0069127833 0.006951265 0.04949639 -0.060564253 -0.11912458 -0.045964167 -0.06287187 -0.08700854
-0.017990207 -0.021029908 -0.060620688 -0.0444161 0.006092866 0.0027123287 0.00079793093 -0.12019788
0.05585386 -0.041298218 -0.015690435 -0.0032394219 0.09677137 -0.04819549 0.05585478 -0.0069116578
0.012261598 0.0070484895 -0.10669996 0.0019917025 -0.04478455 0.025125097 0.005179462 -0.06456095
0.026305348 -0.027607143 0.058607385 -0.12594599 0.0063563995 0.008311474 0.03362053 -0.0033659115
0.14801116 0.022158502 -0.011045505 -0.02080559 0.0023571674 -8.1355625e-05 0.06565097 0.0031479967
-0.00030609197 0.06622489 -0.102805145 0.015157652 -0.033257175 0.034733765 -0.107880235 -0.118300654
-0.005613341 -0.07924047 -0.047594916 0.10131865 -0.04574105 -0.0013214166 -0.06941186 -0.051957868
0.0040963134 0.045682818 -0.041782957 0.00045028422 0.024824427 0.011471367 0.0044354876 -0.16029537
-0.045002665 -0.039447535 0.02674768 0.00084393343 -0.005519571 -0.003761551 -0.0769725 0.08234733
0.046405222 -0.08606946 0.03373199 -0.024904767 0.0027031149 0.059284996 -0.0096392045 0.038643915
0.07552024 0.034881424 0.010029759 0.060878336 -0.006322398 -0.124279745 -0.11358916 0.09999331
-0.028357169 -0.14134878 -0.06214358 0.02579375 -0.0612518 0.058557652 -0.0100709805 -0.041678954
-0.10787776 -0.0721127 0.035750866 -0.011839414 -0.03967145 0.06738962 0.010658577 0.075750425
-0.0018564005 -0.13557397 0.0022333276 0.067257114 0.019398168 0.0211458 0.08900016 0.01625992
0.001618643 0.099765904 -0.10190701 0.05128849 -0.05816195 0.10139878 -0.0021369252 -0.027427603
0.05018314 0.028686007 -0.033865776 -0.015318783 0.042388257 0.0023798696 0.06714811 0.054546934
0.029354546 0.019297292 0.03628298 0.06721854 -0.005966565 -0.085711814 0.020765431 0.0356666
0.039755195 -0.07514144 0.0022660138 0.0017942279 -0.07329685 0.033593412 0.008422364 0.040517695
0.04193951 0.018160382 -0.04806795 -0.003434848 -0.0017611678 0.010513632 0.009291024 0.004815328
