trained_models/ppo/me5418-Cassie-v0/0528-14-45-08-s3737/critic.pt (torch, 319998 bytes, 5 tensors)

weight f4 [256, 50]
0	0xbd1d6eae	-0.03843563
1	0xbdccbb03	-0.09996607
2	0x3df42e8a	0.11922939
3	0xbc49cd7c	-0.012317058
4	0xbda50a17	-0.08058565
5	0x3b014d65	0.0019729969
6	0x3df58a37	0.11989253
7	0x3c4df415	0.012570401
8	0xbd0a73e9	-0.033801947
9	0x3c12d870	0.0089627355
10	0x3e01e3c5	0.12684543
11	0x3d921381	0.07132626
12	0x3d9d1b26	0.07671194
13	0xbd186962	-0.037209876
14	0x3caafab3	0.020871496
15	0x3cdb0fab	0.02674087
16	0xbe713b11	-0.23557688
17	0xbcadeb09	-0.021230238
18	0x3d938a07	0.07204061
19	0xbbf61788	-0.0075101294
20	0xbe81aaee	-0.25325722
21	0x3cf97c58	0.0304548
22	0xbd0a1365	-0.033709902
23	0xbd4638f0	-0.048394144
24	0xbd0d95b2	-0.03456659
25	0xbd26710b	-0.04063515
26	0x3cb06043	0.021530276
27	0xbd200664	-0.039068595
28	0x3bdc8e50	0.006730832
29	0xbcd51d1c	-0.026014857
30	0x3aeb0471	0.0017930401
31	0xbd2a9ce8	-0.041653544
32	0xbc0e1c8c	-0.008673798
33	0x3c9e5fbc	0.01933276
34	0xbc802aeb	-0.015645465
35	0xbc2f2468	-0.010689832
36	0x3e3e85f5	0.18605788
37	0xba137212	-0.0005624603
38	0x3c68cc7a	0.014208907
39	0x3d896c0e	0.06710063
40	0x3c87708e	0.016533162
41	0x3cff4b4f	0.03116384
42	0x3c81abcb	0.015828988
43	0x3b34dc6f	0.002759721
44	0xbcb41d18	-0.02198653
45	0xbd24580f	-0.04012304
46	0xbc7e87bb	-0.01553529
47	0x3de9b82b	0.114120804
48	0x3dbe5870	0.09294212
49	0xbdaf1d29	-0.08550484
50	0x3d742048	0.0596011
51	0x3c2b311b	0.010448719
52	0xbe0754b6	-0.13215908
53	0x3d6df5e3	0.058095824
54	0x3e18a8e1	0.14908172
55	0xbdfc7929	-0.12327797
56	0xbd530782	-0.051520832
57	0x3d883a10	0.066516995
58	0x3d685ac6	0.056727193
59	0x3d616be7	0.055034544
60	0xbdcb47ed	-0.09925828
61	0xbd93dc0c	-0.07219705
62	0x3e0b8ae0	0.13627195
63	0x3dc1828d	0.09448729
64	0x3cfe08ed	0.031010116
65	0xba828f9a	-0.000996101
66	0xbcd202a6	-0.025636028
67	0x3dc31043	0.09524586
68	0xbe1e00c1	-0.15429975
69	0x3d529f45	0.051421423
70	0x3d6d057d	0.057866562
71	0x3d327073	0.04356427
72	0xbc587e66	-0.0132137295
73	0x3d6ea656	0.0582641
74	0x3d92aa49	0.071613856
75	0xbd9f1416	-0.07767503
76	0xbde48c25	-0.11159543
77	0x3c0484e8	0.008088328
78	0x3e049ad6	0.1294969
79	0x3d6c3875	0.05767103
80	0x3da12f38	0.078703344
81	0xbc240db0	-0.010013029
82	0x3c92fb96	0.017942231
83	0x3e4475c3	0.19185548
84	0xbe067e6e	-0.13134167
85	0x3d25ef46	0.040511392
86	0x3d5a03d6	0.053226314
87	0xbcb8acf8	-0.022543415
88	0x3d2033c7	0.03911188
89	0xbe129568	-0.14314806
90	0x3d8597d1	0.06523097
91	0x3e27349d	0.16328664
92	0x3bff06d6	0.0077827973
93	0x3be1a966	0.006886649
94	0x3cac916f	0.021065442
95	0x3ccb606f	0.024826257
96	0x3e1c5556	0.15266928
97	0x3d9bab5f	0.07601046
98	0x3d69019d	0.056886304
99	0xbdad7f26	-0.08471517
100	0x3d7b5674	0.061361745
101	0xbced6172	-0.02897713
102	0xbdcfe675	-0.10151378
103	0xbc0d7085	-0.008632784
104	0xbc953f9a	-0.018218804
105	0xbd98ec87	-0.07466989
106	0x3d692676	0.056921445
107	0x3e1a0f56	0.15044913
108	0x3ca56833	0.020191288
109	0x3da66e44	0.081265
110	0xbb426496	-0.0029662005
111	0x3e0feff8	0.14056385
112	0x3cce583f	0.025188563
113	0xbda3883b	-0.07984968
114	0xbdb1f6ea	-0.08689673
115	0xb97382f1	-0.00023223065
116	0x3de1d80b	0.11027535
117	0xbe224809	-0.15847792
118	0xbd559bee	-0.05215066
119	0x3d1658b5	0.03670569
120	0xbdab6db9	-0.08370537
121	0xbdaabec0	-0.08337164
122	0x3d66f2a9	0.056383763
123	0x3d995e4d	0.074886896
124	0x3dd3c316	0.10339944
125	0x3d95bb05	0.07311062
126	0xbe428881	-0.18997385
127	0x3d264dd0	0.04060155
128	0x3cfad396	0.03061847
129	0xbd45ede4	-0.048322573
130	0x3bec845a	0.007217926
131	0x3ddaf4b6	0.10691206
132	0xbe3bd9b9	-0.18344773
133	0x3d8dbeb8	0.06921142
134	0xbd0e7148	-0.034776002
135	0xbd52ff90	-0.051513255
136	0x3ced75ac	0.028986774
137	0xbd74c97e	-0.05976247
138	0xbd5decca	-0.054180898
139	0xbb5524e9	-0.003252322
140	0xbd9ab973	-0.07554903
141	0x3c5ecf83	0.013599279
142	0xbe141eb2	-0.14464834
143	0xbd96c0f5	-0.073610224
144	0x3ca30719	0.019900845
145	0xbbf075d2	-0.007338264
146	0xbcb49b7f	-0.022046803
147	0x3c808d16	0.015692275
148	0xbb945848	-0.0045271255
149	0x39b6f7dd	0.00034898418
150	0x3aace7ac	0.0013191602
151	0xbc8a2513	-0.016863381
152	0xbe45fd99	-0.19335021
153	0x3e33ef21	0.17571689
154	0x3d949614	0.07255188
155	0xbe18683c	-0.14883512
156	0xbe0c49a4	-0.13699967
157	0x3dc0dd96	0.09417264
158	0x3d419a28	0.047266155
159	0x3bd2ea23	0.0064366027
160	0xbe226822	-0.15860036
161	0xbe0950e9	-0.13409771
162	0x3dfaf7b3	0.12254276
163	0x3e39c004	0.18139654
164	0x3d8d410a	0.06897171
165	0x3d012e3e	0.03153824
166	0x3c5aad68	0.013347007
167	0xbcf6ee87	-0.030143036
168	0x3c95470d	0.018222356
169	0xbd8880b6	-0.06665175
170	0x3dbfd74e	0.09367238
171	0xbc93cc53	-0.018041765
172	0xbcd67edf	-0.026183544
173	0xbbba5e87	-0.005687538
174	0x3d26b624	0.040701047
175	0x3d694403	0.056949627
176	0xbc32bf98	-0.010909937
177	0xbbbb679c	-0.0057191383
178	0x3ca860fd	0.02055406
179	0xbd92f465	-0.07175521
180	0x3c629eab	0.013831775
181	0xbcae7de5	-0.021300266
182	0x3c44f157	0.0120204305
183	0xbcfcf9ed	-0.030880893
184	0x3d5e51c9	0.054277215
185	0xbd34c1b5	-0.044130046
186	0xbdb07f56	-0.086180374
187	0x3dce58c0	0.100755215
188	0xbe29b582	-0.16573146
189	0x3d2a7f84	0.041625515
190	0x3d4045a4	0.046941414
191	0x3d0c1fda	0.034210064
192	0x3d6d77f9	0.057975743
193	0xbd6e5ed2	-0.058195896
194	0x3c3923c4	0.011300031
195	0xbd625598	-0.05525741
196	0x3dcc546a	0.09977038
197	0xbe248075	-0.16064627
198	0xbda5a14d	-0.08087406
199	0xbce9fdf9	-0.028563486
200	0x3c69866e	0.014253242
201	0xbd8cd6f7	-0.06876939
202	0xbd9aa6cf	-0.075513475
203	0xbcf58d5c	-0.029974632
204	0xbdc6a224	-0.096988946
205	0x3d5fce5f	0.05464017
206	0x3da58064	0.08081129
207	0xbe201938	-0.1563462
208	0xbd9eed47	-0.07760101
209	0x3dd3c412	0.10340132
210	0x3cc63e17	0.024199529
211	0x3d0add34	0.033902362
212	0xbcba358b	-0.02273061
213	0x3e1063e9	0.14100613
214	0x3db7dda4	0.089778215
215	0xbcf4361e	-0.029810961
216	0x3d9888c7	0.07447963
217	0xbce95592	-0.028483186
218	0xbd45be7e	-0.04827737
219	0x3db62197	0.088931255
220	0x3c7a21e4	0.015266869
221	0x3d3c5a69	0.04598466
222	0x3c99a575	0.018755654
223	0xbcbb2143	-0.022843009
224	0x3d17ec5c	0.037090644
225	0xbd52b008	-0.051437408
226	0x3d10a7b9	0.035316203
227	0xbb55f44f	-0.003264684
228	0x3d1f702a	0.038925327
229	0xbd81ffeb	-0.063476406
230	0xbd844cd1	-0.06459964
231	0xbc0b0bd1	-0.008486704
232	0x3dee73b4	0.11643162
233	0xbdb9b4df	-0.090677015
234	0x3b4e0ce0	0.003144078
235	0x3c23fd9d	0.010009197
236	0x3cc918bd	0.024547929
237	0x3e127ccb	0.14305417
238	0xbc1cb764	-0.009565208
239	0x3dec01cc	0.1152378
240	0xbb90816d	-0.00440996
241	0x3d22070d	0.039557505
242	0xbe0a5328	-0.13508284
243	0x3ba28f5d	0.004960938
244	0x3ce81620	0.028330863
245	0xbd4a6ab9	-0.049418185
246	0xbe4b5b05	-0.1985894
247	0xbd7f2ad7	-0.062296715
248	0x3d9589b3	0.07301655
249	0x3de34a30	0.110981345
250	0xbd4e1d43	-0.050320875
251	0xbdc80fa1	-0.09768606
252	0x3dbeda87	0.093190245
253	0xbd412f7d	-0.04716443
254	0xbe277a65	-0.16355284
255	0x3de17597	0.110087566

bias f4 [256]
0	0xbc273b43	-0.010207
1	0xbcc58467	-0.024110986
2	0x3c8c9c4c	0.017164372
3	0xbbc18adc	-0.005906446
4	0x3cff9ef5	0.031203726
5	0x3b9e1e16	0.004825364
6	0x3cb084ce	0.021547701
7	0xbc542536	-0.012948325
8	0x3c4b481a	0.012407327
9	0x3ca5a309	0.020219343
10	0x3cc92212	0.024552379
11	0xbcd43622	-0.025904719
12	0x3d043e6a	0.032286085
13	0x3d45096d	0.048104692
14	0x3ba7b06c	0.0051174667
15	0xbcb47ea1	-0.022033038
16	0x3cc63407	0.02419473
17	0xbcc26f22	-0.023734633
18	0xbcf4865e	-0.029849228
19	0xbacfcac2	-0.0015853273
20	0xbb95ea87	-0.004575077
21	0xbced605d	-0.028976614
22	0x3cc857fb	0.024456015
23	0x3c7486a0	0.014924675
24	0xbc3427a1	-0.010995776
25	0xbca631c8	-0.02028741
26	0x3becf11c	0.007230891
27	0x3ae7647f	0.0017653852
28	0xbcb9cfdc	-0.022682123
29	0xbcc366bd	-0.0238527
30	0xbc795d55	-0.015220006
31	0x3c7f825b	0.015595044
32	0xbc922e2f	-0.017844288
33	0xbb140c69	-0.0022590405
34	0x3ba19b7b	0.004931865
35	0x3c7078ca	0.014677236
36	0xbc67a5cf	-0.014138653
37	0xbd021604	-0.031759277
38	0x3cb8daed	0.02256533
39	0x3c8414b1	0.016123148
40	0x3c195bb2	0.009360241
41	0xbc8ae7db	-0.01695626
42	0xbc96e010	-0.018417388
43	0xbc00aa1b	-0.007853056
44	0xba3bfce8	-0.000717117
45	0xbd122915	-0.03568371
46	0x3ad5cfbe	0.0016312522
47	0x3d0b3ca5	0.033993382
48	0x3ae3e72c	0.001738762
49	0x3cac7607	0.021052374
50	0xbcad96f5	-0.021190146
51	0xbd230259	-0.03979716
52	0x3bd71241	0.0065634553
53	0x3cde4cee	0.027136292
54	0xbc8d04bc	-0.017214172
55	0xbcf7608c	-0.030197404
56	0x3c81b6c1	0.015834214
57	0x3d16148e	0.036640696
58	0x3c48d991	0.012258903
59	0xbd77d687	-0.060507324
60	0xbb83276a	-0.0040025013
61	0xbbd65341	-0.0065406864
62	0x3d303fd6	0.04302963
63	0xb9102ae6	-0.00013748891
64	0xbd196dee	-0.037458353
65	0xbb481781	-0.0030531588
66	0x3bdcc7ee	0.0067377007
67	0xbc40c0c1	-0.011764706
68	0x3c8018f3	0.015636897
69	0xbd4d4b2d	-0.05012052
70	0x3cb2c4ce	0.02182236
71	0x3c598d20	0.013278276
72	0xbcc80c60	-0.024419963
73	0xbbd825ff	-0.0065963264
74	0x3b65296a	0.0034967312
75	0xbd7152a5	-0.058916707
76	0xbc9e6f1a	-0.019340087
77	0x3a6efe47	0.000911687
78	0xbb601c5b	-0.0034196589
79	0xbb80e844	-0.003933938
80	0x3c19da15	0.009390374
81	0x3c66ab0b	0.014078866
82	0x3c2c0d46	0.0105012115
83	0x3c297a37	0.01034408
84	0xbc9d1004	-0.019172676
85	0xbcc62a2f	-0.024190037
86	0xbc1028d0	-0.008798793
87	0x3caaf0d8	0.020866796
88	0xbc7d0b4b	-0.015444587
89	0x3b959b24	0.0045656133
90	0x3c34f9b5	0.011045863
91	0xbc3d2c1e	-0.011546163
92	0xbc345e37	-0.011008791
93	0x3d093fb6	0.033508025
94	0xbd371f2c	-0.044707462
95	0xbc36304f	-0.011119916
96	0x3b8251fc	0.0039770585
97	0xbc8b1567	-0.016977979
98	0x3c3502a8	0.011047997
99	0xbc23bff4	-0.009994496
100	0x3cac55d6	0.021037024
101	0x3d513c45	0.051082868
102	0x3cc1c22c	0.023652159
103	0xbb2c1a0e	-0.0026260647
104	0xba500254	-0.0007934917
105	0xbc55bf4a	-0.013046095
106	0x3ba5b5cd	0.0050570727
107	0x3d02f8a7	0.031975415
108	0x3c89f09d	0.016838366
109	0xbc1146c0	-0.008866966
110	0x3c516de3	0.012782547
111	0x3c88f819	0.016719865
112	0xbb72d04a	-0.003705042
113	0xbbec2094	-0.007206032
114	0xbc8c28e3	-0.01710934
115	0xbc8f4c7a	-0.017492522
116	0xb9d65c80	-0.0004088618
117	0xbc910e4a	-0.017707009
118	0xbc0664e3	-0.008202764
119	0xbb0d335b	-0.0021545503
120	0x3ca7c399	0.02047901
121	0x3ccc5e09	0.024947183
122	0xbcbc62db	-0.022996357
123	0x3c57ddcc	0.013175439
124	0xbbf0a51b	-0.007343901
125	0x3cfbc95d	0.030735666
126	0x3c8ade6e	0.016951766
127	0x3c950cf3	0.018194651
128	0x3c18dc4a	0.009329865
129	0xbc9c96ed	-0.019114936
130	0x3b9bde0f	0.004756696
131	0x3c6d8856	0.014497837
132	0x3ba8fb19	0.0051568863
133	0xbc6767d6	-0.0141238775
134	0x3ca151ba	0.01969229
135	0xbc3aa38a	-0.01139153
136	0xbc80a154	-0.015701927
137	0x3c5f3d36	0.013625434
138	0xbc01bd76	-0.007918706
139	0x3c2c2141	0.010505975
140	0x3c5509a1	0.013002784
141	0x3cce390a	0.025173683
142	0x3d302f6d	0.04301398
143	0x3b95314f	0.004552997
144	0xbbce59c9	-0.0062973243
145	0x3afb447b	0.0019170189
146	0xbca96637	-0.020678623
147	0x3be929b4	0.007115567
148	0x3b8c0022	0.004272477
149	0x3c975b9f	0.018476306
150	0x3ca3e50d	0.02000668
151	0x3c7a627c	0.01528227
152	0x3d29baad	0.041437794
153	0x3b7964ec	0.003805454
154	0x3c35fcbc	0.01110762
155	0x3d408d38	0.047009677
156	0xbca92aa6	-0.02065022
157	0x3ccd0f65	0.025031755
158	0xbbc7fd81	-0.006103218
159	0x3c3e1efd	0.011604068
160	0x3c520be6	0.01282022
161	0xbc9a8fb6	-0.018867355
162	0xbc199ea1	-0.009376199
163	0xbc90478b	-0.01761224
164	0x3be720be	0.0070534637
165	0x3b700950	0.0036626644
166	0xbc3a793e	-0.011381445
167	0xbbd4acbc	-0.006490318
168	0x3a2d6064	0.00066137896
169	0x3c9a0b10	0.018804103
170	0xbca04018	-0.019561812
171	0x3b920574	0.0044562165
172	0x3c3abe6d	0.01139794
173	0x3c60a32a	0.013710776
174	0xbca877a5	-0.020564863
175	0xbc91e361	-0.017808618
176	0xb9100e26	-0.00013738181
177	0xbad89a14	-0.0016525411
178	0xbcbd38eb	-0.02309843
179	0xbc4642db	-0.0121009005
180	0x3c542820	0.01294902
181	0xbc46e1d5	-0.0121388035
182	0x3c982930	0.018574327
183	0x3c51310c	0.012768041
184	0xbce9f744	-0.028560288
185	0x3cd3e488	0.025865808
186	0x3afa64df	0.0019103548
187	0x3cac9b76	0.021070223
188	0x3b6bb33c	0.0035964986
189	0xbc0a0956	-0.008425077
190	0x38805e1f	6.121047e-05
191	0x3b1bcf29	0.00237746
192	0x3bfa483a	0.0076380046
193	0xbc268b6b	-0.010165076
194	0x3cd9108e	0.026497152
195	0x3c12bb8c	0.0089558475
196	0x3930dee2	0.00016867698
197	0x3c2aad9b	0.010417367
198	0x3b2db906	0.0026507988
199	0xbbe9c89b	-0.0071345097
200	0x3d304666	0.043035887
201	0xba51d083	-0.0008003788
202	0xbad1cd6a	-0.0016006653
203	0x3c26c457	0.010178647
204	0x3c61384f	0.013746335
205	0x3c957615	0.018244782
206	0xbb460f70	-0.0030221604
207	0x3bade5c9	0.0053069335
208	0x3c64b3fa	0.013958925
209	0xbcb9e889	-0.02269389
210	0x3bc95707	0.0061444077
211	0xbd34aa54	-0.04410775
212	0x3be6a686	0.007038894
213	0xbc9b3c04	-0.018949516
214	0x3cc4dfc4	0.024032481
215	0x3bd298e8	0.0064269193
216	0xbcdb49f5	-0.026768664
217	0xbc2076db	-0.009793962
218	0xbb7b86e5	-0.0038379964
219	0xbc8c9aa3	-0.01716358
220	0xbbe04690	-0.006844349
221	0x3d8ca196	0.068667576
222	0x3c251809	0.010076531
223	0x3c4762aa	0.012169519
224	0x3bbd99a3	0.005786137
225	0xbd32594f	-0.043542203
226	0x3b88c0e5	0.0041733854
227	0xbba57b37	-0.0050500887
228	0xbd501fcf	-0.050811585
229	0x3bbc5b46	0.0057481853
230	0x3d101926	0.035180233
231	0x39bdf128	0.00036228565
232	0xbc851f08	-0.016250148
233	0x3b0f0d72	0.0021828082
234	0xbc77cd1e	-0.015124587
235	0xbbb16c71	-0.0054145386
236	0x3c0cbebc	0.0085903965
237	0xbba319c2	-0.004977436
238	0x3bbf615a	0.0058404626
239	0xbbbc5220	-0.0057470948
240	0xbc1c3ff6	-0.009536734
241	0x3c8c6825	0.017139504
242	0xbce441e9	-0.02786346
243	0x3d08a8d5	0.033364136
244	0x3ca966d3	0.020678913
245	0x3b0f13de	0.002183191
246	0x3c3afbb0	0.011412546
247	0xbc28eea2	-0.010310801
248	0x3c48c4eb	0.01225398
249	0xbc836c73	-0.016042924
250	0xbc0b995b	-0.0085204495
251	0xbca4df06	-0.020125877
252	0xbcf01ae8	-0.029309705
253	0x3a480757	0.0007630488
254	0x3c81fbb7	0.015867097
255	0x3c3248b2	0.01088159

weight f4 [256, 256]
0	0x3dced796	0.100997135
1	0xbd189377	-0.03725001
2	0xbd9fc99f	-0.07802128
3	0xbdb9a96c	-0.09065518
4	0x3cd14111	0.025543721
5	0x3d939705	0.07206539
6	0xbd3c9a03	-0.046045315
7	0xbdb0fe61	-0.08642269
8	0xbcc821e2	-0.02443022
9	0x3d24b5a9	0.040212307
10	0xbd81f730	-0.063459754
11	0xbd14b312	-0.036303587
12	0xbd960923	-0.073259614
13	0xbc6472c7	-0.013943381
14	0x3d97f698	0.07420081
15	0x3c774873	0.015092957
16	0x3d88924a	0.066685274
17	0x3d52a964	0.051431075
18	0xbc6ad6b9	-0.01433342
19	0xbc15353c	-0.00910693
20	0xbd854ffb	-0.06509396
21	0xbd175ef1	-0.036955778
22	0x3d8465b6	0.06464712
23	0x3d935f7b	0.07195946
24	0xbd6a3130	-0.057175815
25	0x3e22005b	0.15820448
26	0x3e04145a	0.12898389
27	0x3d9cefc9	0.07662923
28	0x3d9a0d8b	0.07522114
29	0xbd54317d	-0.05180501
30	0xbd1bba06	-0.038019203
31	0x3d0be235	0.034151275
32	0xbd4da572	-0.05020661
33	0x3df7b42e	0.120949134
34	0x3dc5583c	0.0963597
35	0x3d168b58	0.036753982
36	0x3dd5407b	0.10412689
37	0xbda16320	-0.07880235
38	0x3d901724	0.07035664
39	0xbcd82994	-0.026387013
40	0x3da81a9c	0.082082
41	0xbdeb1b12	-0.114797726
42	0xbd05559f	-0.032552358
43	0xbcc70a16	-0.024296802
44	0x3d95d93f	0.07316827
45	0xbdd14e2d	-0.10219989
46	0xbc967c95	-0.018369952
47	0x3d88dab6	0.06682341
48	0x3df32c24	0.118736535
49	0x3cb355ce	0.0218915
50	0xbd7a0124	-0.061036244
51	0xbdb61b4b	-0.088919245
52	0xbde9c04f	-0.11413633
53	0xbd60f843	-0.05492426
54	0x3c35284d	0.011056972
55	0xbdaa4276	-0.08313458
56	0x3da6b0e4	0.08139208
57	0xbd882dc7	-0.06649356
58	0xbca2850e	-0.019838836
59	0x3d45e50a	0.04831413
60	0x3d8c7f7b	0.068602525
61	0x3d9a0701	0.07520867
62	0x3cb87f65	0.022521684
63	0x3e2e1486	0.17000017
64	0xbd086e9c	-0.03330861
65	0x3d1f1e21	0.038847093
66	0x3dd020df	0.1016252
67	0xbcde62c4	-0.027146704
68	0xbdb3d7c8	-0.087813914
69	0xbd000da7	-0.03126302
70	0xbd393d10	-0.04522425
71	0xbd527cb9	-0.051388476
72	0x3e16878e	0.14700148
73	0x3d3e9f47	0.046538617
74	0x3cfd450c	0.030916713
75	0xbdac394a	-0.084093645
76	0xbd8a48a5	-0.06752137
77	0x3c8fc9f7	0.017552359
78	0xbd96f1e6	-0.07370357
79	0x3d53bf5f	0.051696178
80	0xbdf1e93e	-0.118120655
81	0x3d0560c3	0.032562982
82	0xbcd30923	-0.025761193
83	0x3cda98fb	0.026684275
84	0xbd6d6472	-0.05795712
85	0x3d30111d	0.04298507
86	0xbc95866d	-0.018252576
87	0xbc506f74	-0.012721885
88	0xbcb788e1	-0.022404136
89	0xbde35df0	-0.111019015
90	0x3d7ab87e	0.0612111
91	0x3d454e14	0.048170164
92	0x3da89631	0.08231772
93	0x3cd81b61	0.026380243
94	0xbc5d745d	-0.013516513
95	0xbd37f089	-0.044907127
96	0xbd59d81a	-0.053184606
97	0xbd78e198	-0.060762018
98	0x3df3b9c3	0.119006656
99	0x3c93c73f	0.018039344
100	0xbd7c43b2	-0.061587997
101	0x3d4c8d32	0.04993934
102	0xbcb0e292	-0.021592412
103	0x3e01e37f	0.12684439
104	0x3c018008	0.00790406
105	0xbc9d4194	-0.01919631
106	0x3e047799	0.12936248
107	0x3c30ae8e	0.010783805
108	0x3c8e953d	0.017405147
109	0xbd016071	-0.031586114
110	0x3cdc0098	0.026855752
111	0x3bce98eb	0.0063048503
112	0x39276626	0.00015964414
113	0xba0b6bd9	-0.00053185
114	0x3c82c773	0.015964245
115	0xbb08a08d	-0.002084765
116	0xbdc60b87	-0.096701674
117	0xbd152087	-0.036407974
118	0x3c3db29a	0.011578226
119	0x3c390ea5	0.011294995
120	0x3de3db6a	0.11125834
121	0xbcc3baf1	-0.023892852
122	0x3d282d5d	0.041058887
123	0xbd62e3be	-0.055392973
124	0xbd0aa464	-0.03384818
125	0x3d7b20de	0.06131064
126	0xbd09dc68	-0.03365746
127	0x3c94fbd3	0.018186485
128	0xbca8978c	-0.020580076
129	0x3da90297	0.08252447
130	0xbd23068c	-0.039801165
131	0x3c3cf8fe	0.011533974
132	0xbc96939b	-0.01838093
133	0x3c3c67d2	0.011499362
134	0x3da15474	0.07877436
135	0x3db6b277	0.08920758
136	0xbcdbe56d	-0.026842797
137	0x3aef6108	0.001826317
138	0x3d8aa54b	0.067698084
139	0x3e17cbb1	0.14823796
140	0x3d8a1dac	0.06743941
141	0xbc2005e4	-0.009767029
142	0x39a999a9	0.00032348678
143	0xbcd15a43	-0.025555735
144	0x3b121ad6	0.0022293827
145	0x3c0d8f18	0.008640073
146	0x3d06abe0	0.032878757
147	0x3daaddbf	0.08343076
148	0xbad26563	-0.0016051944
149	0x3d3e6f4b	0.046492856
150	0x3dd601be	0.10449551
151	0xbc97c907	-0.018528474
152	0x3d93125e	0.07181238
153	0x3df87ece	0.12133561
154	0x3c8cc220	0.01718241
155	0x3d927999	0.07152099
156	0x3d216240	0.03940034
157	0xbe2675e8	-0.16255915
158	0xbddb87d7	-0.10719269
159	0x3d196264	0.03744735
160	0x3d83df9b	0.06439134
161	0x3abcfa66	0.0014417886
162	0x3ca7435c	0.020417862
163	0x3cb52cc8	0.02211608
164	0xbd8dca82	-0.06923391
165	0x3cfee181	0.031113388
166	0x3cdbd526	0.026835036
167	0x3dbbb867	0.09166031
168	0x3d5277b8	0.051383704
169	0x3dbd4a0a	0.092426375
170	0xbe6d6589	-0.23183264
171	0xbdf7d009	-0.121002264
172	0x3ce3b142	0.027794484
173	0xbd833d03	-0.064081214
174	0xbdc94b7f	-0.09828853
175	0x3d6b6b56	0.05747541
176	0xbcea9f75	-0.028640488
177	0x3d8f9b65	0.07012061
178	0xbcc47fdc	-0.02398675
179	0xbd59f86f	-0.05321544
180	0x3c4902ed	0.012268764
181	0x3d30f508	0.04320243
182	0xbd6a2c39	-0.05717108
183	0xbdb72691	-0.08942903
184	0xbd94209a	-0.07232781
185	0x3c178a85	0.009249334
186	0x3d82d48d	0.06388197
187	0x3d984f21	0.07436968
188	0x3d6643cd	0.056217004
189	0xbd47caa8	-0.048777252
190	0xbca7d402	-0.020486835
191	0x3cc6ba56	0.024258774
192	0xbd19d310	-0.0375548
193	0xbc51f298	-0.0128141865
194	0xbe44d1d9	-0.19220676
195	0x3d07c066	0.03314247
196	0xbd1c29c0	-0.038125753
197	0x3aaaee93	0.0013041071
198	0xbd31cdc9	-0.043409143
199	0x3d32dd6a	0.04366819
200	0x3d64fe93	0.055906843
201	0x3c23bccd	0.009993744
202	0x3d0b84c6	0.03406217
203	0x3cc3d95e	0.02390736
204	0xbdefc3ba	-0.11707254
205	0x3d4a5f00	0.049407005
206	0xbccddcb3	-0.025129652
207	0x3d13c4bd	0.036076296
208	0x3db96bd8	0.09053773
209	0xbd8d505b	-0.06900092
210	0x3d19fc2b	0.037594
211	0xbd6fa629	-0.058508072
212	0xbd8e6c5d	-0.069542624
213	0xbe580035	-0.21093829
214	0xbd8d7fcb	-0.0690914
215	0x3d9abb4c	0.07555255
216	0x3da7e291	0.08197511
217	0x3c6413f6	0.013920775
218	0x3c7be192	0.015373604
219	0xbd2968e6	-0.041359805
220	0xbd23b31d	-0.039965738
221	0x3dbece03	0.09316637
222	0xbc82a0c6	-0.015945803
223	0xbd8d878d	-0.0691062
224	0xbd864bf1	-0.065574534
225	0xbd342864	-0.043983832
226	0x3d4b491e	0.049630277
227	0x3cac2d42	0.021017674
228	0x3d852f95	0.06503216
229	0xbd164020	-0.036682248
230	0xbd93b1da	-0.07211657
231	0x3d38fccf	0.045162972
232	0xbd2f22a6	-0.042757653
233	0xbda660fd	-0.08123968
234	0x3c8b38e8	0.016994908
235	0xbc272073	-0.010200608
236	0xbd455bfb	-0.048183423
237	0x3d120e34	0.035658076
238	0x3c4c3062	0.012462707
239	0x3ce74537	0.028231246
240	0x3daae780	0.08344936
241	0x3d924793	0.07142558
242	0x3cbdc703	0.023166185
243	0xbd4616d4	-0.048361614
244	0x3c80fd9f	0.015745936
245	0xbdaf0e3f	-0.08547639
246	0xbd97b16f	-0.0740689
247	0x3d6a1ec3	0.057158243
248	0x3c6af8fd	0.01434159
249	0x3c309a67	0.010779
250	0xbd5f663f	-0.05454087
251	0xbceec5f1	-0.02914712
252	0x3dcab1a1	0.09897161
253	0xbc80c9b3	-0.015721178
254	0xbd3b35e4	-0.04570569
255	0xbdea974f	-0.11454641

bias f4 [256]
0	0xbc45cd4f	-0.012072875
1	0xbc85897c	-0.01630091
2	0x3d0440bd	0.0322883
3	0x3cbd379d	0.023097808
4	0x3be02b6a	0.006841113
5	0x3c62a41e	0.013833074
6	0xbca06ee1	-0.019584121
7	0x3cab8508	0.020937458
8	0xbcb82f10	-0.022483379
9	0xbc538fb3	-0.0129126785
10	0x3cc3c0b7	0.023895605
11	0x3c63772a	0.013883391
12	0xbc352d49	-0.01105816
13	0x3ce7eb09	0.028310316
14	0x3cd1eb88	0.025625005
15	0xbcef0112	-0.029175315
16	0x3b708991	0.003670309
17	0x3cda895f	0.026676832
18	0x3c675df5	0.014121522
19	0x3cd1629f	0.025559722
20	0x3c57dcc1	0.01317519
21	0xbc7ad4bc	-0.015309509
22	0xbb5d7c26	-0.0033795922
23	0xbcdeb60d	-0.027186418
24	0x3ca92e2d	0.020651901
25	0xbc5b8140	-0.013397515
26	0xbc8ffbcc	-0.01757612
27	0xbc17a756	-0.009256205
28	0xbc6fc217	-0.014633677
29	0xbcf49995	-0.02985839
30	0xbcb3b139	-0.021935092
31	0x3cbfc1e1	0.023407878
32	0xbc746031	-0.014915512
33	0xbca8005e	-0.020507988
34	0x3ceaf55e	0.028681453
35	0x3c910ac0	0.017705321
36	0x3cb5def0	0.022201031
37	0xbccce0b9	-0.0250095
38	0x3bf59546	0.0074946014
39	0xbc6d6f65	-0.014491891
40	0x3c8607ab	0.016361078
41	0x3bcd2bfe	0.006261348
42	0x3c94bf6b	0.018157681
43	0x3cc78d42	0.02435935
44	0x3c292323	0.010323319
45	0xbc7c8bd4	-0.015414197
46	0xbd1b91f7	-0.037981
47	0x3c0abbb4	0.0084676035
48	0xbcdef51e	-0.02721649
49	0xbbc359a4	-0.0059616137
50	0x3c9c62fc	0.019090168
51	0xbc9aa184	-0.018875845
52	0xbc29e500	-0.010369539
53	0xbc88411f	-0.016632615
54	0xbd3cfad0	-0.04613763
55	0x3c836ee7	0.016044093
56	0x3cf220e9	0.029556708
57	0x3b33c9e4	0.0027433569
58	0x3cfff59d	0.031245047
59	0xbc22099a	-0.0098899845
60	0xbc93adee	-0.018027272
61	0x3c55a875	0.013040652
62	0x3cccc503	0.024996286
63	0xbb9ec8cf	-0.0048457156
64	0xbb94f526	-0.0045458255
65	0x3bde621c	0.006786598
66	0x3c8ad695	0.016948024
67	0x3cb58b62	0.02216119
68	0x3d093c14	0.03350456
69	0x3bffd731	0.0078076352
70	0xbafea36e	-0.0019427368
71	0xbcf13566	-0.029444408
72	0xbcd7da88	-0.026349321
73	0xbca3db2a	-0.020001967
74	0x3c368251	0.011139468
75	0x3c81f7f6	0.015865307
76	0x3ce25f5e	0.027633365
77	0xbbb6bcee	-0.0055767214
78	0xbcbb77c4	-0.022884257
79	0xbc8e4fbf	-0.01737201
80	0x3c6ced80	0.014460921
81	0x3c3ccba8	0.011523165
82	0xbd07ecfe	-0.033184998
83	0x3cb2a19d	0.021805579
84	0xbc35a737	-0.01108723
85	0xbd0205f0	-0.031743944
86	0xbcec5461	-0.028848829
87	0xbcc16755	-0.023608843
88	0x3d008722	0.031378873
89	0xbc500873	-0.012697327
90	0xbbb61dee	-0.005557767
91	0x3cb46a1c	0.022023253
92	0x3d020e4f	0.031751927
93	0xbc9a892e	-0.01886424
94	0xbc07687b	-0.008264656
95	0xbc482065	-0.012214755
96	0x3c0f215b	0.00873598
97	0x3c4ef2df	0.012631147
98	0x3c7b3bda	0.015334094
99	0x3cfed52e	0.031107511
100	0xbc945b39	-0.018109905
101	0xbd14007d	-0.03613328
102	0xbc508a8f	-0.012728347
103	0xbcfb80bc	-0.030701034
104	0xbad62fab	-0.001634111
105	0x3bc71100	0.0060750246
106	0x3d0b0ae2	0.033945926
107	0xbc002315	-0.007820864
108	0x3cb0ded8	0.021590635
109	0xbc1b4910	-0.009477869
110	0x3bfadc45	0.0076556527
111	0x3cc86566	0.024462413
112	0x3c7567f0	0.014978394
113	0xbb8d55b2	-0.004313194
114	0xbcfa5666	-0.030558776
115	0x3c1b47a1	0.009477527
116	0x3d365ede	0.044524066
117	0x3ce48246	0.02789415
118	0x3be054f3	0.0068460642
119	0xbc99354b	-0.01870217
120	0xbcde222f	-0.02711591
121	0xbc3692f0	-0.011143431
122	0x3c482f2c	0.012218278
123	0x3cd0a32d	0.025468433
124	0xbc1ead2e	-0.009684844
125	0x3c71831f	0.014740734
126	0xbb3baf3e	-0.0028638388
127	0x3c548638	0.012971453
128	0xbca40c52	-0.020025406
129	0x3c7ae10a	0.015312443
130	0x3ce87650	0.028376728
131	0xbc207936	-0.009794524
132	0x39eda565	0.0004532739
133	0xbce82f26	-0.028342795
134	0xbc79a514	-0.015237112
135	0x3d02f1e3	0.031968962
136	0xbcc1bbfb	-0.023649206
137	0xbcebd419	-0.02878766
138	0xbcfb9eeb	-0.030715426
139	0x3d26b74e	0.040702157
140	0x3ac3d3b3	0.0014940411
141	0x3cf3ee34	0.02977667
142	0x3cebdb09	0.028790968
143	0x3ccb3fb0	0.024810642
144	0x3cf8c3ac	0.030366741
145	0xbd146f51	-0.036238972
146	0xbbf2c17f	-0.0074083204
147	0x3c26be20	0.010177165
148	0x3caa8d78	0.02081941
149	0x3c6597b1	0.014013217
150	0x3c41fb92	0.011839764
151	0xbc5b7fb2	-0.013397144
152	0x3cba70f8	0.022758946
153	0xbcf7cf39	-0.030250179
154	0x3c6e0b77	0.014529101
155	0xbc3399a4	-0.010961924
156	0x3c10d18f	0.008839025
157	0xbc8b43a3	-0.017000025
158	0xbca09c6a	-0.019605834
159	0xbc8a84d7	-0.016909046
160	0x3d1771ce	0.036973767
161	0xbbcfd4dd	-0.006342514
162	0x3cc16180	0.023606062
163	0x3cab9206	0.020943653
164	0xbcb845cd	-0.022494221
165	0xbd0982c5	-0.033571977
166	0x3cffd011	0.031227143
167	0xbc355ea9	-0.011069932
168	0xbc982f15	-0.018577138
169	0x3c98a37c	0.018632643
170	0x3ce7641f	0.028245984
171	0x3b49ae9b	0.003077424
172	0x3c770e6b	0.015079121
173	0x3c994ee0	0.018714368
174	0x3cceb446	0.025232445
175	0x3bc612f0	0.006044738
176	0xbb582a14	-0.0032984065
177	0xbc9e02ec	-0.019288503
178	0xbc827329	-0.015924053
179	0xbc8c70f7	-0.01714371
180	0xbca8acb0	-0.020590156
181	0x3c78a4b4	0.015175987
182	0x3c582ac3	0.013193789
183	0x3c2a1417	0.010380766
184	0xbc9411d9	-0.018074917
185	0x3c17e773	0.00927149
186	0x3d099645	0.033590574
187	0xbb32784b	-0.0027232345
188	0xbc670606	-0.014100557
189	0xbc205f8e	-0.009788407
190	0xbcf9270e	-0.03041413
191	0x3c92f6b4	0.017939903
192	0x3cb39cde	0.021925386
193	0x3ba2ffbe	0.0049743345
194	0xbcad1d67	-0.021132184
195	0xbc5e0e15	-0.013553162
196	0x3c337a71	0.010954485
197	0xbcc26931	-0.0237318
198	0xbc155813	-0.009115237
199	0xbcba1cec	-0.02271887
200	0x3cddb72f	0.027064888
201	0xbc837e2b	-0.016051373
202	0x3c0920ca	0.008369634
203	0xbc62abd1	-0.01383491
204	0xbc231b49	-0.009955236
205	0x3b042bb4	0.002016765
206	0x3c21e159	0.009880387
207	0x3c9baf0b	0.019004365
208	0x3c8ece8d	0.017432475
209	0x3cf540fa	0.02993821
210	0xbcc07bfc	-0.02349662
211	0x3c591024	0.013248477
212	0x3cd6698c	0.026173376
213	0xbc9fdbf4	-0.019514062
214	0x3beb27a2	0.0071763555
215	0xbc69a75f	-0.014261096
216	0x3ce723b3	0.028215265
217	0x3bd14eec	0.006387582
218	0xbcb14943	-0.02164138
219	0xbccc6947	-0.024952544
220	0x3c230ba5	0.009951507
221	0x3bec5ad6	0.007212977
222	0x3c13a8b6	0.009012392
223	0xbcd00e9b	-0.02539759
224	0xbc8f9871	-0.017528744
225	0xbc081e41	-0.008307994
226	0xbc3df168	-0.0115932
227	0xbc7463fc	-0.014916416
228	0xbce8d04c	-0.028419636
229	0x3c0b827c	0.008514997
230	0xbd2671a7	-0.04063573
231	0x3c672756	0.0141084995
232	0x3ca0526a	0.019570548
233	0xbcfa4f53	-0.030555403
234	0x3c78135e	0.015141336
235	0x3d0d427a	0.034487225
236	0xbc9b73e9	-0.018976169
237	0xbcb7cc37	-0.022436244
238	0xbcee38c0	-0.029079795
239	0xbce0ad66	-0.027426433
240	0xbc652818	-0.01398661
241	0x3c374298	0.011185311
242	0x3c8299b0	0.015942425
243	0x3a68f67b	0.0008886826
244	0x3c9c8b28	0.019109324
245	0xbcecd075	-0.028907994
246	0xbc686a59	-0.0141855115
247	0x3c43ff9d	0.011962798
248	0xbcc1ab4c	-0.023641251
249	0xbc36a1e4	-0.011146996
250	0x3c80896c	0.015690528
251	0xbc6624dc	-0.014046874
252	0x3caa9a51	0.020825537
253	0x3cd7eba5	0.026357481
254	0x3d061704	0.032736793
255	0xbba728bd	-0.005101292

weight f4 [1, 256]
0	0xbd9fab33	-0.077963255
1	0xbb017ed3	-0.001975943
2	0x3cbf76b8	0.02337204
3	0x3da0e15d	0.07855485
4	0x3d841a46	0.06450324
5	0x3dac1d2e	0.08404003
6	0xbd152199	-0.036408994
7	0x3c384abb	0.011248286
8	0xbd94b689	-0.07261378
9	0xbad087a0	-0.001590956
10	0x3d391a8d	0.045191336
11	0x3c3fcc68	0.011706449
12	0xbd91bf26	-0.07116537
13	0x3d953320	0.07285142
14	0x3cc94810	0.024570495
15	0xbe2c0cf2	-0.16801813
16	0x3d4951d6	0.04915031
17	0x3bf50a1f	0.007478013
18	0xba91a8c1	-0.0011112915
19	0x3d74c5c6	0.059758924
20	0x3ba9d08c	0.0051823314
21	0xbd09159d	-0.033467878
22	0x3b1c8d0f	0.0023887788
23	0xbdf32475	-0.11872188
24	0x3d10cb1f	0.03534996
25	0xbd086c3f	-0.033306357
26	0xbd03542a	-0.032062687
27	0xbdd937f9	-0.10606379
28	0xbb6af2bb	-0.0035850245
29	0xbdced87c	-0.10099885
30	0xbcc0797d	-0.02349543
31	0x3d4164ef	0.0472154
32	0x3c3f1988	0.011663802
33	0xbcd7c6ab	-0.02633985
34	0x3dd2bf31	0.10290373
35	0x3c8d14da	0.017221857
36	0x3c1de2e9	0.009636619
37	0xbca186e7	-0.019717647
38	0x3d1e63c1	0.03866935
39	0xbaf1730b	-0.0018421126
40	0x3b3a69fb	0.0028444517
41	0x3cdd6e11	0.027030023
42	0xbb10d984	-0.0022102306
43	0x3d9ffe58	0.07812184
44	0x3da912ab	0.08255514
45	0xbaabb9e6	-0.0013101667
46	0xbd07b68d	-0.03313308
47	0xbb4f4f28	-0.0031632874
48	0xbdd4febe	-0.10400151
49	0xbd73e71b	-0.05954657
50	0x3d7bc74d	0.061469365
51	0xbcd29018	-0.025703475
52	0xbb65ca7f	-0.0035063324
53	0xbb01bd0c	-0.0019796519
54	0xbd7d5183	-0.061845314
55	0x3da3ce1d	0.07998297
56	0x3dce8d55	0.10085551
57	0x3a1cc132	0.0005979716
58	0x3e0a2876	0.13491997
59	0xbd746533	-0.059666824
60	0xbbdae249	-0.0066798073
61	0x3db17bcc	0.086661905
62	0x3da1a307	0.07892423
63	0xbc19a61c	-0.0093779825
64	0xbbb641c9	-0.0055620414
65	0x3dcfda34	0.10149041
66	0x3c18951e	0.009312896
67	0x3ce36e21	0.027762474
68	0x3d074d26	0.03303256
69	0x3c0e411c	0.0086825155
70	0xbd018a0a	-0.031625785
71	0xbd9d247f	-0.07672977
72	0xbc6e92be	-0.014561353
73	0xbc7dabaf	-0.015482827
74	0x3da78338	0.08179325
75	0xbb45c4cb	-0.0030177112
76	0x3cbd3f4a	0.023101468
77	0xbbe31783	-0.006930293
78	0xbe191c6e	-0.14952251
79	0xbc82037b	-0.0158708
80	0x3b097d50	0.0020979233
81	0x3c8437f6	0.016139966
82	0xbdaf8b50	-0.085714936
83	0x3d830f31	0.06399382
84	0xbcf89c19	-0.03034787
85	0xbd93e898	-0.07222098
86	0xbcb426d3	-0.02199117
87	0xbe0f7cba	-0.14012423
88	0x3d6377f0	0.055534303
89	0xbe25101f	-0.16119431
90	0xbd33bf59	-0.043883655
91	0x3c00f8f4	0.007871855
92	0x3cb3a191	0.021927627
93	0xbb5fd245	-0.003415243
94	0xbe2e96b0	-0.1704967
95	0x3a1bce06	0.00059434806
96	0xbbbfd022	-0.005853669
97	0x3bcb9759	0.0062131104
98	0x3ab7fa27	0.0014036343
99	0x3d749c18	0.059719175
100	0x3a71155f	0.0009196605
101	0xbd21b83d	-0.039482344
102	0x3b07557c	0.0020650318
103	0xbc8b0d0c	-0.016973995
104	0xbda1ae9e	-0.07894634
105	0x3899bcf8	7.330807e-05
106	0x3d85af3f	0.06527566
107	0xbcc9e460	-0.02464503
108	0x3d6b8887	0.05750325
109	0x3ac12116	0.0014734592
110	0xbaddb2e4	-0.0016914275
111	0x3def63d3	0.11688962
112	0x3dbdd618	0.09269351
113	0xbd48b49f	-0.04900038
114	0xbc00193e	-0.007818518
115	0x39fd9258	0.00048364955
116	0x3c878c78	0.016546473
117	0x3ceaf30a	0.028680343
118	0x3bb03f51	0.0053786417
119	0xbc04c20b	-0.008102904
120	0xbca31cda	-0.019911218
121	0x3c89a558	0.016802475
122	0x3d187838	0.037224025
123	0xbacfc99d	-0.0015852932
124	0x3b863ccf	0.0040966044
125	0x39e1fa4e	0.00043101836
126	0x3dd8b77e	0.10581873
127	0x3d4025aa	0.04691092
128	0xba4873ac	-0.0007646631
129	0x3dec5ded	0.115413524
130	0xbac54f54	-0.0015053549
131	0xbe1f4448	-0.15553391
132	0x3c0157be	0.0078944545
133	0xbb1ae06a	-0.0023632296
134	0xbd1600bd	-0.036621798
135	0x3e02a311	0.12757517
136	0xbdc0b6da	-0.09409876
137	0xbd7c6aa3	-0.061625134
138	0xbe0d9d3e	-0.13829514
139	0x3d2e4bb3	0.04255266
140	0x3cfe0cfa	0.031012047
141	0x3d8b2940	0.06794977
142	0x3df6d30e	0.12051974
143	0x3c4925d2	0.0122770835
144	0x3cf4a9a2	0.029866043
145	0xbd210f90	-0.039321482
146	0xbcf3ceb3	-0.029761648
147	0x3ad78d84	0.0016445373
148	0x3d9e7149	0.07736451
149	0x3d217383	0.0394168
150	0x3de64def	0.112453334
151	0xbd87f09b	-0.06637689
152	0x3c9135a3	0.017725771
153	0xbda3dcd2	-0.080011025
154	0x3cb6c675	0.022311429
155	0x3bba8b54	0.0056928787
156	0x3a960247	0.001144477
157	0xbd278a5c	-0.040903434
158	0xbd8e5961	-0.069506414
159	0xbe06683d	-0.13125701
160	0x3cdd81a3	0.027039355
161	0xbe32fcd8	-0.17479265
162	0x3d0d4a8e	0.03449493
163	0x3c91dad6	0.017804544
164	0xbd6dc811	-0.058052126
165	0xbce117b7	-0.027477128
166	0x3d91c226	0.07117109
167	0xbd7b0025	-0.061279435
168	0xbd9fce16	-0.0780298
169	0x3cb927c8	0.022601977
170	0x3dd47ee6	0.103757665
171	0xbc156a0a	-0.00911952
172	0x3db0847e	0.08619021
173	0x3d071933	0.032983016
174	0x3dc82a9d	0.09773753
175	0x3d5843b3	0.052798938
176	0xbe071ce0	-0.13194609
177	0xbc97eac5	-0.018544564
178	0xbd12dd47	-0.035855558
179	0xbb078459	-0.002067825
180	0xbd20fdf9	-0.039304707
181	0x3bc11fea	0.005893697
182	0x3b540c0a	0.0032355809
183	0x3986f395	0.00025739954
184	0xbc80d83f	-0.015728114
185	0xbad18b21	-0.0015986898
186	0x3d12d882	0.03585101
187	0xbd7aeab2	-0.06125898
188	0xbd7f1141	-0.062272314
189	0xbd53c2b7	-0.051699366
190	0xbdb4482c	-0.08802828
191	0x3c41cb14	0.011828203
192	0x3d439dc3	0.047757875
193	0x3d4672e6	0.04844942
194	0xbd5f7070	-0.054550588
195	0xbd8df348	-0.06931168
196	0x3d0d24b3	0.034458827
197	0xbd19c490	-0.037540972
198	0xbda6999c	-0.081347674
199	0xbdb7fe75	-0.08984081
200	0x3ddd4586	0.10804276
201	0xbe075f50	-0.13219953
202	0xbb50e0e0	-0.0031872317
203	0xbd4ce811	-0.050026003
204	0xbd782888	-0.06058553
205	0xb982638f	-0.0002486971
206	0xbb36ad92	-0.0027874452
207	0x3ddcb061	0.10775829
208	0x3d4d5e53	0.050138783
209	0x3e3f280f	0.18667625
210	0xbd3cbea2	-0.04608024
211	0x3d3a9ca4	0.04555954
212	0x3ca7b7bd	0.020473355
213	0xbb5db044	-0.0033826986
214	0x3bd1181d	0.0063810484
215	0x39e7072f	0.00044065106
216	0x3d4b91c8	0.049699575
217	0x3da0d770	0.078535914
218	0xbd0e2687	-0.03470471
219	0xbc2c99b1	-0.01053469
220	0x3bffe325	0.00780906
221	0x3ae9fab9	0.001785121
222	0x3d4d7284	0.05015804
223	0xbc4e973a	-0.012609297
224	0xbadba7c1	-0.0016758369
225	0x3bd7f542	0.0065905163
226	0xbd4726a4	-0.048620835
227	0xbc3d58ae	-0.011556787
228	0xbd849bb3	-0.0647501
229	0x3d0360a4	0.032074586
230	0xbcd66b56	-0.026174229
231	0x3cedba81	0.029019596
232	0x3cb283c9	0.021791356
233	0xbd76a2d5	-0.060213882
234	0x3be35410	0.0069375113
235	0x3d45031c	0.04809867
236	0xbd757563	-0.0599264
237	0xbcbd9f66	-0.023147296
238	0xbe027c94	-0.12742835
239	0xbd08559f	-0.03328478
240	0xbda58021	-0.08081079
241	0x3dd6a515	0.10480706
242	0x3d2864f5	0.041111905
243	0xbcb06976	-0.021534663
244	0x3d61210f	0.054963168
245	0xbde5e8af	-0.112260215
246	0x3a8af74a	0.0010602262
247	0x3d472265	0.048616786
248	0xbdc7aa8d	-0.09749327
249	0xbd89061e	-0.0669062
250	0x3cc249c8	0.023716822
251	0xbb4a6525	-0.003088304
252	0x3db75c1c	0.08953115
253	0x3da3120f	0.07962429
254	0x3d80f858	0.06297368
255	0xbc150909	-0.009096392
