trained_models/ppo/me5418-Cassie-v0/0523-16-10-05-s3737/actor.pt (torch, 906874 bytes, 11 tensors)

log_std f4 [1, 10]
00000000: 6090 aabc 1582 4f3c deca 4dbd 7f97 6abd
00000010: 3267 de3c 38e8 8dbc 4314 8abc 71bc 9fbd
00000020: f705 59bd 3bc2 223c
-0.020820796 0.012665291 -0.050242297 -0.057273384 0.027148817 -0.017322645 -0.016855365 -0.07799614
-0.052984204 0.009934003

weight_ih_l0 f4 [512, 50]
00000000: 21f2 6a3d 112a 4e3b 70cd 093c f561 c83d
00000010: 2da0 48bc 896a 7b3d ab43 f2bc 531d c23d
00000020: 3e5e 8cbd 39f8 60bd eb9c 693c 6095 5cbd
00000030: aec7 b73d ea8b 6a3d 7274 8fbd f7e1 a43d
00000040: 1f50 a1bd 5df2 87bd c750 803c 9bea 7fbd
00000050: 6f90 95bd fced 56bd ef1b 0bbd 4c5c b83d
00000060: 2a6d 77bd 559e 19bc 2d97 57be 14df 5c3c
00000070: cc90 903d 274a 503d 7814 68bd cdc5 063d
00000080: 14ec 013d 58d4 5c3d 686a a53d d915 22bd
00000090: 82d2 02bd 3a19 54bd 7a88 7bbd ce7b a0bd
000000a0: bd53 153d a14c 0ebd bc75 bfbd d324 56bd
000000b0: 7802 263d b7a8 78bc 2624 d7bc ff69 a23d
000000c0: 8aae 593d 9fd4 85bc 41ff 413d 0c8b 6c3d
000000d0: c398 753d 50c3 8a3d 2393 b63c 709c c4bd
000000e0: 7ef0 3b3d 2be8 80bd 9831 d5bc baed 1c3d
000000f0: ae58 0fbd 542d a7bc 4931 0d3c e034 ddbc
00000100: 40dc 98bb e904 5fbc 4005 d03c 79bf 0d3c
00000110: eef4 a63b 8974 b8bd 5e79 203c d439 7dbc
00000120: 3a88 df3c 6763 ca3d 49d0 d4bc 2cae 65bc
00000130: 4a72 093c 867a 7abd c0c2 cb3c 883d c73d
00000140: cf91 92bc 0fa3 89bd 2c98 59bd 994c e2bd
00000150: 3409 85bd 1441 bc3d abfc 6d3c 3f2f 353c
00000160: d501 74bd 8f8d 9cbd bf36 a03c af64 6e3d
00000170: bad3 863c 04c2 5cbd e257 ad3d 784b b83d
00000180: 9ada 9f3d f8c6 c9bd 1b39 ab3d 99ed a3bc
00000190: 0e14 423d 92c4 b9bd ff8e ab3d 108f 243d
000001a0: 7229 aabd e81e 933d 5b7f a33c ce23 b4bc
000001b0: 9608 0cbd f6e3 02bd ca5d 08bd e5ec 16bd
000001c0: 998d 03bc 6ee7 c13d 1c71 013c 2471 1dbd
000001d0: cdf7 07bc c511 86bd 057d 3dbd ce84 acbd
000001e0: af1d a3bd 99a3 2f3d c759 07bd 6b6a 1f3c
000001f0: 9f91 9f3d b42b a1bc 45ad d6bc 5778 e53d
00000200: 5021 2bbd 38fe 123e cc9e 1c3d 3fe7 99bc
00000210: be26 68bc 4567 62bd 3d17 3bbd 9a22 b1bd
00000220: a419 d63d 6da9 1b3d a407 273d 4af8 ce3d
00000230: e9d3 92bd 8642 d0bc 448e d6bd a104 9e3d
00000240: 3359 c5bd 75f9 373e 0093 8cbd d976 f4bd
00000250: e065 15be d7fb 063d 4172 503d 91e2 74bd
00000260: c686 f83c 5cb3 1b3d 6dd4 84bd 15aa 81bd
00000270: d2b5 aabc ff6a 74bc 438a f23d 7c18 9dbc
00000280: f5fc 423d ad2a 90bd 9461 4fbc b4e0 753c
00000290: c945 57bd af04 0b3a 64bc 943d 678e 853d
000002a0: 0e14 5dbc f333 47bd e922 8fbb 81b9 e63b
000002b0: b2fc 09be 70ee 91bd aecb e33c 6f73 b33c
000002c0: cd26 f7bd e59a 4f3d fdd4 823d 8cdd bdbd
000002d0: ec8b 03bc 78e7 393c c13e 013d 40f8 c7ba
000002e0: 3b82 943c edb0 e1bd 4baa 2a3d 2bd6 523d
000002f0: f892 44bd c6c0 00bc 7213 aabd ec6d 99bc
00000300: ab96 883c 6e07 2abc 43f6 70bd c93e ddbd
00000310: bfab 98bd 870e d63b b10b 813c c603 d2bb
00000320: 5bde 4bbd cf09 e2bd 649c 203a 7e31 cabc
00000330: 2fff 233d b988 42bd 9884 1c3a 5edf 7abd
00000340: c1cb 1a3c 692b e6b8 b5b0 a73d 0bd7 2e3b
00000350: 852e 883d a7d4 d2bc cbe8 f03d 86f9 193c
00000360: fca8 433d 977e 0bbd ccfb b3bd d69b a7bd
00000370: 3386 c2bd 1652 a23d 8fae dd3b 8442 8bbc
00000380: 2129 76bd a218 e9bd 9025 993d b31f a93d
00000390: 2b5c d63c 933a 82bd eb22 603d 79ef 86bd
000003a0: 7ca2 543d 792d 8b3d 3cdf 89bd 24e2 863c
000003b0: 7137 be3d 3640 d4bc c8ae c8bd f66f e93d
000003c0: fdfa 44bd b61e 803d 24e3 243c 4055 ab3d
000003d0: 330c 0a3d 5e59 ff3c da58 b13a c6e0 8e3d
000003e0: f08f dd3d edd1 4abd dda3 2ebd 2739 89bc
000003f0: 8458 bcbd 64bb 95bc 8bcc 44bd cfb1 fa3c
0.05735982 0.003145818 0.0084107965 0.09784309 -0.01224522 0.061380897 -0.029573282 0.094782494
-0.06853913 -0.054924224 0.014258604 -0.053853393 0.08973633 0.05726234 -0.07004632 0.08050912
-0.0787661 -0.06638024 0.015663518 -0.062479597 -0.07302939 -0.052473053 -0.033962186 0.09001979
-0.06040684 -0.009376128 -0.21053763 0.01348092 0.07058868 0.050851967 -0.056660146 0.03290348
0.031719282 0.053913444 0.08076936 -0.039571617 -0.031939037 -0.05178187 -0.06140945 -0.07836114
0.036456812 -0.034741048 -0.09348628 -0.052281212 0.040529698 -0.0151769435 -0.026262354 0.079303734
0.05314497 -0.016336737 0.04736257 0.057749793 0.059960138 0.06775534 0.022286957 -0.096001506
0.045883648 -0.062942825 -0.026024625 0.03831265 -0.03499668 -0.020407356 0.0086177075 -0.027002752
-0.0046649277 -0.0136120105 0.025393128 0.008651608 0.005095116 -0.09006602 0.009794561 -0.015455682
0.027286638 0.09882241 -0.025978224 -0.014018577 0.008389065 -0.061152004 0.024873137 0.09728533
-0.017891793 -0.06720554 -0.053123638 -0.11049766 -0.06495896 0.091921 0.014525573 0.011058628
-0.05957206 -0.07644188 0.019557355 0.058201488 0.016458381 -0.053895965 0.08464028 0.089987695
0.07805367 -0.098524034 0.083605014 -0.020010756 0.047382407 -0.09070696 0.08376884 0.040175498
-0.08308686 0.07183629 0.019958189 -0.02198973 -0.034187876 -0.03195568 -0.03329257 -0.036847014
-0.008029365 0.0946797 0.0079005025 -0.038437977 -0.008298826 -0.06546358 -0.046261806 -0.08423768
-0.07964646 0.04288063 -0.033044603 0.009729962 0.07791447 -0.01967416 -0.026205668 0.11204594
-0.041779816 0.1435479 0.038237378 -0.018787025 -0.014169393 -0.055274267 -0.04567646 -0.08649178
0.10454109 0.038003374 0.04077877 0.10105951 -0.07169325 -0.025422346 -0.10476354 0.07715727
-0.09636154 0.17966254 -0.068639755 -0.11936731 -0.14589643 0.032955017 0.05089021 -0.059786383
0.030337702 0.038012847 -0.064858295 -0.06331269 -0.020838652 -0.014918088 0.118427776 -0.019176714
0.04760452 -0.0703939 -0.012657542 0.015007187 -0.052556787 0.0005303127 0.07262495 0.06521302
-0.013493551 -0.048633527 -0.0043681753 0.0070411568 -0.13475302 -0.071255565 0.027807083 0.021905629
-0.120679475 0.05068483 0.063882805 -0.09270772 -0.008028965 0.01134669 0.031553987 -0.0015256479
0.018128505 -0.11020074 0.04166631 0.051473778 -0.047991723 -0.007858461 -0.0830449 -0.018729173
0.016673407 -0.010377748 -0.058828603 -0.10802991 -0.07454633 0.0065324935 0.015752645 -0.0064091412
-0.0497726 -0.11037027 0.00061268196 -0.024681803 0.040038284 -0.04749367 0.0005970686 -0.061248176
0.009447993 -0.000109753404 0.08188001 0.0026678469 0.06649498 -0.025736166 0.11763152 0.00939787
0.047768578 -0.034056272 -0.08788261 -0.0818402 -0.09498253 0.07925813 0.006765194 -0.01699949
-0.060097817 -0.113816515 0.074778676 0.08257999 0.026166996 -0.063588284 0.0547208 -0.065886445
0.05191277 0.067957826 -0.06732032 0.016465254 0.09287918 -0.025909524 -0.09798962 0.11398308
-0.048090924 0.06255858 0.01006392 0.083658695 0.03370304 0.031170543 0.0013530508 0.06976466
0.108184695 -0.049516607 -0.04263674 -0.016750885 -0.091965705 -0.018277831 -0.04804663 0.030602364

weight_hh_l0 f4 [512, 128]
00000000: f96e 583d f8dc 5a3d 19d6 2a3d b25e 6ebd
00000010: 0e47 053d e930 de3d 9651 6c3d 631d 8abd
00000020: 3bf6 8f3d 87a7 9a3c ae71 f7ba c8a5 e93d
00000030: 0a92 69bc f1ca 5d3a 073f cf3d 8e51 e43c
00000040: bbc7 ce3d 57b9 6fbd 8514 833d 792e 913c
00000050: e0e8 20bd 7b7d 85bc 867d 93bd 02ae 113d
00000060: b2b1 63bd 5bab ffbd 4607 adbd 2d3b fc3c
00000070: c9f4 72bd 9f00 3a3c d944 bbbd 45c8 93bc
00000080: 3d4c 113d 8108 f7bc 6c22 153c 61bb 62bd
00000090: e938 c43b 61dd 9e3d 4174 aebd d818 54bd
000000a0: 9d9e 673d 76db 3a3d 1c07 b53c eafd 41bd
000000b0: 03b1 84bd 6f61 1dbd fc40 2fbd 7d59 1c38
000000c0: d299 49bd 8ade 733d 7510 7e3d 826a 76bc
000000d0: b9bb 8a3d 38d8 3cbc b851 22bd bbd9 6fbd
000000e0: 5f22 923c 7ccc d0bd 7813 19bd b01d 84bd
000000f0: cd4c 313d ab7a d13d 52b0 323d ed07 67bd
00000100: 7c08 a33c 24bc 1abd a783 8a3c 7804 0f3d
00000110: ad6d 99bd 47b3 a8bd 9003 023d ed12 31bd
00000120: d0c5 6fbd 580f 6b3d c157 34bd f300 2f3d
00000130: b319 e3bc e66e fcbc 3d0e 5a3d f632 143d
00000140: 3547 3ebd 36b8 013d fc0a 533d 89fc 363d
00000150: a1ba a7bd ef62 9c3d 4a87 b03b 148f b73b
00000160: 6fdc fdbd 6c56 0a3e c01a 8fbd 7b12 f23c
00000170: 226e c63c 1aab d9bb b593 823c 242a 7d3b
00000180: bc4e 4bbd 38a2 6abb fa43 1b3d 7dfe 9cbd
00000190: 7516 95bd 1d7b acbd ae49 663d 07e8 b0bd
000001a0: 4c5b 2dbc c0fb 0b3c c407 5a3d ded2 6dbb
000001b0: 2209 8e3c a0ae 9abc fb61 353d 065f 053c
000001c0: fdb1 a6bd 608a 8a3c 7644 753d 2d53 8b3d
000001d0: fc75 4cbd 2b17 5b3d b3fe 3abd ee7c 753d
000001e0: ab3c 11bb 9fa8 823d 577e ce3d 059a 1bbb
000001f0: a092 91bd 2432 30bd 908b 6cbc e07b 1c3a
00000200: dc25 16bd 89be af3c 3c97 be3d 26ce 8a3c
00000210: 760f a3bd 5489 10bd c4f5 353b 3e4b 943d
00000220: fc26 6ebd cd3b c33b 52c0 3abc d5b9 773c
00000230: aa78 923d e4bd c33c b2f0 153d 64d4 d7bc
00000240: 4316 3a3c ff76 a8bd 701e 643c 3007 73bd
00000250: e444 ac3c 07e1 a83c b239 e93d 8f47 a63c
00000260: df16 cd3d c2a2 75bd 475f 89bc fa26 87bd
00000270: c858 1a3d 4c9b 0abd 75a2 253c 3827 adbb
00000280: 06b9 1fbd 7b03 d03d 3e74 733d ad73 e4bc
00000290: 8159 84bc ddb1 c2bd 631e 4dbd a713 b9bd
000002a0: c702 93bd 7e33 043d 737b bf3d 1974 74bd
000002b0: c1fc e2bb a9bb 203c 4795 bbbd ac0d 64bb
000002c0: da5b cb3d 15d6 c13d 21cb 99bc e2c1 2c3d
000002d0: dae9 1dbd e200 eebb d5ad c53d ee70 7e3d
000002e0: 1bc2 8d3d f67a 843d 4a74 5f3c 008c 8dbc
000002f0: 932b 793d c1d0 a0bd c02d 41bd 6206 333c
00000300: 286a 90bd 1cc5 6f3d f5f5 2bbc 1818 cbbc
00000310: d2ee 8fbd 3b9a a0bd bcfe 55bd 7a77 b3bd
00000320: b05d 413d 4a34 b83c dbca 7ebd b322 093d
00000330: 57fd a6bd 0e4a 1e3d 7c82 c5bc 5759 4b3d
00000340: cca6 703d 49cb b1bd 5367 58bd b5be 1ebd
00000350: 2349 cc3c 8f75 c53c d258 34bd 17fe 7f3b
00000360: d264 1dbd b95c bb3c eb7d 6abd 62ea dd3c
00000370: a8df d13c e76d 0c3b 82dc 13bd 909e 28bc
00000380: 149b 2fbd 2f19 24bd 7d36 cd3d 5e16 7dbd
00000390: 4d42 993d 89e3 873d 8649 9dbd 3392 62bd
000003a0: f11f eebc 0040 c9bc b1bb 81bc 8155 2cbc
000003b0: 88b1 193d 6e83 7cbd 6998 4e3d d943 4e3d
000003c0: 755e 893d 3c40 57bd 72ac 5bbd 61b7 843d
000003d0: afea 6fbd 8392 99bc 1798 a8bd 35e2 c1bd
000003e0: af36 363d c314 503d b036 a3bd c3b1 4c3d
000003f0: 5cd0 dc3d c949 d7bc 398d 293b 2370 913d
0.052840207 0.05343339 0.041708086 -0.058195777 0.032538466 0.108491726 0.057694994 -0.06743886
0.070293866 0.018878711 -0.0018878484 0.114085734 -0.01425601 0.00084607216 0.101194434 0.02787092
0.10096689 -0.058526363 0.06400398 0.017722355 -0.039284587 -0.016295185 -0.07201676 0.035566337
-0.055589385 -0.12483855 -0.08448653 0.030789936 -0.059315477 0.011352687 -0.09143991 -0.018039832
0.035473097 -0.030155422 0.009102445 -0.05535448 0.0059882295 0.077570684 -0.085182674 -0.051781505
0.05654775 0.04561945 0.022098117 -0.047361292 -0.06479075 -0.038422998 -0.042786583 3.727664e-05
-0.04921896 0.0595384 0.062027413 -0.015040042 0.067740865 -0.01152616 -0.039628714 -0.058557253
0.017838655 -0.10195252 -0.037372082 -0.06450975 0.043286134 0.10228475 0.043625183 -0.056404043
0.019901507 -0.03777708 0.01690848 0.03491637 -0.07491622 -0.082373194 0.03174168 -0.04323094
-0.058538258 0.05738768 -0.044029 0.042725515 -0.027722215 -0.0308146 0.053236235 0.036181413
-0.046454627 0.031669818 0.051524147 0.04467443 -0.081898935 0.076360576 0.0053872215 0.005601773
-0.1239556 0.1350953 -0.06987524 0.029549828 0.024222437 -0.0066427113 0.015939573 0.0038629854
-0.049635634 -0.0035802256 0.037906624 -0.07665727 -0.07279674 -0.084219195 0.05622261 -0.08638006
-0.010580849 0.008543909 0.053230062 -0.0036289017 0.01733834 -0.018882096 0.044282895 0.008140331
-0.08139417 0.016911685 0.059879743 0.06802974 -0.049917206 0.05348889 -0.045653056 0.059933595
-0.0022161405 0.06379818 0.10082691 -0.0023742926 -0.071080446 -0.043016568 -0.014437571 0.00059693865
-0.0366572 0.021453159 0.093061894 0.016944002 -0.07961933 -0.035287216 0.0027764896 0.07240914
-0.058142647 0.0059580565 -0.011398392 0.015119989 0.07151921 0.023894258 0.036606498 -0.026346393
0.011357847 -0.08225822 0.0139232725 -0.059333026 0.021028943 0.020615114 0.11387958 0.020297794
0.10014128 -0.05996967 -0.016769065 -0.06599231 0.037682325 -0.03383951 0.010109534 -0.0052842163
-0.03899481 0.10156914 0.05943703 -0.02788719 -0.01615596 -0.09506581 -0.050077807 -0.090369515
-0.07178264 0.03227567 0.09349718 -0.05968103 -0.0069271033 0.009810367 -0.09159332 -0.0034798188
0.09929629 0.09464661 -0.018773617 0.04217709 -0.038553096 -0.007263289 0.096522965 0.062119417
0.06921788 0.064687654 0.013638565 -0.017278671 0.06083257 -0.07852317 -0.04716277 0.010926815
-0.07051498 0.058537588 -0.010495652 -0.024791762 -0.07027973 -0.07841917 -0.052244887 -0.08763023
0.047208488 0.02248587 -0.062205177 0.033480357 -0.081537895 0.038644843 -0.024110071 0.049645748
0.05875282 -0.08681352 -0.052832913 -0.03875609 0.024937218 0.024103908 -0.04403002 0.0039061361
-0.038426228 0.022871362 -0.05724899 0.027089301 0.025619343 0.0021427812 -0.036098965 -0.0102917105
-0.042872503 -0.04006308 0.100201584 -0.06178891 0.07483349 0.06635196 -0.07680039 -0.055315208
-0.029067965 -0.02456665 -0.015836569 -0.010518433 0.037522823 -0.06164878 0.05043832 0.050357673
0.067074694 -0.052551493 -0.053631254 0.06480289 -0.05857342 -0.01874662 -0.08232134 -0.09466974
0.044485744 0.05080105 -0.07969415 0.049974214 0.10781929 -0.0262803 0.0025871529 0.071014665

bias_ih_l0 f4 [512]
00000000: 21cc a13c 510f e13b b0c0 083d f133 163b
00000010: 62be 85bd fa2b b7bd 738c 0f3d 7109 92bd
00000020: 9bef ed3d dfe5 f03c a59f 81bb 44d9 053d
00000030: ebdb 7b3d a32d 883d 5534 9a3b 6f74 2ebd
00000040: ce35 213d e190 143d fbfa 73bd 14d3 c93b
00000050: fcce ce3b 929e c2bd 5da2 a53c 7f55 ac3d
00000060: 02f2 23bc 7026 3ebd f335 c7bd 0350 a1bd
00000070: f536 25bd a994 af3c a02a f2bc a3e4 b3ba
00000080: 90eb 443d d0b8 7b3d 4259 4a3d 5791 c43d
00000090: 0a72 bb3a 5311 13bd 1dbb df3d 2cf7 9e3a
000000a0: 805a 083d ed94 0cbe ea90 b73d 3744 9fbc
000000b0: c18f 053d dc67 dabb 91d4 de3d c279 f1bc
000000c0: 9c6d 813c 6ce3 72bd 04e2 b53d 39fc eb3d
000000d0: 906d ecbc c658 433d 5aa5 eebc e211 413d
000000e0: 9f2f 1ebd e9c9 6f3c 3c5f ccbd 1c7b f9bc
000000f0: f080 c7bb f37e d63c 8c48 a43c 2224 0d3d
00000100: e1b9 613d bfc1 7c3d 0470 1f3d 2236 393b
00000110: bf2c 1e3d a124 0fbe 221d d03d 18d6 21bc
00000120: 04c2 9ebc af2c 053e b4a1 9ebc d71b cd3d
00000130: 7782 7fbc 6a60 a23d 600c a5bd dbd3 893d
00000140: e479 6dbd 1861 05be 9a99 813d f3f6 77bd
00000150: ab64 4abd ad55 613d dc7c 2bbd a632 c43c
00000160: ea17 53bc 81fb 8ebd 4050 debc efd5 543c
00000170: 1ead 983d cf7a 8fbc 8d8c 21be 9ccb d73c
00000180: 44d6 253e a6f7 5cbd bf57 b8bc dde5 b1bc
00000190: 0cf0 37bd 1b47 58bd e358 fcbd 36e0 cabd
000001a0: 5566 7c3d 1e96 12bd a920 663d 435c 5a3c
000001b0: 4ef8 fc3d a6c0 863d a72c 91bc db97 f73c
000001c0: 7100 f7bc 4f31 76bc d242 80bd 7cbb 99bd
000001d0: ef28 81bc 1dc3 a53d 525f 83bd c985 c13d
000001e0: 5bdc 4bbd 9205 933d 4df8 403d 59b6 ec3d
000001f0: 556d 93bd 13fd 883d d323 13bc 2f12 bcbd
00000200: e303 3dbe 0d2f 9d3d 4adb f7bd 7af2 e2bd
00000210: d2b9 1c3b ed77 493d d4d2 30bd 010a 04bd
00000220: 486e cebd b2e8 ccbd 94e1 afbd 094b 7cbd
00000230: cb86 38be dd9a 61be 2491 1ebd 9619 c9bd
00000240: def1 03be 177c 97bd dfdd 5dbd 4c58 35bd
00000250: aafb 4fbe 50b0 36bd a6c2 21be 2097 5dbd
00000260: b1c4 b73c 7a47 3ebc f06d fbbc a20c 8e3c
00000270: e492 073b 3646 e5bc 606a 83bd d1ef c3bd
00000280: 3619 07be 30b3 1dbe c5c2 2cbe aa03 9bbd
00000290: 77ef e6bc c4fc efbd b289 4dbe 9beb f8bd
000002a0: 4e28 0bbe 224b edbc bdff dcbd 1cdf 09be
000002b0: 52a2 8ebd 7045 153d 624e 11be 80e2 a0bd
000002c0: c3c3 b8bd 1e93 b3bd f734 c1bd 4a34 53bd
000002d0: 8738 a6bb 3ccd 9abd 03fb a5bc 57e0 ae3c
000002e0: 8af9 dabd 6b22 d4bd b313 cbbd ac62 11be
000002f0: 7bfd 573c f6dd 85bd 1347 96bd c803 70bd
00000300: 0027 cebd b995 abbd 472d 1cbe a047 bebc
00000310: 560d 8dbd 6422 eabc 72d4 28bd 7264 8dbd
00000320: 3d6e b7bb 072f 40be 4eb3 fdbd 2b42 e9bc
00000330: 5e88 b0bd 40ad 4fbe be31 2b3d 8f76 6cbd
00000340: 6788 19be 7f48 ffbd 87eb 8ebd a2aa a73c
00000350: cffb fdbd 96c2 45bd 7f75 67bd 2113 1ebd
00000360: a33d e3bd 56b4 fcbd 3ab4 45bb d9aa 14be
00000370: 5ba9 933d 06e4 6ebd ca15 4fbd 7f94 f3bb
00000380: 87c3 6dbd 2c0b 2fbe 67c0 dcbc e5be b4bc
00000390: ad8b 33bd 0c44 1d3b 160a 38bc beb3 80bb
000003a0: 3480 1dbb 2528 d2bb 6231 b5bb c6e2 49be
000003b0: 164c e9bd 515a c1bd e0e8 0abd 1b61 d7bd
000003c0: 56bb 11be 4114 36bd 6d86 9abd 31d9 3bbe
000003d0: ed8d 073d b619 3ebe f9d8 d6bd fd70 e8bd
000003e0: 6fe7 b1bc bad3 63bd 02a5 f0bd 35d1 19be
000003f0: 30de ddbd 17b3 89bd 1825 afbd 34dc 84bd
0.019750657 0.006868281 0.033386886 0.0022919143 -0.06530453 -0.08943935 0.035046052 -0.07130707
0.11617967 0.029406486 -0.0039557987 0.032677904 0.061489027 0.066493295 0.0047059455 -0.04259151
0.039357953 0.03627098 -0.059565526 0.0061591957 0.0063112956 -0.09502901 0.020219022 0.084147446
-0.01000643 -0.046423376 -0.09727087 -0.07876589 -0.040335614 0.021433191 -0.02956134 -0.0013724755
0.048076212 0.061455548 0.04940153 0.09598034 0.0014300954 -0.035905194 0.10924361 0.0012128106
0.033289433 -0.13728686 0.08963187 -0.019441707 0.032607798 -0.006665213 0.108803876 -0.029477004
0.015799336 -0.059298918 0.08881 0.11522717 -0.028860837 0.047692083 -0.02913158 0.047136195
-0.038619634 0.0146355415 -0.09979102 -0.030454211 -0.0060883686 0.026183581 0.020054124 0.034458287
0.05510891 0.06170821 0.038925186 0.0028261025 0.038616892 -0.13978817 0.10161807 -0.009877704
-0.019379623 0.13005327 -0.019364215 0.10015076 -0.01559507 0.07928546 -0.08059001 0.06729861
-0.057977572 -0.1302532 0.06328125 -0.060538244 -0.04941241 0.055013347 -0.041867122 0.023949932
-0.0128841195 -0.06981564 -0.027137876 0.012990459 0.074548945 -0.017514614 -0.15776272 0.026342206
0.16195017 -0.053947113 -0.022502778 -0.021716053 -0.04490666 -0.052802186 -0.12321641 -0.09906046
0.06162103 -0.035787694 0.05618349 0.013327661 0.12352048 0.065797135 -0.017721487 0.030223778
-0.030151578 -0.0150264045 -0.06262745 -0.07506463 -0.015766589 0.080938555 -0.06414665 0.094493456
-0.049770694 0.07178797 0.047111798 0.115582176 -0.07198588 0.06688895 -0.008980709 -0.09183156
-0.18458514 0.0767499 -0.12102373 -0.11081405 0.0023914468 0.049186636 -0.04316981 -0.032236103
-0.10079628 -0.100053206 -0.085879475 -0.061594997 -0.1802017 -0.22031732 -0.038712636 -0.09819333
-0.12885234 -0.07396715 -0.05416667 -0.04427366 -0.20310846 -0.04460174 -0.15796909 -0.054099202
0.022432657 -0.011613721 -0.03069207 0.017340008 0.002068692 -0.02798758 -0.06416774 -0.09567226
-0.13193211 -0.15400386 -0.16871174 -0.07569058 -0.028190358 -0.11718133 -0.20072058 -0.12154313
-0.13589594 -0.02896649 -0.10790966 -0.13464016 -0.06964554 0.036443174 -0.14190057 -0.078557014
-0.090217136 -0.08768295 -0.0943393 -0.05156354 -0.0050726566 -0.075586766 -0.020261293 0.021347208
-0.10692127 -0.10358127 -0.09915867 -0.14197797 0.013182993 -0.06536476 -0.07337775 -0.058597356
-0.100660324 -0.08378167 -0.15251647 -0.023227513 -0.06887309 -0.028580852 -0.04121823 -0.06903924
-0.005597858 -0.1876794 -0.12387715 -0.028473934 -0.0861976 -0.20280933 0.041795485 -0.057730254
-0.1499344 -0.124649994 -0.06978517 0.020467106 -0.12401544 -0.048281275 -0.056508537 -0.03859246
-0.11095741 -0.12339084 -0.0030167238 -0.14518298 0.07210036 -0.05832293 -0.05055789 -0.0074334736
-0.058047798 -0.17094105 -0.026947213 -0.022063682 -0.043834377 0.0023996858 -0.011232873 -0.003927677
-0.0024032714 -0.006413477 -0.0055295685 -0.19715413 -0.11391465 -0.094410546 -0.033913493 -0.10516568
-0.14231619 -0.04445291 -0.07545171 -0.1834457 0.033094335 -0.18564495 -0.10490603 -0.11349676
-0.021716801 -0.05562184 -0.11750223 -0.15021212 -0.108333945 -0.06723612 -0.08551997 -0.06487313

bias_hh_l0 f4 [512]
00000000: e6c5 e7bc bc37 a63d 45dd febd bf9a 93bb
00000010: 5a4e a2bd 7fb7 e9bb aefc b3bc 5d50 e7bd
00000020: faa1 b5bc 95aa d93c 2bf7 8e3d 1ac1 483d
00000030: 296b 6bbc d68e 07bb c064 b0bd 2979 f0bc
00000040: de6b e13c bed8 843d 0c8c 233d 70f5 ae3b
00000050: 9788 a63c e4b6 7ebd c9eb 98bc cd47 073e
00000060: 414b b5bd ff69 cabc af2d 8dbd b5bc c5bc
00000070: ba1e c3bc e04e 0cbd 90a6 8abd 0bf5 343d
00000080: 419c 4ebd 7c19 f93d 412f 31bd 3236 2b3d
00000090: 7488 a33b 2dfd acbd 368a a0bb 4778 a6bd
000000a0: ba32 c43d dc12 02bd c664 6f3d d6b1 283d
000000b0: 7330 25bd d1b3 d03b 4ec4 fb3d 00e0 7b3d
000000c0: 1cbc ccbd fb99 8a3c 9519 29bd 6eac 40bd
000000d0: 0452 cbbc e7eb 16bd ec99 a0bd b7a3 d13c
000000e0: af70 68bd ebd2 88bd 977b 84ba 8cb8 6a3c
000000f0: c6e7 32bb 065d 563d f804 253d 73f1 a93d
00000100: f6c1 bfbc b112 893d 7f06 e5bc 3806 9d3d
00000110: 82bb e6bc 314b 13bd ba55 593d f196 76bc
00000120: aaef 313d a47f febb 388c 3d3c 2500 123c
00000130: ec68 c5bd 24f0 883d cd30 853d 7eba 0ebd
00000140: 8bdd 2dbb 1b0e e2bd 97bb 843d 308f f13c
00000150: 7586 8e3d 0c09 12bc 4697 383d 6fd7 853d
00000160: 06a9 59bd 97b9 bebd ea77 1a3d 4c2b abbd
00000170: 5dab a23d 42be 923d d0d4 7cbd ce18 98bd
00000180: db60 863d 0dcc 03bd 1f76 9f3d 9e14 7b3c
00000190: 6676 1bbd 092d 88bd f31d 4cbd 8abe 863d
000001a0: 604c 833c 1d8f 2abd c315 14bb 15a9 b93d
000001b0: 5f51 c63d 83f6 a2bd 2da0 a13a 4b36 453d
000001c0: d11d a53d 19e9 383d 594d da3c 938d 24bd
000001d0: d1e9 a1bd 751a 4fbd 43ab cdbd d84f 783d
000001e0: 7a80 febc 4db4 7fbd 0cd3 e83b ad3c ff3d
000001f0: 6c3b aa3d 12e8 b8bc 5bf0 c7bc 52c2 a1bb
00000200: 8da4 2cbe ba00 0abb 999b febd 3d4c c4bc
00000210: 7526 74bd c2d8 c93c 1f09 32be 3e11 dc3a
00000220: 6294 2bbe 7050 0dbe d317 47be a004 98bd
00000230: 4411 02bd 5e1d 53bd 5a78 6a3c bbb3 a4bc
00000240: f45a 19be ed94 dfbc ebce 5f3c 1366 19be
00000250: 542a 98bd b05e 01bd 331e 09bd 3ade 42be
00000260: f5e6 8b3c 8eed 0dbe 88a1 45bc 398c 043b
00000270: 0a95 a7bb a72a ffb9 2ace 0cbd b02e f1bc
00000280: 2a1b 8abd 13bf acbd 1951 14bd 3f36 3ebd
00000290: 0dc1 bebd 7db2 0bbd 42de adbd 307a 703c
000002a0: c025 13be b74e 21be 9369 b63b 48a0 cfbd
000002b0: 4bb9 43bd 766b 16bc 1b94 11be d137 01be
000002c0: b0ae ceba dd45 75bd 147c bfbd da0c 52bd
000002d0: d245 f1bd 37c9 413c dd91 01be ee57 5fbd
000002e0: c30f efbb 074b 44bd e166 8ebc fa5f fabc
000002f0: 1f43 31bd 24d2 45be bea4 b5bd 0202 9abd
00000300: 1bb8 44be 09a9 a7bc f48a 52be 37ba a5bd
00000310: 3d51 9cbd fb93 5fbd 6418 6abd 12e5 14be
00000320: 9f70 28bd 6894 81bd f935 f2bd db52 62bd
00000330: 03a6 d9bd 9dd9 51be d59e 94bd 1bb5 00be
00000340: f01d 1dbe 6579 97bd f29d 3dbe 2b55 02be
00000350: 03c6 9b3b 11c8 28bc 562e 91bd b3d9 37be
00000360: 4044 8dbc 1bd0 a7bd 435d c4bd 1516 68bd
00000370: 1665 2b3d ad87 17be e82f b9ba ad74 b1bd
00000380: 8a0d 1cbe 2df7 9abd 7aab b3bd 6891 193c
00000390: ac8c 23bd 904f b8bb 8f07 b33c 22b4 2cbe
000003a0: dc26 06be b71d 09be 509e 31bd 7b52 32be
000003b0: a5f4 d2bd 87b6 cfbd d32a 0cbc 46f9 42be
000003c0: f448 26bb 063b 42be 245d 84bd 1078 34bd
000003d0: 27dd 2a3d 4755 d4bd f152 2c3a c004 d4bd
000003e0: 5f22 04be 5514 20be 8def 883c 28db 5cbd
000003f0: e8ae 2bbe ad95 10be 6d47 76bc 40db f9bd
-0.028292608 0.08116099 -0.124445476 -0.004504531 -0.079251006 -0.00713247 -0.021971073 -0.11294625
-0.022171963 0.026570598 0.06980737 0.04901228 -0.014368811 -0.0020684502 -0.086129665 -0.029354649
0.027517255 0.06486653 0.03992848 0.005339317 0.020328803 -0.062186137 -0.018667119 0.13210984
-0.08852244 -0.024708746 -0.06893479 -0.024137834 -0.023818363 -0.03425491 -0.067700505 0.044179004
-0.050441984 0.12163064 -0.043257955 0.04179973 0.0049906317 -0.08446727 -0.0048992885 -0.0812841
0.09579988 -0.031756267 0.058445714 0.041185223 -0.040329408 0.006369092 0.122933015 0.06149292
-0.099968165 0.016919127 -0.041284163 -0.04703944 -0.024819382 -0.036846068 -0.07841858 0.02559076
-0.05674809 -0.066808544 -0.0010107633 0.014326226 -0.0027298792 0.052334808 0.04028794 0.08298006
-0.023407917 0.06693018 -0.0279572 0.07667202 -0.028165583 -0.03596038 0.05306027 -0.015050636
0.043441452 -0.007766681 0.011569075 0.008911167 -0.09639153 0.06686428 0.06503449 -0.03484582
-0.0026529755 -0.11037847 0.064810924 0.029487222 0.069592394 -0.00891329 0.04506614 0.06535231
-0.05313971 -0.09312742 0.037712015 -0.083578676 0.07942841 0.07165195 -0.06172639 -0.07426606
0.065614425 -0.03217702 0.07786202 0.01532474 -0.03795471 -0.06649215 -0.04983325 0.06579311
0.01602763 -0.04164039 -0.0022595979 0.09065453 0.09683489 -0.07957175 0.0012331061 0.04814748
0.08062328 0.045144174 0.02664821 -0.04017408 -0.07905925 -0.05056234 -0.10042431 0.06062302
-0.031067122 -0.062427808 0.007105237 0.12462745 0.08312115 -0.022571597 -0.024406603 -0.004936495
-0.16859646 -0.0021057562 -0.12432022 -0.023962134 -0.059606988 0.024639491 -0.17386292 0.0016789807
-0.16755822 -0.13800216 -0.19442682 -0.07422757 -0.031754747 -0.05154168 0.014310921 -0.020105233
-0.14976102 -0.027292693 0.013660173 -0.14980344 -0.074299484 -0.03158444 -0.033476066 -0.19030085
0.017077902 -0.13860151 -0.012062438 0.002022518 -0.0051142024 -0.0004866917 -0.0343763 -0.029441208
-0.067434624 -0.08434882 -0.036210153 -0.04643845 -0.09314165 -0.034105767 -0.08489658 0.014677569
-0.14369869 -0.15752684 0.0055667846 -0.10137993 -0.04778413 -0.009180894 -0.14216654 -0.12618949
-0.0015768614 -0.05988108 -0.09349838 -0.051281787 -0.11780895 0.0118277585 -0.12653299 -0.054527216
-0.00729558 -0.047923114 -0.01738304 -0.030563343 -0.043276902 -0.19318444 -0.08869313 -0.07519914
-0.19210856 -0.020466344 -0.20560819 -0.08092158 -0.076326825 -0.054584485 -0.057152167 -0.14540508
-0.04112303 -0.06327134 -0.11826701 -0.0552548 -0.10627367 -0.20493169 -0.07256857 -0.12569086
-0.15343451 -0.07396201 -0.18517283 -0.12727802 0.0047538294 -0.010301606 -0.07088916 -0.1795414
-0.017244458 -0.0819399 -0.09588101 -0.056661684 0.04184445 -0.1479785 -0.0014128657 -0.08664832
-0.1523954 -0.07566676 -0.08772941 0.009373046 -0.039929077 -0.005624719 0.02185419 -0.1686559
-0.13100761 -0.13390242 -0.04336387 -0.17414276 -0.103005685 -0.10142236 -0.008555132 -0.19040403
-0.0025373073 -0.18967828 -0.06463078 -0.044059813 0.041714814 -0.10367828 0.00065736385 -0.103524685
-0.12903737 -0.15632756 0.01671579 -0.05391994 -0.1676594 -0.14119597 -0.015031678 -0.12200022

weight_ih_l0 f4 [512, 128]
00000000: d2b4 dcbd 4227 123d b488 a0bb 9fb2 053d
00000010: efd0 eebc 8a42 9b3c f1d1 5b3d 820c a5bb
00000020: b90a fa3c f949 0dbd f4cb 7e3c 7a1c 243d
00000030: 7cc4 ed3c c6f0 753b 34a2 5f3c 867e 413d
00000040: a9a8 1d3c aa39 abbc 6c7f ed3c 82ed 31bc
00000050: 29cc 80bc 86c5 02bd ed82 a1bb 5ee7 893c
00000060: 174c 8e3d 5441 cb3c 9355 113b 2481 213a
00000070: fd5c 1abd b6c3 a33d d0ff 053d fc59 af3c
00000080: 5508 86bb aa58 16bd 3ef1 99bd e123 643c
00000090: 50f0 cebd 4189 8a3d b6d4 8c3d 36d3 56bd
000000a0: e8dc 28bd bb7c 943d dfc8 91bd 3880 183d
000000b0: 033f f23d 3267 d3bb 4dfe 353b b3bc 603d
000000c0: 18a8 4cbd 9ee4 4c3d c85f ac3c ec76 64bc
000000d0: 946e f43c 6fc1 3e3d 2a99 963c e231 85bd
000000e0: 1cba 56bd 59d0 eabc 4894 963d 25c4 95bd
000000f0: 9257 863d d650 23bd aa4f 05bc f160 973d
00000100: 65a9 003d 9c3d 2dbd 0841 453c 0ff4 343c
00000110: 58f1 843c 428b 193d ea86 8e3c deb7 a13d
00000120: adf0 f3bc 14ed e0bc 26f5 4fbd 6521 2d3d
00000130: 9443 d73c 2258 9e3d 593a aebd 6515 bd3c
00000140: 48b2 273c 0b6d 9dbd 0357 00bd 878b 8b3c
00000150: 1005 33bd c148 423c b321 a2bc 9123 8e3d
00000160: e71f b5bc 19c5 603c f8b3 a13d e6d1 383d
00000170: 214e a5bb 8ed9 85bd cdc4 89bc 0623 dfbb
00000180: 1b8f 58bd b87a e0bc 3bae 87bd ded0 a3bb
00000190: a958 e2bd 4e71 9cbd 1f28 4ebd 7999 c7bd
000001a0: 4836 573d 805f 9cbd b32c 49bd d94d ab3d
000001b0: c42c 853c f7a2 113d 6c1c 803d 8925 e63d
000001c0: ee97 7dbd 291c 573d ac75 22bd a5a0 2a3b
000001d0: 875e 9fbd f0ad 8ebd eba0 933c 19e3 91bc
000001e0: 9854 a63d 8791 553d 61a2 77b9 0db9 68bc
000001f0: a967 3e3c 66cc 53bd 94bc c93d acb2 503c
00000200: 3427 fe3b f583 f3bb 69bc 2ebd 1ebd b5bc
00000210: 1832 403d 23cb cdbc 4a8e 133d acaf c73c
00000220: 2d63 e23c 3f4b 933b 7793 ad3d ac52 973c
00000230: ca0f b5bd 06c0 d4bd dffe 4abd ff36 b8bb
00000240: 0ff7 acbc 553d 4b3d 066d 89bd a56e 66ba
00000250: 5777 afbd b173 8bbd 62e5 efba fc2e 523d
00000260: 83c0 2fbd c410 e33c d38a aebb 7454 f3bc
00000270: df32 8fbd ff99 1b3d 7ebf c6bd a2be 4d3c
00000280: 67f3 9d3c 36fc 133d 9b52 38bd 7fcd 873c
00000290: 9be5 89bc 5d2c 703d 7355 9b3c 7523 9dbd
000002a0: 38db 1fbd 109e 7abc 036b b8bd 9535 93bb
000002b0: 81db fe3c 97b0 18be e56f df3c f980 4cbb
000002c0: 6dc5 16bd 5ffa eabc 77af 03ba f33d d63d
000002d0: 0c8a 5cbc 4a4a d0bd f6c9 223d 6ed6 b23b
000002e0: f69a 6b3d a163 b03d eea9 c3bd 72aa e83c
000002f0: 7437 9b3d c34e 123d 32e3 e53d b087 103d
00000300: 43f1 bebd 1c11 073d 3876 37bd 0879 943c
00000310: 7573 f0bc 934b 0bbc 35c8 02bd 938d 2aba
00000320: e4a7 27bd 7a5c dabd 9053 ad3c 2a96 3d3c
00000330: 3dd9 86bc 3253 bd3c a5bd 4b3d 8687 953d
00000340: 3a00 28bb a5b4 fb3c db00 713d 10fe 53bd
00000350: bbed 29bc e841 af3d 24af 8cbb 20ee 973d
00000360: 6368 9ebd eef3 0fbd 9a4f 8fbd c699 1d3d
00000370: 65db 133d 26a8 323a 59c0 1bbd 7c69 513d
00000380: f155 64bd e6d2 b23d 1d2b d53c d284 d0bd
00000390: 8a30 95bd 2c11 203c 5864 513d 2090 f63a
000003a0: 1860 b23d 1ed1 d63c e921 70bd 72bf f13b
000003b0: e85f b2bc 7da8 95bc e413 f7bc eb6e 953d
000003c0: 2414 85bd 4375 92bd ab97 e7bc 2a7e f73c
000003d0: c336 85bd ec80 ed3d c81a 02be 7bf8 7dbc
000003e0: 6669 26bd 030a 333d 290f 173d e1a7 08bd
000003f0: 7d37 0c3a b29a 723d 57ea 333b 4317 b43d
-0.10776676 0.03568197 -0.004899109 0.03264105 -0.029152362 0.018952627 0.053667013 -0.0050368914
0.030522691 -0.034494374 0.015551556 0.04006622 0.029024355 0.0037527545 0.013649512 0.047239803
0.009622731 -0.02090152 0.028991424 -0.010859849 -0.015722351 -0.031926654 -0.0049289376 0.016833957
0.06948107 0.024811424 0.002217625 0.0006160906 -0.037686337 0.07996313 0.032714665 0.021405213
-0.0040903487 -0.03670565 -0.075167164 0.01392457 -0.1010443 0.0676446 0.06876509 -0.05244752
-0.041226298 0.07250353 -0.07118391 0.037231654 0.11828425 -0.006451511 0.0027769983 0.054867458
-0.049964994 0.050022714 0.021041766 -0.013944369 0.029837884 0.04657119 0.018383581 -0.06503655
-0.05242358 -0.028663801 0.07352501 -0.07312802 0.065596715 -0.039872013 -0.008136669 0.07391537
0.031411547 -0.042295083 0.01203943 0.011044516 0.016228363 0.037486322 0.017398316 0.07896398
-0.02977785 -0.027456798 -0.0507709 0.042268176 0.026277341 0.07731654 -0.08507223 0.02308149
0.010235377 -0.07686814 -0.03133298 0.017034305 -0.043706 0.011858166 -0.01979146 0.069403775
-0.022109939 0.013718867 0.078956544 0.04512205 -0.005044714 -0.06535636 -0.016817475 -0.006809595
-0.05287085 -0.027402267 -0.06625029 -0.004999264 -0.11052067 -0.07638799 -0.05033123 -0.097460695
0.052542 -0.07635403 -0.049114894 0.08364458 0.016256697 0.035555806 0.06255421 0.11237628
-0.06191247 0.05251709 -0.039663002 0.0026035693 -0.077817015 -0.0696677 0.018021068 -0.017808484
0.08121604 0.05214074 -0.00023616246 -0.014204276 0.011621394 -0.0517086 0.098504215 0.012737911
0.007756138 -0.007431502 -0.04266015 -0.022184905 0.046922773 -0.025121277 0.03602437 0.024375759
0.027635181 0.004495054 0.08475392 0.018472038 -0.08840902 -0.10388188 -0.04955947 -0.0056217904
-0.0211139 0.049619038 -0.06710248 -0.0008790291 -0.08567684 -0.06809176 -0.0018302614 0.05131434
-0.042908203 0.027717955 -0.0053266077 -0.029703356 -0.06992125 0.03798866 -0.09704493 0.012557657
0.019281102 0.0361292 -0.045000654 0.01657748 -0.016833117 0.058636058 0.018961644 -0.076727785
-0.039027423 -0.015296474 -0.09004786 -0.0044924715 0.031110527 -0.14911114 0.027275035 -0.0031204803
-0.036809374 -0.02868384 -0.00050234 0.104610346 -0.013460647 -0.101704195 0.039743386 0.005457691
0.05752083 0.08612753 -0.09553896 0.028401587 0.07578936 0.035719644 0.11224975 0.03528565
-0.09323361 0.0329753 -0.044790477 0.018124118 -0.02935193 -0.008501905 -0.031929214 -0.00065060816
-0.040931597 -0.1066217 0.02115801 0.011571446 -0.01646101 0.02311096 0.049741406 0.0730124
-0.00256349 0.030725786 0.058838706 -0.051755965 -0.010371621 0.085574925 -0.0042933393 0.074184656
-0.07734754 -0.03514474 -0.06997605 0.038476728 0.036097903 0.0006815217 -0.038025234 0.05112599
-0.055746023 0.08731632 0.026021535 -0.101815835 -0.07284649 0.009769719 0.051121086 0.0018811263
0.08709735 0.026222762 -0.05862609 0.0073775584 -0.021774247 -0.018268818 -0.030160852 0.072965465
-0.06497982 -0.07151272 -0.028270563 0.030211527 -0.065045856 0.115968555 -0.12705529 -0.015501137
-0.04062786 0.04371072 0.036879692 -0.033363227 0.00053488446 0.05922956 0.002745291 0.08793499

weight_hh_l0 f4 [512, 128]
00000000: ad66 acbd 93b4 12bb 8b52 11bd 56b0 9abc
00000010: 02a5 a9bd e536 3b3d 35ba 1bbd 7576 5fbc
00000020: 0beb 893d f148 46bd 8ff1 5d3d 8011 913d
00000030: 11c2 8b3d 1dfa 57bd 6bc0 913c 5698 153d
00000040: cc0f 95bd c3a7 5d3d fb8b 90bd c6aa b4bd
00000050: 0a5c b03d 22e1 883d 4027 143d 9507 353c
00000060: ecce 243d edb5 c1bc 8329 4f3c 0034 a4bc
00000070: b2d9 4a3d e79c 7dbd 4384 553b 6433 f33c
00000080: 97c6 8dbd c10a 40bd ab5c eb3c 8479 7d3d
00000090: e8c9 eabb 50c5 603d 1acf ae3c 80b5 b73d
000000a0: 8f7a a53c 3549 86bc 25b0 10bd 3ec5 113d
000000b0: de7d 4a3d 980c ee3c c0d1 573d 169a 5f3d
000000c0: a249 c5bc b357 20bd 617a e3bc 45e5 293d
000000d0: f41d 8f3d 5d41 a3bb 00ed f0bc 46ff 9fbc
000000e0: 86ea 78bd 1965 9abd 97a7 833c c9f7 23bd
000000f0: 2a0b 08bd 151f 91bd 850e 63bd 97e2 833d
00000100: 0520 11bd 5a6b 64bd 4d7e f8bc 0449 a4bd
00000110: 0c15 23bc 365f 83bd 6256 873d 9981 60bd
00000120: 82f7 96bd 38a3 bdba 653a 05bd c811 20bd
00000130: 5696 6ebd 8ea4 3b3d ff0c 13bd f51a 083c
00000140: 61df b23c 1808 b7bd 73cb 903d e07e 90bd
00000150: 3d7f 67bc 5cc6 b33b 43e2 843d 873a 91bd
00000160: 4bf6 493d e021 343d 1f47 033d 9a6b 0fbc
00000170: f7fd 0e3d 0990 283d a5e2 a63d d4ec df3c
00000180: a7a8 843d 2cb5 1dbd 737b 023d 5f79 913c
00000190: 4f13 ad3d aaa0 823d 328d 87bd 00b2 73bd
000001a0: 1330 2bbd b828 833d e1a0 313d 9724 353c
000001b0: 0fc1 7b3d e9a4 94bd 6ab9 57bb b447 cfbc
000001c0: 67b7 9c3d 5e0e 593d f1a9 893d 39ff dcbb
000001d0: 4e32 903c 97b4 11bc e948 593d 6919 21bc
000001e0: 312c 24bd 4cb0 983d 0d79 9abd c494 78bd
000001f0: 6038 2b3d 7d19 96bb 0a47 b43d 684d 5abc
00000200: 1b43 babc 193d 2e3c 85af 9fbc fabc 2bbd
00000210: 1234 553d 35ad aabd 96dc b0ba 0c60 8abd
00000220: 9292 46bd 980f 9fbd 411a 8e3d 1de8 6bbc
00000230: 83cd 8dbd fbc9 8f3d 7ce6 09bd 170c 14bd
00000240: bac2 64bd c88a b9bd 68ce 403d 3d05 2cbd
00000250: 0817 803d f5da 813d 224d 0bbd 6963 bfbb
00000260: 1fcc 18bd 84b4 893d bb5d 8bbd 7537 933d
00000270: ec28 50bd 15fa 703d 62b1 1abd 6a89 04bd
00000280: f678 cd3b 6a80 9b3c 97f1 81bd 7757 733d
00000290: 74e5 5b3c 026f 5f3c 4f74 5dbd 2af7 6ebc
000002a0: aeb0 90bc eb20 7cbb 6479 99bd 0db4 163a
000002b0: c964 903d 721d 713d 9ece e7bc 8e2c f33c
000002c0: 0785 a63d eb82 b03d 3b7b 94bd 5b9a 8abd
000002d0: 8c35 6abc 5096 acbd 3acb 9ebc 6f92 2e3d
000002e0: 17b6 6d3d d039 24bd 9c75 523d 0e3f 46bd
000002f0: b8e0 b53a 1ca5 a7bb 3841 96bd 3520 c23d
00000300: 6cfa 24bc ac83 0c3d bbb7 15bd 49d4 343b
00000310: 2b94 473d 1052 9c3c 3018 92bd deb0 6eba
00000320: 3ef5 873c e9a0 a3bd 5f40 103d bde8 4d3a
00000330: 3cbf a03d e088 69bd 5649 23bd 1475 0fbd
00000340: f860 8d3d d07a 26bd 98bd 3ebd bda0 a83d
00000350: f4d9 cd3d eed6 25bc e62a 0e3d 6844 43bb
00000360: c178 573d 291a 43bc c759 8bbd 783b 8a3d
00000370: 861f 54bd fca8 61bd d9f9 5bbd f4c7 0a3d
00000380: d190 9dbd 8e56 60bd 9f96 22bc 8de4 973d
00000390: 3ae8 a53d adbc f8bb d566 ad3d f351 44bd
000003a0: 3aa9 cbb9 f1e6 c8bc c5ea 7bbd 4b42 413d
000003b0: 7909 bf3d b1d4 383d d00d 873d 7759 95bd
000003c0: b5a9 41bd 7fd9 6f3c 8d14 353d f00c abbd
000003d0: a925 763d 608a 9c3d 1c1d a63c c8fd ac3c
000003e0: 8248 c93c d95a 96bd 4bbd de3c e003 143d
000003f0: 8a82 c13c 5294 fbbc a951 223c 2520 943a
-0.08418021 -0.0022385463 -0.03547911 -0.018882912 -0.08283426 0.04570665 -0.038019378 -0.013639082
0.06734284 -0.048409406 0.054185446 0.07083416 0.068241246 -0.05272876 0.017791947 0.036522232
-0.07278404 0.05411507 -0.07057949 -0.08821635 0.08611305 0.06683566 0.036170244 0.011049171
0.0402364 -0.02364632 0.0126441745 -0.020044327 0.049524017 -0.06191721 0.0032580055 0.02968759
-0.06922644 -0.046885256 0.028730711 0.061883464 -0.0071651824 0.054875672 0.021338988 0.08970165
0.020200042 -0.01639233 -0.035324235 0.035588495 0.049436443 0.02905874 0.052690268 0.054590307
-0.024082962 -0.039146136 -0.027768316 0.041478414 0.06988135 -0.004982157 -0.029409885 -0.019530904
-0.060770534 -0.07538814 0.016071124 -0.04003123 -0.033213772 -0.070860066 -0.05543377 0.06439703
-0.035430927 -0.05576644 -0.030333662 -0.08021739 -0.009953748 -0.064146444 0.06608273 -0.054811094
-0.07371427 -0.0014468199 -0.032526392 -0.039079458 -0.05824884 0.04581123 -0.035901066 0.008307208
0.021835031 -0.08937091 0.07070055 -0.070554495 -0.014129457 0.0054862928 0.064884685 -0.07091241
0.04930715 0.04397762 0.03205025 -0.008753682 0.03491017 0.041152988 0.08148698 0.027334608
0.064774804 -0.038502857 0.03185601 0.01775807 0.084509484 0.063783005 -0.06618728 -0.059495926
-0.041793894 0.06404251 0.043366317 0.011056087 0.061463412 -0.072580166 -0.0032916912 -0.025302745
0.07652169 0.052992217 0.06721867 -0.006744292 0.017602112 -0.008893154 0.05304805 -0.009832718
-0.040081207 0.07455501 -0.0754262 -0.06068875 0.04180181 -0.004580675 0.08802612 -0.013324119
-0.022737077 0.010634684 -0.019492874 -0.04192827 0.05205161 -0.08333818 -0.0013493474 -0.06756601
-0.048479624 -0.07766646 0.06938601 -0.014398602 -0.06923964 0.070209466 -0.033667073 -0.036144342
-0.05584977 -0.090596735 0.047071844 -0.041997183 0.06254393 0.06340591 -0.034009106 -0.005840708
-0.03730404 0.06723884 -0.06804987 0.07188312 -0.050820276 0.058832247 -0.03776682 -0.03235761
0.006270523 0.018982131 -0.06344908 0.059409585 0.013421405 0.013637306 -0.054066 -0.014585296
-0.017662372 -0.003847177 -0.074938565 0.00057488756 0.07050473 0.058865972 -0.028296765 0.029684331
0.08130842 0.086187206 -0.07250067 -0.06767722 -0.014294993 -0.08427107 -0.019384015 0.04262012
0.058034983 -0.040094197 0.051381692 -0.048399977 0.0013876176 -0.005116118 -0.07336658 0.09478799
-0.010069471 0.03430526 -0.036552172 0.0027592352 0.04872529 0.0190821 -0.0713352 -0.0009105335
0.016596433 -0.079896756 0.03521764 0.000785481 0.07848975 -0.0570153 -0.03986486 -0.035023764
0.06903261 -0.040644467 -0.04656753 0.082337834 0.10051337 -0.010122044 0.03470888 -0.0029795412
0.052605394 -0.011908093 -0.06804233 0.06749624 -0.051787876 -0.055092797 -0.05370507 0.033882096
-0.07693637 -0.054770045 -0.009923606 0.074166395 0.08100934 -0.0075908513 0.08466879 -0.047929715
-0.0003884526 -0.024524184 -0.06150319 0.047182363 0.09327979 0.045124713 0.065944314 -0.07292455
-0.047280986 0.014639257 0.044209052 -0.08352077 0.06009451 0.076435804 0.020277552 0.021117106
0.024570707 -0.073415466 0.027189871 0.036136508 0.023621816 -0.030710373 0.009907165 0.0011301084

bias_ih_l0 f4 [512]
00000000: dfdf 3b3b a0df a03d 8e8a 0f3d 03d2 363d
00000010: 4c73 923d d9a8 de3d b10a 8abc 268e 35bd
00000020: b9fb ed3d fa61 f5bd 55bf bd3d 0f5b 96bd
00000030: e451 943d 85ea 603d 5fbd 6f3d 6346 44bd
00000040: 00b9 a83d 747f 9a3b 3878 073e 231f 54bd
00000050: a7d6 763d dfbc 7e3d 9567 0ebd 9816 bd3a
00000060: a947 11bd 1f3f ae3d c46e 0abd 45a6 cd3c
00000070: fdce de3b 10d2 afbc 085d a03d c46f c5bd
00000080: 0e4d 0e3d 4dc4 f83d 67cf 7dbc 26fd 743d
00000090: 9ed6 983c 6415 43bc 4138 3cbd d736 00bd
000000a0: a779 883b cfe4 86bb 034d 7b3c f3c2 88bc
000000b0: 98b7 6d3d f455 90bd e407 a43c bd64 17be
000000c0: 8eef f43c 2557 3a3d 061e a6bd 6581 af3d
000000d0: 07cb 7b3d 5b71 90bd 27b1 293e 7775 ac3d
000000e0: f5f4 0b3e 0f3a c03d db4b 053d 0093 e83b
000000f0: 9b97 083e 7bc2 02bd 223f 81bd 0141 2e3d
00000100: 0ac7 c6bd a846 86bb 25e9 133e 2ca7 d1bd
00000110: 1f46 98bb 4c2a 5e3d c1c1 4c3b df86 b5bb
00000120: 1334 0abe 9d3f 173d ea36 3fbd 72ab 703d
00000130: 277d 71bc 681b 8bbd 8687 7bbd ceb8 133d
00000140: 3a3d cd3d c508 30bd 5d43 b93d 7ffb 4d3d
00000150: 4e01 15bd dcfb 4a3d f6a1 bd3b 0ed8 d03d
00000160: c887 cbbc 0e68 643d 9fae 563d 098d 5a3d
00000170: 9281 fcbd 41bd 9d3c 0201 0e3d 3ac3 ad3d
00000180: 8ac6 163d bf73 e8bc 84c4 52bd cf0a 0fbc
00000190: a0b9 bf3b f683 e2bc e750 bdbb 5020 bbbd
000001a0: cb1e 27bc 22b5 2d3c 766b 153d ac91 76bd
000001b0: 3caa 85bc afd8 5cbd 8de1 fabb 8ba5 383d
000001c0: 85cd 94bd c00f a6bd eb46 eabd c194 fcbc
000001d0: 7368 e23d 08d2 b2bd b752 8dbd 0c08 8c3d
000001e0: 3198 863d 64e1 8a3c a835 fb3d e1ef 8dbc
000001f0: e3a6 20bd 51ad 17bb 4dd3 8cbd 875a fe3d
00000200: 58ae d4bd a287 2fbd 4e2e 97be d32b eebd
00000210: 00a5 26be 48ea 81be 7ad3 41bd b624 d7bd
00000220: e91e 44be a631 39be 6fd9 a7bd f2ae d3bd
00000230: 609a e1bd 7548 28be 8156 8cbe 1f7d b3bd
00000240: c755 40be 3044 64be a58e e8bd d7e5 5fbe
00000250: 3251 17be 3eec 44be 29c5 86be f53c 03be
00000260: 681e 1dbe af49 3cbe a6d0 55be 0a3f e5bd
00000270: 703b b7bd dedd 3cbe 0b79 e7bd ea50 33be
00000280: 2a89 ffbd 5feb 67be 1942 09be 2bdc 01be
00000290: 196b 48bc f397 4cbe 9506 48be 52c9 dabc
000002a0: 0b99 9ebc 559e bcbd 2cf9 62bd 4fa6 e6bd
000002b0: e97c 5bbd a89c 52be 7b7a e5bd 76cc 3dbe
000002c0: 333a 7bbd 8937 36bd 5779 6bbe 6181 dabd
000002d0: 28af 5ebd abf9 f2bd eba3 c0bd 6fcc 30be
000002e0: a327 40be 4b4e 1cbe f25c 05be 9535 f6bd
000002f0: 80ce 57be 1814 11be a54b 3fbe 2cb6 4abe
00000300: c441 07be 6573 0cbe 24c5 37be 784d edbd
00000310: 3252 1ebe d81c 3ebe ebcc 1ebe 4002 56bd
00000320: dafc 2bbe 9722 b3bd 7465 53bd f212 1bbe
00000330: 839d 54be 08d2 a4bd 6e2f 02be 9c01 3abe
00000340: 43fe 36be 7227 e2bc 5ea9 06be 7343 f6bd
00000350: 156e 71be 8703 a2bd 1621 9cbd 9ec5 2ebe
00000360: 4973 0dbe 4b0b f4bd 5cd8 ecbd aa4d 8bbd
00000370: 17b8 06bd 68a4 07be 7933 0abe ea52 e4bd
00000380: feba dabd 66f1 dbbd 38ea 2ebe fa15 ddbd
00000390: caee cbbd 5ef2 76bd 72c2 3fbe 1b4c 09be
000003a0: 9853 53be 3e6e 72bd 60f9 08be 888d 57be
000003b0: 9047 cdbd 1ee3 1dbe f2bb 94bd b460 4bbe
000003c0: 4b56 f2bd 1480 56be 0d8f 03bd c27e 8cbd
000003d0: 7255 83bd 3e2b 8cbd 52a9 55bd 146c 23be
000003e0: 1237 1fbe b865 d3bd 157f b9bd c13a 82bd
000003f0: 0499 0fbe 9f1b f5bd f873 4dbe 4dd4 79be
0.0028667373 0.07855153 0.035044245 0.044633877 0.071508974 0.10872049 -0.016850801 -0.044325016
0.11620278 -0.11981578 0.09265009 -0.07341587 0.07242182 0.054911155 0.058530208 -0.04791869
0.08238411 0.0047149006 0.13229454 -0.051787507 0.060263302 0.06219184 -0.034766752 0.0014426289
-0.03546873 0.08508133 -0.03379704 0.025103698 0.0067995773 -0.02146247 0.07830244 -0.09640458
0.034741454 0.121468164 -0.015491343 0.059811734 0.018657025 -0.011906955 -0.045952085 -0.0313023
0.0041648927 -0.0041166316 0.015338185 -0.016694522 0.058036417 -0.07047644 0.020023294 -0.14784522
0.029899385 0.045493264 -0.08111195 0.08569602 0.06147292 -0.07052871 0.16571485 0.08420842
0.13667662 0.09386074 0.032543045 0.007097602 0.13339083 -0.031923752 -0.0631087 0.04254246
-0.097059324 -0.0040977784 0.14444406 -0.10236964 -0.004647031 0.054239556 0.0031243416 -0.0055397595
-0.13496427 0.0369259 -0.04668323 0.058757253 -0.014739311 -0.06792337 -0.061408542 0.036064915
0.10021444 -0.042977113 0.09046052 0.050288673 -0.036378197 0.049556598 0.0057871295 0.10197459
-0.024845019 0.055763297 0.052412625 0.053357158 -0.12329401 0.019255282 0.03466893 0.08484502
0.036810435 -0.028375505 -0.051456943 -0.008730604 0.0058509856 -0.027650815 -0.0057774666 -0.091370225
-0.010200213 0.010602267 0.036479436 -0.060197517 -0.016316526 -0.053917583 -0.0076562823 0.04507975
-0.07265762 -0.08108473 -0.11439308 -0.03083265 0.11055078 -0.087314665 -0.06900542 0.06837472
0.06571997 0.016953178 0.122660935 -0.017326297 -0.039221656 -0.0023144076 -0.0687624 0.124196105
-0.10384816 -0.04285396 -0.29527515 -0.116294526 -0.1627388 -0.25374055 -0.04732082 -0.10505049
-0.19152416 -0.18085346 -0.08195769 -0.103361025 -0.11015773 -0.1643389 -0.27409747 -0.08764099
-0.18782721 -0.22291636 -0.11355332 -0.2186502 -0.14777067 -0.19230744 -0.26322296 -0.12816222
-0.1534363 -0.18387483 -0.20880374 -0.11193664 -0.08946884 -0.1844401 -0.11302384 -0.17511335
-0.12477334 -0.2264838 -0.1340412 -0.12681644 -0.012232565 -0.19979839 -0.19533761 -0.026707325
-0.019360086 -0.09209887 -0.05541341 -0.112621896 -0.05358592 -0.20567572 -0.11205002 -0.18535027
-0.0613348 -0.044486556 -0.22995506 -0.10669208 -0.05436626 -0.11864027 -0.09406265 -0.17265485
-0.1876512 -0.15264241 -0.13023737 -0.12021939 -0.21074867 -0.14167821 -0.186812 -0.19796056
-0.13208681 -0.13715895 -0.17946297 -0.115870416 -0.15461043 -0.1856569 -0.15507858 -0.05224824
-0.16795674 -0.08746832 -0.051610425 -0.15143946 -0.20763211 -0.08047873 -0.12713405 -0.18164676
-0.1787043 -0.0276067 -0.13150546 -0.12024584 -0.23577149 -0.07910829 -0.07623498 -0.17067572
-0.13813509 -0.119162165 -0.11564705 -0.068019226 -0.032890406 -0.1324631 -0.13496198 -0.11148627
-0.10680197 -0.107394025 -0.17081535 -0.10795207 -0.09957655 -0.060289733 -0.18726519 -0.13407938
-0.20637357 -0.059187166 -0.13376379 -0.21050084 -0.10023415 -0.1541867 -0.0726241 -0.19861108
-0.11832865 -0.20947295 -0.032118846 -0.06860115 -0.06412782 -0.06844185 -0.05216343 -0.15959197
-0.15548351 -0.10322136 -0.09057442 -0.06358863 -0.14023215 -0.11968159 -0.2006377 -0.24397393
