trained_models/ppo/me5418-Cassie-v0/0523-16-10-05-s3737/actor.pt (torch, 906874 bytes, 11 tensors)

log_std f4 [1, 10]
00000000: 9d3b 2ebe 90ed 2b3e e81e a6be 46bc 26bf
00000010: bcbe c63d 34e3 bb3b f5ee 8a3d 6856 83be
00000020: 8b9c 1ebf 0a3b 043e
-0.17014928 0.16789842 -0.32445455 -0.6513103 0.097043484 0.005733872 0.06783859 -0.2565186
-0.61957616 0.12913147

weight_ih_l0 f4 [512, 50]
00000000: 2318 86bb fa31 ffbc a1ba 7bbc d47e 2c3d
00000010: 7f4e 223d a9fc a4bd 1a46 fdbd 2405 f13d
00000020: fead 65bd df55 5abd 39ec a0bd 6d9a e7bd
00000030: 8a15 113d 5468 a43d 91c0 60bd f885 82bc
00000040: 4a85 de3c 24d4 e2bd 02b3 73bd 265a e6bd
00000050: ccc5 3dbe 1e9d dbbd 0e77 2ebd 8034 633d
00000060: 5a1c d4bd b362 0cbe 0df6 40be 01a7 ee3c
00000070: 4772 7b3d eb35 013e 357c c9bd 7e03 e9bc
00000080: 31ff ae3c 5833 95bc bfd9 aa3d c331 60bd
00000090: 2bf6 fabc ce36 97bc 20bf bbbd 0586 82bd
000000a0: 409c 1c3e d863 ac3d 3af0 c4bd dbab 0cbe
000000b0: 38dc b13d 72b2 2abd 6714 6dbe bf10 dc3b
000000c0: 6da9 d93d 8795 97bc 2405 0a3e 0421 cb3d
000000d0: 74ce 8a3c 9f19 b73d 389e b93b 738b aebd
000000e0: 202c 3c3d d1a8 623b 7b05 86bd e569 b2bc
000000f0: d8fd 66bd 9016 1abd 5397 523d 1653 71bd
00000100: 40c3 6abd d2f5 e6bc d907 0b3e 378a c63b
00000110: 8dc2 583d 32c5 adbd 9e8c df3b 978b b33d
00000120: c1fa fa3d 19ac a73d a97d ae3d 4582 e73c
00000130: 9877 063b 63c7 93bd 5c42 a8bd 060f ea3d
00000140: 8fea 863b 0236 86bd c573 68bb ae14 203d
00000150: aec2 9abd 1ebe 0b3e 2066 3bbd 8ea1 f93b
00000160: c2e3 b9bc 0f9d 04be 3b28 393e b992 31be
00000170: 8630 a4bc daba d3bd b31a 923d 2b60 5dbd
00000180: f9cc bc3c c25a 0cbe 3e2c 0e3e a556 85bc
00000190: 59d0 cdbc 7b04 8ebd 1dbd 8dbc 74b7 7e3d
000001a0: 682a 40be af9d 9b3d a930 023e 2b23 79bd
000001b0: e2f6 b0bd dca1 5fbd 4517 debc da73 26be
000001c0: b2a7 4d3d b709 bf3d 7e76 ccbc 5036 5e3e
000001d0: c7fe 303e 7975 d9bd 2abd 113c 528f b7bd
000001e0: cb59 96be 7b3d 1e3d 9396 b23c 1ed0 293d
000001f0: e4fe 293b 8c95 0d3c 632d 34bc f18f b63d
00000200: 2be4 5ebd 3406 6c3e 0287 9e3d 1a6f 84bd
00000210: 5d09 d83c 22b3 8dbd b8a3 87bc 21be 2ebd
00000220: 60f4 a63d cd7a 133c 9be9 533d 371e 8a3d
00000230: d2d6 98bc 2128 43be 52e6 87bd 0aa8 2c3e
00000240: eb2b 09be a26d 963e 375f 06be ed22 21be
00000250: d9bd 68be b64f 943c f31e d3bc 7ec9 1bbd
00000260: 8da3 623d f944 a73d 50df b6bd 063e 07be
00000270: dc69 71bc 2d65 1d3d 262b a83d 78b7 5bbd
00000280: d840 703c 8970 4abe 9832 153d 3cc5 22bc
00000290: 26f0 babd b9af 863d cbfa 173e 698a 253e
000002a0: 86cc 243c a31e 49bd 3a9a acbd 5789 10bd
000002b0: 88a7 d7bd 6521 b5bd d11f 193d fbdb 0dbd
000002c0: d668 a8bd 8009 9a3d 0a8c af3d 4a70 43be
000002d0: 3666 b6bd 1174 523d f32c a33d d566 ec3d
000002e0: a035 5abc 28a1 94bd 874d dc3b 86d1 613c
000002f0: d59e 87bc 2cbe 3ebd 095b dcbc 1b6c 08be
00000300: d94f 303e 797e 34bd c8a7 c7bd a83b 26be
00000310: 5fc0 5bbe df0f 693d 1b7a 623c 660d 5a3a
00000320: 1ac1 433d 30dc c4bd 6ca8 d0bd c04c f3bd
00000330: 6d4f f23d 0014 abbd 8a01 8cbd 6742 05bd
00000340: 3a7d 9bbc 120d 10bd d7dc 043e bf0a 81bd
00000350: 41e2 323d e41a 72bd 67c3 c03d 2b0b 88bd
00000360: 82bf 293e 6327 5a3d 0b68 76be 9c7f 53bd
00000370: 3e9d 01bd 6fdb c53d c113 b73d cd1b 2abd
00000380: ff21 13be e957 fdbd 239f fc3d 9322 263c
00000390: ade0 683d 5d32 8abc 7e9b 253d 06a8 05be
000003a0: 3c87 eb3c 3ea4 aa3d 99e6 0bbe 0ed3 6e3d
000003b0: 882f 6b3d 66a9 c6bb cea1 94bd 63cb ba3d
000003c0: 8807 0fbe 3ed4 473c b35b 893d 488d d53d
000003d0: 4a33 45bc a684 6bbd 98b5 6b3e 58a5 30be
000003e0: d034 813e 9e1d dfbc c92e 5abd a696 923c
000003f0: a04a 6abe 23dc b3bc 8018 9fbd f1c8 853d
-0.004092233 -0.03115176 -0.01536432 0.04211314 0.03962564 -0.080560036 -0.123668864 0.117685586
-0.056074135 -0.05330455 -0.07857556 -0.11308751 0.035420932 0.080277115 -0.054871146 -0.015933022
0.027163167 -0.11075619 -0.059496887 -0.11247663 -0.18532485 -0.10723327 -0.04259401 0.05546999
-0.1035697 -0.13709526 -0.18843861 0.029132368 0.06138828 0.12618224 -0.09838144 -0.028444048
0.02136192 -0.01821296 0.08342313 -0.054734956 -0.03063496 -0.01845875 -0.091673136 -0.063732184
0.1529398 0.08417481 -0.09616132 -0.13737433 0.086845815 -0.041674085 -0.23152314 0.0067158635
0.106280185 -0.018503917 0.13478523 0.099184066 0.016944148 0.08940434 0.005664613 -0.085226916
0.04594052 0.0034585486 -0.06544014 -0.02177901 -0.056394428 -0.037619174 0.051413845 -0.058917128
-0.05731511 -0.028193388 0.13577212 0.006058957 0.052919913 -0.08484878 0.006822183 0.08766859
0.12254859 0.08187122 0.085200615 0.02826036 0.002051806 -0.072157644 -0.08215782 0.11428647
0.004117317 -0.0655327 -0.0035469395 0.03908222 -0.075566635 0.13646743 -0.04575169 0.007618136
-0.022691611 -0.12950538 0.18081753 -0.17341127 -0.020042669 -0.103383735 0.07133999 -0.05404679
0.023046957 -0.13706496 0.13884065 -0.016276667 -0.025123762 -0.06934448 -0.01730209 0.062186673
-0.18766177 0.07598435 0.12713875 -0.060824554 -0.08640839 -0.05459772 -0.027110705 -0.16255131
0.050208755 0.09328025 -0.024958845 0.21700406 0.1728469 -0.10618109 0.008895198 -0.08962883
-0.29365382 0.03863285 0.021800315 0.04145824 0.002593928 0.008641612 -0.010997149 0.089141734
-0.054416817 0.23049241 0.077405944 -0.064665034 0.026371652 -0.069189325 -0.01655756 -0.04266179
0.081520796 0.009001446 0.051736455 0.06744044 -0.018657122 -0.19058277 -0.06635727 0.16860977
-0.1339566 0.29380518 -0.13122259 -0.1573598 -0.22728671 0.018104415 -0.025771594 -0.038033955
0.055331755 0.08167452 -0.08929312 -0.13207254 -0.0147347115 0.038426567 0.08211355 -0.053641766
0.014663897 -0.19769491 0.036425203 -0.00993472 -0.09127836 0.06576485 0.14841764 0.1616608
0.010058528 -0.049101483 -0.08427854 -0.035287227 -0.10530001 -0.0884426 0.037383858 -0.034633618
-0.08223121 0.07521343 0.08571632 -0.19085804 -0.08906214 0.05138022 0.07967558 0.11543051
-0.013318449 -0.072573006 0.006723109 0.013782864 -0.01655523 -0.04656808 -0.026898878 -0.13322489
0.1721796 -0.044065926 -0.097487986 -0.16233695 -0.21460102 0.0568999 0.0138230575 0.00083180366
0.047791578 -0.0961231 -0.10188374 -0.11879873 0.118315555 -0.08353424 -0.06836231 -0.03253403
-0.018980611 -0.035168715 0.12974869 -0.06300878 0.043672804 -0.059107676 0.0941227 -0.06642755
0.1657696 0.05326022 -0.24063127 -0.05163537 -0.0316441 0.09660994 0.08939315 -0.04153042
-0.14368437 -0.12370283 0.123350404 0.010140079 0.056854893 -0.016869718 0.040431492 -0.13052377
0.028751008 0.08332108 -0.13662185 0.058306746 0.057418376 -0.0060626743 -0.07257424 0.09120824
-0.13967717 0.012196599 0.06706943 0.10427338 -0.012036154 -0.05749955 0.23018491 -0.17250574
0.25235605 -0.027235802 -0.053267274 0.0178941 -0.2288003 -0.021955555 -0.07768345 0.06532467

weight_hh_l0 f4 [512, 128]
00000000: e0cd ab3d 7315 093d e244 ae3d 090b 46bd
00000010: 9eb6 eb3d 34dc d63d b029 25bd 272a 0abd
00000020: 3a02 41bd e0a8 303d 75ef aa3a 01e4 073e
00000030: 8b91 0b3c 21b1 0d3c 69fc d83d c4d0 91ba
00000040: 311c 893d 6697 20bd 5312 c0bb 5cfe 9e3d
00000050: ebb1 1a3a d8ed b1bd 386f c0bc 0133 803c
00000060: 3742 98bc aced 0cbe dcb5 d8bc 7bb4 243d
00000070: 784f 66bd 76ab 873d 0794 53bd 55b4 af3c
00000080: e7a9 8e3d 1195 763d 634b 403b 26ce 40bd
00000090: 33f4 f2bb 1028 f53c 044b a4bd ef87 c7bc
000000a0: 244f 9c3d 5c0c 3d3c 91d2 643c edef 73bd
000000b0: 389c bfba 1569 40bc 75d9 7cbd da90 ff3b
000000c0: 7b6e 0dbd 4e5d a43d 7786 be3d 6042 6b3c
000000d0: 31b5 b53d d16b 113c 3082 5dbd 62eb 3cbd
000000e0: 1c3c a73d c834 d4bc b252 c6bc 828b afbd
000000f0: 6ca9 b93d eafd fb3d 2061 eebb 6197 1ebe
00000100: 3ccc 4a3d 422e 473d 473c 583d 968a 64bc
00000110: 5999 f7bc d33b 93bd 00d9 a93c b65e b03c
00000120: ec29 aabd 69cc e53c 4a5c ab3d 1bc0 2b3b
00000130: d8db 003c cc8c 7bbd 88f5 a93d a6a5 d03b
00000140: b765 95bb 8949 743d a9cf 353d f042 5fbd
00000150: 3863 0cbd aa55 cc3d 52e1 05bd 2f31 dcbd
00000160: ddab c3bd 7732 e8bc 995f 0fbe 1daa 153d
00000170: b32a 433c e7bb a1ba a400 16bc 040d 483d
00000180: f119 3dbd a76b 86bd 9cbf b43d 7289 f9bd
00000190: 7c9c 6cbd 6dfe d9bd 6efd c73d 3a67 8fbd
000001a0: 9e6c 62bd d510 02bc 586e 873b 278f 1d3d
000001b0: 33ee 883d 24e5 b3bc aa78 863d 49ee 6c3c
000001c0: 70cb 0ebe 54f4 d43c 1b71 d83d 8942 ad3d
000001d0: e404 40bd 51aa 013d d2d1 78bd 032b 0b3e
000001e0: 52ce 453d f002 733d 0b04 5d3d 384d 283d
000001f0: b649 e8bd 9d20 e0bc 1714 203d a9e3 07bc
00000200: b6a5 d3bc 5082 be3c 7562 c63d 7aaa 413c
00000210: df45 89bd 1741 73bc 875e 773c de1b 923d
00000220: cde9 64bd 4878 c13c 0b33 9ebd fe9d b53c
00000230: 1249 a03d 80ba 33bc 2c7e 2b3d 7ae8 3fbd
00000240: 70b7 e03c 7d3c 04be dd2d 2f3b 9728 553c
00000250: e0c3 683d 2e75 403c 5f3a b63d 1d7d 9d3a
00000260: a25f c33d b767 5abd 80ec f3b9 47c3 a4bd
00000270: 66bb a93c 8dd5 55bd d29d 1c3d 2bba 853b
00000280: e333 5fbc 55a9 0a3e e9ca d53d 31c4 12bd
00000290: e6fb d23c a9c4 83bd ae07 c9bd a8ac acbd
000002a0: 7fe3 4dbd 73b5 5e3b 0d3d c83d 1d91 61bd
000002b0: 6079 883c 1b04 6f3c d6f8 95bc 6752 4b3b
000002c0: 8310 a73d 951e a83d 613f 6abb cc2f 6e3d
000002d0: 959a 2ebd abbd 3fbd a0d4 d43d c01c 8b3d
000002e0: 3a0d 413d 0b7d c03d 362c 853b 2e15 1ebd
000002f0: c0de 3d3c 98d6 03be 6821 38bd a63e e9bb
00000300: fda0 b2bc d4c3 973d 470c 23bc 2ef2 9fbc
00000310: 621b 95bd cdd5 dfbd b204 08bd e1a9 c9bd
00000320: c6d3 383d fe02 cebc f06b 8ebc b329 773d
00000330: 1d7e 8abd e79c ac3d a17c 49bc 6bce 293d
00000340: 0568 d53c 81e5 a3bd b7e0 be3b 28b0 3dbd
00000350: 9b0b 7e3c 65ed 893c dd75 23bd 7341 613c
00000360: 869b 5dbd ce89 043d e83a 67bd 85c8 973b
00000370: 288a 883b b1fb fabc be55 1fbd 0872 a3bc
00000380: 8f06 febd 15f1 cebd 9f9b 943d c412 ccbd
00000390: 15f6 dc3d 24ed 893d a192 34bd 84b3 ccbc
000003a0: 0225 15bd 82a7 1abd c82e a0bc 3bb2 dbba
000003b0: f38c dabc b746 53bd c4a6 843d f0f9 143d
000003c0: 8203 0c3e 0b49 a8bd 8fd7 92bd b7a4 523d
000003d0: ad0d a2bd 9ef9 6bbd 8b47 92bd c229 02be
000003e0: 0923 fc3c 76ff fc3b 75ab aabd 7762 b73d
000003f0: 6f80 f33d 5037 29bd ce7f 293d d022 8e3c
0.08388877 0.03346772 0.08509232 -0.048350368 0.11509441 0.10491219 -0.04032296 -0.033731606
-0.047121264 0.0431298 0.0013041334 0.1327057 0.008518587 0.008648188 0.105950184 -0.0011124839
0.0669483 -0.039206885 -0.0058615594 0.07763359 0.00059011456 -0.08687943 -0.023490533 0.01564932
-0.018586261 -0.1376254 -0.026453905 0.040211182 -0.05622813 0.066245005 -0.05165484 0.021448294
0.06966 0.060200755 0.002934181 -0.0470716 -0.0074143647 0.02992633 -0.080221206 -0.02435681
0.076322824 0.011538591 0.013966219 -0.059554983 -0.00146187 -0.0117438035 -0.06173082 0.00779925
-0.03452919 0.08025609 0.09302991 0.014359087 0.0887245 0.008875803 -0.054079235 -0.046122916
0.08165762 -0.025904074 -0.024209354 -0.08571531 0.09065518 0.1230429 -0.007274762 -0.15487434
0.04951118 0.0486281 0.05279186 -0.013949057 -0.030224489 -0.07189145 0.020733356 0.021529537
-0.08308777 0.028051572 0.08367212 0.0026207033 0.007864915 -0.06141357 0.082987845 0.006367403
-0.0045592445 0.05964044 0.044387493 -0.054507196 -0.03427431 0.099772766 -0.032685585 -0.107515685
-0.09554265 -0.028344376 -0.14001311 0.036539186 0.011912036 -0.0012339324 -0.009155426 0.048840538
-0.046167318 -0.06563502 0.08825609 -0.12184419 -0.057766423 -0.10644231 0.09765135 -0.07002111
-0.055279367 -0.007938583 0.004133027 0.0384666 0.06686058 -0.021959849 0.065659836 0.0144611085
-0.13944793 0.025995411 0.10568448 0.08459956 -0.046879664 0.031656567 -0.060746975 0.13590626
0.048292466 0.059328973 0.053958934 0.041089267 -0.11342184 -0.027359301 0.03908166 -0.0082940245
-0.025835853 0.023255497 0.09686748 0.01182043 -0.0670278 -0.014847062 0.015098221 0.071342215
-0.055887032 0.023616925 -0.077245794 0.022170063 0.07826437 -0.010969758 0.041868374 -0.046852566
0.02743122 -0.129137 0.0026730218 0.013010166 0.056827426 0.011746688 0.08897852 0.0012015436
0.09539725 -0.053321566 -0.00046524778 -0.08045059 0.020719241 -0.05220561 0.038236447 0.004081031
-0.013623211 0.13541158 0.10439093 -0.035831634 0.02575488 -0.06433994 -0.09815918 -0.08431369
-0.050265785 0.0033982664 0.097772695 -0.05507003 0.016659439 0.014588381 -0.01830713 0.0031024457
0.08157446 0.08208958 -0.0035743343 0.05815105 -0.04262789 -0.04681174 0.103921175 0.06792593
0.047131754 0.0939885 0.0040641082 -0.038594417 0.011588752 -0.1287483 -0.044953734 -0.007118064
-0.02180528 0.07410398 -0.009951658 -0.01952466 -0.072806135 -0.10929451 -0.033207603 -0.09846855
0.045123838 -0.025147911 -0.017385453 0.0603425 -0.067623354 0.08428364 -0.01229778 0.04145662
0.026050577 -0.08002759 0.005825128 -0.046310574 0.015505697 0.016836831 -0.039907325 0.0137485145
-0.054103397 0.032357983 -0.05645266 0.004632058 0.00416686 -0.030637594 -0.03890013 -0.019951835
-0.12403595 -0.101045765 0.07256245 -0.09964517 0.10789124 0.06734684 -0.04408515 -0.024987943
-0.036412247 -0.037757404 -0.019553557 -0.0016761491 -0.026678538 -0.05158111 0.064771205 0.03637117
0.13673213 -0.08217057 -0.07170021 0.051426616 -0.07912765 -0.0576111 -0.07142552 -0.12711242
0.030778425 0.007720883 -0.08333484 0.089543276 0.11889731 -0.041312516 0.04138165 0.017350584

bias_ih_l0 f4 [512]
00000000: b4b2 7ebc 62ff 523d 3b32 693d 37b3 ca3c
00000010: 92dc 59bd 16d8 4cbd 302b f039 3c99 9cbc
00000020: 646f 0f3e ff7b 2ebc ba3a 783c 8d92 b1bd
00000030: 1049 993d 92de 1f3d e9c3 e03d 9370 d5bd
00000040: bc94 603d 0f80 073d ffed 00be 9fdc 87bc
00000050: 92ac bb3c 3a4a e3bd 6ca8 6d3d 8852 2b3d
00000060: c5b7 03be 7152 eebd ee97 01bd 59d2 c7bd
00000070: fb88 8dbd 6e7c 253d a3ee 85bd 4b45 88bd
00000080: baba 913d d049 d93d 3497 903c 5f79 cc3d
00000090: d8e0 633d 62ad ecbd f38a c53d d761 973d
000000a0: 2a34 c0bc 7512 39be 99d7 c93d 3e6f b8bd
000000b0: d50c f0bc 957c 6d3a 2638 f83d 2a67 16bd
000000c0: 799b 573d ce78 aabc 1da0 ce3d bc1e 153e
000000d0: 4fdf 8f3c 6cc2 253d aee6 26bd 942f 83b8
000000e0: 9064 90bb fc8c 243b 6daa 10be 5856 c1bd
000000f0: 767a 0fbd b46c d13a 73a1 33bd f09f b5bc
00000100: 33ab 153c da7e 003d 101c 3cbc b396 653d
00000110: 49d5 0d3d e0f5 07be debc 803d b960 023d
00000120: 9985 71bd 2b50 bd3d e6a9 93bb 6753 8b3d
00000130: 02e8 71bd 1ab8 163d 3cf3 9cbd b2cc 473d
00000140: 03a7 55bd 9b04 21be c532 963d 8218 13be
00000150: ae32 d9bd efae a63d 0597 f5bd a609 d13c
00000160: 7eb7 24bd f6e4 8dbd 3495 9bbc bd9f 34bc
00000170: 6dc5 d03d b1a6 47bd 5183 edbd 887c a1bd
00000180: 5a0d 0b3e 211d 93bd e232 16bd fdd3 32bd
00000190: 58c3 b1bd 4adb 0ebe 430c 00be 7b05 24be
000001a0: 1c72 ad3d 6bf1 91bc 6017 2a3d 746c bfba
000001b0: d816 fc3d ed1b 9b3d a205 0cbe c155 a5bb
000001c0: 604c b2bd 9bd6 c9bc 1295 2fbe 8579 c9bd
000001d0: e172 023c cf37 aa3d 2549 c6bd 0e65 b53d
000001e0: ff2b d73b 5273 883c 7c98 10bc a5bb a93d
000001f0: c100 2bbe 2487 0fbd 1dfc c6bc 0e4b 81bd
00000200: 31f1 83be d61c 4e3d 3e07 82be f35a 68be
00000210: de6b 05be 757b a9bd c437 5ebe 8a4c 27be
00000220: 4b53 5cbe e3ec 90be 0622 6cbe dc8c 41be
00000230: 2669 c3be 1e3d acbe 547a 4abe 709e 85be
00000240: dcd4 64be 4bac 4abe 4854 4dbe fef1 51be
00000250: 2c27 afbe d297 46be 2d49 9fbe 8b50 47be
00000260: 9a60 93bd af64 1fbe 707d 2abe 24b1 efbd
00000270: 9a47 19bd 8a82 45be a254 c7bd f47c 58be
00000280: c22f 60be c92a 97be dd08 9fbe b42f 70be
00000290: cd9e 45be 2966 81be 9350 afbe a65b 7abe
000002a0: 12b8 83be 1d19 1bbe da5b 75be b50a 54be
000002b0: ceb2 50be 5cc8 23be d360 bebe 594d 82be
000002c0: e51f 53be 0713 96be 6145 44be c275 44be
000002d0: b88c 1bbe 25c1 86be 25d8 f8bd 5a04 ddbd
000002e0: b79a a8be 8f80 6fbe c154 3ebe 9c66 93be
000002f0: 8beb 04be f1fc 4fbe 0b1f 06be f5ab 5dbe
00000300: 7bd5 7bbe e484 9cbe 44f0 88be 436c 4bbe
00000310: f388 50be 5714 08be a02f 63be 3a06 68be
00000320: 2434 3fbe 8ef3 b3be dbcf 92be 810d 32be
00000330: bc23 63be b50d b5be 277c 27be f615 54be
00000340: 7343 7ebe df17 3bbe 2bf0 89be 23c6 16be
00000350: 964c 8ebe 4751 19be 9887 18be 6c1d 5cbe
00000360: f34a 6fbe 9398 8ebe db59 edbd 5264 7dbe
00000370: 0567 91bd b6a5 59be 39a9 3dbe d3b7 ecbd
00000380: 261a 2ebe 1fc5 9fbe 10b9 69be 6640 5cbe
00000390: d7df 4abe d934 f8bd b194 38be 769f 11be
000003a0: 8ce1 2abe ca24 28be 0943 1abe 71fc acbe
000003b0: ef3a 81be 091c 65be 82f7 02be da95 88be
000003c0: 9c87 8dbe b0b2 32be c642 3dbe c1e0 9cbe
000003d0: 9561 bfbd d327 a4be 90ca 3ebe 5963 89be
000003e0: e344 3ebe f132 38be 46b8 56be 10c7 91be
000003f0: 8850 39be c9fb 23be 9feb 51be 5482 4abe
-0.015545536 0.051513083 0.05693267 0.02474366 -0.053188868 -0.050010763 0.00045808544 -0.019116037
0.14007336 -0.01064968 0.01515072 -0.086705305 0.07484639 0.03903062 0.10974867 -0.104218625
0.054829344 0.03308111 -0.12590788 -0.016584693 0.022909436 -0.11098142 0.058021948 0.041826755
-0.12863071 -0.11636818 -0.031639032 -0.097569175 -0.069108926 0.04040187 -0.06539657 -0.066538416
0.071156934 0.10609782 0.017650224 0.09984087 0.05563435 -0.11556508 0.09645643 0.07391708
-0.023462374 -0.18073447 0.09855575 -0.09005593 -0.029302994 0.00090593967 0.121200845 -0.03671948
0.052638505 -0.020809557 0.10089133 0.14562505 0.017562537 0.04046862 -0.040747337 -6.255429e-05
-0.0044065192 0.0025108447 -0.14127512 -0.09440297 -0.035028897 0.0015977831 -0.04385514 -0.02217099
0.009135055 0.031370975 -0.0114813 0.05605192 0.034627233 -0.13277388 0.062860236 0.031830523
-0.0589653 0.092438065 -0.0045063375 0.06803017 -0.05905915 0.036796667 -0.07663581 0.048779197
-0.052161228 -0.15724413 0.07333902 -0.14364818 -0.106053695 0.08138835 -0.11991695 0.025517296
-0.040214054 -0.069284365 -0.018992044 -0.011024413 0.10193906 -0.048742954 -0.11597312 -0.078850806
0.13579312 -0.0718329 -0.03666962 -0.0436592 -0.08679837 -0.1395084 -0.12504677 -0.16017716
0.0846903 -0.017815312 0.0415262 -0.0014604465 0.123090446 0.07573686 -0.13674024 -0.005045623
-0.087059736 -0.024638465 -0.1714671 -0.09837631 0.00796196 0.08311426 -0.0968192 0.08857165
0.006566524 0.016656552 -0.008825418 0.082877435 -0.16699506 -0.03504099 -0.024290139 -0.06313144
-0.25769952 0.05032047 -0.2539615 -0.22690944 -0.1302943 -0.08275501 -0.2170096 -0.16337791
-0.21516149 -0.2830573 -0.23059854 -0.1890139 -0.3816616 -0.3364038 -0.19773227 -0.2609744
-0.22346824 -0.19792287 -0.20051682 -0.20502469 -0.34209573 -0.19393852 -0.31110516 -0.19464318
-0.0719616 -0.15565751 -0.16649413 -0.11703709 -0.0374218 -0.19288078 -0.09732939 -0.21141416
-0.21893218 -0.2952483 -0.3106145 -0.23455697 -0.19298859 -0.25273255 -0.3424116 -0.24449024
-0.25726372 -0.15146299 -0.2396082 -0.2070721 -0.20380709 -0.159944 -0.37183246 -0.25449637
-0.20617636 -0.29311392 -0.19167091 -0.19185546 -0.15190399 -0.26319233 -0.12150601 -0.107918456
-0.32930538 -0.23388885 -0.18587019 -0.28789222 -0.12980478 -0.20311333 -0.1309778 -0.21647628
-0.24593155 -0.30570138 -0.26745808 -0.19865517 -0.20364742 -0.13289009 -0.22186136 -0.22658625
-0.18672234 -0.35146755 -0.28674206 -0.17387964 -0.221816 -0.3536202 -0.16355954 -0.20711502
-0.24830417 -0.18270825 -0.26941046 -0.1472402 -0.27792805 -0.14972411 -0.14895475 -0.21495599
-0.23368435 -0.2785078 -0.11589404 -0.247453 -0.070997275 -0.2125462 -0.18521585 -0.11558499
-0.17002162 -0.3120508 -0.22824502 -0.21508941 -0.1981195 -0.12119455 -0.18025471 -0.14220986
-0.16687602 -0.16420284 -0.15064634 -0.33786348 -0.25240275 -0.22373976 -0.12789729 -0.26676828
-0.27642524 -0.17450976 -0.18482503 -0.30640224 -0.09344784 -0.32061633 -0.18631959 -0.2683361
-0.18580966 -0.17988183 -0.20968732 -0.28472185 -0.18097126 -0.16014017 -0.20500039 -0.19776279

bias_hh_l0 f4 [512]
00000000: 1b3b 82bd 35d3 003e 9ca4 cebd 1e06 933c
00000010: 527e 89bd 0049 043d 6aaa 67bd 49da 78bd
00000020: 30a3 e13a bff2 5cbc 7218 b63d 991e 90bd
00000030: 9a89 84ba 7feb f1bc a5ef 9a3c 8c54 babd
00000040: c414 303d b1a0 7c3d 3262 d8bc 1894 8ebc
00000050: a940 173d 3d07 a0bd e4c1 9c3c f4e2 b73d
00000060: 8a1e 54be 87d9 c1bd 9c73 58bb e8e2 2fbd
00000070: f26a 57bd fc72 7abc 640a d4bd aeec abbc
00000080: ad23 e0bc 7943 2a3e 8b9e 99bd 1206 3b3d
00000090: 6076 723d e510 28be b1e2 90bc 4492 0cbc
000000a0: 16f1 1f3d af04 9abd fcf8 893d 2c15 f1bc
000000b0: 6a63 d1bd 5266 643c ed93 0a3e b635 5e3d
000000c0: ed49 81bd e2f3 623d c03a efbc e850 88bc
000000d0: c2fa b03c 4082 34bd 0e64 b8bd 6403 b1bc
000000e0: 759b b8bc 68a7 a1bd ea0e 2ebd 9c40 4bbd
000000f0: e3b8 01bd ee51 e33c 3d81 c1bc d4dd d73c
00000100: 1318 8ebd 3fe2 153d 7f7d a0bd cf03 053e
00000110: 24b5 03bd 0421 edbc 5454 6a3c 0961 da3c
00000120: cbb2 7c3b 2fe2 39bd 647d d83c 0222 bebc
00000130: 4336 0fbe 7eaf c73c d749 8d3d 1895 5abd
00000140: 7f4f 4f3b 7faa 0cbe c554 993d 0ba3 5bbd
00000150: 542f 543c b50b 8f3c 141a 07bd 510d 893d
00000160: 24cd a4bd f2a2 bdbd 77d5 3b3d 0f5a dcbd
00000170: 9bc3 da3d 4393 253d 3c52 a3bc 44c4 37be
00000180: b79d 213d 030f 4dbd ab72 823d 19df d8bb
00000190: 6d86 a3bd fddf 1cbe f79d 53bd c942 993b
000001a0: fc23 203d 62e3 c1bc bb94 8abc bf5f 9b3d
000001b0: e36f c53d 0c9b 8ebd 9f39 f1bd 45fe 523c
000001c0: 4c45 c23c 0b8a 113d f753 a8bd 8f04 82bd
000001d0: 61a2 62bd d930 46bd 954a 08be 810e 603d
000001e0: b603 cf3c 7fc2 f0bd c603 48bd fb41 bc3d
000001f0: 90c9 42bc b6fa febd 1ead 22bd 77ac c23c
00000200: dd82 77be eac1 e9bc 51b7 83be 256b 0fbe
00000210: 8fe8 44be 1bc1 dbbd 3206 b2be e791 04be
00000220: 2e58 90be ed5a a4be 62a4 adbe 4c7c 4ebe
00000230: d7cf 6ebe 5ba6 2bbe a32e 14be 7f46 3bbe
00000240: eb3d 7abe d9e0 1abe f2df 07be d200 9fbe
00000250: 7567 5abe 6343 39be 5517 3fbe 3664 a9be
00000260: 0d58 9ebd c5b6 90be d969 17be 0788 07be
00000270: 70b3 36bd 3a59 29be 2651 8abd d3aa 14be
00000280: 2524 1ebe df01 67be 6c63 36be 743b 52be
00000290: af10 84be e7ba 2dbe fd06 68be a4bc ddbd
000002a0: d4b6 87be 4d5f 8fbe ba28 01be bafb 31be
000002b0: f24f 3abe 6080 52be b083 bebe e0b0 9abe
000002c0: 14b7 f0bd 07d7 87be f168 43be e42b 44be
000002d0: f77e 87be 3aff 33be aa3e 69be 2034 3cbe
000002e0: 3c31 6bbe 0b82 36be 5c2f d5bd c2b6 34be
000002f0: fbbb 3ebe f66f a9be dfcd 15be 0bac 6ebe
00000300: 2cbd acbe 0e34 78be 261f a4be 3c40 83be
00000310: e72a 58be 14b5 22be 9e80 73be 9b1c 9bbe
00000320: dc94 63be 8582 68be 8cf0 8fbe ca79 4dbe
00000330: 8bb2 77be e023 b6be e44b 8ebe c7d6 8cbe
00000340: 82ec 80be 7f30 07be fc03 c5be 5008 97be
00000350: c3bc 18be 41da e4bd 6f41 27be 5139 b6be
00000360: c454 0fbe 4abf 72be b4c4 55be 20bf 22be
00000370: e05d cfbd 1fba 9abe 4c56 0bbe 8779 47be
00000380: 6d5b 87be 94fa 5dbe 69fb 93be 890f 3cbe
00000390: 1ee0 46be f951 04be 1db3 16be ed26 9dbe
000003a0: 3349 97be bb58 95be 2a01 41be 5634 a1be
000003b0: 2e4a 77be 224a 6cbe aeff d1bd 3e3a b4be
000003c0: 05ed 0bbe 55b4 a3be 282e 32be 9006 2bbe
000003d0: 09ba adbd cb60 74be 2f64 a5bd 4a48 84be
000003e0: 1615 96be 12a9 8fbe 6b8f 9abd 85f3 40be
000003f0: 6410 76be e3b7 6fbe bfbd 09be de80 82be
-0.0635893 0.12580569 -0.100899905 0.017947253 -0.06713547 0.03229618 -0.056559004 -0.060755048
0.0017214771 -0.01348561 0.08891381 -0.07037086 -0.0010111809 -0.029531239 0.0189131 -0.09098157
0.042988554 0.061676685 -0.02641401 -0.017404601 0.0369269 -0.078138806 0.019135423 0.08978835
-0.20714775 -0.09465318 -0.0033027893 -0.042941004 -0.052592225 -0.0152862035 -0.10353544 -0.020986881
-0.027360762 0.16627301 -0.07500943 0.045660086 0.059194922 -0.16412695 -0.01768622 -0.008579794
0.039048277 -0.075204246 0.06736943 -0.02942904 -0.1022404 0.013940411 0.13532992 0.05425044
-0.06312928 0.055408366 -0.029202819 -0.016640142 0.021603946 -0.04406953 -0.09003459 -0.021608062
-0.022535065 -0.07893258 -0.042494692 -0.049622163 -0.031670462 0.027749028 -0.023621196 0.026350893
-0.069381855 0.03659272 -0.078364365 0.12989734 -0.03215517 -0.028946407 0.014302332 0.026657598
0.0038558717 -0.04538172 0.026426978 -0.023209576 -0.13985543 0.024375673 0.068988495 -0.053364843
0.0031633077 -0.13736914 0.07486872 -0.053622287 0.012950737 0.017461637 -0.032983854 0.06691993
-0.0804694 -0.09259595 0.045857873 -0.10759365 0.1068184 0.040423643 -0.019936673 -0.17945963
0.03945705 -0.050063144 0.063695274 -0.006618392 -0.07984624 -0.1531982 -0.05166432 0.004677151
0.039096817 -0.023667995 -0.016916623 0.075866215 0.09640481 -0.069631666 -0.117785685 0.012878005
0.023714684 0.03553204 -0.0821914 -0.06348526 -0.055330638 -0.04838643 -0.13309701 0.054701332
0.025270324 -0.11755847 -0.048831724 0.09192272 -0.011888877 -0.12450163 -0.03971588 0.023763878
-0.24171014 -0.028534848 -0.25725797 -0.14005716 -0.19229339 -0.10730191 -0.34770352 -0.12946282
-0.28192276 -0.3210062 -0.33914477 -0.20164603 -0.23321472 -0.16762678 -0.14470915 -0.18288611
-0.24437682 -0.15124835 -0.13269022 -0.31055313 -0.21328528 -0.18092112 -0.18661244 -0.33084267
-0.07731638 -0.28264442 -0.14786471 -0.13235484 -0.04460472 -0.16537943 -0.06753759 -0.1451829
-0.15443476 -0.22559308 -0.17811364 -0.20530492 -0.2579398 -0.16965829 -0.22658916 -0.10826996
-0.26506674 -0.28002396 -0.12613192 -0.17381182 -0.18194559 -0.20556784 -0.37209845 -0.3021307
-0.117536694 -0.2653124 -0.19083 -0.19157368 -0.26464054 -0.1757783 -0.2277781 -0.18379259
-0.22968 -0.17823045 -0.10409424 -0.17647842 -0.18626396 -0.33093232 -0.14629315 -0.23307817
-0.33738077 -0.24238607 -0.32055014 -0.25634944 -0.21110116 -0.15889388 -0.23779532 -0.30295262
-0.22224754 -0.22706039 -0.2811321 -0.2006599 -0.24189202 -0.35574245 -0.27792275 -0.27507612
-0.2518044 -0.13202094 -0.38479602 -0.2949853 -0.14915757 -0.11174441 -0.16333555 -0.35590604
-0.1399718 -0.23705783 -0.20875818 -0.15893221 -0.10125327 -0.30220124 -0.13607138 -0.19479953
-0.2643694 -0.21677619 -0.28902748 -0.18365301 -0.19421431 -0.12921895 -0.14716764 -0.3069376
-0.29548034 -0.29169258 -0.188481 -0.31485242 -0.24149391 -0.23075154 -0.10253845 -0.35200685
-0.13664635 -0.3197352 -0.1740042 -0.16701722 -0.08482749 -0.23865049 -0.08075749 -0.25836402
-0.29312962 -0.28058678 -0.07546886 -0.18842895 -0.2402969 -0.23409991 -0.13451289 -0.25488943

weight_ih_l0 f4 [512, 128]
00000000: 71c3 20bd 6577 fa3d dd8b 9ebd 33bb 193d
00000010: eaf7 a4bd 6877 693c 3ea4 053e f54a 68bb
00000020: 6b3a f03c e824 25be 8492 083e 8d20 d6bd
00000030: e16c 273c 2fbf 4c3c 8977 c03d c6cf 093d
00000040: aace 063d c679 e03c 520b d83d d084 d3bd
00000050: dc85 78bd afe2 963d 7f82 eb3c dde4 223e
00000060: 1d0c a23d d1f6 9a3d 46ed 62bc 04e8 813d
00000070: d921 67bd cb5a 073d 91a1 693d 86d2 3e3d
00000080: 2f3e e93b 2b84 fbbd 061a b9bd e4e9 fabc
00000090: a918 4ebe 3ae2 a03d 1d4f dbba 183a 26bd
000000a0: 7629 8dbd 940d 383d 4584 a8bc 681f a63d
000000b0: e753 053e 53c5 0bbe 69f4 cdbd da9b 8d3b
000000c0: 8e01 b5bd a98e 693c bea1 313e 5c6b b4bc
000000d0: bae9 d33d 8d2d a73d c419 18bd 1792 3bbd
000000e0: 7d98 1b3d f73e 1cbe 10d3 f83c 9fe8 d6bd
000000f0: 66eb 003e 50cc 4cbd fee5 9e3c f866 6a3c
00000100: 207f ac3d f491 9e3d c609 af3d a229 20bd
00000110: e132 ac3d 49b7 37bd 1f42 42bd e5e4 373d
00000120: bc64 95bd 997c 573d 3c42 58bb f897 013e
00000130: 7c86 6c3e 6832 153e 03f9 0b3d ba41 7f3d
00000140: 89b9 093e 3d09 01be cf00 b7bd 8c3c 4f3c
00000150: d87d d5bd d1fb c9bc 2c6e 79bb a543 c53d
00000160: e31f 65bd 71bf 99bd 736e 053e 3125 263d
00000170: 8469 4f3e 29d9 0ebe 564f 17bd fb8f 993d
00000180: a1fb 8a3d e372 363d 2c0d a5bd a5b1 353c
00000190: a051 58bd bf90 02be 45ee a1bd ce12 3ebd
000001a0: 7aa1 e83c 021a 6c3c 2055 3ebe e794 3d3d
000001b0: a44d 843c 57a3 1abd ade0 0b3e 3fa2 8a3d
000001c0: b418 56be 3458 a13d f6ad 81bd 6310 8dbc
000001d0: b187 0fbe 194f 993c 272a 2bbd cc0e 0bbe
000001e0: cf3a 443e 1472 483d c833 db3d dbf3 00bd
000001f0: 5132 b0bb 8745 58bc ee19 883d f6a7 583e
00000200: aae0 55bd 3550 d43d e11f e6bd 7b24 c7bd
00000210: f100 05bd f53b 25bd e19d 953d ede6 7d3e
00000220: 7ebe 413d 8b3a 88bd aebd 3d3e 550f 91bd
00000230: 3052 92bc 7452 0ebe f452 463d 9267 a0bd
00000240: ceee 60bc 105c d43d 44fc 663d 661e f4bd
00000250: 9822 89be 81b8 45bd b768 c13d 220c 083d
00000260: df56 0cbc 54e6 a93c 5b59 393d 9bdf d93c
00000270: edfc 7d3a d5dd 9c3c 491a 2fbd 1fbb c83d
00000280: fb0a 4b3d d5c3 75bd ed34 c8bd bc28 d53c
00000290: 07a0 ebbd 186a 483d c9ad d93d 9359 c1bd
000002a0: b8c4 dbbd cb22 07bb b4f3 d3bd 0d1b 0fbd
000002b0: 4045 413d 23ce 13be 460a db3d 3ad5 1abd
000002c0: 32c2 703d 3faa b0bd bc6a 023e b988 913d
000002d0: 4986 cdbb 6218 263d 7a20 ff3d 8102 063d
000002e0: e7d6 ca3d b3ab bf3c 3deb f2bd 82aa 86bd
000002f0: 7136 313e 7262 123e 786e df3d 1411 bf3d
00000300: 02cd 35be 45d5 94bd f720 80bd a00b 87bd
00000310: d1e5 5e3d 9fb6 c23c 85b1 adbd 525f 703d
00000320: eced 8f3c af59 023d 6936 abbd 635f 03be
00000330: 0e66 21be 98a7 a2bd 4eeb 063e 441b 623d
00000340: 8092 0b3e 3960 8abd deb9 b339 be96 73be
00000350: f38e e0bd 076a 543d 83d0 4bbd d2fe ae3d
00000360: e3a0 eebd 7693 61bc 9b37 40be 7f60 343d
00000370: d95a 853d ec4d 96bd bbbe 423b 07be 2d3d
00000380: acbe 083d d1b5 093e 7a70 d33a d09a 02be
00000390: f135 35be cbed 13be 3dd3 ef3c 43d3 b13b
000003a0: 641b ff3d da18 3a3e b7c4 abbc d784 4d3d
000003b0: 2112 9c3d 1b5d 34bd 789b 793d 28d1 8a3d
000003c0: d241 97bd ee18 c73c 1a81 d0bd dc58 843d
000003d0: c7bc 96bd 1180 363e e6a6 5fbe 1266 9bbd
000003e0: 3349 d2bc ff40 163e 510c 963d 2ec2 a2bc
000003f0: d81b 1ebd 6a52 0a3e dcdd bcbd 6f51 073e
-0.039248887 0.12229804 -0.077415206 0.037532043 -0.08055098 0.01424966 0.13050935 -0.0035445068
0.02932473 -0.1612736 0.13337141 -0.10455427 0.01021883 0.012496754 0.093977995 0.033645414
0.032911934 0.027401816 0.10549034 -0.10328066 -0.060674533 0.07367455 0.028748749 0.15907617
0.07912467 0.07566608 -0.013850516 0.063430816 -0.056428764 0.03304557 0.057038847 0.04658749
0.0071180086 -0.122810684 -0.09038167 -0.030629106 -0.20126595 0.07855649 -0.0016731952 -0.040582746
-0.06892674 0.044934824 -0.020570884 0.08111459 0.13020287 -0.13649492 -0.10056383 0.0043215575
-0.08838187 0.014255204 0.17346856 -0.02202385 0.10347314 0.08162985 -0.037133947 -0.04579362
0.03798722 -0.15258394 0.03037408 -0.10493588 0.12589797 -0.049999535 0.019396778 0.014306776
0.08422685 0.07742682 0.08546786 -0.039102204 0.08408142 -0.04485253 -0.04742634 0.044896025
-0.07294604 0.05260906 -0.0032998463 0.12655628 0.23098177 0.1457001 0.034173023 0.06231854
0.13449682 -0.1260118 -0.08935701 0.012648713 -0.104243934 -0.024656208 -0.0038060052 0.09632043
-0.055938613 -0.07507218 0.13030414 0.040562812 0.20255095 -0.13950028 -0.036940895 0.07498165
0.06786276 0.04454316 -0.08059153 0.011089717 -0.05281222 -0.12750529 -0.079067744 -0.046404652
0.02839731 0.014410498 -0.1858716 0.046284582 0.016150303 -0.03775343 0.13659926 0.06769227
-0.20907861 0.078781515 -0.063320085 -0.017219728 -0.14016606 0.018714475 -0.041788246 -0.13579863
0.19163059 0.04893692 0.10703236 -0.03148256 -0.005377092 -0.01320017 0.06645571 0.21157822
-0.05221621 0.10366861 -0.11236549 -0.09723755 -0.0324716 -0.040340383 0.07305504 0.24795122
0.047300808 -0.06651791 0.18529388 -0.070830025 -0.017861456 -0.13898641 0.048418954 -0.078322545
-0.0137288105 0.10369122 0.056392923 -0.119198605 -0.26784205 -0.04827166 0.09443801 0.033214696
-0.008565634 0.020739712 0.04525123 0.026595881 0.0009688873 0.019148747 -0.042749677 0.098013155
0.04957102 -0.060001213 -0.0977572 0.0260204 -0.11505132 0.048929304 0.1062885 -0.09440913
-0.107308805 -0.0020620103 -0.10349217 -0.034937907 0.047185183 -0.14434104 0.10695319 -0.037801005
0.05877895 -0.08626222 0.12736028 0.07106156 -0.0062721116 0.040550597 0.12457366 0.03271723
0.099042706 0.023397302 -0.118612744 -0.065754905 0.17305924 0.14295366 0.10909742 0.09329429
-0.17753986 -0.072672404 -0.062562875 -0.06594014 0.05441839 0.023768721 -0.08481125 0.058684655
0.017569505 0.03182381 -0.08359987 -0.12829356 -0.15761587 -0.07942122 0.13175699 0.055201784
0.13630104 -0.06756634 0.00034280022 -0.23787972 -0.109647654 0.051858928 -0.0497594 0.08544697
-0.116517805 -0.013768068 -0.18771212 0.04403734 0.065114684 -0.07339081 0.0029715735 0.042417552
0.033384964 0.13448264 0.0016131543 -0.12754369 -0.17696358 -0.1444618 0.029275531 0.0054267957
0.12456396 0.18173543 -0.020967824 0.050175514 0.07620645 -0.044034105 0.060939282 0.06778175
-0.07385601 0.02430388 -0.10180874 0.06462261 -0.07360225 0.17822291 -0.2184101 -0.07587828
-0.02566967 0.14673232 0.07326568 -0.019867983 -0.038600773 0.13508001 -0.09222004 0.13214658

weight_hh_l0 f4 [512, 128]
00000000: b24d 95bd b173 63bd 5497 c2bd eadc 5fbd
00000010: 4d9f 97bd 8abd 983a f674 c0ba 15be 90bb
00000020: bc13 f23c 90f2 84bd ba94 63bb 1d23 b63d
00000030: 76f6 373c bd28 a5bc 0b77 a6bc 1c31 a53d
00000040: 2e52 72bd 30ff 813d d675 86bd f6bd 5abd
00000050: 2ff9 9e3d c49e 8a3d 0014 773d 1c31 613d
00000060: 93f1 673d 78b4 1cbd c3f7 4ebc 9f01 92bc
00000070: debf 523d 8a0e d5bd e6cc 003d 9ccb bd3d
00000080: e4bd 72bd 1cfd 1ebd 2a14 863d 91ee 253d
00000090: 88d8 26bd 0bbf a53d 3c05 fd3c 86e7 893d
000000a0: d96b b43d 68d2 a0bb 9823 efbd 9cb0 933d
000000b0: f5f1 143d 7ff9 18bd 929b f03d c8ff 4b3d
000000c0: 2523 7fbc 8862 bebc 4dfe 94ba fced 583d
000000d0: 1ea2 133d c3c8 5fbd 7211 1d3d cd88 683d
000000e0: fcd1 92bd 654a 1bbe a089 cf3c f0f3 26bd
000000f0: a501 b7bc 21fd b1bd b161 49bd 3bfd b73d
00000100: 1a7f 6ebc bce4 39bd e242 56bd 8550 a5bd
00000110: 8dfb 38bd 9a9f 5dbd aaa8 183d 6923 dcbc
00000120: 8cf4 4abd cbb8 a3bc 23c2 81bd 4a87 6abd
00000130: e5b8 1cbd 1e36 ff3c e10b 1d3a 2414 18bd
00000140: b371 1dbc 5543 c1bd 3887 953d 1753 39bd
00000150: 4f20 f03c 18f0 aa3b 0b93 543d 051b 0abe
00000160: 9e90 673d 64e0 8e3c 488e 283d 3bdf 913c
00000170: 4568 343d de71 543d c0fd 3e3d 379c 723d
00000180: b2fc f03d 629d 943d 0583 3e3d df86 3d3d
00000190: d335 953d fb28 123d 09d2 cebc 4b65 7dbb
000001a0: b421 aabd b10f 853d 6742 2c3a 1d99 573c
000001b0: 35db a63d cabb 6cbd 312a 9bbc 4c57 88bc
000001c0: a9ac f93d 807e b83d f881 4d3d eb62 153c
000001d0: b847 8dbc daaf 193d 677a c43d 85c1 dcbc
000001e0: 2776 88bd c1f6 ffbb 2ea4 7dbd 7eb9 3dbd
000001f0: 48b1 9b3c 72f3 f8bb 2611 253e 885b c1bc
00000200: 18ca e8ba 93d3 a33b e6bf 863c 277b dabc
00000210: 01c4 b33d 8977 52bd f11f bbbb 218f cdbd
00000220: 5656 02bd 5117 55bd 8236 873d 8acd 103c
00000230: d66e c9bd 0b88 ad3d 6230 60bd ca20 6fbc
00000240: 6501 d7bd f0ea 02bd cfc4 b93d 9be7 3cbd
00000250: b410 f1ba 88a9 503d 4ce3 48bd 7139 1ebd
00000260: 1924 743c fcac 6e3a 38f4 2ebd 14b0 ea3c
00000270: bd98 55bd 17ad 4e3d 0f43 64bc 1493 d53b
00000280: ae34 1bbd 58ae e73c b185 51bd 41f6 a73d
00000290: ef2b bbbc 9bdb 3a3d 11e6 c0bd 3a25 9fbc
000002a0: 21b1 1e3c af7b 32bc 3378 ddbd 6ef3 3bbd
000002b0: 73cf 203d d8b7 293d 3ce7 77bc ca66 b4bc
000002c0: b52a 823d 08aa c13d 2e14 9abd fc9e b7bd
000002d0: f42c 58bc 5435 e6bd 9809 1dbd 0623 2a3d
000002e0: 6fc4 d73c 1a3e 8ebc 3e8e 843d 2c6b bebc
000002f0: a08e 243a d1f9 6b3c 6784 6abd 10c0 b33d
00000300: 1c13 c83c 1e7d 9b3d 0f34 58bd 7bd2 efba
00000310: 8ebc 113d b52d 2c3d 18dc ccbd 18bd 89bd
00000320: c0f5 783d 3000 16bd cf73 553c c6a1 063d
00000330: c58c b83d c402 fcbd 68ca f7bb a23e 8dbd
00000340: 79d5 423d a571 88bd 88a3 c3bc f587 6c3d
00000350: 409d eb3d b154 dbbc 4d2d 4e3d 313f 843c
00000360: ea79 893d 1d36 933a 5163 9fbd 5876 943d
00000370: 4eea f5bc 207c 42bd 27b3 94bd 3f37 163d
00000380: 39e1 90bd 2a95 15bd 456f 803c 41e9 213d
00000390: 7349 8d3d 0e01 b4bc 751c 403d daf4 b6bc
000003a0: 0824 07bd 46b6 4cbd f2c7 cdbc 1bf0 ec3c
000003b0: ea3c 113e 7ce7 6f3c eca0 023d cb45 8ebc
000003c0: 8bc6 c33b c974 5ebb e14b 283d ec4c a9bc
000003d0: 1ffb 323d ff64 a03d bde5 db3c 5fe4 303d
000003e0: d88f 6d3d 71df cebc 3943 003d 22f8 e73d
000003f0: 0b3a 4e3d db05 3ebd ace6 6ebb 22b6 16bc
-0.0729021 -0.055530254 -0.0950152 -0.05465404 -0.07403431 0.0011653167 -0.0014683295 -0.004417191
0.029550426 -0.064915776 -0.00347261 0.08893416 0.011228194 -0.020161027 -0.020320436 0.080660075
-0.059160404 0.06347501 -0.06565444 -0.053403817 0.07762372 0.067685634 0.060321808 0.054978475
0.056626868 -0.038258046 -0.012632313 -0.017823039 0.05145251 -0.10403164 0.031445406 0.09267351
-0.059263125 -0.038815603 0.06546815 0.040510718 -0.040733844 0.08093079 0.030886285 0.06733613
0.08809633 -0.004907895 -0.11676711 0.0721142 0.03636356 -0.037347313 0.11748423 0.04980448
-0.015572344 -0.023240343 -0.0011367291 0.052961335 0.03604328 -0.05463482 0.038346715 0.05677109
-0.071689576 -0.15165098 0.02533418 -0.04075998 -0.022339651 -0.08690859 -0.04916543 0.08983847
-0.014556671 -0.045384154 -0.05230988 -0.080719985 -0.045161773 -0.054107286 0.037270226 -0.026872354
-0.049549624 -0.019985577 -0.06335857 -0.057257928 -0.038262267 0.031153735 0.0005990845 -0.037128583
-0.009609628 -0.09436671 0.073011816 -0.045245256 0.029312281 0.0052166097 0.051898044 -0.1348687
0.056534402 0.017440982 0.041151315 0.01780664 0.04404475 0.051866405 0.046628714 0.05923101
0.11766948 0.07256581 0.04651167 0.0462712 0.07285657 0.035683613 -0.025246637 -0.0038665112
-0.083072096 0.064971335 0.0006571174 0.013159064 0.08147279 -0.057796277 -0.018941017 -0.016643189
0.121911354 0.09008503 0.050172776 0.009117822 -0.017246112 0.03752122 0.09593659 -0.026947746
-0.06663161 -0.007811398 -0.061924152 -0.046319477 0.019005433 -0.0075973803 0.16119823 -0.023603216
-0.0017760424 0.004999587 0.016448926 -0.026670052 0.08777619 -0.05138353 -0.005710595 -0.10037065
-0.031820618 -0.05202419 0.066021934 0.008838067 -0.098355934 0.08473214 -0.05473364 -0.01459522
-0.10498313 -0.031962335 0.090707414 -0.046119314 -0.0018391819 0.050942928 -0.049044892 -0.038629
0.0149011845 0.0009104756 -0.042713374 0.028648414 -0.052147616 0.05045804 -0.013932004 0.006517777
-0.037892036 0.028281376 -0.05115289 0.08201266 -0.022848098 0.04561959 -0.09418882 -0.01942693
0.0096857855 -0.010893746 -0.10813942 -0.04588645 0.03926034 0.041435093 -0.015130814 -0.02202167
0.06355802 0.09456259 -0.0752338 -0.08965871 -0.013194311 -0.1124064 -0.038339227 0.041537307
0.026338784 -0.017363597 0.06472443 -0.023244463 0.00062773563 0.014402823 -0.057255175 0.087768674
0.024423175 0.075922236 -0.052784022 -0.0018296981 0.03558021 0.042035777 -0.10002917 -0.0672552
0.06078124 -0.036621273 0.013028099 0.032869123 0.09011225 -0.12305215 -0.0075619705 -0.06896712
0.047566865 -0.06662301 -0.023881689 0.057746846 0.115046024 -0.026773782 0.05033617 0.016143413
0.067127064 0.0011231337 -0.07782615 0.07249135 -0.030018952 -0.047481656 -0.07260733 0.03667378
-0.07074208 -0.036519207 0.015678057 0.03952909 0.06898775 -0.02197316 0.04690214 -0.022333551
-0.032993346 -0.049978517 -0.025119755 0.028923085 0.14183393 0.0146425925 0.03189175 -0.017367264
0.005974596 -0.003394412 0.04108799 -0.020666562 0.04369652 0.078317635 0.026842946 0.04318654
0.05799851 -0.02525303 0.03131411 0.113266245 0.050348323 -0.046392303 -0.003645341 -0.009198697

bias_ih_l0 f4 [512]
00000000: b257 a83d 295c 163e cdf0 ed3d 4ede 903d
00000010: 952a 013e 53c3 553e 3341 fa3b 3894 5ebd
00000020: 14b4 453e 88fa 833c 7b66 383e 7192 a2bc
00000030: e193 ff3d 6010 a43d 534f f63d 4f9f e93c
00000040: f5d6 293e 9d7a 9c3d ceb6 223e 99e6 0cbc
00000050: e47b fa3d 7c5d 4a3e 87c0 713d ea68 163d
00000060: a602 2d3c 4acc 063e c721 4fbd f746 523d
00000070: f383 84bb 90bb 3ebc 3dee ee3d ad70 4ebd
00000080: ac49 943d 71ac 1f3e c4e8 733d 19b1 1e3e
00000090: a70a c73d 28d1 28bc 121f a53d 8be3 73ba
000000a0: d333 9f3d 20c9 e93d caf4 533d 7671 283d
000000b0: 15e4 003e cc82 dc3c 3fdf f33d d820 cabd
000000c0: 03b8 913d ca27 ca3d b1f9 a6bd 1fee fc3d
000000d0: 3375 193e ef97 1fbc 136b 843e ad8a 063e
000000e0: f5cc 403e 457c 403e 8500 c43d 018a a63d
000000f0: 2e1b 273e ecd1 2bbd cfe0 b8bd a3bb b63d
00000100: b643 5dbd 6720 a2bc 341e 473e 87ff 3bbd
00000110: ff72 ddbb d8d5 343d 1a2b b23d 1335 033d
00000120: d201 28be 274c a73d 3098 d23c f375 033e
00000130: e0be a63c 6f6f fdbc 74de b4bc 691a ac3d
00000140: 3491 2a3e dd5b 72bd 4077 3b3e b71e fb3d
00000150: 7325 923c d304 e63d 1e42 163c f52c 283e
00000160: 8a90 d23b 1112 f43d ae5a 043e ae4e a13d
00000170: 4c31 4dbd cf42 e03d f732 093e 3536 163e
00000180: f475 b23d 27df 4e3c 78b0 35bd 2ed4 893c
00000190: 897c 9e3d 97bc b13c fb2f 613d 32e0 c2bc
000001a0: 7d97 863d 2524 4b3d abf9 ac3d 2c30 bbbc
000001b0: 9902 1fbc 845d a33d 6d5c 783c bd4b f03d
000001c0: f537 fdba 04bd a3bd 29ce 18bd 7e78 5f3d
000001d0: 37fc 133e 81ec 19bc 2ddd 24bd 2f90 253e
000001e0: d4d7 103e 8d64 a63d b5bc 1f3e e4eb b13d
000001f0: a89a edbb 3fc5 853d b472 143c 1501 4a3e
00000200: 460f aabe c923 a7be bfd6 09bf 0ea4 99be
00000210: 4dca b5be 89b4 ccbe aeea 33be 5a23 8cbe
00000220: f798 d9be 57d5 cfbe 428f cdbe e437 8abe
00000230: a8b6 a8be 5a09 d8be 9f6c debe b00e a5be
00000240: 2891 b7be 4d48 fdbe bdfd bbbe eb4f fcbe
00000250: 6bc1 b1be 6714 ebbe 1155 00bf 604a a4be
00000260: 0baf 8abe 97af b5be 6cd2 ccbe 60a9 a7be
00000270: accd b7be b7a4 b8be 5005 bdbe 0cbe dabe
00000280: 0a4d bebe 60c4 ffbe a4c0 d3be 64b1 bdbe
00000290: 25f4 acbe 21a8 cfbe 4170 f6be 850a 92be
000002a0: 599c abbe 8175 b2be df15 85be 37be d0be
000002b0: c83a 4fbe a599 e7be 60c7 bfbe 9af4 e9be
000002c0: 7858 a9be 94af 93be 9e0e c7be ac66 a3be
000002d0: 994c 9bbe 1642 95be fd41 b3be 8db0 e2be
000002e0: 80bd c8be 10d4 c6be a3b8 bdbe 09eb b2be
000002f0: 87ac e2be ad6d b3be c706 c8be 3ab9 b6be
00000300: a253 b5be 68a5 70be 55ff d3be 34a2 b1be
00000310: c389 a7be 6e5d c5be 9568 e1be 98e5 a0be
00000320: 222e bbbe cf7e a1be 2bdd 9cbe 7292 d8be
00000330: 7187 d5be 33d6 86be 3fb8 a8be 97d6 c1be
00000340: f161 cebe fe63 d3bd f426 b7be 4fdf afbe
00000350: d979 f9be 3467 9fbe 41f0 6bbe a79d d7be
00000360: d93a 9cbe f70b a8be e0bb aabe 1fb9 a2be
00000370: d47d 84be e0cc b3be ebb2 c9be 8630 a3be
00000380: ee99 8fbe 2c5c 89be b759 d8be e7f6 9abe
00000390: ff95 a1be 57be aabe f10a e5be 73a0 adbe
000003a0: 01c4 edbe a2e7 9bbe dc56 cebe 789b e2be
000003b0: 274f 80be 5b1e bfbe 4921 66be 963d cebe
000003c0: 518a cdbe 85f1 cbbe 2472 95be 68e3 6fbe
000003d0: db2e 84be 3bdf a2be acdb 92be 764a dabe
000003e0: 7adc 9dbe e944 74be f6b7 a1be a428 babe
000003f0: 937b acbe c30b b1be 0186 bfbe 9e20 d5be
0.082198516 0.14683594 0.11618195 0.07073651 0.126139 0.20875292 0.007637167 -0.05434057
0.19306976 0.016110674 0.18007843 -0.01984522 0.124793775 0.08010936 0.12026849 0.028518347
0.16585906 0.07640574 0.15890047 -0.008599901 0.122306615 0.19762224 0.0590215 0.036721148
0.0105597135 0.13163868 -0.050569322 0.05133721 -0.00404405 -0.011641398 0.11666534 -0.050400425
0.07240614 0.15593125 0.059548154 0.15497245 0.09718829 -0.010303773 0.08062567 -0.0009303621
0.077735566 0.11415315 0.05174712 0.04112383 0.12587006 0.026917838 0.11907815 -0.09869546
0.071151756 0.098708704 -0.081530936 0.123501055 0.14986114 -0.009740814 0.2586294 0.13138838
0.18828185 0.18797405 0.095704116 0.08131791 0.16318962 -0.041948244 -0.09027254 0.089225076
-0.054019652 -0.019790841 0.19445115 -0.045897987 -0.0067580934 0.04414925 0.08699627 0.032033037
-0.16406944 0.08168822 0.025707334 0.12837963 0.020354688 -0.030936925 -0.02207873 0.08403475
0.16656953 -0.05916964 0.18307209 0.12261718 0.017840123 0.11231389 0.009171037 0.164234
0.006425922 0.119175084 0.12925217 0.07876335 -0.05009584 0.10950243 0.13398348 0.14669116
0.08713904 0.012626446 -0.044357747 0.016824808 0.07738597 0.021696372 0.0549774 -0.023788545
0.06571863 0.049595017 0.08446058 -0.022850119 -0.009705209 0.07976821 0.015158755 0.11733196
-0.0019319045 -0.07995036 -0.037305985 0.05455827 0.14451681 -0.009394766 -0.040249992 0.16168283
0.14144832 0.08124647 0.1559933 0.08687571 -0.0072511025 0.06531762 0.0090605505 0.19726975
-0.33214778 -0.3264449 -0.538433 -0.30007976 -0.35505906 -0.39981487 -0.17569992 -0.2737072
-0.42499515 -0.40592453 -0.4014836 -0.26995766 -0.32951856 -0.42194635 -0.43442246 -0.32237768
-0.35852933 -0.49469224 -0.36717024 -0.49279723 -0.3471788 -0.45914003 -0.501298 -0.32087994
-0.27086672 -0.35485527 -0.4000429 -0.3274641 -0.35899103 -0.36063167 -0.36918116 -0.4272312
-0.3716815 -0.4995451 -0.4135791 -0.370494 -0.33780017 -0.4055796 -0.48132518 -0.2852365
-0.3351772 -0.34855273 -0.2599325 -0.40770122 -0.20237267 -0.4523441 -0.374568 -0.4569443
-0.3307531 -0.28844893 -0.3887834 -0.3191427 -0.30331877 -0.29151982 -0.35011283 -0.44275323
-0.39207077 -0.38833666 -0.3705493 -0.34944943 -0.44272253 -0.35044613 -0.3906767 -0.35688192
-0.3541537 -0.23500597 -0.4140574 -0.34694064 -0.3272229 -0.38547844 -0.44025102 -0.31425166
-0.36558634 -0.3154206 -0.30637488 -0.4229923 -0.41704896 -0.26335296 -0.3295307 -0.37859032
-0.40309098 -0.10321806 -0.35771906 -0.34350058 -0.48725775 -0.31133425 -0.23040868 -0.42112467
-0.30513647 -0.32821628 -0.33346462 -0.3178186 -0.2587725 -0.35117245 -0.39394316 -0.31872958
-0.28047127 -0.26828134 -0.42255947 -0.30266497 -0.3155975 -0.33348343 -0.4473491 -0.33911476
-0.46438602 -0.3045016 -0.40300643 -0.44259238 -0.25060388 -0.37327847 -0.22473635 -0.4028136
-0.4014459 -0.39832702 -0.29188645 -0.23426592 -0.25816998 -0.31810936 -0.2868322 -0.42634934
-0.30832273 -0.23854412 -0.31585664 -0.3635913 -0.3368803 -0.34579286 -0.37406924 -0.41626447
