trained_models/ppo/me5418-Cassie-v0/0523-16-10-05-s3737/actor.pt (torch, 906874 bytes, 11 tensors)

log_std f4 [1, 10]
00000000: b0f7 c1bc e0d6 0d3c 0270 59bd 6c90 61bd
00000010: e5eb cf3c c734 91bc b7dc 6fbc 8831 8fbd
00000020: 1146 50bd 42f7 823b
-0.023677677 0.008657187 -0.053085335 -0.055069372 0.025381038 -0.017725362 -0.014640025 -0.06991869
-0.05084807 0.0039967606

weight_ih_l0 f4 [512, 50]
00000000: 5fbc 693d 3ded 293c 4f91 623c e37a cb3d
00000010: 673d 37bc 9c4a 843d 53a4 d6bc 6ae6 c73d
00000020: 7574 a2bd caa2 73bd d6d5 b03c a731 45bd
00000030: dbb8 bb3d 0528 3e3d 1d45 9dbd e816 7c3d
00000040: 54c4 b0bd eaf9 7abd 2ccd 163d 7191 71bd
00000050: 5694 68bd 4a21 7bbd a030 4ebc 82e7 823d
00000060: c6ce 6cbd a5da d1bb 98b3 69be ef0d 34bb
00000070: a59e ad3d 5acb 1c3d fe7e 4bbd 97d3 813c
00000080: 9783 0c3d f9f2 673d df79 9b3d c03d eabc
00000090: ab4a 15bd b3c0 60bd 27da 4ebd f558 aebd
000000a0: bca1 a53c c4c8 adbc 77c3 bbbd 82ae 30bd
000000b0: 01ac 333d b199 eabc 4b10 37bc 6731 a23d
000000c0: 6a1c 1d3d 75c2 8fbc 9cbc 3f3d aa5c 903d
000000d0: 7993 7b3d e408 8c3d 1f64 a73c 0822 c4bd
000000e0: 2cdb 3f3d 15ff 6bbd 593c 21bd f8cb ca3c
000000f0: d0c8 f8bc cc10 9abc 1ae0 8d3c df3e 2ebd
00000100: 9812 91bc fec7 933b 3dc9 9d3b 2548 953b
00000110: 4bf5 983c c942 acbd 954c a2ba fa96 02bd
00000120: 2c36 713c c952 b93d 40e6 b9bc 74fc b0bc
00000130: f44e 1bbc 32a2 44bd 81b4 9a3c 02f2 ce3d
00000140: 2ec3 a3bc 7a57 95bd 10f9 5ebd c896 02be
00000150: 04cc 87bd ebd6 d83d 1ad6 843a 8991 203c
00000160: 9398 34bd c150 b7bd d980 a73c 619d 883d
00000170: 5ce9 483c 2943 67bd b53e 9c3d ada2 a03d
00000180: 4865 9c3d 3882 f1bd 5d4b bd3d 9270 8cbc
00000190: a625 303d c6b6 b0bd 4ffb b63d 17f4 263d
000001a0: 234b a6bd a2b0 a23d 580b 893c a554 9bbc
000001b0: cebe 14bd 9333 11bd ae2a f7bc 5c81 20bd
000001c0: 7647 e9bb c722 bc3d bd23 963b 878f b6bc
000001d0: 57de 06bd 583b a4bd c7a1 eebc 4b2b a3bd
000001e0: 682d a0bd aa7a 4a3d 87c0 ccbc 767d b93c
000001f0: a3d1 a03d 801d 04bd 58fb e0bc 0956 073e
00000200: f16f 11bd 72bd 033e a8dd c33c b336 35bc
00000210: 9b5f 903a f1b8 69bd e454 3fbd df56 acbd
00000220: 73fd ce3d 05e5 193d 65d6 333d a513 c83d
00000230: 3e2b 4abd 5518 47bd 6d0c f0bd 156e 8d3d
00000240: dc55 a7bd 9252 273e 8e8f 5ebd fdd3 edbd
00000250: c5b1 fbbd 4a1b 003d 11c5 443d f20f 8ebd
00000260: c568 093d 0ceb 083d 4093 7abd 0184 90bd
00000270: c6ae 93bc fecb c9bc d4e4 033e 707b ecbb
00000280: 3058 1c3d 57a9 9bbd 57f9 dcbc 951b d03c
00000290: 41cd 29bd b067 19bc b105 a83d d78e 8e3d
000002a0: d27f 41bc cffc 48bd a862 723c aeb1 003c
000002b0: e05f febd c6c5 97bd 4d2a 1a3d 3b5d 893c
000002c0: 7471 e3bd 4f8c 363d 2059 843d 1584 cabd
000002d0: 833f 55bb 263c f7ba 17f6 aebc 19c9 e5bc
000002e0: c094 a93c 8837 f9bd a4c6 5b3d 153d 573d
000002f0: 8162 72bd 8657 503b 14ff 90bd 2e19 2dbd
00000300: 1197 253c f20f 24bb 98a7 95bd 199c e0bd
00000310: cc87 bcbd e95d a73c f3f0 c7ba 8feb eabb
00000320: 0327 41bd acaa e6bd 3a72 383a 43a4 9ebc
00000330: 5cf4 143d 1bda 33bd c7b2 2c3b c3a9 78bd
00000340: b04c 033c 81f3 783b 82dc bb3d 6686 a23b
00000350: f02f 953d a05e e3bc 3f00 f53d 4fb6 f6b9
00000360: f7ac 323d f722 15bd 33fc c2bd e862 d4bd
00000370: 4bb5 88bd 8bfc 973d 8342 fa3b a73a 04bd
00000380: 90d5 93bd 60da c2bd 5d05 ae3d 6dee 873d
00000390: 792e 083d 6c6b 6dbd 0310 683d 112a a5bc
000003a0: 332c 953d a022 c93d 34da 89bd 4154 903c
000003b0: 4213 c63d 03cc d7bc 7182 c4bd 1766 ed3d
000003c0: 65db 3cbd a06d 2c3d 7df9 d43c bd39 a03d
000003d0: fc4e 9e3c 20a0 6a3d c7ff 06bc dac7 823d
000003e0: defd c03d e44c 4ebd a65f 24bd e97f b0bc
000003f0: 06fc bbbd c848 ddbb d3ab 63bd aff4 e73c
0.05706441 0.010371503 0.01382859 0.09935548 -0.011184073 0.06459543 -0.026201403 0.09760745
-0.07932369 -0.05948142 0.02158634 -0.048143055 0.09166118 0.046424884 -0.07679198 0.061545283
-0.086311966 -0.061273493 0.03681676 -0.058976594 -0.05678209 -0.061311044 -0.012584835 0.06391813
-0.057814382 -0.0064042383 -0.22822416 -0.0027474125 0.08477525 0.03827987 -0.049681656 0.015847964
0.03430518 0.0566282 0.075916044 -0.028593898 -0.036448162 -0.054871272 -0.050501015 -0.08513061
0.020218723 -0.021213897 -0.09168141 -0.043135174 0.043865208 -0.028637739 -0.011173318 0.07919579
0.038357176 -0.017548779 0.04681073 0.07048924 0.061419938 0.06837633 0.020433484 -0.095768034
0.046839878 -0.057616312 -0.039364193 0.024755463 -0.030369192 -0.018806837 0.017318774 -0.042540427
-0.017709062 0.004509925 0.0048152492 0.0045557194 0.018671652 -0.08411176 -0.0012382442 -0.031882264
0.014722388 0.09048993 -0.0226928 -0.021604754 -0.009479273 -0.048006244 0.0188849 0.10104753
-0.01999053 -0.072920755 -0.054436743 -0.12752831 -0.0663071 0.10587867 0.0010134608 0.009800323
-0.04409082 -0.089509495 0.020447182 0.06670643 0.012262668 -0.056460533 0.07629148 0.07843528
0.07636505 -0.117924154 0.0924289 -0.017143521 0.043004654 -0.08628611 0.08934652 0.040760126
-0.081198 0.07943846 0.016729042 -0.01896126 -0.036314778 -0.035449576 -0.030171718 -0.039185867
-0.0071191145 0.09186321 0.004581897 -0.022285236 -0.032926884 -0.080191314 -0.029129876 -0.07967242
-0.078211606 0.049433388 -0.024994148 0.022642832 0.07852485 -0.032254696 -0.0274636 0.13216414
-0.035507146 0.12865236 0.023909405 -0.011060405 0.0011014821 -0.05706114 -0.046711817 -0.08415007
0.10106935 0.037571926 0.043905634 0.09769372 -0.049357645 -0.04860719 -0.1172112 0.06905762
-0.08170673 0.16340092 -0.054336123 -0.11612699 -0.12289766 0.031276025 0.0480395 -0.06936635
0.03354718 0.033427283 -0.061175585 -0.07056428 -0.018027674 -0.024633404 0.1288026 -0.0072168633
0.03817004 -0.076006584 -0.026974363 0.025403777 -0.04145551 -0.0093631 0.082042105 0.06960838
-0.01181026 -0.049069222 0.014794029 0.007854862 -0.124206305 -0.07410769 0.037637997 0.016768089
-0.11105624 0.044567402 0.06462312 -0.09888474 -0.0032539077 -0.001886253 -0.02135758 -0.028049992
0.020700812 -0.12168795 0.053656235 0.052548487 -0.059175972 0.003179045 -0.07079902 -0.04226034
0.010106818 -0.0025033918 -0.073073566 -0.10967273 -0.09205589 0.020430522 -0.0015254304 -0.007169194
-0.047156345 -0.11263022 0.0007036064 -0.019365435 0.03636585 -0.043909173 0.0026351677 -0.060708772
0.008013889 0.0037986937 0.09172918 0.004959869 0.07284534 -0.027755082 0.119629376 -0.00047056607
0.043621983 -0.0364103 -0.095207594 -0.10370427 -0.06675204 0.074212156 0.0076373233 -0.032282498
-0.07218468 -0.09514308 0.08497117 0.06637273 0.033247445 -0.057963774 0.056655895 -0.02016166
0.07283821 0.09821057 -0.06731072 0.0176183 0.09671642 -0.026342398 -0.09595192 0.11591738
-0.04610767 0.042096734 0.025997872 0.07823513 0.019324772 0.057281613 -0.008239693 0.06385775
0.09423421 -0.050366297 -0.04013028 -0.021545367 -0.09178929 -0.006753061 -0.055583786 0.028314916

weight_hh_l0 f4 [512, 128]
00000000: 40a9 183d 9e10 513d e701 363d 81a5 60bd
00000010: 26b6 ce3c 96e9 d63d 5c80 733d bbea 8abd
00000020: d4c7 5a3d b77e 9b3c 5f3a 5bbb f5ad e63d
00000030: 7c8a 63bc 85f6 2cbc d6e9 cf3d 3b00 a53c
00000040: 268e da3d 6eb5 41bd b0e8 833d 8483 a83c
00000050: fc4f 0bbd 724b 44bc 491f b5bd 1f8f 2c3d
00000060: 4842 69bd 2728 ddbd 1d8c a9bd 492a 023d
00000070: 4f73 79bd 0bbc 423c 50ff b3bd f7cb c2bc
00000080: ba10 453d f41f aebc 0af9 3f3c 235e 62bd
00000090: 83db 07b9 01be 993d ba39 a7bd b23e 69bd
000000a0: e31c 703d 9eed 4a3d 6081 7f3c 2e55 51bd
000000b0: 793c 96bd 3f7d 2cbd 474d 36bd 55b5 4b3c
000000c0: 4957 32bd c013 533d 4535 7f3d 9b8f 1fba
000000d0: be02 a03d da56 bcbc 3064 19bd 524b 48bd
000000e0: d1b2 653b 13ec d0bd b123 2fbd 01d4 85bd
000000f0: d3e2 273d d69d bc3d 9378 313d 3100 13bd
00000100: 17e0 5b3c 3894 2bbd 5d12 6a3c 37ad f13c
00000110: a0fb 8dbd 42ba b4bd 3270 1e3d dcc4 20bd
00000120: 6717 77bd eaa9 133d a8f9 12bd 77f6 023d
00000130: 464e b5bc f63a 11bd 7c58 483d 4802 113d
00000140: f40f 5ebd b017 f73c 6135 643d b98b 423d
00000150: 955b a4bd 98cf a83d dd8a 813a 3bfe 4d3c
00000160: aaf8 eebd 7b52 0a3e dba7 9cbd 2dcb f23c
00000170: 38a7 5f3c a5cf 2cbc 64a8 cb3c 3183 eaba
00000180: 1013 5fbd 99e5 683b 3742 083d 81c7 adbd
00000190: b87f 8dbd 7305 a0bd d984 7b3d e3b2 90bd
000001a0: ff00 2ebc 1d91 893b 62d7 563d 3376 cfbb
000001b0: db63 f73b 0ebc f7bc ae7b 453d ee80 e93b
000001c0: 5c9b b0bd 74ae 6e3c b26c 863d 25a5 883d
000001d0: c970 41bd 099d 443d 47cb 42bd bc18 8d3d
000001e0: 85d9 cb3b e1f8 8d3d a4b3 ca3d 0717 4fbc
000001f0: 72a8 84bd a3b5 dabc 79be 3fbc dd97 6fbb
00000200: 79b0 e6bc 9621 bb3c c981 c53d 952a 953c
00000210: c943 a2bd bd63 01bd a996 6f3b 495c a33d
00000220: 2a0a 53bd 0e07 833b 8812 6abc d52f 923c
00000230: e30b 893d 2842 a33c 47d8 0c3d 8869 c3bc
00000240: d69d 293c 9295 a4bd 9223 523c aac8 65bd
00000250: 8ea8 ab3c 175c 9b3c f487 cf3d 0127 dc3c
00000260: ae76 b83d 07e9 7abd 1dde 47bc a9e6 90bd
00000270: 7123 1c3d a53c f4bc 425f 433c ebc8 f9bb
00000280: 8c2f fcbc f025 bf3d 85c4 7f3d 98aa eebc
00000290: 190d 8fbc 353f b2bd 77b2 4dbd 749a b4bd
000002a0: ee16 9cbd 2b72 0b3d 26f2 b73d dd6a 77bd
000002b0: 0f33 36bc 5ae8 8a3b ae65 b7bd e4a7 713b
000002c0: 33fc c93d ebab b43d 10ed 8fbc 3ad4 163d
000002d0: 8923 20bd 5ada 2cbc 76b1 c73d 5071 8c3d
000002e0: da6b 8a3d 8c49 8f3d 4ea4 543c 5333 97bc
000002f0: 43a9 523d ea5d 90bd 21a3 2cbd ef6f 793c
00000300: 728c 95bd 839b 893d f1cf 64bc babe 01bd
00000310: 7940 8bbd 2dd1 97bd f1d4 33bd 2bd8 b6bd
00000320: 874f 323d 1cbe 8f3c 801f 7cbd 79a3 033d
00000330: e60c a1bd 8dec 303d a22e cebc 99fe 5f3d
00000340: 6f64 693d a6f4 b1bd 1a7e 40bd 6039 20bd
00000350: cf3e d03c 723a b53c f0dc 2dbd cc79 353a
00000360: e228 1cbd 53f1 b73c b42b 6dbd 4967 bd3c
00000370: 18da 963c 032e 55bb 649b 03bd 7a38 28bc
00000380: 8c13 5ebd ccd9 22bd 07e4 ce3d 6a12 89bd
00000390: b8c0 a23d 6670 8f3d 9db9 99bd 7b4f 57bd
000003a0: e4ce bbbc 1abc debc 1107 cebb 8e39 babb
000003b0: 50fa 123d ffbf 78bd 71cf 4f3d 3b66 2e3d
000003c0: 0c99 983d b1ce 57bd 270a 43bd 68e8 813d
000003d0: 67e8 7fbd 2752 f0bc 9725 acbd efac cfbd
000003e0: 6e4a 223d d109 3a3d 50c0 9fbd 2869 373d
000003f0: c6e5 e53d 4353 cdbc ae99 c93b ae9f 953d
0.037270784 0.051041238 0.044435408 -0.054845337 0.02523334 0.10493772 0.059448585 -0.067830525
0.053413227 0.01898132 -0.003345154 0.112636484 -0.013887998 -0.010556822 0.101520225 0.020141711
0.10671644 -0.047292165 0.06440866 0.020570524 -0.034011826 -0.011980878 -0.08843858 0.04212868
-0.056947976 -0.10798674 -0.082786776 0.031778608 -0.060900982 0.011885653 -0.08788931 -0.023778899
0.048111655 -0.02125547 0.01171709 -0.055265557 -0.00012956378 0.075069435 -0.08165307 -0.056944557
0.0586213 0.049543016 0.01559481 -0.051106624 -0.07335753 -0.04211163 -0.04450729 0.01243337
-0.043540273 0.051532507 0.06230666 -0.00060867675 0.07813023 -0.022990633 -0.037449062 -0.048899956
0.003504921 -0.102012776 -0.042758647 -0.06534577 0.0409878 0.09209792 0.04332788 -0.035888854
0.013420126 -0.0418894 0.014286605 0.02950154 -0.06932759 -0.08824588 0.038681217 -0.03925024
-0.060325053 0.036050715 -0.035882622 0.03197333 -0.02213205 -0.03545662 0.04891251 0.035402566
-0.054214433 0.030162662 0.05571497 0.04749653 -0.080252804 0.0824272 0.0009883303 0.01257282
-0.11668523 0.13508026 -0.076492034 0.029637897 0.013650708 -0.010547553 0.024860568 -0.0017891881
-0.05446154 0.0035537241 0.033266272 -0.08485318 -0.06909126 -0.07813539 0.06140599 -0.0706537
-0.010620355 0.004198207 0.0524515 -0.006331229 0.0075497455 -0.030241039 0.048213653 0.0071259653
-0.086233824 0.01456796 0.06563701 0.06672124 -0.0472267 0.048001323 -0.04755714 0.06889483
0.0062209987 0.069322355 0.09897545 -0.0126397675 -0.06477441 -0.02669794 -0.011703127 -0.0036559023
-0.02816032 0.022843163 0.09643895 0.018208781 -0.07923085 -0.03158926 0.0036558306 0.07976586
-0.051523365 0.0039986437 -0.014286645 0.017845074 0.0669172 0.019929007 0.034385946 -0.023854032
0.010352572 -0.08036341 0.012825863 -0.05609957 0.020954397 0.01896481 0.10133353 0.026874067
0.09007011 -0.06125739 -0.012198952 -0.07075245 0.038119737 -0.029814074 0.011924567 -0.0076228282
-0.03078439 0.09333408 0.062443275 -0.02913408 -0.0174623 -0.08703462 -0.050219025 -0.08818522
-0.07621561 0.034044426 0.08981733 -0.060404647 -0.011120572 0.0042391242 -0.08954941 0.0036873752
0.09862556 0.08821853 -0.017569095 0.03682349 -0.03909639 -0.010550106 0.09750645 0.0685755
0.06758852 0.0699645 0.012978626 -0.01845709 0.05143095 -0.07049163 -0.04214776 0.015224441
-0.073021784 0.06719115 -0.013965593 -0.03167603 -0.067994066 -0.07412944 -0.04390425 -0.089279495
0.043532874 0.017546706 -0.06155348 0.03213832 -0.07863788 0.043194342 -0.02516872 0.054686163
0.056980547 -0.08689241 -0.04699526 -0.039117217 0.025420574 0.022122595 -0.04244703 0.0006922751
-0.038124926 0.02245394 -0.057903007 0.02312054 0.018414542 -0.0032528646 -0.032130614 -0.010267371
-0.05421786 -0.03975849 0.101020865 -0.06692965 0.079469144 0.0700386 -0.07506106 -0.052566033
-0.022925802 -0.027189303 -0.0062874635 -0.0056831306 0.035883248 -0.060729977 0.05073494 0.042577963
0.074510664 -0.05268735 -0.047617104 0.06343156 -0.062477496 -0.029336048 -0.08405607 -0.10140406
0.039621763 0.045419518 -0.078003526 0.04477802 0.112254664 -0.025064116 0.0061523532 0.07305847

bias_ih_l0 f4 [512]
00000000: b066 d13c 65b0 9a3c f117 1c3d 4189 fcbb
00000010: 139b 88bd 8e58 c3bd 8d8e a63c db4d 85bd
00000020: 3b5d f33d 1c92 be3c f72a acbb 5cfe 013d
00000030: 22fb 503d c08e 683d 036b ab3a 0381 35bd
00000040: 0152 2a3d daa4 393d c561 19bd b357 fc3a
00000050: 525f 3e3c 4684 d2bd cb0f 073b 15e6 bb3d
00000060: 2e67 96bb 4371 4abd 4245 b5bd c0f9 aabd
00000070: 17b3 0fbd b72f 043d 17b1 fbbc bc16 02ba
00000080: 975f 653d 1952 763d 38f4 3f3d f773 c43d
00000090: c539 4d3b 0bde 08bd 8f9b d33d a120 76ba
000000a0: e21f d13c 1e0f 12be d08a af3d 88d7 d0bc
000000b0: e2d6 3e3d 5bac adbb 17ef db3d 829a edbc
000000c0: 55c1 f23c e80e 7ebd 4b4b a93d 5f89 f93d
000000d0: e22b 00bd 57bf 3b3d e9e1 cdbc e036 083d
000000e0: aba4 3dbd b4b9 403d 35f8 b7bd 8b60 d0bc
000000f0: 13e1 89bb 0e90 0a3d c9e3 a63c 190c 223d
00000100: 2561 353d 598a 833d 9e65 263d 1de1 e1bb
00000110: f897 153d e59d 01be 8aa8 b53d f20d fdbc
00000120: a6a3 40bc 05df 043e 24ef 9cbc 4226 ac3d
00000130: a5da f0bb cdff 813d 9f39 a8bd 7eef 9d3d
00000140: c995 38bd c1e8 fabd 2c71 913d 4ed4 59bd
00000150: b93f 49bd b467 543d 8147 23bd 6d4c c13c
00000160: 0cb5 7bbc 4169 a9bd 5e43 12bd c41e 483c
00000170: 29c8 a53d b1ac 93bc 0278 1fbe 0466 a33c
00000180: b04a 2f3e 844f 27bd f5cc adbc 3fef a9bc
00000190: 7186 49bd dfde 3ebd 6d22 01be 276d ddbd
000001a0: a470 8c3d 36c8 eebc 7bfb 683d 2bc2 983c
000001b0: abce fb3d 5e02 493d 080c 94bc 6236 043d
000001c0: 881d 36bd 0e4b 93bc f6c2 82bd 55e7 9bbd
000001d0: a49d 2cbc a457 a43d 5a27 4cbd 3f16 cc3d
000001e0: bc82 1cbd 885c 773d ac30 3e3d ba50 f23d
000001f0: 083b 98bd 85fc a63d c6b4 cebb f586 b8bd
00000200: 7d19 31be 37d2 b03d 2e10 f4bd ce73 d1bd
00000210: de68 cf3c c66d 613d 241d c5bc e364 f5bc
00000220: cd64 b6bd fc88 babd 3eee b9bd 180e 61bd
00000230: cb52 33be 9882 50be 33cb 25bd 39f7 cabd
00000240: 2530 04be b51b 9bbd 9012 54bd 3938 08bd
00000250: c9b5 49be 95a9 27bd 906f 17be 592f 86bd
00000260: 1ff1 933c f070 aebb c43e f4bc 7f53 843c
00000270: b008 213c 05ea 4bbc dff2 55bd 6068 c5bd
00000280: bd36 05be 2c06 1ebe e2eb 29be bf62 8dbd
00000290: bfc3 31bd e4c2 f7bd bcf2 42be 25b8 fbbd
000002a0: bfff fcbd 92a1 ebbc 1270 d4bd 4230 00be
000002b0: e251 85bd 79d9 bb3c 44e8 10be 7406 a3bd
000002c0: dca0 a7bd 30cc a6bd 0159 b9bd 96eb 52bd
000002d0: e0ed 553b 22ab 97bd 7cef 76bc eafc 1e3d
000002e0: e35e cdbd 0eb7 cfbd 3aac c1bd a155 10be
000002f0: 50df af3b 7360 42bd 640c 98bd 8273 23bd
00000300: f24c cebd 6094 a9bd 83c2 20be 06ab 8ebc
00000310: d2bc 68bd 559f c1bc 81cc 1fbd 6cb3 9ebd
00000320: 74dc 81bc 9864 38be 70b5 ecbd ceae 9bbc
00000330: 173a 97bd afd9 4bbe ad22 203d 9b22 85bd
00000340: e86b 1bbe cf18 fbbd 50f2 8dbd 4080 8b3c
00000350: f027 eebd eee1 33bd 3ee4 54bd f4bd 19bd
00000360: 500b d3bd c209 e9bd c97f c93c 0926 11be
00000370: bcd0 533d 68cb 77bd caa3 4fbd 26ac f6ba
00000380: c6c2 68bd f50c 2cbe 9eba c4bc aada d1bc
00000390: 9d52 33bd 02cf 63bb 0504 54bb 556f d1bb
000003a0: 9e6d ae3a d2a6 1dbc 0cb2 eebb bda8 37be
000003b0: 246e ecbd 91e8 aabd 7605 e1bc 151e dfbd
000003c0: 3a1b 07be 28b0 f9bc 5daf 8abd 8421 2cbe
000003d0: 05d5 393d ecad 3bbe b9b9 bbbd fb29 c1bd
000003e0: cd30 eabc c894 53bd 96ec dcbd eb79 04be
000003f0: db22 e8bd 3308 8cbd aa1c adbd 78f6 82bd
0.02556166 0.01888294 0.03810877 -0.0077067916 -0.06670203 -0.09538375 0.020331645 -0.065089904
0.11883017 0.02326303 -0.0052541452 0.031736717 0.05102075 0.056776762 0.0013078157 -0.04431249
0.04158211 0.04532323 -0.037446756 0.0019252211 0.011619406 -0.102791354 0.0020608779 0.09174744
-0.0045899367 -0.04942442 -0.088511005 -0.08348417 -0.035082903 0.032272067 -0.030724091 -0.0004962494
0.055999365 0.06013689 0.046863765 0.09592431 0.003131495 -0.03341488 0.10332405 -0.00093890174
0.025527898 -0.14263579 0.08571398 -0.025493398 0.046591647 -0.0053000874 0.10738962 -0.02900434
0.029633204 -0.062025934 0.08266314 0.121844046 -0.03129185 0.045836773 -0.025132136 0.033255458
-0.046299618 0.0470521 -0.089828886 -0.02543666 -0.004207739 0.033828788 0.020372288 0.03956232
0.044282097 0.06422872 0.040624253 -0.0068932907 0.03652188 -0.12657888 0.08870037 -0.030890439
-0.011757767 0.129757 -0.019157 0.084057346 -0.007350283 0.06347618 -0.08214115 0.07711695
-0.04506472 -0.122514255 0.07101664 -0.053180985 -0.049133036 0.05185671 -0.039863113 0.023596013
-0.015362989 -0.08272029 -0.035708778 0.012214366 0.08094818 -0.018026682 -0.15573123 0.019946106
0.17118335 -0.040847316 -0.021215895 -0.020743964 -0.04920048 -0.046599265 -0.12610789 -0.10811835
0.06857422 -0.029148202 0.056880455 0.018647274 0.12295278 0.049074523 -0.018072143 0.032278426
-0.044461757 -0.017980125 -0.06384842 -0.076124825 -0.010535631 0.080245286 -0.049842216 0.099651806
-0.038210616 0.06039098 0.046433136 0.118318036 -0.07433134 0.08153633 -0.006308171 -0.09010116
-0.1729488 0.08633845 -0.119171485 -0.10227166 0.02531856 0.05503633 -0.024061747 -0.029955333
-0.08905945 -0.09108159 -0.09078644 -0.05494508 -0.17512052 -0.20362318 -0.04047699 -0.09910435
-0.1290899 -0.07573644 -0.051775515 -0.033256743 -0.19698252 -0.04093321 -0.14788651 -0.065519996
0.018059311 -0.005323522 -0.029815085 0.016153095 0.009828731 -0.012445931 -0.052233573 -0.096390486
-0.13009162 -0.15432042 -0.16593888 -0.069036 -0.04339957 -0.12097719 -0.19037908 -0.12290982
-0.12353467 -0.028763566 -0.10372938 -0.12518409 -0.065097585 0.022930847 -0.14151102 -0.07960215
-0.08184978 -0.081444144 -0.09050179 -0.051494204 0.0032643005 -0.07405688 -0.015071746 0.038815416
-0.10027864 -0.10142337 -0.09456678 -0.14095165 0.005367197 -0.047455262 -0.07424238 -0.03990508
-0.1007327 -0.082802534 -0.156992 -0.017415535 -0.056820698 -0.023635546 -0.03901339 -0.07749066
-0.01585219 -0.18007123 -0.11558044 -0.019004252 -0.07384127 -0.19907258 0.03909557 -0.06500741
-0.15177882 -0.12260591 -0.06930983 0.017028928 -0.11628711 -0.043916635 -0.05197548 -0.03753467
-0.10304892 -0.11378814 0.024597066 -0.14174666 0.051712736 -0.060496718 -0.05069331 -0.0018819615
-0.056826375 -0.16801818 -0.024014767 -0.025616962 -0.043779958 -0.0034760837 -0.0032351029 -0.0063914456
0.0013307815 -0.009622293 -0.0072844084 -0.17935462 -0.11544445 -0.0834514 -0.027468424 -0.108944096
-0.1319398 -0.030479506 -0.06771729 -0.1680966 0.045369167 -0.18328065 -0.09166283 -0.09431835
-0.028587723 -0.05165556 -0.10787313 -0.12937133 -0.11334773 -0.068375014 -0.08452733 -0.063946664

bias_hh_l0 f4 [512]
00000000: 572b b8bc e1d2 be3d a731 f5bd fb9e 6dbc
00000010: 092b a5bd 3540 56bc 7c43 16bd c794 dabd
00000020: 8eeb 9fbc d456 a73c 7e4e 8c3d 32e6 443d
00000030: 2277 cbbc ce15 41bc 5a5a b7bd 4592 febc
00000040: 4aa4 f33c bd62 973d 4225 7e3d 1fe1 903a
00000050: 8104 d23c 2541 8fbd 13d6 16bd 1110 0f3e
00000060: 6f33 aabd a9ff e2bc fc79 76bd ac63 ecbc
00000070: 0c17 98bc 08d3 bfbc 2f08 8dbd d18b 383d
00000080: 3a28 2ebd 1c66 f63d 4b94 3bbd 7bfb 2a3d
00000090: d548 db3b 86e3 a7bd 9a41 31bc 64e0 aabd
000000a0: 6e4d b43d c3fb 17bd 9258 5f3d 2ae8 0f3d
000000b0: aed2 d7bc 5b6f fd3b cfde f83d a5cf 7d3d
000000c0: 2b67 b0bd f285 683c 0b47 42bd 2392 25bd
000000d0: 353c dfbc 5685 1ebd 0d69 98bd 54db 3f3c
000000e0: dff2 83bd 9ade 0cbd cda8 123c d476 9e3c
000000f0: 32a0 5eba 9cad 753d 8c52 263d 7065 b43d
00000100: bc39 0cbd 303c 8e3d 5d1b d7bc 781e 893d
00000110: 0de5 f7bc a860 babc 916c 243d 33b7 13bd
00000120: bf27 513d 1e1a 04bc 66f1 403c 2659 ebbb
00000130: 4286 b4bd 091f 513d 8e03 823d 6b06 cdbc
00000140: f818 283c 9834 d2bd 2993 943d 3dea 163d
00000150: f018 8f3d 0fc1 45bc a1cc 403d d91d 853d
00000160: 4ed0 63bd 5727 d9bd 4fb9 ee3c 2ac2 acbd
00000170: 68c6 af3d cbb1 913d ae82 74bd 3132 a5bd
00000180: b649 993d cb47 9cbc d418 a23d e580 853c
00000190: cb0c 2dbd d1f1 76bd dcf5 57bd 3763 683d
000001a0: 5a42 bc3c 185d 0fbd 0ed1 ccba 1b8e c43d
000001b0: ba27 c53d fe35 c5bd 3c55 673a c3a0 4d3d
000001c0: 2acf 873d e2cf 2c3d d54c d03c 35e5 28bd
000001d0: 3f33 97bd 70f1 51bd 9a5f b0bd 65b8 863d
000001e0: 49cd 9fbc 7431 97bd ad95 d23b 7f6b 023e
000001f0: b96d a53d 93d4 01bc 9f0b b2bc 451d 52bb
00000200: 27ba 20be 1332 f53b 81d0 fabd 27a3 7cbc
00000210: a53d 16bd 85c4 f93c 0d78 1ebe d5c0 813b
00000220: a88f 1fbe 9620 04be 281e 4cbe 2766 8abd
00000230: 8a82 dabc 4cbc 0ebd 2390 4d3c 3e2a acbc
00000240: 3b99 19be 8e13 eebc 1c7e 833c 0c1e 0ebe
00000250: 949e 8bbd dfaf e4bc e5a3 bfbc 1c90 4ebe
00000260: c426 503c a37c 07be 3a43 37bc eb0c 5b3a
00000270: c365 2d3b 07a9 763c 81d8 b7bc ef10 f7bc
00000280: 3756 86bd 0265 adbd 7cf5 08bd 65f4 22bd
00000290: 15e7 ddbd b63e 1bbd 4eb0 98bd c915 5a3c
000002a0: 537d 06be 8519 21be 39b2 1f3c 9b42 bcbd
000002b0: 7818 31bd 33e7 b9bc fd2d 11be c149 02be
000002c0: fb82 de3b eeb7 5bbd 1ea0 b7bd 26c4 51bd
000002d0: df32 e0bd 0bda 5a3c f182 f8bd 2bcb 17bd
000002e0: f926 2bba 5374 3bbd d891 51bc a5f7 f1bc
000002f0: 9046 51bd 487b 33be 0f6a b7bd d173 67bd
00000300: 1bcb 44be c8a3 9fbc 3020 57be 18d3 99bd
00000310: 53a2 83bd 6f52 4bbd 7510 61bd 938c 1dbe
00000320: 0771 52bd 18ff 63bd 1a38 e1bd 3189 3bbd
00000330: bc57 c0bd 0c06 4ebe 6426 9abd c028 08be
00000340: 7101 1fbe b549 93bd 4f21 3dbe 78da 05be
00000350: 2782 4c3c c38a c2bb aee5 87bd 68c4 36be
00000360: 09f6 18bc 8725 94bd abcf 8bbd bf02 5abd
00000370: 59c6 af3c 88c1 19be 5fef caba 1a16 a6bd
00000380: 58cd 1abe c1fa 94bd 0aaa adbd f2b3 be3b
00000390: 9c53 23bd 8d6c 3cbc 218c f43c 013a 2fbe
000003a0: f653 02be e666 0cbe 62ce 38bd 7218 20be
000003b0: b316 d6bd c744 b9bd 0649 0abb c2d7 46be
000003c0: f86f 003c fceb 33be 160c 69bd c432 ebbc
000003d0: 3f24 5d3d ba7d cfbd 35bf 633c bebd acbd
000003e0: 882b 0bbe 9704 1cbe 42d1 d73c 187e 07bd
000003f0: 3fd1 30be 3ec0 11be 2704 66bc 85f5 f7bd
-0.022481604 0.09317566 -0.11972361 -0.014503236 -0.08064849 -0.013076832 -0.036685452 -0.10672908
-0.0195215 0.020427145 0.06850909 0.048071094 -0.02483708 -0.011784984 -0.0895278 -0.031075606
0.029741425 0.0739188 0.06204725 0.001105342 0.025636913 -0.06994847 -0.03682525 0.13970973
-0.083105914 -0.027709799 -0.060174927 -0.028856121 -0.018565677 -0.023416057 -0.068863265 0.045055214
-0.04251883 0.120311946 -0.04579572 0.041743737 0.006692032 -0.081976935 -0.010818863 -0.0834358
0.08803831 -0.037105333 0.054527827 0.03513352 -0.026345577 0.007734222 0.12151872 0.061965603
-0.08613428 0.014192091 -0.047431033 -0.04042257 -0.027250389 -0.038701378 -0.07441912 0.011710007
-0.06442808 -0.034391977 0.008951378 0.019343771 -0.0008492499 0.05998002 0.040606067 0.0880841
-0.034234747 0.069450736 -0.026258165 0.066952646 -0.030260587 -0.022751167 0.0401426 -0.036063384
0.051063295 -0.008062867 0.011776304 -0.007182258 -0.0881467 0.051054988 0.06348334 -0.025027474
0.010259859 -0.10263938 0.07254631 0.03684448 0.06987178 -0.012069955 0.04707015 0.064998336
-0.055618577 -0.106032066 0.029141096 -0.08435471 0.08582765 0.071139894 -0.05969494 -0.08066214
0.07484762 -0.019077202 0.07914892 0.016296813 -0.04224853 -0.060289208 -0.052724704 0.056735244
0.022980858 -0.03500089 -0.0015626268 0.09597417 0.09626718 -0.09629439 0.00088246516 0.050202142
0.0663131 0.04219044 0.025427261 -0.041234214 -0.07382821 -0.051255643 -0.086119846 0.06578139
-0.019507067 -0.07382479 0.006426534 0.12736319 0.080775686 -0.007924217 -0.021734057 -0.0032060903
-0.15696011 0.007482776 -0.122468 -0.015419758 -0.036679883 0.030489216 -0.15475483 0.003959755
-0.15582144 -0.12903056 -0.19933379 -0.06757765 -0.026673574 -0.034847543 0.012546572 -0.021016236
-0.14999859 -0.029062059 0.016051345 -0.1387865 -0.06817356 -0.027915893 -0.02339358 -0.20172161
0.012704555 -0.13231139 -0.011185462 0.0008356112 0.002645836 0.015054948 -0.022442104 -0.030159442
-0.06559413 -0.08466531 -0.033437237 -0.039783854 -0.10835091 -0.037901603 -0.074555025 0.013310858
-0.13133745 -0.15732391 0.009747081 -0.091923915 -0.043236226 -0.022693252 -0.141777 -0.12723447
0.0067905164 -0.053642206 -0.08966087 -0.051212452 -0.10947203 0.01335765 -0.1213435 -0.03705899
-0.00065289397 -0.045765232 -0.0127911195 -0.029537031 -0.051092684 -0.17527497 -0.08955776 -0.056506936
-0.19218104 -0.019487277 -0.21008372 -0.07510966 -0.06427445 -0.04963916 -0.054947335 -0.15385656
-0.051377323 -0.0556632 -0.10997029 -0.045785133 -0.09391734 -0.20119494 -0.07526854 -0.13296795
-0.15527894 -0.07191793 -0.18469737 -0.1307162 0.012482203 -0.005936952 -0.06635605 -0.1784836
-0.009336003 -0.0723372 -0.06826719 -0.053225275 0.021456884 -0.15015233 -0.0015482715 -0.08109684
-0.15117395 -0.0727439 -0.08479698 0.005819791 -0.039874658 -0.01150049 0.029851975 -0.1711197
-0.12727341 -0.13711128 -0.045118697 -0.15634325 -0.10453548 -0.09046321 -0.0021100654 -0.19418243
0.007839195 -0.1757049 -0.05689629 -0.02871073 0.053989645 -0.10131402 0.013900568 -0.08434628
-0.13590825 -0.15236126 0.0263449 -0.033079237 -0.17267321 -0.14233491 -0.014039076 -0.12107376

weight_ih_l0 f4 [512, 128]
00000000: d240 d3bd ed37 183d ed3b d8bb b0c5 043d
00000010: cb38 04bd 49b9 343c 6dbb 2f3d 75b3 303b
00000020: 6850 e63c 2a5c 01bd eb63 b23c e173 203d
00000030: 5274 d93c 2785 b13b 4f83 323c 8c09 6a3d
00000040: 05bf a3bb deb8 d8bc dcd0 b53c 5148 6bbb
00000050: 671a 9abc c3f7 efbc 924f 38bb 2990 9d3c
00000060: cb1d 8a3d f62e 613c dc4d f93b d5a8 a0bb
00000070: 2aeb 18bd 9a5f a53d 9fe4 f13c 423d 8a3c
00000080: 15c9 21bb b497 0cbd 8cd1 89bd 10b3 483c
00000090: c912 d3bd 8638 8d3d f66b 903d cfe7 59bd
000000a0: 4fe0 1abd 011e 863d f9cc 8fbd a14c 213d
000000b0: 1dab f63d da9d a5bb 1e61 10b9 97d1 833d
000000c0: 6f64 64bd dc28 303d faf7 a33c 6780 24bc
000000d0: 1ca2 2d3d 2d97 1d3d 4846 983c 7836 67bd
000000e0: 9c30 69bd 0043 d6bc bbac 973d 68ae 8bbd
000000f0: 6705 833d 0930 42bd e236 52bc 8c62 863d
00000100: 14e9 143d d08c fabc 0c58 1e3c c108 583c
00000110: 9af1 df3c f64b 2b3d dee2 ab3c 28f7 903d
00000120: 5d8f e6bc 749f 0ebd fddd 3fbd b71f 493d
00000130: f8f5 163d 64f3 ac3d 0ec2 a7bd c7c4 8f3c
00000140: fda0 593c 3d0b a6bd 07f7 04bd 3fdf 5c3c
00000150: 7d07 26bd 5d57 3a3b 3239 80bc 09e7 923d
00000160: 0d02 a1bc 016a 763c 4efb 9e3d f116 403d
00000170: 0d12 ac3b 4dce 66bd 48f7 06bc 14d3 1bbb
00000180: 6d90 67bd 5bb9 1dbd 9d3d 85bd 4d49 0fbc
00000190: a582 dabd 56aa 9dbd ab12 52bd cedc b8bd
000001a0: 96f2 2a3d 7d28 a7bd 7737 46bd e0fb a23d
000001b0: 9eaf 083c 9360 153d a0c7 6d3d eb16 ed3d
000001c0: 60ad 59bd 0ca7 553d 4f55 3ebd 45a4 bc3a
000001d0: 0ba9 9cbd 3074 9dbd 17a2 483c dd30 97bc
000001e0: f75e 963d 3317 593d 87ed e8bb 7c22 a1bc
000001f0: 7b12 3a3c e712 6abd a425 ce3d f89c 283c
00000200: d218 1c3c b0df 9f3b 2fea 10bd bb76 8fbc
00000210: c792 433d 6dc2 fbbc 376d 3e3d 9bb5 ab3c
00000220: 1ac8 573c 2e42 303c 13ff ac3d c796 713c
00000230: 0b2f a0bd c40d c7bd 2d18 ffbc e008 8fba
00000240: 54ce c4bc 7263 4a3d a61a 7fbd ef11 a3bb
00000250: 115d c2bd 3b67 91bd 7216 673b e909 3e3d
00000260: c6aa 22bd 174d 063d 4c11 6bbb abbb 22bd
00000270: 8bad 82bd 3776 023d b439 bdbd 53d8 c63b
00000280: 1240 803c f38c 0b3d a52c 47bd e42e 233c
00000290: 96d0 80bc c935 813d b846 0a3d 196f a4bd
000002a0: 57f4 f9bc bd5a 87bc 5010 b5bd e14c 00bc
000002b0: 4e3b c93c 310b 17be d0bf 033d edd0 0cbc
000002c0: 4a99 13bd 94d3 0abd 0eb0 393b 82ec ed3d
000002d0: 09e3 b6bb e1d2 c7bd 27cb 5c3d 18e2 433c
000002e0: c202 253d c966 b83d f2c7 cbbd c52f b43c
000002f0: c2ab a73d 1b7e d63c c8f1 e43d a152 163d
00000300: b8c0 c7bd 2105 ba3c b38a 1ebd 5758 9b3c
00000310: b4f2 84bc aea6 c9bb cc42 17bd dd51 37bc
00000320: 1de8 20bd a40a e9bd e5cf 8f3c 4617 c038
00000330: 143c a2bc 26c3 f33c 50bf 2d3d cebf 9f3d
00000340: a194 b53a 16f4 183d 82e4 6a3d d941 3cbd
00000350: fc8c 93bc 09fb b23d 64f7 71ba 9e15 a43d
00000360: 2c5d 96bd 5a79 d1bc 9552 86bd cbcb f13c
00000370: 4556 b63c 6415 bdbb a6ab 22bd b4d8 653d
00000380: ba55 50bd 6d24 af3d ed82 bd3c a8aa dfbd
00000390: 3db4 9bbd 35c6 463c 97ee 3b3d 1f6d d6bb
000003a0: 720f b13d 624b 3d3d 6845 01bd c5ec 9f3b
000003b0: 351c 9dbc 1e9f d9bb 03e8 ebbc 60e2 8d3d
000003c0: cb21 91bd 6edf 72bd c3bb eebc baca 133d
000003d0: 97a1 94bd 47cb ed3d 8e63 04be d0aa c5bc
000003e0: 1e35 23bd 0df4 7b3d 488d 533d 11c5 17bd
000003f0: c5db 133c 1f2c 933d b4a3 0e3b b210 b53d
-0.10315098 0.03716271 -0.0065989406 0.032415092 -0.032280724 0.011030504 0.042903353 0.0026962433
0.028114513 -0.031582035 0.02177616 0.03917301 0.026544724 0.0054174843 0.010895564 0.05713801
-0.0049971365 -0.026455339 0.022194318 -0.0035901258 -0.018811418 -0.029292947 -0.00281236 0.01923378
0.06743964 0.0137441065 0.0076081585 -0.004902939 -0.037333645 0.08074875 0.02952796 0.016874913
-0.0024686505 -0.034324363 -0.06729421 0.012249723 -0.10306317 0.068955466 0.07051842 -0.053199586
-0.037811574 0.065486915 -0.07021517 0.03937972 0.12044356 -0.0050542178 -0.00013769089 0.064364605
-0.055759843 0.043007717 0.020015705 -0.010040379 0.042390928 0.03847425 0.0185882 -0.05644843
-0.056931123 -0.026154995 0.074059926 -0.06820375 0.06397515 -0.04740909 -0.012830468 0.06561765
0.036355093 -0.030584723 0.009664547 0.013185681 0.027336884 0.04182049 0.020982202 0.07078391
-0.028144533 -0.034820035 -0.046842564 0.04910251 0.036855668 0.084448606 -0.0819131 0.017549885
0.0132830115 -0.08107612 -0.032462146 0.01348096 -0.040534485 0.002843342 -0.015652273 0.07172973
-0.019654298 0.015039922 0.07762776 0.04689688 0.0052511753 -0.056349088 -0.008237667 -0.0023776935
-0.05653422 -0.038506847 -0.065058924 -0.008745504 -0.1066945 -0.076985046 -0.051287334 -0.0902649
0.041735254 -0.081620194 -0.04839274 0.079581976 0.008342652 0.036469053 0.058051705 0.11576637
-0.05314386 0.05216126 -0.046468075 0.0014392218 -0.0764943 -0.07688177 0.0122456765 -0.018455917
0.07342332 0.05300064 -0.0071083936 -0.019669764 0.011356945 -0.057146933 0.10065773 0.0102913305
0.009527402 0.0048789605 -0.035379585 -0.01751267 0.0477474 -0.030732358 0.046490874 0.02096062
0.0131702665 0.010757966 0.08447089 0.014745421 -0.07821473 -0.097194225 -0.031139458 -0.0010912679
-0.024024166 0.049411245 -0.062281273 -0.004976503 -0.09490407 -0.07099768 0.0035261181 0.04639617
-0.039713643 0.032788362 -0.0035868464 -0.039729755 -0.06380757 0.03185102 -0.092395216 0.0060682683
0.015655551 0.034069967 -0.04862656 0.00995991 -0.015724462 0.06309087 0.03375885 -0.08029003
-0.030512018 -0.01652276 -0.08841002 -0.007830829 0.024564411 -0.14750363 0.03216535 -0.008594734
-0.03603486 -0.033893183 0.0028333697 0.11617376 -0.005581264 -0.09757019 0.05390468 0.01195576
0.040285833 0.0900398 -0.09950246 0.021995435 0.08187057 0.026183179 0.111789286 0.036699895
-0.09753555 0.022707524 -0.038706493 0.018963022 -0.016229011 -0.006153903 -0.036928937 -0.011188951
-0.03928386 -0.11378983 0.017555187 9.1596085e-05 -0.019804038 0.02975614 0.042418778 0.07800256
0.0013853499 0.037342153 0.05734683 -0.045961235 -0.018011563 0.087392874 -0.00092302845 0.08011936
-0.0734199 -0.02557056 -0.0655872 0.029516121 0.022257933 -0.005770372 -0.039714478 0.056114867
-0.050863005 0.085518695 0.02313372 -0.10921222 -0.07602737 0.012132217 0.045881834 -0.00654377
0.08645524 0.04621447 -0.03156033 0.00488052 -0.01917849 -0.0066412827 -0.028797155 0.06927943
-0.070865236 -0.05929511 -0.029142266 0.036082007 -0.07257383 0.11611038 -0.12928602 -0.024129301
-0.03984558 0.06151204 0.05164841 -0.03705317 0.009024565 0.0718615 0.0021765055 0.08841075

weight_hh_l0 f4 [512, 128]
00000000: 2644 a4bd 21aa f33a a10e 09bd cae7 42bc
00000010: 2783 99bd 419a 173d 1956 20bd 7b76 a5bc
00000020: 7677 a23d 9c65 46bd 08bb 723d 8742 893d
00000030: ce66 8b3d e1a9 78bd ed50 0a3c 839e 143d
00000040: c415 a0bd 0ba3 633d 5654 89bd 2ad7 b7bd
00000050: d478 bd3d 9ddc 8d3d 4401 1a3d a6f4 2f3c
00000060: 0e5d 193d f5df 00bd 606e b53c 4fb0 b1bc
00000070: 2708 2a3d 0aea 7cbd 11fc 1d3a 2bb4 d53c
00000080: 6c34 8cbd 3e5a 39bd 12f3 cf3c 7e56 8e3d
00000090: 0b7e 1a39 66dc 5a3d 01e1 de3c 7a31 b33d
000000a0: c7c9 873c dd65 7fbc f445 15bd 8bad 193d
000000b0: 528c 4d3d d4cb 013d ec92 603d 38b1 533d
000000c0: 5e8c c0bc 5681 37bd 78e9 c2bc 2b6f 0a3d
000000d0: dfaa 973d be18 fbbb ebeb 1ebd 0699 d8bc
000000e0: d0d8 8bbd db28 8fbd 0cfc 6d3c 9e94 1ebd
000000f0: 6f9d 19bd 6f76 91bd 0c19 4abd c157 873d
00000100: 1bb1 21bd 0df6 63bd 0919 b2bc 9dbc abbd
00000110: 7992 e6bb c512 81bd 8997 8f3d 6c70 51bd
00000120: 6174 93bd 437a e1bb a173 2ebd 81b7 04bd
00000130: 79b7 71bd 079d 3e3d 279a 16bd a7a1 613c
00000140: 8154 053d 0fa2 b4bd bcf4 8b3d 0c7c 85bd
00000150: 9613 49bc 4508 e33b 199d 7b3d 4d20 85bd
00000160: 8c74 4f3d 51f2 3e3d 0bf5 cd3c baef 25bc
00000170: aaf3 0f3d 6bf6 f43c 1bc3 aa3d 498a c53c
00000180: 54a3 713d fd6f 1bbd f8cc 073d f9a4 4b3c
00000190: c892 a63d 52ae 8f3d 70e4 84bd 023b 71bd
000001a0: 895c 21bd b575 813d 757e 3f3d 8244 aa3b
000001b0: 5e29 923d 9fc1 87bd 2291 b6bb c80b 06bd
000001c0: 1613 993d bcb3 503d c9f6 843d c07f afbb
000001d0: c276 c33c 36ef 70bc 4723 413d 1cbd 22bb
000001e0: f478 03bd a5f5 9f3d 8cdc 9dbd a5b3 6abd
000001f0: a55c 1d3d dc12 cdba 79e4 ba3d 6cb8 89bc
00000200: 7686 dabc d927 7f3c 8a8f 5fbc bade 24bd
00000210: b282 4a3d 8117 a2bd 6723 52bb de89 94bd
00000220: f0cb 3ebd 052f 9cbd 2466 963d fa2d 89bc
00000230: 0ca3 7dbd 4c74 933d 2c83 e1bc 7884 08bd
00000240: 918b 79bd de25 a9bd a940 6d3d 1ce0 49bd
00000250: 0f26 5a3d 4906 943d c08f 1bbd 6bb0 a8bc
00000260: a2bf d1bc 418f 783d ca43 97bd cd36 893d
00000270: c53c 66bd 0903 933d 0228 36bd 0a25 08bd
00000280: 6a92 db38 8adf 903c b206 6dbd eb75 8c3d
00000290: fe72 233c ea03 5f3c eedc 7cbd 6e3e fcbb
000002a0: 2df2 89bc 3790 59bb d7bd 8bbd 38bf 64bb
000002b0: 9cb3 863d 08d2 7f3d c32d 1cbd 852f dc3c
000002c0: ed90 9a3d 36c9 bc3d 00bf 9cbd cd73 86bd
000002d0: e9a4 27bc b382 a7bd 9938 e5bc e847 173d
000002e0: 9e74 4e3d 5f44 13bd 4496 573d e3d7 1bbd
000002f0: 0ea7 ae3b 6e0c b33b be41 8dbd 89c7 a83d
00000300: e4d5 43bc 4435 293d 35a0 03bd a052 6e3a
00000310: f176 6e3d 4cba e03c 5b07 9fbd cb5f 0dbc
00000320: 9c4c 313c b543 99bd 435f e03c 589d bd3b
00000330: 3ff9 9b3d 2657 57bd 91dd 43bd 126e e8bc
00000340: 2453 913d 71ac 1abd d23f 54bd fb12 983d
00000350: f209 cb3d 1e2e 56bb 6ff8 203d 94ed 45bb
00000360: 9e97 803d 6114 0cbc c330 85bd 18b0 813d
00000370: 0968 47bd dd37 6ebd 449f 45bd 831d ec3c
00000380: 01bc 9abd 3ca9 79bd 1768 d1bb 548f 8c3d
00000390: 4aed aa3d 441f 2ebb bd8c a23d d5aa 4cbd
000003a0: bd5c d13b eba3 15bd 53ce 75bd ee37 4c3d
000003b0: defc c13d e82c 1c3d 091d 943d 3ea9 80bd
000003c0: b3d0 35bd 3e1a ee3b 3134 393d 8bb6 b2bd
000003d0: 566e 843d c4ab 933d d657 813c 5b3d b23c
000003e0: 023d f33c 9ed5 85bd 0f25 063d 016c 1b3d
000003f0: eb03 b73c 5089 24bd aa79 a63b 29be 8ebb
-0.08020811 0.0018590131 -0.033461217 -0.011896083 -0.074957184 0.037012342 -0.03914461 -0.020198097
0.079329416 -0.048436746 0.0592604 0.06702142 0.06806718 -0.060708884 0.008442146 0.03628398
-0.078166515 0.05557541 -0.06705539 -0.08976586 0.09251562 0.06926844 0.037598863 0.010739481
0.03744226 -0.031463582 0.022147357 -0.021690516 0.04151168 -0.061746635 0.00060266355 0.026086887
-0.06845936 -0.045252077 0.02538446 0.06950091 0.00014733539 0.053432845 0.0272069 0.08749671
0.016575707 -0.015588251 -0.036443666 0.03751902 0.050182648 0.031688526 0.054827616 0.05168268
-0.023504432 -0.04480108 -0.023792967 0.033797424 0.07405638 -0.0076628616 -0.038799208 -0.026440155
-0.06828463 -0.069902144 0.014525425 -0.03871595 -0.037503656 -0.071026675 -0.049340293 0.066085346
-0.03947554 -0.055654574 -0.021740453 -0.083855845 -0.007036504 -0.06302408 0.07011325 -0.051132604
-0.07199932 -0.00688103 -0.04259074 -0.032401565 -0.059012864 0.04653647 -0.036768105 0.013771451
0.032551292 -0.08819973 0.06833789 -0.06517801 -0.012272736 0.006928476 0.061429117 -0.065003015
0.050648257 0.04661781 0.02514126 -0.010127956 0.035144486 0.029902657 0.08337995 0.024113791
0.058993652 -0.037948597 0.033154458 0.012429469 0.08133465 0.07015671 -0.064888835 -0.058894165
-0.03939489 0.06321279 0.04675146 0.005196155 0.071367964 -0.06628727 -0.0055715004 -0.03272608
0.074743435 0.050952658 0.06492383 -0.005355805 0.02386034 -0.01470547 0.047152784 -0.0024831956
-0.03209777 0.07810525 -0.077080816 -0.05730023 0.03841843 -0.0015645879 0.09125609 -0.016811572
-0.026675444 0.015573465 -0.013645062 -0.04025147 0.049441047 -0.07914639 -0.0032064558 -0.072528586
-0.04658121 -0.07626156 0.073437005 -0.016745556 -0.06192307 0.07199916 -0.027528368 -0.033329457
-0.060924117 -0.08259176 0.057922993 -0.049285993 0.05325895 0.07227761 -0.037978888 -0.020591935
-0.025604073 0.060683493 -0.073859766 0.066999055 -0.056210298 0.07178313 -0.04447175 -0.03323845
0.000104700055 0.017684717 -0.057867713 0.068584286 0.009976147 0.013611773 -0.061734132 -0.007697872
-0.016839111 -0.003319753 -0.068233185 -0.0034904014 0.065772265 0.06245616 -0.03812958 0.026878128
0.07547174 0.092180654 -0.07653618 -0.06565056 -0.010232189 -0.08179226 -0.02798109 0.03693381
0.050404184 -0.035953876 0.05263354 -0.038047682 0.005329973 0.005464128 -0.06897305 0.08241183
-0.011952851 0.041310564 -0.032135207 0.00090912916 0.0582189 0.027432583 -0.07765075 -0.008628796
0.010821488 -0.07483617 0.027389174 0.005786579 0.07615899 -0.052573346 -0.047818724 -0.028372798
0.07095936 -0.03776211 -0.051818676 0.07425495 0.09914006 -0.0032681297 0.039299425 -0.0030201422
0.06278919 -0.008549781 -0.06503441 0.06332415 -0.0486832 -0.058158744 -0.04824759 0.028822666
-0.0755539 -0.06095241 -0.0063905823 0.06863275 0.083460405 -0.0026568929 0.07937 -0.049967606
0.006389229 -0.036533277 -0.06001122 0.049858026 0.09472059 0.038128763 0.072321005 -0.062822804
-0.044388484 0.007266312 0.04521579 -0.087262236 0.064663574 0.07210496 0.015788954 0.021757772
0.029692177 -0.06534885 0.032750186 0.037944797 0.022340735 -0.040170014 0.0050804215 -0.004356165

bias_ih_l0 f4 [512]
00000000: aac2 2f3c b6c1 af3d e64a d03c 2b2d 363d
00000010: eae1 943d 8ff0 d63d 7c74 aebc 1ade 12bd
00000020: c50d d33d 5bd2 e5bd 3d77 b83d 31a1 94bd
00000030: 92fe 733d 9e9a 623d 9dcf 683d d38e 66bd
00000040: 61ac af3d 264e 4e3c b29b 0b3e eb9c 4cbd
00000050: 3ed1 7c3d 9a3d 753d 2927 35bd 2278 e83a
00000060: 7c72 27bd 2e97 c53d 0137 ddbc 9666 953c
00000070: 8208 1ebc d3c2 06bd 9a48 9e3d 4e3d ccbd
00000080: 6385 1e3d 772a f33d d23c adbc 097f 3a3d
00000090: 53ec 763c 10e4 29bc 4f35 33bd 9063 31bd
000000a0: 1b00 60bc 3c0f 783b 50f9 5d3c 8c8a b0bc
000000b0: c3e1 913d a9e1 9cbd 27a4 893c c704 16be
000000c0: 7e62 173d 8861 203d a280 aabd 24b6 ab3d
000000d0: 839f 803d a153 a6bd 0e1c 1f3e 6b63 a53d
000000e0: 6d32 023e 3d65 ba3d 35aa df3c cc52 6c3c
000000f0: 3a30 ff3d 81e3 1abd b40e 74bd 7c09 013d
00000100: 043f d6bd 8b88 8b3b f44b 113e 4f8c cebd
00000110: d100 d5bb dd3f 503d dac2 2d3b 28a0 773b
00000120: 994b 0cbe 7fd9 fd3c 78cf 31bd 5be8 723d
00000130: d42a b0bc 5b0b 99bd 31de 73bd 71c4 093d
00000140: f62a d23d 66db 3dbd 8e6f ca3d d90c 783d
00000150: 7f17 20bd 5454 533d b3f0 a23c f51b bf3d
00000160: a7a8 b6bc 2eb5 373d 5d8c 563d 9c4d 6b3d
00000170: 8300 fbbd 596e e13c 7dc5 f13c 1cc0 a53d
00000180: 5339 163d f617 ebbc d4ee 83bd a2bf c8bb
00000190: ac58 ad39 b738 04bd 12f9 9abc de9e b7bd
000001a0: dea9 68bc f039 053c ecc8 e33c 5995 a5bd
000001b0: 78b4 3bbc 9913 53bd f1f4 33bc 84aa 003d
000001c0: f520 9fbd 7024 b1bd b893 fdbd d0d0 dcbc
000001d0: c118 e33d b753 cbbd e5d9 86bd 9809 733d
000001e0: 0fba 953d 0404 8c3c 4f07 e13d 2cc2 5bbc
000001f0: 03f2 fdbc 7385 2d3c bb4f 92bd bf16 eb3d
00000200: 89e0 d9bd 882e 28bd f76f 8ebe 15ff ecbd
00000210: 6a2b 1dbe f808 70be ce00 42bd fb83 eebd
00000220: aef6 3cbe f12a 32be d2d8 81bd 8bc5 c8bd
00000230: 7109 b9bd ec93 16be d08a 88be 481c abbd
00000240: 9bee 3dbe befd 64be 0af4 e2bd a70b 55be
00000250: e8f0 17be 5cf9 4abe 1d36 83be 9d57 05be
00000260: c3d9 1fbe 4410 39be 7860 4bbe 4f50 dcbd
00000270: bd8c 9fbd eea2 38be 2fcf e0bd eb69 32be
00000280: 844f fdbd 5d8e 64be 7055 13be 46cc f0bd
00000290: 89af 36bc 1f7b 48be 8381 44be 1921 c3bc
000002a0: 338e 3ebc 8d00 d7bd 6be9 52bd bbf0 d9bd
000002b0: b164 49bd c41f 50be 4720 e6bd 7d5f 44be
000002c0: 8d87 7ebd 3e4a 15bd a279 59be 461e b7bd
000002d0: f04a 34bd 461a dfbd 5f56 ccbd d0d0 22be
000002e0: 236e 32be 26fc 02be 349c 05be fd9b f7bd
000002f0: ce6f 53be 9e66 06be 5fc5 3dbe 996a 42be
00000300: cb5f febd 36cf 06be f7a1 2ebe ec10 debd
00000310: 9242 1abe ed6b 3bbe 4f47 16be 123c 5ebd
00000320: a623 24be 3e6f 84bd f775 43bd 4d14 1bbe
00000330: f7a1 51be f13b 84bd 9895 0ebe 382a 38be
00000340: fca1 3fbe 40fa ccbc fe1e 09be 610a f7bd
00000350: c742 66be ba5d 9fbd 58a5 9cbd 4dcb 21be
00000360: 3618 0ebe ed2b e4bd ecf7 f7bd 6646 96bd
00000370: 87bc 0fbd cfcf 0cbe fd42 0cbe a3f0 cfbd
00000380: 2e6d bdbd 6ded d6bd b115 29be 5610 e0bd
00000390: 065c b3bd 0521 8dbd 21c6 33be 169e 01be
000003a0: eae4 51be 29b3 65bd 9dbd 03be c023 4fbe
000003b0: b8af dbbd b5d0 12be 6d98 66bd 7f58 45be
000003c0: d988 f1bd b350 49be 2f62 29bd ce93 8abd
000003d0: a0d7 8fbd c612 8cbd 7185 46bd d6f5 1abe
000003e0: a615 20be 0386 bdbd 17cd aebd 5b62 8fbd
000003f0: de2c 05be 76b0 fcbd 260b 48be 8df3 70be
0.010727564 0.08581869 0.02542634 0.04447667 0.07269652 0.10495102 -0.021295778 -0.035856344
0.10305361 -0.11221763 0.09007118 -0.07257307 0.05956895 0.055323236 0.05683862 -0.05628855
0.085778005 0.012591874 0.13633612 -0.049954336 0.061722986 0.0598732 -0.0442268 0.0017735998
-0.040880665 0.09647976 -0.027003767 0.018237393 -0.009645583 -0.032900643 0.077286914 -0.099726304
0.038701426 0.11873334 -0.021147165 0.045531306 0.0150709925 -0.010369316 -0.04375201 -0.04330784
-0.0136719 0.0037850877 0.01354821 -0.02155044 0.07123139 -0.07660229 0.016801907 -0.1465026
0.036959164 0.039155513 -0.08325316 0.0838435 0.062804244 -0.0812142 0.15538046 0.08075603
0.12714548 0.09101341 0.02730284 0.014424037 0.1246037 -0.03781462 -0.059584334 0.031503186
-0.10461238 0.0042582205 0.1418913 -0.100853555 -0.0065003415 0.050842155 0.0026513846 0.003778467
-0.13700713 0.0309875 -0.04341075 0.059303623 -0.021504797 -0.07472869 -0.05953807 0.033634607
0.102621004 -0.046351813 0.098845586 0.060559127 -0.039084908 0.051594093 0.019890165 0.09331504
-0.022297217 0.04485052 0.052379955 0.05744706 -0.12255957 0.027518438 0.029513115 0.080932826
0.036675762 -0.028697949 -0.06442037 -0.00612636 0.00033063197 -0.03228065 -0.018917594 -0.089658484
-0.014200656 0.008131489 0.027805768 -0.080851264 -0.011456601 -0.05153236 -0.010983692 0.031412616
-0.07769958 -0.08649528 -0.12381691 -0.026955038 0.11088706 -0.09928077 -0.06584529 0.05933532
0.073108785 0.017091759 0.10987722 -0.013412993 -0.03099919 0.010590899 -0.07144114 0.11478948
-0.1063853 -0.04106 -0.27819797 -0.115720905 -0.15348592 -0.23440921 -0.04736405 -0.11646267
-0.18453476 -0.17399193 -0.06340183 -0.09803303 -0.09035004 -0.14704865 -0.26668406 -0.083550036
-0.18548052 -0.2236242 -0.11081703 -0.20805226 -0.14837992 -0.19821686 -0.25627223 -0.13021703
-0.15610413 -0.18072611 -0.19861019 -0.10757505 -0.077905156 -0.18030903 -0.10977017 -0.17423217
-0.12368682 -0.22319932 -0.1438806 -0.11757712 -0.011150249 -0.19578217 -0.1919003 -0.023819493
-0.011630583 -0.10498152 -0.051492136 -0.10641619 -0.049168292 -0.20324618 -0.11236625 -0.19177051
-0.06214099 -0.036447756 -0.21237805 -0.08941321 -0.04401678 -0.10893683 -0.099774115 -0.15899968
-0.17424826 -0.127915 -0.13047868 -0.12090299 -0.20648119 -0.13125083 -0.18532322 -0.18985976
-0.12420615 -0.13164982 -0.17053972 -0.10843071 -0.15064457 -0.18302889 -0.1467564 -0.054256506
-0.16029224 -0.0646653 -0.047719922 -0.15144463 -0.20471941 -0.064567454 -0.13924253 -0.17984855
-0.18714136 -0.025021672 -0.13390729 -0.120625265 -0.22486411 -0.07781549 -0.07648724 -0.1580021
-0.13876423 -0.11141191 -0.12107834 -0.07337646 -0.035091903 -0.13751148 -0.13697429 -0.1015332
-0.0924934 -0.10494504 -0.16512181 -0.10940616 -0.087577865 -0.068910636 -0.17556049 -0.12657961
-0.2049748 -0.056079064 -0.128653 -0.20228481 -0.10726875 -0.14337428 -0.05629771 -0.1927204
-0.1179368 -0.1965969 -0.0413534 -0.06766473 -0.07023549 -0.06839518 -0.048467103 -0.15132841
-0.15633258 -0.09254076 -0.085352115 -0.07001182 -0.13005397 -0.12338345 -0.19535503 -0.23530407
