trained_models/ppo/me5418-Cassie-v0/0523-16-10-05-s3737/critic.pt (torch, 96254 bytes, 5 tensors)

weight f4 [128, 50]
0.19066395 -0.11723494 -0.79939336 -1.8061732 -0.31386644 -0.3266488 -0.048694804 0.38648722
0.053667463 0.0030476558 -0.24559936 -0.109149285 0.3656593 0.054157626 -0.017423337 -0.85137117
-0.041342907 0.04327973 -0.06118223 -0.015539943 0.0986569 0.018858679 0.031452496 0.03734784
0.031305432 -0.057999957 -0.007829774 0.0266759 0.026199518 -0.05229344 0.029024426 0.006722218
-0.0024600103 -0.017897498 0.17405935 -0.17700922 -0.103288956 0.5409803 -0.047754955 0.030012332
0.056804392 0.031498954 0.053278513 -0.022755891 -0.010212192 -0.049677435 0.07275316 -0.21296552
0.36589274 -0.0011448748 -0.02765852 0.010801522 1.8593248 -0.51793617 0.59561366 0.16044766
0.090515375 0.13083088 -0.06511543 -0.07850348 0.61273533 -0.13552248 -0.123178564 0.008392731
0.045069575 -0.23597945 0.07837141 -0.04463679 0.017540872 -0.019763235 -0.29987207 0.023022002
-0.053151008 0.05329695 0.035165798 0.022605121 0.06744946 -0.06557733 -0.112681046 -0.036996532
0.04541779 -0.0027669515 0.009189919 0.00055560435 0.06970195 -0.012544807 -0.07604673 0.23685075
-0.0014660904 -0.025500128 -0.024593735 -0.06385706 -0.023577519 0.00532142 0.016731204 -0.10711742
-0.0033599797 -0.11930043 -0.5300172 0.090579286 0.029453807 -0.11751889 2.6816719 0.41151083
0.012775055 0.85421634 0.19788577 -0.1758142 -0.111820236 0.012500131 0.91425073 0.10779445
-0.12760271 -0.049199313 -0.049618255 -0.16382703 -0.05363043 0.0070149912 -0.01273342 -0.1302664
-0.03365412 0.0102271335 -0.0064253104 0.061839 0.108504616 0.04366754 -0.0058448613 0.004385238
0.029646372 0.022989387 0.037446972 -0.002208572 0.0058236504 -0.013768255 0.16347927 -0.1909479
0.051972482 -0.26976103 0.18052235 0.08772554 0.054245334 0.0039651976 -0.036838844 0.0005430134
0.011826785 -0.02480954 0.10749718 0.10953199 -0.08686881 -0.010587218 -0.45628574 0.44869617
0.7907682 -0.23002024 -0.009142096 0.10677684 -0.11011293 -0.011292142 0.24525292 -0.0831617
0.20344307 0.21189135 0.10249787 0.26214096 -0.06537488 -0.10647009 0.024132315 -0.017781533
0.17028888 0.14146431 -0.054088283 0.0041398094 -0.013999603 -0.06031048 -0.05245682 -0.027851835
0.1041655 -0.009786833 -0.040452838 0.040135838 0.048954625 0.023422837 -0.00020929101 -0.024378782
0.0715414 -0.21789618 -0.002782124 -0.27213678 -0.082543045 -0.13576977 -0.022102218 -0.003541312
0.01022821 -0.005121672 0.06233837 -0.018782074 0.13329728 0.2474201 -0.22835957 0.056666713
-0.06345141 0.42684162 -0.89810807 0.7522355 -0.14609924 -0.261123 0.17052142 -0.15559575
0.2398459 -0.20558539 -0.15932067 -0.088833116 -0.0316414 0.064306945 -0.060878143 0.20186837
0.048999887 0.0035924125 -0.13237928 0.28321373 0.016424 -0.06538465 0.08159488 -0.061613828
0.041077055 -0.053062044 -0.0492425 0.050814036 -0.19744807 -0.13408475 0.001945675 0.018853525
0.023697669 -0.06200157 -0.101680264 0.07722814 0.05972069 -0.15132602 0.0064651584 0.03877799
0.12265132 0.055249162 -0.009246412 0.1120809 0.013605335 -0.034132723 0.116386615 0.20691979
-0.20300251 -0.29305965 0.010616963 -0.23144564 -2.7725003 0.51994044 -0.4122633 -0.83569616
00000000: 693d 433e df18 f0bd 0ba5 4cbf af30 e7bf
00000010: 1ab3 a0be 833e a7be 3474 47bd a7e1 c53e
00000020: 6ad2 5b3d 2ebb 473b 667e 7bbe a989 dfbd
00000030: b237 bb3e 63d4 5d3d 63bb 8ebc 76f3 59bf
00000040: 2e57 29bd 1646 313d 389a 7abd 3f9b 7ebc
00000050: a10c ca3d 847d 9a3c 55d4 003d 0cfa 183d
00000060: 203a 003d 5d91 6dbd 7448 00bc 6b87 da3c
00000070: 5fa0 d63c a531 56bd a2c4 ed3c 0d46 dc3b
00000080: 2038 21bb c69d 92bc 9d3c 323e e841 35be
00000090: 2989 d3bd af7d 0a3f b39a 43bd 6cdc f53c
000000a0: b9ab 683d 0c05 013d 923a 5a3d 906a babc
000000b0: 0a51 27bc 917a 4bbd 9cff 943d a213 5abe
000000c0: 4b56 bb3e a00f 96ba 1f94 e2bc def8 303c
000000d0: 5bfe ed3f 7797 04bf 237a 183f 644c 243e
000000e0: 2060 b93d 88f8 053e 3d5b 85bd 6fc6 a0bd
000000f0: 39dc 1c3f 68c6 0abe 0b45 fcbd aa81 093c
00000100: e09a 383d 99a4 71be 3181 a03d 11d5 36bd
00000110: e0b1 8f3c 82e6 a1bc d588 99be a398 bc3c
00000120: dfb4 59bd e74d 5a3d 030a 103d 602e b93c
00000130: f122 8a3d 684d 86bd 52c5 e6bd ad89 17bd
00000140: 0108 3a3d be55 35bb 5091 163c faa5 113a
00000150: e5bf 8e3d bc88 4dbc 63be 9bbd 0189 723e
00000160: d529 c0ba a5e5 d0bc cd78 c9bc 7ec7 82bd
00000170: a425 c1bc 4e5f ae3b e10f 893c 6160 dbbd
00000180: 1b33 5cbb c953 f4bd 35af 07bf a281 b93d
00000190: 1c49 f13c bead f0bd 83a0 2b40 8cb1 d23e
000001a0: 774e 513c ecad 5a3f 91a2 4a3e a308 34be
000001b0: 0202 e5bd 59cd 4c3c 560c 6a3f 56c3 dc3d
000001c0: 49aa 02be 3885 49bd 833c 4bbd 46c2 27be
000001d0: 95ab 5bbd 03de e53b d69f 50bc 8e64 05be
000001e0: e7d8 09bd b58f 273c 698b d2bb e44a 7d3d
000001f0: ab37 de3d bcdc 323d 4086 bfbb 0bb2 8f3b
00000200: f3dc f23c 3d54 bc3c ff61 193d b1bd 10bb
00000210: 52d4 be3b 3f94 61bc 1c67 273e d987 43be
00000220: 19e1 543d 1e1e 8abe dada 383e 73a9 b33d
00000230: 5b30 5e3d 7dee 813b 54e4 16bd 0359 0e3a
00000240: 22c5 413c 603d cbbc 7b27 dc3d 4f52 e03d
00000250: 46e8 b1bd 0376 2dbc 499e e9be 81bb e53e
00000260: c96f 4a3f 6d8a 6bbe bbc8 15bc d1ad da3d
00000270: e382 e1bd ad02 39bc 9523 7b3e ae50 aabd
00000280: 6153 503e 0cfa 583e 67ea d13d 5737 863e
00000290: 44e3 85bd fe0c dabd 22b1 c53c 94aa 91bc
000002a0: 3560 2e3e 05dc 103e ad8b 5dbd 3da7 873b
000002b0: 975e 65bc 1f08 77bd f6dc 56bd 8829 e4bc
000002c0: b954 d53d f458 20bc e0b1 25bd 7a65 243d
000002d0: a584 483d 40e1 bf3c 2175 5bb9 03b6 c7bc
000002e0: 4c84 923d 2d20 5fbe 4c54 36bb 8355 8bbe
000002f0: 540c a9bd 3b07 0bbe b60f b5bc 5b15 68bb
00000300: 3994 273c b3d3 a7bb 8556 7f3d dddc 99bc
00000310: 157f 083e b25b 7d3e 17d7 69be 5b1b 683d
00000320: d0f2 81bd fc8a da3e 69ea 65bf 8192 403f
00000330: 0a9b 15be eab1 85be 2b9d 2e3e 7e54 1fbe
00000340: 2a9a 753e fa84 52be f524 23be 23ee b5bd
00000350: 6a9a 01bd 5cb3 833d 5c5b 79bd 95b6 4e3e
00000360: 1bb4 483d ae6e 6b3b 6f8e 07be 6401 913e
00000370: a08b 863c 63e8 85bd 371b a73d c85e 7cbd
00000380: 6a40 283d 9657 59bd 81b2 49bd 6122 503d
00000390: d42f 4abe 834d 09be 0506 ff3a b572 9a3c
000003a0: 9d21 c23c 5cf5 7dbd be3d d0bd c929 9e3d
000003b0: af9d 743d 35f5 1abe aed9 d33b abd5 1e3d
000003c0: 9e30 fb3d f24c 623d 437e 17bc ac8a e53d
000003d0: e9e8 5e3c c1ce 0bbd 1b5c ee3d c8e2 533e
000003e0: e4df 4fbe ea0b 96be c5f2 2d3c 1600 6dbe
000003f0: a570 31c0 d11a 053f 2d14 d3be 2ff0 55bf

bias f4 [128]
-0.19602361 0.49426642 0.2555799 -0.10298995 -0.11453313 0.1692726 0.4098307 -0.21315664
0.3206308 0.056681786 -0.10974523 -0.01141614 0.19972785 0.023781672 0.10933329 -0.12711653
-0.13441038 0.30648616 -0.10306401 0.04059172 0.052828755 0.08752661 -0.075876586 -0.20282024
0.35427868 0.08946263 -0.018915767 0.11247557 -0.20523827 -0.14964189 -0.25968692 -0.560093
0.09067263 0.0010234546 -0.10622951 0.07287834 -0.01856003 0.13698402 -0.20692176 0.0017264344
0.11982838 -0.1365889 -0.1739268 0.1500829 0.019616494 -0.17104049 -0.028595405 -0.09290055
0.20331725 0.09196898 -0.025647523 -0.020691881 -0.050409757 -0.013915839 -0.15246919 -0.32761213
-0.28526834 0.03287156 -0.028778855 0.0054268334 0.07914542 -0.31885177 -0.013049157 0.10250981
-0.23734845 0.1600984 -0.17939113 0.2864372 0.14921856 0.22064589 0.0026708243 0.082186066
-0.16161998 -0.10679934 -0.044043373 -0.28781512 0.30277565 -0.1074378 -0.19198577 -0.009827437
0.34866095 0.060994867 0.118525155 0.15613312 -0.11757218 0.5190391 -0.22942208 0.21343477
-0.043182645 -0.09516594 0.078854464 -0.10253124 0.060364168 -0.09827793 0.11391558 0.0627482
0.0745133 0.23432425 -0.15528141 0.16198398 -0.08695467 -0.28372136 0.19010039 -0.12564225
-0.29731214 -0.08173541 -0.04575512 -0.30865574 -0.12024438 -0.2932611 0.11989992 -0.20250195
0.33845994 0.015061686 -0.3509132 0.32091773 -0.13544667 -0.16235085 -0.20493786 0.17251465
0.18326917 0.12501797 0.12906267 -0.29409322 -0.24600422 -0.060147732 0.20001544 0.37670526
00000000: 6aba 48be 7d10 fd3e 5edb 823e 65ec d2bd
00000010: 5890 eabd cc55 2d3e 54d5 d13e bc45 5abe
00000020: b829 a43e 292b 683d 1bc2 e0bd c30a 3bbc
00000030: 7585 4c3e c8d1 c23c 22ea df3d d62a 02be
00000040: e0a2 09be c1eb 9c3e 3913 d3bd 8143 263d
00000050: f762 583d 2741 b33d 2f65 9bbd 1cb0 4fbe
00000060: 0464 b53e 2f38 b73d 3df5 9abc 9759 e63d
00000070: fb29 52be b93b 19be aff5 84be 4162 0fbf
00000080: 92b2 b93d 7025 863a db8e d9bd 3d41 953d
00000090: 340b 98bc 8a45 0c3e 4ce3 53be 8749 e23a
000000a0: 9568 f53d f6dd 0bbe de19 32be 55af 193e
000000b0: c5b2 a03c 3d25 2fbe e940 eabc a542 bebd
000000c0: 6632 503e 3c5a bc3d c11a d2bc 0582 a9bc
000000d0: 767a 4ebd 42ff 63bc e220 1cbe c7bc a7be
000000e0: b10e 92be 54a4 063d a2c1 ebbc 94d3 b13b
000000f0: fe16 a23d 8a40 a3be 22cc 55bc aaf0 d13d
00000100: 790b 73be d6f0 233e 4fb2 37be e6a7 923e
00000110: c0cc 183e fff0 613e ff08 2f3b 2b51 a83d
00000120: b57f 25be 9db9 dabd d366 34bd 815c 93be
00000130: 6905 9b3e 5908 dcbd eb97 44be 4203 21bc
00000140: b083 b23e c1d5 793d 51bd f23d 5ce1 1f3e
00000150: afc9 f0bd bfdf 043f 9fed 6abe a58e 5a3e
00000160: 49e0 30bd 5ce6 c2bd 737e a13d e6fb d1bd
00000170: 6b40 773d f045 c9bd 924c e93d 2182 803d
00000180: 6e9a 983d b2f2 6f3e 1702 1fbe 21df 253e
00000190: 4a15 b2bd ed43 91be ada9 423e 5da8 00be
000001a0: 4c39 98be e564 a7bd b969 3bbd 2008 9ebe
000001b0: af42 f6bd 5226 96be 178e f53d ac5c 4fbe
000001c0: 9f4a ad3e 4ac5 763c e5aa b3be 544f a43e
000001d0: 88b2 0abe 4d3f 26be 3bdb 51be aea7 303e
000001e0: eaaa 3b3e b604 003e 0129 043e 6393 96be
000001f0: 88e8 7bbe 785d 76bd d9d0 4c3e 83df c03e

weight f4 [128, 128]
0.03744677 0.0445647 0.0065921294 0.01120558 0.13351285 -0.066825025 -0.016580533 0.059400015
0.053191226 0.047987375 0.0182781 0.07140695 0.023329422 0.07059441 -0.04778447 0.081288114
-0.019848704 0.06992781 -0.021075457 0.15946706 -0.024039406 -0.17806488 0.12253374 0.041852362
0.11714303 -0.17794561 -0.036649823 -0.18493861 0.12634374 0.28509086 -0.0783508 -0.37457898
0.20135625 0.040296935 -0.024475371 0.17061883 -0.22679478 -0.06625593 -0.048054468 -0.3252398
0.03940214 0.0963969 0.19007012 0.16920806 -0.06675252 0.14521609 0.12749381 0.18294598
0.036112998 0.2861396 0.11180028 -0.039126936 -0.31252867 0.06579461 0.030172573 -0.09251332
-0.026224619 -0.18589576 0.24506792 -0.028779749 -0.08917753 -0.28753975 0.2037745 0.2587779
0.031507302 -0.23300172 -0.062717184 0.04362148 -0.0033280367 -0.057185225 -0.006359086 0.1274056
0.14568925 -0.36697817 0.2445026 0.08261838 -0.10842807 0.091478236 -0.2808735 -0.47833842
0.14858907 -0.06278477 0.12192983 0.128202 -0.36127844 -0.040037878 0.10201175 -0.10751839
-0.12663831 0.026305199 -0.20741273 0.066144355 0.042168155 0.088362806 -0.1294183 0.3457766
0.12319602 0.04668262 -0.12188883 0.03223431 0.3928731 -0.061287522 0.059390306 -0.0979804
0.07656074 0.013371435 0.009914784 -0.5019793 -0.11660942 -0.058395624 -0.34484306 0.02186553
0.038554873 0.05448451 -0.062834084 0.025953192 -0.21027376 -0.31961915 -0.037805714 -0.12845479
0.2238665 -0.2654923 -0.35058355 -0.03940755 0.017243635 0.06971322 0.04133106 0.09493618
-0.06729522 0.003690223 0.10032188 -0.29019213 0.19849509 0.0071197865 0.12111547 0.16447337
0.3108916 0.07959256 0.012580824 -0.15058337 0.11805348 0.11704812 -0.092528865 -0.15538542
-0.12408981 0.11782653 -0.04841412 -0.39007065 0.079490475 -0.12527724 -0.30512622 -0.06863407
-0.20532389 -0.050411653 0.034364864 0.33265653 -0.08086059 0.1793967 -0.11243205 -0.29079056
-0.08829423 -0.13611625 -0.03780105 0.16269392 0.06604829 -0.037519556 -0.1600543 0.041669145
0.15133072 -0.1419884 0.24673524 -0.12838326 -0.002760043 -0.14251925 -0.08916716 0.17102121
0.12866317 0.049845435 0.03532163 0.08105342 0.1141834 0.052746665 -0.13369147 0.070080824
0.009166069 0.065133385 0.08790488 0.03264343 -0.099544786 0.03665054 -0.016818495 0.1829973
0.045554344 -0.06509199 -0.099169225 -0.03465326 0.14459835 -0.03713432 -0.094322264 -0.068226635
-0.15654096 -0.02761364 0.092779264 0.10341745 0.24664131 0.09181834 0.06997974 0.10507605
0.012468706 0.114287935 0.01396353 0.051496234 0.052557956 -0.033074263 -0.034347042 0.20615166
0.10037586 -0.11481159 -0.06381862 -0.046498403 -0.04169744 -0.101720944 0.045945384 -0.09052484
-0.092493586 0.21533142 0.037608758 -0.08459691 -0.10612917 -0.21657264 -0.057591237 -0.18522543
-0.06339325 -0.31968033 0.06725269 -0.2293674 -0.07314277 0.17013016 0.059020106 0.124279894
0.025501922 0.17847121 -0.15281299 0.29554188 0.06316952 -0.10298602 0.002890057 0.086324714
-0.005020369 0.1380157 -0.06345131 -0.2208127 -0.03526274 -0.00202948 0.1453298 -0.15584596
00000000: c961 193d 7a89 363d ca02 d83b 9c97 373c
00000010: 98b7 083e 8fdb 88bd e6d3 87bc 6e4d 733d
00000020: 0bdf 593d 698e 443d f4bb 953c cf3d 923d
00000030: 581d bf3c cd93 903d a6b9 43bd 627a a63d
00000040: c099 a2bc 5036 8f3d 70a6 acbc 554b 233e
00000050: 4aee c4bc a456 36be f8f2 fa3d 626d 2b3d
00000060: afe8 ef3d 6037 36be 201e 16bd 8c60 3dbe
00000070: 4160 013e 6ef7 913e 6276 a0bd d1c8 bfbe
00000080: 5530 4e3e 660e 253d 9380 c8bc b4b6 2e3e
00000090: e43c 68be 30b1 87bd c3d4 44bd d585 a6be
000000a0: 2364 213d bd6b c53d bea1 423e e144 2d3e
000000b0: 8cb5 88bd 87b3 143e bd8d 023e 3156 3b3e
000000c0: 39eb 133d e480 923e 8cf7 e43d 9143 20bd
000000d0: c203 a0be 53bf 863d 792c f73c a077 bdbd
000000e0: 03d5 d6bc 755b 3ebe 16f3 7a3e 82c3 ebbc
000000f0: b5a2 b6bd 6938 93be 43aa 503e 897e 843e
00000100: cd0d 013d 0198 6ebe de71 80bd 70ac 323d
00000110: 311b 5abb 0e3b 6abd e15f d0bb 9d76 023e
00000120: 902f 153e 90e4 bbbe e45e 7a3e d333 a93d
00000130: 890f debd f158 bb3d a7ce 8fbe c6e8 f4be
00000140: bc27 183e 4d95 80bd 59b6 f93d 6347 033e
00000150: 7df9 b8be c2fe 23bd 89eb d03d 9a32 dcbd
00000160: 79ad 01be 007e d73c 0164 54be b176 873d
00000170: 84b8 2c3d 8ff7 b43d 3b86 04be a109 b13e
00000180: 324e fc3d 4636 3f3d daa0 f9bd 2008 043d
00000190: aa26 c93e a008 7bbd 4043 733d f3a9 c8bd
000001a0: e1cb 9c3d dd13 5b3c 9e71 223c b781 00bf
000001b0: ebd0 eebd 4030 6fbd 458f b0be 571f b33c
000001c0: b7eb 1d3d 262b 5f3d 28af 80bd ca9b d43c
000001d0: 0152 57be 1fa5 a3be 2ada 1abd a789 03be
000001e0: 433d 653e 9bee 87be b07f b3be d069 21bd
000001f0: 8642 8d3c cec5 8e3d c24a 293d e66d c23d
00000200: 14d2 89bd abd7 713b 8f75 cd3d 1094 94be
00000210: 4c42 4b3e 194d e93b 630b f83d b56b 283e
00000220: 2f2d 9f3e 6d01 a33d cd1f 4e3c 8732 1abe
00000230: 06c6 f13d edb6 ef3d c67f bdbd 5b1d 1fbe
00000240: cc22 febd 094f f13d e24d 46bd 57b7 c7be
00000250: e7cb a23d ad48 00be 8139 9cbe 0590 8cbd
00000260: 6d40 52be 737c 4ebd 2cc2 0c3d f551 aa3e
00000270: 3d9a a5bd c5b3 373e c642 e6bd 80e2 94be
00000280: 9bd3 b4bd 0f62 0bbe 46d5 1abd 3c99 263e
00000290: 5344 873d 1bae 19bd 46e5 23be 44ad 2a3d
000002a0: 71f6 1a3e 6865 11be 2aa8 7c3e e776 03be
000002b0: d6e1 34bb 91f0 11be 469d b6bd 2f20 2f3e
000002c0: 47c0 033e ba2a 4c3d 6aad 103d 56ff a53d
000002d0: fdd8 e93d e30c 583d 6be6 08be 8986 8f3d
000002e0: 482d 163c a764 853d 7907 b43d 1eb5 053d
000002f0: 23de cbbd e01e 163d f1c6 89bc a563 3b3e
00000300: 3197 3a3d f34e 85bd 3c19 cbbd 94f0 0dbd
00000310: 9711 143e 281a 18bd 082c c1bd 68ba 8bbd
00000320: 464c 20be 0036 e2bc 0e03 be3d 87cc d33d
00000330: 8a8f 7c3e 410b bc3d 8a51 8f3d 1d32 d73d
00000340: 8b49 4c3c cb0f ea3d 4ac7 643c b7ed 523d
00000350: 0347 573d e178 07bd 7caf 0cbd 6c19 533e
00000360: dc91 cd3d 5722 ebbd 56b3 82bd 1c75 3ebd
00000370: efca 2abd 1253 d0bd 3a31 3c3d 1665 b9bd
00000380: 476d bdbd d77f 5c3e a40b 1a3d 2541 adbd
00000390: 405a d9bd 38c5 5dbe cae4 6bbd bcab 3dbe
000003a0: 52d4 81bd 24ad a3be c7bb 893d 4adf 6abe
000003b0: e0cb 95bd 9a36 2e3e 11bf 713d 7586 fe3d
000003c0: 68e9 d03c 28c1 363e 027b 1cbe 4451 973e
000003d0: 055f 813d 56ea d2bd 1c67 3d3b 03cb b03d
000003e0: e881 a4bb fd53 0d3e c3f2 81bd b91c 62be
000003f0: aa6f 10bd 0601 05bb 56d1 143e 1596 1fbe

bias f4 [128]
-0.39997602 -0.46114647 0.37162888 0.23508336 -0.42710736 0.37635037 0.061480146 0.25066856
-0.5715443 -0.6042126 -0.62043303 0.21735723 -0.5181776 -0.31496745 -0.24167915 0.15054643
0.45013455 -0.32163692 -0.18907884 0.3368663 -0.43585825 0.19392689 0.28984073 0.26434684
-0.12602794 0.37713832 -0.7633521 -0.24729273 0.32958883 -0.16805124 0.21035425 0.42275712
0.5408223 -0.28145456 0.4690708 -0.22601615 0.41127196 0.6812015 -0.14095896 0.64700884
-0.24416459 -0.16096786 -0.36427236 -0.20022413 0.39750442 -0.32942167 0.26542777 -0.4056027
-0.59251225 -0.21837322 -0.7485425 0.18473996 -0.25998583 0.3460587 0.36710826 0.2998969
0.28513083 0.17417733 0.33351275 -0.33463454 0.46117452 -0.27573678 0.5272509 0.29140154
0.30348644 -0.34865433 -0.24188694 -0.27333015 -0.26509538 0.24059474 -0.099826425 0.65717953
0.30022475 -0.3123722 0.5843187 -0.4625104 0.29177105 0.09339919 0.19422746 0.21979085
0.3316996 0.27641827 0.604452 0.3054459 0.30380473 0.28728658 -0.25327778 0.2738793
-0.387985 0.30535677 0.3047562 -0.36135423 -0.25938103 -0.1924003 0.27776065 -0.026516967
-0.45252547 -0.34969175 -0.23089561 0.40839794 -0.1720978 0.34503096 0.27218547 -0.27280745
-0.35004377 0.5078825 0.27848548 -0.3241382 -0.12547779 -0.3536181 -0.570787 -0.3284927
0.29909816 0.27233016 0.24505745 0.32887813 0.20001595 -0.5825355 -0.30623952 -0.8110269
-0.25092852 -0.33770823 -0.32197213 0.33465987 -0.3247354 0.2995108 0.284417 -0.13046928
00000000: a8c9 ccbe 641b ecbe 2446 be3e b1b9 703e
00000010: d1ad dabe ffb0 c03e 9bd2 7b3d a157 803e
00000020: ba50 12bf adad 1abf b3d4 1ebf e592 5e3e
00000030: 4aa7 04bf 6a43 a1be bd7a 77be d828 1a3e
00000040: 0978 e63e 98ad a4be e29d 41be bd79 ac3e
00000050: d028 dfbe c594 463e 0166 943e 7858 873e
00000060: 780d 01be 4618 c13e 0b6b 43bf 4e3a 7dbe
00000070: debf a83e a015 2cbe 1b67 573e 9f73 d83e
00000080: 5573 0a3f d01a 90be 0c2a f03e c770 67be
00000090: 3d92 d23e 3963 2e3f 8c57 10be 5fa2 253f
000000a0: 4806 7abe c2d4 24be e881 babe 8e07 4dbe
000000b0: b385 cb3e f5a9 a8be 26e6 873e 28ab cfbe
000000c0: e2ae 17bf 3b9d 5fbe 7ba0 3fbf 792c 3d3e
000000d0: dd1c 85be 9b2e b13e 9df5 bb3e 168c 993e
000000e0: abfc 913e 8b5b 323e 2fc2 aa3e 3855 abbe
000000f0: 111f ec3e 5f2d 8dbe eaf9 063f 9532 953e
00000100: 9362 9b3e d282 b2be 36b1 77be eef1 8bbe
00000110: 95ba 87be 785e 763e cc71 ccbd eb3c 283f
00000120: 0fb7 993e 40ef 9fbe e995 153f 2ace ecbe
00000130: 0463 953e 1348 bf3d 90e3 463e da10 613e
00000140: 88d4 a93e b286 8d3e 5ebd 1a3f 6863 9c3e
00000150: 4b8c 9b3e 3a17 933e a0ad 81be e839 8c3e
00000160: f8a5 c6be b957 9c3e 0109 9c3e 6c03 b9be
00000170: 97cd 84be 9604 45be a536 8e3e 1c3a d9bc
00000180: 6bb1 e7be cc0a b3be e66f 6cbe 8919 d13e
00000190: 683a 30be e6a7 b03e e55b 8b3e 6bad 8bbe
000001a0: f038 b3be 9604 023f a695 8e3e 71f5 a5be
000001b0: 407d 00be 6e0d b5be 191f 12bf 3230 a8be
000001c0: 6523 993e dc6e 8b3e 57f0 7a3e b762 a83e
000001d0: fbd0 4c3e 0c21 15bf 6dcb 9cbe 759f 4fbf
000001e0: b479 80be 18e8 acbe 88d9 a4be 8a58 ab3e
000001f0: b843 a6be 7b59 993e 1b9f 913e bd99 05be

weight f4 [1, 128]
-0.21218415 -0.26624402 0.19806257 0.4071989 -0.2030915 0.07233681 0.0057396838 0.12070919
-0.2234514 -0.16425139 -0.1456373 0.002006805 -0.11344175 -0.059603747 -0.033487048 0.0041285986
0.29076818 -0.18745378 -0.080224715 0.14375515 -0.2779053 0.13127325 0.10617358 0.06992795
-0.004985476 0.07188057 -0.14560755 -0.042942494 0.09176924 -0.16290934 0.011879845 0.074143186
0.09366972 -0.050269466 0.25528443 -0.26935306 0.051587112 0.27900547 -0.083730064 0.15332292
-0.028775653 0.0011894191 -0.21428363 -0.07058429 0.2989112 -0.13095596 0.18991087 -0.10400612
-0.16848633 -0.0008917159 -0.22449248 0.32141882 -0.37738207 0.08996673 0.23611042 0.02614532
0.25845024 -0.0043003536 0.048608698 -0.06277485 0.19613135 -0.1165297 0.20034444 0.0039572883
0.11691003 -0.42874902 -0.29887134 -0.069903255 -0.048356082 0.0017979968 -0.0008500642 0.13394102
0.16301079 -0.0021667732 0.14966738 -0.14960526 0.003357122 -0.0036652943 0.17913336 0.043001954
0.12981053 0.05424525 0.27693382 -0.0011624371 0.02772487 0.423478 0.005582196 0.020769583
-0.24973406 0.0042496272 0.28691673 -0.0955198 -0.16678916 -0.103282064 0.16272508 0.0047400882
-0.36507422 -0.09689288 -0.29738387 0.15034816 -0.12829767 0.2942803 -0.006197077 -0.01269108
-0.18349376 0.15389882 0.010417932 0.00046418785 0.009192902 -0.14309356 -0.23901677 -0.11343354
0.09657227 0.029937591 0.11773808 -0.0029283892 -0.0015497874 -0.1854407 -0.03324274 -0.22463425
-0.4794116 -0.03882699 -0.10706184 0.2106796 -0.06429595 0.11000245 0.117911786 0.0018831581
00000000: cd46 59be 2351 88be ead0 4a3e 607c d03e
00000010: 38f7 4fbe 5225 943d f513 bc3b 6136 f73d
00000020: 72d0 64be 8431 28be f221 15be 9a84 033b
00000030: 2654 e8bd 0f23 74bd b729 09bd 3249 873b
00000040: 91df 943e e2f3 3fbe db4c a4bd 8d34 133e
00000050: 9a49 8ebe 7f6c 063e 8971 d93d 6336 8f3d
00000060: 345d a3bb 1f36 933d 251a 15be 78e4 2fbd
00000070: 83f1 bb3d b5d1 26be aea3 423c 62d8 973d
00000080: e9d5 bf3d 5be7 4dbd a4b4 823e a5e8 89be
00000090: 024d 533d ced9 8e3e ab7a abbd af00 1d3e
000000a0: ebba ebbc 48e6 9b3a 2b6d 5bbe 7f8e 90bd
000000b0: e40a 993e 5219 06be ff77 423e 2901 d5bd
000000c0: ae87 2cbe 0bc2 69ba 5be1 65be 0291 a43e
000000d0: 3938 c1be 7a40 b83d eec6 713e b62e d63c
000000e0: 9753 843e fbe9 8cbb ea19 473d 1a90 80bd
000000f0: a8d6 483e 20a7 eebd 1827 4d3e 24ac 813b
00000100: 876e ef3d fe84 dbbe aa05 99be 7029 8fbd
00000110: 0711 46bd c3aa eb3a d8d6 5eba d627 093e
00000120: 4dec 263e 6c00 0ebb 6842 193e 1f32 19be
00000130: 2903 5c3b 6f35 70bb bc6e 373e d122 303d
00000140: 0ded 043e 4430 5e3d 45ca 8d3e eb5c 98ba
00000150: 441f e33c 1cd2 d83e dbea b63b f924 aa3c
00000160: 49ba 7fbe 7540 8b3b c0e6 923e e39f c3bd
00000170: c7ca 2abe 8c85 d3bd 67a1 263e be52 9b3b
00000180: 02eb babe c66f c6bd b342 98be def4 193e
00000190: 7760 03be e8ab 963e da10 cbbb 3fee 4fbc
000001a0: cae5 3bbe a797 1d3e f9af 2a3c 3d5e f339
000001b0: d39d 163c 1e87 12be d0c0 74be d84f e8bd
000001c0: afc7 c53d ae3f f53c aa20 f13d 38ea 3fbb
000001d0: 3c22 cbba 2be4 3dbe 8a29 08bd 8506 66be
000001e0: 7075 f5be 0d09 1fbd 3d43 dbbd 65bc 573e
000001f0: 98ad 83bd f748 e13d bc7b f13d 4dd4 f63a
