trained_models/ppo/me5418-Cassie-v0/0523-16-10-05-s3737/critic.pt (torch, 96254 bytes, 5 tensors)

weight f4 [128, 50]
0	0xbd47fb63	-0.048823725
1	0xbd8f84e7	-0.07007771
2	0xbeb63d52	-0.3559366
3	0xbe8db7cf	-0.27679297
4	0xbe8d3e28	-0.27586484
5	0x3d60530f	0.05476671
6	0xbdc79444	-0.09745076
7	0xbc27f0fc	-0.010250326
8	0xbbe13779	-0.006873068
9	0x3d70c2c5	0.058779497
10	0xbe1d0c73	-0.1533678
11	0xbe2cddf7	-0.16881548
12	0x3da3c070	0.07995689
13	0xbd3fe30f	-0.0468474
14	0xbd36030e	-0.044436507
15	0xbef290ae	-0.47376007
16	0xbb4d5710	-0.003133241
17	0x3d4ba77d	0.049720276
18	0xbe4e4aa8	-0.20145667
19	0xbda68299	-0.08130378
20	0x3d39aad7	0.04532894
21	0xbccea8e6	-0.025227021
22	0x3d262308	0.040560752
23	0x3c0cc131	0.008590982
24	0x3df7ce92	0.12099947
25	0xbe0a5869	-0.13510288
26	0xbd87e61f	-0.06635689
27	0x3d27c6b9	0.040961
28	0xbc94e8c8	-0.018177405
29	0xbd610e69	-0.054945383
30	0x3d92e578	0.07172674
31	0x3cd6283f	0.026142238
32	0x3b7b26fb	0.0038322795
33	0xbc29f334	-0.010372926
34	0x3e2bd853	0.1678174
35	0xbde6e2db	-0.11273738
36	0xbd3fa591	-0.046788756
37	0x3e10cc1b	0.1414036
38	0x3d964898	0.07338065
39	0x3b5ad768	0.0033392552
40	0x3df2ad99	0.118495174
41	0xbd7a8552	-0.0611623
42	0x3ddc5516	0.10758416
43	0x3d566ba7	0.05234876
44	0x3caf9f27	0.021438194
45	0xbdd9ff3e	-0.10644387
46	0xbdfb8392	-0.122809544
47	0xbe2e0a8b	-0.1699621
48	0x3e14bde8	0.14525568
49	0xbce9a7a0	-0.028522313
50	0xbdce943f	-0.100868694
51	0xbd019ad0	-0.03164178
52	0x3ec51e30	0.38499594
53	0xbca9cb86	-0.02072693
54	0x3dc8603f	0.097839825
55	0x3ca51687	0.020152343
56	0x3b51a7a5	0.0031990793
57	0x3d3ea06d	0.046539713
58	0xbd02e7da	-0.031959392
59	0xbc26c7e3	-0.010179493
60	0x3ebcc39a	0.36867982
61	0xbdc83648	-0.09775978
62	0xbdd7ab4e	-0.10530721
63	0x3e1edd67	0.15514146
64	0x3dee0436	0.11621897
65	0xbd6e2c0b	-0.05814747
66	0x3dc4f758	0.096174896
67	0xbce71582	-0.028208498
68	0x3db230a9	0.087006874
69	0xbd63b00b	-0.05558781
70	0xbe53ec4a	-0.20695606
71	0x3cfd7384	0.030938871
72	0xbdda05a9	-0.10645611
73	0x3e05bc09	0.13060011
74	0xbbe5afcc	-0.007009482
75	0x3dda2b08	0.10652739
76	0x3e407ff9	0.18798818
77	0xbdc196f9	-0.09452624
78	0xbd07f975	-0.033196885
79	0xbd10dc25	-0.035366196
80	0x3e07de8e	0.13268492
81	0x3c152109	0.0091021145
82	0x3d39636a	0.045260824
83	0xbd5ad4a5	-0.05342545
84	0x3e823f12	0.25438744
85	0xbd562e10	-0.052290022
86	0xbc0d4f0e	-0.008624805
87	0x3e52e358	0.20594537
88	0xbe0633cc	-0.13105696
89	0x3d3b437a	0.045718648
90	0xbc991d42	-0.018690709
91	0xbe1d89ea	-0.15384641
92	0xbb33268e	-0.0027336213
93	0xbde90b04	-0.11379054
94	0xbd132529	-0.03592411
95	0xbe28740d	-0.1645052
96	0x3ca97a51	0.020688208
97	0x3c99d734	0.018779375
98	0xbe51f201	-0.20502473
99	0xbc26d61f	-0.010182886
100	0x3d4d8a42	0.05018068
101	0xbdc0d6f0	-0.09415996
102	0x3efdca12	0.4956823
103	0x3d57fc66	0.05273094
104	0x3dfedeea	0.12444861
105	0x3e7def27	0.2479826
106	0x3dddfdd8	0.108394325
107	0xbd51792d	-0.051140953
108	0xbe2e2ef7	-0.17010103
109	0xbc743949	-0.014906236
110	0x3eb0a0d9	0.34497717
111	0x3da75708	0.08170897
112	0xbd31b6e3	-0.043387305
113	0x3d09fcaf	0.033688243
114	0xbcded0d3	-0.027199185
115	0xbe214e4a	-0.15752521
116	0xbe32e56c	-0.1747033
117	0xbd2daf65	-0.042403597
118	0x3e2e0ac1	0.1699629
119	0x3dbcd2ef	0.0921992
120	0xbd523578	-0.051320523
121	0x3dd8220b	0.10553368
122	0xbcb18d0c	-0.021673702
123	0x3dc65a58	0.096852005
124	0x3dbad147	0.09121948
125	0x3c688786	0.014192468
126	0x3d127301	0.035754208
127	0xbd7d0338	-0.061770648
128	0x3d84c4c7	0.06482845
129	0xbd63c575	-0.05560823
130	0x3e4509f3	0.19242077
131	0xbdaf3bd9	-0.08556337
132	0x3d308162	0.04309214
133	0xbc8e527f	-0.017373322
134	0x3e079f30	0.13244319
135	0xbe05c90e	-0.13064978
136	0x3cc16151	0.023605974
137	0xbe3db916	-0.18527636
138	0x3dc209ee	0.0947455
139	0x3de02301	0.109441765
140	0xbd27689d	-0.04087125
141	0xbd94a9da	-0.07258959
142	0xbdc4f658	-0.09617299
143	0xbcb8dc77	-0.022566063
144	0x3ce7a59e	0.028277215
145	0xbdbb5368	-0.09146768
146	0x3e12e1e6	0.14343986
147	0xbd247acd	-0.040156174
148	0x3cc3d0ee	0.023903336
149	0xbd011553	-0.031514477
150	0xbe9b3b23	-0.30318555
151	0x3e94d3b1	0.29067758
152	0x3e4c8993	0.19974355
153	0x3d8a46f6	0.06751816
154	0xbd5a3336	-0.053271495
155	0xbdec581f	-0.11540245
156	0xbe57d929	-0.21078934
157	0xbcb89cf6	-0.022535782
158	0x3e5cc776	0.21560463
159	0xbde3a583	-0.11115553
160	0x3b9e30f6	0.004827614
161	0x3df3fe09	0.11913688
162	0x3d6cb6ab	0.057791393
163	0x3e809582	0.25114065
164	0xbd880122	-0.06640841
165	0xbdb83d33	-0.08996048
166	0x3c54646f	0.012963398
167	0xbcdab2b0	-0.026696533
168	0x3e63f525	0.22261484
169	0x3e18e1ae	0.1492984
170	0x3c872290	0.016495973
171	0x3cd7b880	0.026333094
172	0x3cbffd2e	0.023436155
173	0xbd36c4a5	-0.04462113
174	0xbce526bc	-0.027972572
175	0x3cbb4ce8	0.02286382
176	0x3de3cddd	0.1112325
177	0x375436c8	1.2648939e-05
178	0xbdbe31e2	-0.09286858
179	0x3d8aae1e	0.067714915
180	0xbbe05875	-0.0068464824
181	0x3d00b44c	0.031421944
182	0xba80b9af	-0.0009820963
183	0xbd3ea872	-0.04654736
184	0xbca1cfd2	-0.019752417
185	0xbe42d805	-0.19027717
186	0xbcf8f662	-0.030390922
187	0xbe49bf40	-0.19701862
188	0xbdae6133	-0.08514633
189	0xbe0d1003	-0.13775639
190	0xbd6e4648	-0.058172494
191	0xbd1fc7f7	-0.03900906
192	0xbc63499d	-0.013872531
193	0x3ca889fd	0.02057361
194	0x3d6f707e	0.05845689
195	0x3ca058aa	0.019573528
196	0x3e314a6f	0.1731355
197	0x3e12e977	0.14346872
198	0xbe42c9ed	-0.19022341
199	0x3d56eefc	0.052474007
200	0xbd44ce7c	-0.04804848
201	0x3e84ec88	0.2596171
202	0xbe54b339	-0.20771493
203	0x3c44b03a	0.012004906
204	0xbe344151	-0.17603041
205	0xbd0b9504	-0.03407766
206	0x3e0950f6	0.1340979
207	0xbce8c29e	-0.028413113
208	0x3e784353	0.24244432
209	0xbe85f1b1	-0.26160958
210	0x3be475e6	0.0069720624
211	0xbd306dac	-0.04307334
212	0x3d5fa308	0.054598838
213	0x3cf245e8	0.02957435
214	0xbda4a259	-0.08038778
215	0x3e649d92	0.22325733
216	0x3db3128f	0.08743774
217	0xbcf31711	-0.029674085
218	0xbe343d28	-0.17601454
219	0x3e5623dc	0.20912117
220	0xbbe92887	-0.007115427
221	0xbd37a129	-0.04483143
222	0xb974c587	-0.00023343238
223	0xbd2f6e8a	-0.042830028
224	0x3d9c1998	0.07622069
225	0xbc8cfe14	-0.017210998
226	0xbd3ad86a	-0.045616545
227	0x3ce98ee7	0.028510524
228	0xbdccd890	-0.100022435
229	0xbd92814e	-0.07153569
230	0x3d7bb4fb	0.061451893
231	0x3da8c5fd	0.08240888
232	0x3ba24cd2	0.0049530054
233	0xbcdba3f9	-0.026811587
234	0xbd9bc949	-0.076067515
235	0x3d81d90a	0.06340225
236	0x3b96ffd0	0.004608132
237	0xbd856772	-0.06513871
238	0x3cac08ba	0.021000255
239	0x3c927ac8	0.017880812
240	0x3e234111	0.1594279
241	0x3d37c9f4	0.044870332
242	0xbc2c558b	-0.010518442
243	0x3df9d53d	0.12198875
244	0xbca7dd04	-0.02049113
245	0xbbbe79ea	-0.005812873
246	0x3d70b983	0.058770668
247	0x3da80722	0.082044855
248	0xbe3d1404	-0.18464667
249	0xbe73b86a	-0.23800817
250	0xbd93bb3b	-0.07213446
251	0xbe0856da	-0.13314381
252	0xbf52ba3f	-0.8231544
253	0xbc6d896d	-0.014498097
254	0xbed62c2d	-0.41830578
255	0xbed5fc19	-0.41793898

bias f4 [128]
0	0xbd278ed0	-0.04090768
1	0x3e7521bc	0.2393865
2	0x3ddf34a0	0.10898709
3	0xbd442ca5	-0.04789414
4	0xbd74c5b1	-0.059758846
5	0x3da9f7f1	0.08299244
6	0x3dfc3cf2	0.12316312
7	0xbd92f5e5	-0.07175807
8	0x3dac3184	0.08407882
9	0x3c908a6b	0.017644128
10	0xbd433a3c	-0.04766296
11	0x3dbe3159	0.09286756
12	0x3d9f42ea	0.07776435
13	0xbc20a91c	-0.009805944
14	0xbd207219	-0.039171312
15	0xbda87892	-0.08226122
16	0xbd8705cd	-0.06592903
17	0x3dbed2be	0.0931754
18	0xbcf807e9	-0.03027721
19	0x3cafe9f4	0.021473862
20	0x3d255d5e	0.040372245
21	0x3d12af5a	0.03581176
22	0x3aad2c28	0.0013212012
23	0xbdac0251	-0.08398879
24	0x3e51fd18	0.20506704
25	0x3d4715b5	0.048604686
26	0x3c2d7147	0.010586089
27	0x3c6476c8	0.013944335
28	0xbde728bb	-0.112870656
29	0xbdb32e46	-0.0874906
30	0xbdbbecdc	-0.09176037
31	0xbe6d666e	-0.23183605
32	0x3d4b27a4	0.04959835
33	0xbb8d7676	-0.0043171
34	0xbd200068	-0.039062887
35	0x3c897f94	0.016784467
36	0xbd788ad6	-0.06067928
37	0x3dabd15e	0.08389543
38	0xbd759424	-0.05995573
39	0xbd1c7fd4	-0.038207844
40	0x3d72e15c	0.05929695
41	0xbcf6044f	-0.030031351
42	0xbd9acebd	-0.075589634
43	0x3d8039e3	0.06261041
44	0x3b55688d	0.0032563538
45	0xbdb7c538	-0.08973163
46	0xbcc375a4	-0.023859806
47	0xbc87f4da	-0.016596247
48	0x3d8b59fb	0.06804272
49	0x3d874875	0.06605617
50	0x3d1add16	0.0378085
51	0xbcd734bd	-0.026270265
52	0xbcdec3fa	-0.027193058
53	0xbd4689db	-0.048471313
54	0xbd8c4b91	-0.06850351
55	0xbe1c4e34	-0.15264207
56	0xbd74ca16	-0.059763037
57	0xbcb72f29	-0.022361355
58	0xbc576bcf	-0.013148262
59	0x3b4890ef	0.0030603965
60	0xbd3540d1	-0.044251267
61	0xbe091758	-0.13387811
62	0xbb74dc9f	-0.0037362946
63	0x3d5f5090	0.05452019
64	0xbdc6787d	-0.0969095
65	0x3d960cea	0.07326682
66	0xbdd187ee	-0.10231005
67	0x3dd3aa15	0.10335175
68	0x3d150290	0.036379397
69	0x3dbbcc2a	0.091698006
70	0xbd51da8c	-0.051233813
71	0x3d1f3171	0.03886551
72	0xbc272123	-0.0102007715
73	0xbd214785	-0.039374847
74	0x3c359cff	0.011084794
75	0xbddeee2f	-0.10885274
76	0x3dd397df	0.103317015
77	0xbd709e9d	-0.058745015
78	0xbdf9ef78	-0.12203878
79	0x3bb75a00	0.0055954456
80	0x3df70a88	0.120625556
81	0x3c96662b	0.018359264
82	0x3d0d0700	0.034430504
83	0x3db4be7a	0.08825393
84	0xbdb3358e	-0.08750449
85	0x3e8a581b	0.27020344
86	0xbda4659b	-0.08027192
87	0x3d59f074	0.05320783
88	0xbcb09bc5	-0.021558652
89	0xbdabda92	-0.08391298
90	0x3c3c0058	0.011474691
91	0xbd239ba1	-0.03994334
92	0x3c310310	0.010803953
93	0x3d011fd0	0.03152448
94	0x3d1a4632	0.0376646
95	0x3d5b7182	0.053575046
96	0x3d26529e	0.040606134
97	0x3d93d33c	0.07218024
98	0xbd62eed8	-0.05540356
99	0x3d6a99e5	0.05727567
100	0xbd603b7a	-0.05474422
101	0xbd7d8af8	-0.06190011
102	0x3dc80716	0.097669765
103	0xbbcafb43	-0.0061945035
104	0xbde66e3f	-0.112514965
105	0xbcf7da29	-0.030255394
106	0xbc9a7bfe	-0.018857952
107	0xbe159e32	-0.14611128
108	0xbd64c55c	-0.05585228
109	0xbdfc5f68	-0.12322885
110	0x3d887116	0.066621944
111	0xbda13aac	-0.07872519
112	0x3e235731	0.1595123
113	0xbd4725fe	-0.048620217
114	0xbe0b0794	-0.1357711
115	0x3d7fad24	0.06242098
116	0xbcbff4f5	-0.023432234
117	0xbd9ca759	-0.076491065
118	0xbcd86826	-0.02641685
119	0x3d8961f3	0.067081355
120	0x3db2cd04	0.0873051
121	0x3c4489e4	0.011995766
122	0x3d56a299	0.05240116
123	0xbdb6fe5e	-0.089352354
124	0xbd55d11b	-0.05220137
125	0xbc55cdad	-0.013049525
126	0x3d7c1a32	0.06154842
127	0x3e2ac6fe	0.16677472

weight f4 [128, 128]
0	0x3dbdc0c0	0.0926528
1	0x3d834aa9	0.06410725
2	0x3b20ae79	0.0024518056
3	0x3c2fb040	0.010723174
4	0x3dc72dba	0.097255185
5	0xbd8cd8a8	-0.068772614
6	0x3cb8928a	0.022530813
7	0x3c7dd929	0.01549367
8	0x3bbf83c6	0.005844566
9	0x3a812aae	0.0009854638
10	0xbcf50f0e	-0.029914405
11	0x3d8e4b0a	0.06947906
12	0x3cdd96d2	0.027049456
13	0x3d8363d9	0.06415529
14	0xbda8ab73	-0.08235826
15	0x3e463eec	0.1935994
16	0xbd148188	-0.036256343
17	0x3c299b8e	0.0103520285
18	0x3b433769	0.0029787666
19	0xbc9e8201	-0.0193491
20	0x3d9f01b8	0.07764
21	0xbdd0d329	-0.101965256
22	0x3da31577	0.079630785
23	0xbda5d3ae	-0.08097015
24	0x3d77271e	0.06034004
25	0x3d095881	0.03353167
26	0xbdde4bee	-0.10854326
27	0xbe14b151	-0.14520766
28	0x3ddc663c	0.10761687
29	0x3c90c121	0.017670216
30	0xbe30c9a5	-0.17264421
31	0xbe5e9991	-0.21738268
32	0x3c7f52f3	0.0155837415
33	0x3d51c35f	0.05121171
34	0xbd7df758	-0.062003464
35	0x3c5197a5	0.0127925025
36	0x3ca8fb56	0.020627659
37	0x3d9a93e0	0.07547736
38	0xbd82016f	-0.0634793
39	0xbd4916a8	-0.049093872
40	0xbe0349b8	-0.1282109
41	0x3be377e2	0.0069417814
42	0x3daab769	0.08335764
43	0x3d046fa4	0.03233303
44	0xbe0e851b	-0.13917963
45	0x3e1919dc	0.14951271
46	0x3cefbf9e	0.029266175
47	0xbc6dcee7	-0.014514661
48	0x3cafb95d	0.021450693
49	0x3d389ad1	0.04506952
50	0x3d2a7686	0.04161694
51	0x3c97a2f2	0.018510316
52	0xbe0019e5	-0.12509878
53	0x3d70d6b1	0.058798496
54	0xbd369a8a	-0.044580974
55	0xbe29c137	-0.16577612
56	0xbd10052d	-0.035161186
57	0xbd236ede	-0.039900653
58	0x3daaca5d	0.08339379
59	0xbe003ec3	-0.12523942
60	0x3bd3221d	0.0064432756
61	0xbe211234	-0.157296
62	0x3dbeb64c	0.09312114
63	0x3d48d6a8	0.049032837
64	0xbcd31b22	-0.025769774
65	0xbb99e6e1	-0.0046967124
66	0x3d368224	0.044557706
67	0x3e236c10	0.15959191
68	0xbcd055c1	-0.025431516
69	0xbd3a9607	-0.045553233
70	0x3d4f536d	0.05061667
71	0xbd861b1f	-0.06548142
72	0x3e2b533b	0.16730969
73	0xbcbf881d	-0.023380334
74	0xbca4669a	-0.020068455
75	0x3b0bccae	0.0021331715
76	0xbdba05eb	-0.0908316
77	0xbd876b35	-0.06612245
78	0xbd8f2c85	-0.06990913
79	0xbe5643cf	-0.20924304
80	0x3e11661a	0.14199105
81	0x3cb20171	0.021729203
82	0x3de11107	0.10989576
83	0xbdbfc130	-0.093630195
84	0xbeaab584	-0.3334161
85	0xbd8c2b8b	-0.06844243
86	0x3d67047f	0.056400772
87	0xbd8ce82d	-0.068802215
88	0x3bc3d2a3	0.0059760376
89	0x3dbcad93	0.09212794
90	0xbdb60411	-0.08887494
91	0xbc874dc3	-0.016516572
92	0xbcad6345	-0.0211655
93	0x3d1cfe15	0.03832825
94	0xbdb517e8	-0.088424504
95	0x3d94be4e	0.0726286
96	0x3dee45aa	0.11634381
97	0x3d519e5f	0.051176425
98	0xbe145130	-0.14484096
99	0x3dd96d10	0.10616505
100	0x3db4b992	0.08824457
101	0xbd817c3f	-0.06322526
102	0x3db03600	0.0860405
103	0xbda1bff8	-0.07897943
104	0x3d1d1c99	0.03835735
105	0x3aa4765e	0.0012547483
106	0x3d70a7a5	0.05875363
107	0xbe801cae	-0.2502188
108	0xbe4349f6	-0.19071183
109	0xbcec839c	-0.02887135
110	0xbdd6c65e	-0.10487054
111	0x3b2efdff	0.0026701686
112	0xbd678336	-0.056521617
113	0x3cf15396	0.029458802
114	0xbd0b8dac	-0.034070656
115	0x3dd5123e	0.1040387
116	0xbd27ebc7	-0.04099634
117	0xbd90c5ea	-0.07068999
118	0xbb1799d2	-0.0023132456
119	0xbe153b25	-0.14573343
120	0x3e08d3af	0.13362001
121	0xbddc743f	-0.1076436
122	0xbde1ba78	-0.11021894
123	0xbd9a4846	-0.07533316
124	0xbd8cdf36	-0.068785116
125	0x3e10c776	0.14138588
126	0x3d48ef85	0.04905655
127	0x3dedf743	0.11619427
128	0xba060e99	-0.00051138696
129	0xbd73a7d1	-0.059486214
130	0x3d77b116	0.060471617
131	0xbe8b8821	-0.27252296
132	0x3e28ac7f	0.16472052
133	0x3d0afece	0.033934407
134	0x3daafd7e	0.08349131
135	0x3dec2787	0.11530977
136	0x3d3ac453	0.045597386
137	0x3e157cce	0.1459839
138	0xbdd4b7b3	-0.103866
139	0xbd4e83f9	-0.050418828
140	0x3d4015d5	0.04689582
141	0x3dd4ebfe	0.103965744
142	0xbe261669	-0.16219486
143	0xbde57761	-0.1120441
144	0xbe2fc22b	-0.17163913
145	0xbd514398	-0.051089853
146	0x3ca26e13	0.019827878
147	0xbe511217	-0.20417057
148	0x3db99863	0.090622686
149	0x3ba355ad	0.0049845786
150	0xbe274fa0	-0.16338968
151	0xbc8cdba9	-0.017194586
152	0xbd46d390	-0.048541605
153	0x3e13428e	0.14380857
154	0x3e0028a2	0.125155
155	0x3e3417c6	0.17587194
156	0xbd9441bd	-0.07239101
157	0x3e1bb5c6	0.1520606
158	0xbd8f6534	-0.07001725
159	0x3db8ba27	0.09019881
160	0xbd9079b2	-0.070544615
161	0x3c478a40	0.012178957
162	0xbcc07472	-0.023493025
163	0x3e492776	0.1964396
164	0x3d8cef25	0.06881551
165	0x3cd66cd2	0.026174936
166	0xbdfbdd9f	-0.1229813
167	0x3d97d3fd	0.074134804
168	0x3e3358b3	0.17514305
169	0xbe1091f3	-0.14118175
170	0x3d54f298	0.051989168
171	0xbd796ce5	-0.060894866
172	0x3e18efd5	0.14935239
173	0xbda580d4	-0.08081213
174	0xbb39b884	-0.002833874
175	0x3daaf104	0.08346751
176	0x3e11bff6	0.14233384
177	0x3e24b9b5	0.16086467
178	0x3c314650	0.010819986
179	0xbd0459e6	-0.032312296
180	0xbda2e67f	-0.0795412
181	0x3d78ce83	0.06074382
182	0xbdce0859	-0.10060186
183	0x3d97c5c4	0.07410768
184	0xbcaa5fdb	-0.02079766
185	0xbb24c5da	-0.0025142343
186	0xbcf4a9eb	-0.02986618
187	0xbb2c7e70	-0.002632048
188	0xbc9a36f1	-0.018825026
189	0x3c8a896b	0.01691123
190	0xbe19c556	-0.15016684
191	0x3e837932	0.25678402
192	0x3c0a9edc	0.008460727
193	0x3b501e40	0.0031756312
194	0xbcad003c	-0.021118276
195	0xbd12e25f	-0.035860416
196	0x3e6a67ea	0.22891203
197	0x3cbf928a	0.023385305
198	0xbd73e770	-0.059546888
199	0xbe0e351b	-0.13887446
200	0x3b4fb2c0	0.0031692237
201	0x3d6eccdc	0.058300838
202	0x3deab542	0.114603534
203	0x3e0df791	0.1386397
204	0x3e0ab73b	0.1354646
205	0xbdc4c026	-0.09606962
206	0xbd1383c5	-0.036014337
207	0xbd4995aa	-0.049214996
208	0xbd9525df	-0.07282614
209	0x3ea5136a	0.32241374
210	0xbc59e97e	-0.013300298
211	0xbd087de7	-0.033323195
212	0x3ce9de14	0.028548278
213	0x3da3a227	0.079899125
214	0xbdbdec37	-0.0927357
215	0x3e1f6fea	0.15570036
216	0x3d914eb4	0.070950896
217	0x3c14eee3	0.009090158
218	0x3caaf33f	0.020867942
219	0xbd17c913	-0.037056994
220	0x3dcb6280	0.09930897
221	0xbd132d07	-0.035931613
222	0x3da2f6fb	0.07957264
223	0xbc466618	-0.012109302
224	0x3d60a1cf	0.054841813
225	0x3e2ea5ea	0.17055479
226	0x3e097f78	0.13427532
227	0xb9699e65	-0.00022279618
228	0xbccd4e18	-0.025061652
229	0xbdae8b6b	-0.085226856
230	0x3d67e6f7	0.05661675
231	0x3b5a3729	0.0033297038
232	0xbd8cc253	-0.06873002
233	0xbe317af3	-0.17332058
234	0xbcaff26f	-0.021477906
235	0xbe74b883	-0.2389851
236	0xbe201629	-0.15633453
237	0x3da8d44d	0.08243618
238	0x3d597aa2	0.053095467
239	0x3db49844	0.08818105
240	0x3d9df36c	0.07712445
241	0x3afea67d	0.001942828
242	0xbd62deb7	-0.05538818
243	0x3e1e2fad	0.15447874
244	0xbd18fbe9	-0.037349615
245	0xbde106ad	-0.109876014
246	0x3d9ea18a	0.07745655
247	0x3d42ac04	0.047527328
248	0x3b99fafa	0.004699108
249	0x3dcb4b44	0.09926465
250	0x3bf0333d	0.007330327
251	0xbd6b5cbf	-0.057461496
252	0xbc1dfbff	-0.0096426
253	0xbd913c10	-0.07091534
254	0x3aee3406	0.0018173463
255	0x3c5d87af	0.013521119

bias f4 [128]
0	0xbe2156eb	-0.15755813
1	0xbe1539be	-0.14572808
2	0x3df6bb56	0.1204745
3	0x3e16740b	0.14692704
4	0xbe2f9a5b	-0.17148726
5	0x3df71a85	0.12065605
6	0x3ce26577	0.027636273
7	0x3dfdb5c8	0.12388188
8	0xbe3d7fb6	-0.18505749
9	0xbe4d7f0c	-0.20067996
10	0xbe480f24	-0.19537026
11	0x3dfc3a36	0.1231579
12	0xbe13afc1	-0.14422514
13	0xbdc3d593	-0.095622204
14	0xbdbcc6cc	-0.09217605
15	0x3d91119c	0.07083437
16	0x3e25f48f	0.16206573
17	0xbe21130a	-0.15729919
18	0xbda16eac	-0.07882437
19	0x3e0e9104	0.13922507
20	0xbe0e8c8b	-0.139208
21	0x3db734f3	0.08945646
22	0x3dfba1b6	0.12286703
23	0x3dcc9388	0.09989077
24	0xbd03f96e	-0.032220297
25	0x3e29a147	0.16565429
26	0xbe8aec1e	-0.27133268
27	0xbddf70ed	-0.10910211
28	0x3e29d5ca	0.1658546
29	0xbd80c54f	-0.06287634
30	0x3da834a4	0.082131654
31	0x3e0fbbb6	0.1403645
32	0x3e1ac444	0.15113932
33	0xbe066198	-0.13123167
34	0x3e3c1fee	0.18371555
35	0xbe016f03	-0.12640004
36	0x3e244fb4	0.1604603
37	0x3e7f9e51	0.24962737
38	0xbdb26a06	-0.087116286
39	0x3e473645	0.19454296
40	0xbe02732d	-0.12739249
41	0xbd926dd0	-0.07149851
42	0xbe091654	-0.13387424
43	0xbdcf86d0	-0.10133135
44	0x3dfdc6d1	0.12391437
45	0xbe1229be	-0.14273736
46	0x3dfbd34f	0.12296163
47	0xbde8611a	-0.11346646
48	0xbe6af243	-0.22943978
49	0xbdec0a66	-0.11525421
50	0xbe875178	-0.26429343
51	0x3dd69388	0.10477358
52	0xbde757f8	-0.112960756
53	0x3e0674b1	0.13130452
54	0x3e112597	0.14174496
55	0x3e0a0d0a	0.13481537
56	0x3dea489f	0.114396326
57	0x3dd94c95	0.1061031
58	0x3e228f93	0.15875082
59	0xbe1f49d0	-0.15555501
60	0x3e29997c	0.16562456
61	0xbe246ccc	-0.16057128
62	0x3e3a9a84	0.18223006
63	0x3ddf9d85	0.10918716
64	0x3e0bdaec	0.13657731
65	0xbe152383	-0.14564328
66	0xbdbe242c	-0.09284243
67	0xbdfe6acc	-0.12422714
68	0xbe10872c	-0.14114064
69	0x3de09489	0.10965831
70	0xbc312c00	-0.010813713
71	0x3e82e1d9	0.25562933
72	0x3e2afd56	0.16698202
73	0xbe24e0ad	-0.16101332
74	0x3e352498	0.1768974
75	0xbe18f5ed	-0.14937563
76	0x3e01560f	0.12630485
77	0x3d86070b	0.06544312
78	0x3dfdeb68	0.12398416
79	0x3dd23dad	0.1026567
80	0x3e036a5d	0.12833543
81	0x3de61025	0.11233548
82	0x3e549f3c	0.20763868
83	0x3e063231	0.13105084
84	0x3deb5cc2	0.114923015
85	0x3dedb950	0.11607611
86	0xbdcf95f9	-0.10136027
87	0x3e00e1ee	0.12586185
88	0xbe38baeb	-0.18040054
89	0x3e085c5e	0.13316485
90	0x3deee784	0.11665252
91	0xbe0647e3	-0.1311336
92	0xbdcf403f	-0.10119676
93	0xbdd8a493	-0.10578265
94	0x3df71781	0.1206503
95	0x3b8e66da	0.004345757
96	0xbe27a2e2	-0.16370729
97	0xbe12a77e	-0.14321706
98	0xbe185f40	-0.14880085
99	0x3e0510be	0.12994668
100	0xbdc7617f	-0.09735393
101	0x3e21ce22	0.1580129
102	0x3e02e77b	0.12783615
103	0xbde58550	-0.11207068
104	0xbe1a25a6	-0.15053424
105	0x3e2c359d	0.16817327
106	0x3de4a9c4	0.11165193
107	0xbdf69aef	-0.1204127
108	0xbdc4c096	-0.09607045
109	0xbe295233	-0.16535263
110	0xbe581bf7	-0.21104418
111	0xbe0331ef	-0.12812017
112	0x3e165cc5	0.14683826
113	0x3de90d22	0.11379458
114	0x3da194f1	0.078897364
115	0x3e0c02bf	0.13672923
116	0x3db687a7	0.089125924
117	0xbe53a05b	-0.2066664
118	0xbe09a886	-0.13443193
119	0xbe8369ca	-0.25666648
120	0xbdf76cd9	-0.12081308
121	0xbe057129	-0.13031448
122	0xbde6237f	-0.11237239
123	0x3e1907a9	0.14944328
124	0xbe028a87	-0.12748156
125	0x3ddb92eb	0.10721382
126	0x3e070131	0.13184048
127	0xbda4db17	-0.080496006

weight f4 [1, 128]
0	0xbd90f36e	-0.070776805
1	0xbe630f7b	-0.22173874
2	0x3e42aae3	0.190105
3	0x3e8c6ce0	0.27426815
4	0xbd830a9c	-0.06398508
5	0x3cee3c97	0.029081626
6	0xbb68d4d0	-0.0035527237
7	0x3da2d6cd	0.07951126
8	0xbe0b024c	-0.13575095
9	0xbde0421f	-0.109501116
10	0xbd878989	-0.066180296
11	0x3c196b7a	0.009364003
12	0xbd48e87e	-0.049049847
13	0xbd598d7d	-0.05311345
14	0xbdae417a	-0.085085824
15	0xbb1d1c86	-0.00239733
16	0x3e2d1546	0.16902646
17	0xbde83188	-0.11337572
18	0xbd973094	-0.073823124
19	0x3db50666	0.08839111
20	0xbe85d27c	-0.2613715
21	0x3e070220	0.13184404
22	0x3da656e7	0.08122044
23	0x3cc5fb48	0.024167672
24	0xbc45f066	-0.012081241
25	0x3d6be5ae	0.057592086
26	0xbd4d5507	-0.050129917
27	0xbd4171ed	-0.04722779
28	0x3dad6b6b	0.08467754
29	0xbdaf3bff	-0.08556365
30	0x3d0c74fd	0.034291256
31	0x3da81439	0.08206982
32	0x3d10e964	0.03537883
33	0xbd6ca10b	-0.05777077
34	0x3e12f93d	0.1435289
35	0xbe2c3ab5	-0.1681927
36	0x3d145876	0.036217175
37	0x3dc4e333	0.09613647
38	0xbda437ee	-0.0801848
39	0x3db75947	0.08952575
40	0xbd2dddd0	-0.042447865
41	0xbce7c386	-0.028291475
42	0xbcfb7f53	-0.030700361
43	0xbdb69cee	-0.08916651
44	0x3e8c7fa1	0.27441123
45	0xbe155d9a	-0.14586487
46	0x3e1d2db7	0.1534947
47	0xbdb58dbe	-0.08864926
48	0xbd5c707b	-0.053818207
49	0xbc810ac1	-0.015752198
50	0xbe031b0f	-0.12803291
51	0x3e76e083	0.24109082
52	0xbe61ed7e	-0.22063252
53	0x3dca6e9c	0.09884378
54	0x3d82d3a1	0.06388021
55	0x3d11cf13	0.035597872
56	0x3e0ed326	0.13947734
57	0x3ca0007a	0.019531477
58	0x3d11bb02	0.035578735
59	0xbe0e1b61	-0.13877632
60	0x3e1d8173	0.15381412
61	0xbe04d1e2	-0.12970689
62	0x3e1c8262	0.15284112
63	0x3cd993e1	0.026559772
64	0x3dbc1418	0.0918352
65	0xbeba4543	-0.36380967
66	0xbe487117	-0.1957439
67	0xbd84028b	-0.064457975
68	0xbd1ba227	-0.037996437
69	0x3c857dc9	0.01629533
70	0x39e5292f	0.00043708968
71	0x3d83f978	0.06444067
72	0x3d62d07a	0.0553746
73	0xbd7fa829	-0.06241623
74	0x3dcc51fb	0.09976574
75	0xbca479f8	-0.02007769
76	0x3db65407	0.08902746
77	0x3bdbb9af	0.006705485
78	0x3e130bd7	0.14359985
79	0x3d5023c2	0.05081535
80	0x3daf2b02	0.08553125
81	0x3d91eb10	0.07124913
82	0x3e2b96ad	0.16756697
83	0x3d371b1b	0.044703584
84	0x3ccf8d3c	0.0253359
85	0x3e94c0d0	0.29053354
86	0xbc3afe78	-0.011413209
87	0x3ceb1f6c	0.028701507
88	0xbdfe1c4b	-0.1240774
89	0x3ca473e6	0.020074796
90	0x3dd3898d	0.1032897
91	0xbd2efd88	-0.042722255
92	0xbde5e45b	-0.11225196
93	0xbdb733db	-0.089454375
94	0x3e1562b5	0.14588435
95	0xbaf67749	-0.001880386
96	0xbe3096f9	-0.17245091
97	0xbdc5e1cb	-0.09662207
98	0xbe3058b5	-0.17221339
99	0x3d538f3c	0.05165027
100	0xbe0b1bb0	-0.1358478
101	0x3dcee2e2	0.10101868
102	0x3c4fbb6c	0.012678962
103	0xbd4698b8	-0.048485488
104	0xbde64d12	-0.11245169
105	0x3dc66e95	0.096890606
106	0x3cdd6d00	0.027029514
107	0xbccb29cc	-0.024800204
108	0xbba2879e	-0.0049600145
109	0xbd07fa8f	-0.033197936
110	0xbe3337c9	-0.17501749
111	0xbda0a5cc	-0.07844123
112	0x3df67754	0.12034479
113	0x3d89d4e5	0.067300595
114	0x3dc5fa5f	0.09666895
115	0x3d481fc5	0.048858423
116	0x3cbea6f9	0.023272978
117	0xbd5bb1f4	-0.053636506
118	0xbd5258a4	-0.051354066
119	0xbe00bcb4	-0.12571985
120	0xbe9d3f02	-0.30712134
121	0xbd284936	-0.041085444
122	0xbd4e3b0c	-0.05034928
123	0x3e01fae5	0.12693365
124	0xbda454e6	-0.080240056
125	0x3dd96db6	0.10616629
126	0x3de2aa73	0.11067667
127	0xbc659831	-0.014013336
