trained_models/ppo/me5418-Cassie-v0/0523-16-10-05-s3737/critic.pt (torch, 96254 bytes, 5 tensors)

weight f4 [128, 50]
00000000: ef0a 2dbd f5e5 96bd 6090 cabe 97a1 9fbe
00000010: fb5c 93be cac4 d63c 944a c0bd 25c8 31bc
00000020: bfb3 62bb 24cd 7d3d 883a 22be 62fe 32be
00000030: 2599 953d 65b2 1ebd 3cae 22bd 8426 f2be
00000040: 9604 46bc 62d3 5e3d f21f 3dbe 203e a2bd
00000050: 1811 493d 7ff0 31bd 7716 1b3d cb32 f93b
00000060: 7b24 f23d acd6 22be 00cd a1bd 3807 5a3d
00000070: 3768 58bc 014f 39bd 4461 933d 6143 1e3d
00000080: 5a46 463c 74fb 41bc 469b 2a3e b9a7 edbd
00000090: 9868 32bd 70f5 1e3e 3bf7 843d 0eba 063c
000000a0: 8bf2 f33d f995 88bd df6c de3d 8a89 293d
000000b0: f002 883c f91a bfbd e17f 06be 8582 36be
000000c0: 1bac 0f3e d47a abbc 3e5f b8bd 7cb7 13bd
000000d0: 5f31 d53e f22d 0ebd a1fa e23d 139a 043d
000000e0: 63de 8d3c 404b 223d b27a c8bc bdc1 11bc
000000f0: 5f84 c73e 9bc8 b0bd ea75 e6bd cedd 223e
00000100: 6122 f23d bb3d a2bd 11a9 e73d a481 a3bc
00000110: c581 933d 83dc 7bbd cf05 72be 478b 5d3d
00000120: 6b67 dbbd 383e 093e 8335 21bc 7309 e93d
00000130: 27eb 3a3e 017d c3bd e06f 47bd f454 34bc
00000140: c054 053e 5013 1f3c 97eb cf3c d886 3fbd
00000150: 1bc7 883e e010 75bd 5f6d f2bb bb3a 503e
00000160: a61d 0abe 3382 433d 043a 87bc fdbe 17be
00000170: 8e2d 89bc fffb d2bd a2fd 3cbd 48de 1bbe
00000180: eae8 823c 9afe d73c 839e 5cbe 0219 9bbb
00000190: 9a91 6b3d b62a c8bd 68ba 0e3f 40d0 453d
000001a0: 4237 1b3e 668c 923e 81aa 003e 1be8 6abd
000001b0: 8f51 25be b096 55bc d7f3 b83e 8b8f e53d
000001c0: 979e 3fbd 4b83 043d 15c6 cebc 44a8 3bbe
000001d0: 04fd 36be 180a 03bd 8a0b 2a3e 24d0 b33d
000001e0: 3a95 80bd b1e8 c43d 5c7a e5bc 8ef9 dd3d
000001f0: 26f1 ad3d df82 c43c bc86 453d 685c 87bd
00000200: 9bd9 4d3d 2a1b 8fbd 7d46 393e a418 abbd
00000210: 7367 e53c 80e2 8bbc e74a 193e 16c4 0ebe
00000220: e616 d03c 99b0 43be fad9 c33d 1843 e43d
00000230: 744c 1dbd 087d a7bd 680a b6bd 5c0d 02bd
00000240: 481b d03c 4820 e0bd 7b68 153e 9e67 51bd
00000250: 3115 f23b 5f55 82bc e499 9cbe 267d 9a3e
00000260: e00b 4f3e 6173 4a3d f9f3 89bd df0b 02be
00000270: 181f 4dbe c252 c9bc 13b8 5b3e bd40 e6bd
00000280: 3a0e 0a3c 7232 053e 164e 713d 740c 803e
00000290: 3881 88bd f4df bfbd 0526 8f3c 1162 d4bc
000002a0: 4dac 633e f43a 1a3e 70ea a03c 611e e63c
000002b0: 9bc2 a03c 0604 44bd 17e9 0ebd e7c0 a83c
000002c0: f230 fe3d ee2d cc3b ee91 c4bd 7644 593d
000002d0: 8b57 32bc 27fb 0b3d d7e4 0eba 7c09 33bd
000002e0: b898 9fbc 1694 41be da60 01bd 59b0 50be
000002f0: 73aa abbd 0314 0dbe 9c58 7bbd c505 06bd
00000300: 7200 20bc 695a c53c 5737 733d d3e9 a13c
00000310: 9f76 2e3e dac1 193e e42b 3ebe f2b7 7e3d
00000320: 11e9 53bd 094b 8a3e cb37 6fbe 5aef 9c3c
00000330: f02b 4dbe bd78 6fbd c053 0b3e cdee 03bd
00000340: 6378 743e 832f 86be 94b7 943a cd62 13bd
00000350: e0e6 6b3d 3277 ee3c 6b33 a6bd fe40 613e
00000360: 1c3c c13d 12f8 f1bc fb6a 26be 17c3 503e
00000370: ec7c 2abc 977d 46bd dd0b 0dbc d327 3dbd
00000380: fe95 a73d 83aa e1bb 79f7 acbd 4916 ce3c
00000390: 1b38 cabd 4590 88bd cf32 853d 864b b43d
000003a0: 33ff 4a3b 4115 bebc 87a8 a7bd c180 893d
000003b0: ccc9 8a3b 60df 91bd 6f0d b63c 1b9b 8d3c
000003c0: 6682 293e 0bb4 2f3d 27cf 86bb 2002 fc3d
000003d0: 8fd2 69bc c0a1 37bc 1232 873d 0df6 a63d
000003e0: e7c2 3cbe e7f9 6ebe 1fc0 8dbd 974c 10be
000003f0: 7ab2 61bf 68bb 09bb 2b18 d6be 9b12 debe
-0.042246755 -0.073680796 -0.39563274 -0.3117797 -0.28781876 0.026216883 -0.09389225 -0.010850941
-0.0034592 0.061963215 -0.1584264 -0.17479852 0.073046006 -0.03874435 -0.039716944 -0.4729501
-0.012086054 0.05440081 -0.18469217 -0.07922006 0.049088567 -0.043442246 0.03786322 0.007604932
0.11823364 -0.15902203 -0.07900429 0.05322954 -0.0132084405 -0.04524136 0.07196286 0.038638476
0.012101734 -0.011839736 0.16660795 -0.11604256 -0.04355678 0.15523314 0.06492468 0.00822307
0.11911496 -0.0666923 0.10860609 0.041390933 0.016602963 -0.093313165 -0.1313472 -0.17823227
0.14030497 -0.020932592 -0.09002541 -0.036063656 0.4163923 -0.034711786 0.1108296 0.0323735
0.017317956 0.039622545 -0.024472568 -0.008896288 0.3896818 -0.086320125 -0.11252959 0.15904924
0.118229635 -0.079219304 0.11311544 -0.019959278 0.07202486 -0.061489593 -0.23635028 0.054087903
-0.10713085 0.13402641 -0.009839418 0.113787554 0.18253766 -0.09545327 -0.048690677 -0.0110065825
0.13020611 0.009709194 0.025380893 -0.046759456 0.26714405 -0.059830546 -0.007398292 0.20334904
-0.13487872 0.04773159 -0.016507156 -0.1481895 -0.016745355 -0.10301971 -0.04614032 -0.15221512
0.015980203 0.02636652 -0.21544842 -0.004733206 0.057511903 -0.097737715 0.55753183 0.048294306
0.15157798 0.2862274 0.12565042 -0.05735026 -0.16144393 -0.013036415 0.36123535 0.11209019
-0.046782102 0.032351773 -0.025240937 -0.18325907 -0.17869955 -0.031992048 0.16605964 0.08779934
-0.06278463 0.09614695 -0.028012447 0.108386144 0.08493261 0.023988185 0.048224196 -0.06609422
0.050256353 -0.06987603 0.18093295 -0.08354309 0.02800343 -0.017075777 0.14969979 -0.13941988
0.025401544 -0.19110335 0.0956306 0.111456096 -0.03840299 -0.08178145 -0.088887036 -0.03175102
0.025403634 -0.10943657 0.14590637 -0.051124208 0.00738778 -0.015909849 -0.3058616 0.30173606
0.20219374 0.04942644 -0.06735987 -0.12699841 -0.20031393 -0.024575595 0.21456937 -0.112428166
0.008426243 0.13007525 0.05891236 0.250095 -0.066652715 -0.093688875 0.017474184 -0.025925668
0.22233696 0.15061551 0.019643039 0.028090658 0.019624045 -0.0478554 -0.03489026 0.020599796
0.12411679 0.006231061 -0.095981464 0.053043805 -0.01088513 0.034175064 -0.000545097 -0.043710217
-0.019482002 -0.18904147 -0.031586505 -0.20379771 -0.0838212 -0.13777165 -0.0613638 -0.032720346
-0.009765731 0.024090962 0.059378948 0.019764816 0.17037438 0.15015355 -0.1857143 0.062187143
-0.05173594 0.27010372 -0.23361127 0.0191571 -0.20036292 -0.058464754 0.13606167 -0.03221016
0.23874049 -0.26208124 0.0011346214 -0.035982896 0.057593226 0.029109571 -0.08115276 0.21997449
0.09435293 -0.029537234 -0.16251747 0.20386921 -0.01040576 -0.048459616 -0.008608785 -0.046180557
0.081829056 -0.0068867817 -0.08445639 0.02515711 -0.098739825 -0.06668142 0.065038316 0.088034675
0.0030974864 -0.023203494 -0.08186441 0.06714011 0.004235482 -0.071226835 0.022223203 0.017285874
0.1655365 0.04289631 -0.00411405 0.12305093 -0.0142713925 -0.011207998 0.06601347 0.08152399
-0.18433724 -0.23337518 -0.0692141 -0.14091717 -0.8816296 -0.0021016244 -0.41815314 -0.4337357

bias f4 [128]
00000000: 0e80 55bd dabd 813e 8fee e63d 273e 48bd
00000010: 680b 7ebd 0f7b b53d a54b 0f3e 4433 aebd
00000020: 3263 b73d f54c b43c e424 54bd 21a8 b73d
00000030: 38d5 ad3d 1e32 07bc 7e90 11bd 8361 aebd
00000040: bdb7 92bd 47a1 d13d 1648 0fbd a0e6 ad3c
00000050: 4a4f 153d 5013 143d b117 de3b 2bd6 babd
00000060: 08c9 603e 2c6f 5f3d de3c 293c 2729 973c
00000070: 82eb f4bd c156 bcbd 4e77 ccbd 168b 81be
00000080: 370d 593d 2cda 85bb fed9 28bd f24c a73c
00000090: 0ba1 6bbd 69eb cf3d 3446 84bd 11c8 16bd
000000a0: b06a 6b3d 56c0 08bd 74a1 adbd 2340 8f3d
000000b0: 83e8 aa3b 13d1 bfbd 9b69 e4bc a93d 7dbc
000000c0: 6f1f 993d 642d 8a3d b2f1 203d 43e6 b9bc
000000d0: a2df e0bc 3001 3ebd ea9f 90bd bd8b 26be
000000e0: 7bbf 8dbd 9487 abbc c966 6bbc 1ae0 853b
000000f0: ff1d 1cbd 8768 16be c25f 49bb 801d 6b3d
00000100: 0966 cdbd c7bf 9a3d 0c47 d7bd 6d8e e03d
00000110: c8e5 1f3d 4c8d c73d a0c6 67bd f78c 263d
00000120: 51f4 07bc 6028 24bd e795 153c 62eb edbd
00000130: 52d7 e13d 296f 76bd cda4 05be a5f7 ab3b
00000140: 4c74 073e 63a7 b23c 9aec 233d 6f9b b93d
00000150: f624 b0bd af9e 923e e0aa b1bd f92e 733d
00000160: 268c 5cbc 2f70 a3bd 993b 913c 8156 1ebd
00000170: 4765 6e3c 1cf0 013d 5562 2b3d 4eb7 6e3d
00000180: 027f 2d3d d34f 993d b441 8cbd 34f4 6d3d
00000190: 2395 5ebd 9f20 89bd ed47 d83d 7d80 90ba
000001a0: 0b4b 04be 725c e8bc 969b bfbc 02b5 28be
000001b0: 4726 81bd 5103 0bbe 5860 933d f6b3 b3bd
000001c0: 36e8 2b3e 8f7c 5fbd 539e 16be 93e8 883d
000001d0: 885b f0bc 1185 9ebd e5f5 14bd 5736 853d
000001e0: c498 c13d 5aab a93c b6c0 6c3d a881 c0bd
000001f0: 8570 82bd 60d5 45bc 3b0c 853d 3371 393e
-0.052124076 0.25340158 0.1127597 -0.048887398 -0.062022597 0.08861362 0.139937 -0.08505872
0.08954467 0.022009352 -0.051792994 0.08967615 0.08487934 -0.008251695 -0.03553819 -0.08514693
-0.071639515 0.10235839 -0.034980856 0.021228135 0.03645257 0.03615123 0.0067777266 -0.091228805
0.21951687 0.05454938 0.010329453 0.01845224 -0.11958982 -0.091962345 -0.09983693 -0.25301427
0.05299112 -0.004084846 -0.04122352 0.020422433 -0.05752663 0.10152323 -0.06458703 -0.036811892
0.057474792 -0.03338655 -0.0847806 0.06994655 0.005215706 -0.093660496 -0.027882388 -0.015456595
0.074766986 0.06746939 0.039293 -0.022692805 -0.027450386 -0.04638785 -0.07061751 -0.16264243
-0.069212876 -0.020938672 -0.014367768 0.004085553 -0.038114544 -0.14688312 -0.0030727242 0.05740118
-0.10029227 0.0755611 -0.10511598 0.109646656 0.039037496 0.09743747 -0.056585908 0.04066178
-0.008297996 -0.040077567 0.009129978 -0.11617161 0.11027397 -0.060164604 -0.13051148 0.0052480274
0.13227957 0.021808332 0.040020563 0.0906285 -0.086008 0.2863669 -0.0867517 0.05937097
-0.013461148 -0.07980382 0.017728614 -0.038656715 0.014550514 0.031723127 0.041841824 0.05828028
0.042357452 0.074859284 -0.068484694 0.05809422 -0.054341447 -0.06695675 0.10560594 -0.0011024621
-0.12919252 -0.028364394 -0.023389619 -0.16475299 -0.06306129 -0.13575484 0.071961105 -0.08774559
0.167878 -0.054562148 -0.14708833 0.06684985 -0.02934052 -0.07740224 -0.036367316 0.06504505
0.09452966 0.02071159 0.05780097 -0.0939973 -0.06369118 -0.012074798 0.064964734 0.18109588

weight f4 [128, 128]
00000000: 7e79 bc3d 31cc 873d cb6a 0e3c a6c8 c83c
00000010: c6cb da3d 68d5 8fbd 2701 f13c 78d9 683c
00000020: a6e7 f03a 4c3e ef39 fbdb 00bd 2a53 9a3d
00000030: 81b3 813c b863 923d 35d7 cabd c31d 423e
00000040: fa05 ecbc 2e82 573c 72ff a4bb c3ad 57bc
00000050: 48b4 b03d 28ba cfbd 3a18 a23d fac4 a4bd
00000060: 33f9 793d a0b0 063d 8244 f1bd eebc 13be
00000070: 584d e33d 3ce9 b03c 65ef 30be 36e9 62be
00000080: 79dd 853c d04e 323d 2840 61bd e267 8d3c
00000090: b077 7a3c 726f 883d 1804 85bd f358 64bd
000000a0: 1fa7 05be ace8 c23b 82ee 973d 0864 003d
000000b0: fd5e 11be 3adc 1b3e 6321 253d 6da7 76bc
000000c0: 272f ba3c 23d1 283d fe03 1e3d bd86 f23b
000000d0: a9e7 03be 2d30 6d3d aa36 07bd 511b 30be
000000e0: a821 40bd 2b57 50bd 3c5e bd3d 55d2 04be
000000f0: 4793 343c 4083 25be 82fd c03d 482d 623d
00000100: 7bd5 12bd aa8b 8fbc 0bf9 303d ced6 2a3e
00000110: ebab 97bc c98c 24bd 7e19 4f3d d8e1 85bd
00000120: 25d2 2e3e d824 2ebc 91b8 c9bc 7194 0639
00000130: 12a0 b6bd d847 76bd 1337 9ebd 2a25 57be
00000140: d134 123e 449f 5e3c 8dd0 ce3d 523e cfbd
00000150: 623a a9be 064f 71bd 9d49 8c3d c1bc 9abd
00000160: ab51 0c3c 85cf c33d 0d24 c6bd 92ff e5bc
00000170: 57a0 25bc 1bf7 123d b144 bbbd 3240 7b3d
00000180: 2cd2 e73d 77ef 423d a8e8 1fbe 475a d53d
00000190: a7f3 d13d 0621 61bd dbc1 b93d 2a59 a6bd
000001a0: 58dc 023d c82a debb 03b7 713d e692 80be
000001b0: 3f3e 39be feec 01bd 563a d3bd 3293 5dbb
000001c0: 8ed0 3bbd 84db f63c 18fe 23bd 060f da3d
000001d0: 073c 20bd 9824 9bbd e60f 6e3b fd62 18be
000001e0: c6ff 003e 1702 b9bd 8ef8 e7bd bad0 8abd
000001f0: b826 95bd da10 103e bfd3 583d 4b65 f23d
00000200: 4d62 babb 765c 5fbd a3d0 873d bed6 89be
00000210: 117d 273e 0e02 0e3d 5fe0 9d3d 6601 003e
00000220: 2eeb 403d 4c29 0d3e 9dc1 bbbd ea85 5fbd
00000230: 48a7 443d bde5 db3d 0e2d 32be c5c6 e3bd
00000240: bdb6 2dbe ca68 48bd 3420 c93c babf 56be
00000250: 3267 c03d 3495 c03b 6b47 20be 38eb 56bc
00000260: 0973 50bd b763 133e a8c1 eb3d 603a 343e
00000270: 26a1 8fbd 157e 173e b485 6ebd ff70 bb3d
00000280: 8f5a 98bd 7060 793b 3aab 07bd a71d 4a3e
00000290: ed25 8f3d e65d be3c 88c7 02be 0754 983d
000002a0: e1f2 343e a2bd 12be f9bf 453d 0920 8fbd
000002b0: a635 173e 24e7 a3bd 6cf5 97bb d901 aa3d
000002c0: 1851 173e c366 233e 3c9e da3b 8190 32bd
000002d0: 3c9c b4bd 75ab 673d 5f25 cfbd 89d3 9a3d
000002e0: ae08 a8bc 4466 babb 1d29 cbbc 5ce1 a83b
000002f0: 7b46 70bc db41 913c 7b9c 1dbe 9d7d 853e
00000300: f07c dd3b 64da 5939 0a9a b1bc 143d 09bd
00000310: 97b1 723e 0f01 c23c 2326 89bd e829 0bbe
00000320: c56e ee3b 2529 823d c28f e33d c5f9 0c3e
00000330: 326c 113e 8504 b1bd f0ab fdbc de3d 56bd
00000340: 177e 95bd eb47 a53e b46c 57bc b8f6 11bd
00000350: eb45 993c ae2b ac3d a6c5 bebd 3bf9 213e
00000360: e724 913d 5590 f03b 1272 7a3c effd 1dbd
00000370: cf1b d23d 5b64 3dbd 9ba8 b83d 876f 54bc
00000380: ac62 5b3d 4453 2f3e f811 073e b25b 83ba
00000390: 37b1 d6bc 44b9 aebd 3cd4 503d 5e93 31ba
000003a0: a3bd 8fbd 65d0 2bbe 53d4 9cbc eab0 6ebe
000003b0: 7577 1abe ce62 a83d 8eef 6e3d 98cc b23d
000003c0: dbe9 a33d 181f cc3b dccd 76bd e3ef 1d3e
000003d0: cdd3 06bd d2aa e6bd 09c5 a93d 4c20 503d
000003e0: 8dec 053b fd0b d53d 8a62 643b e9a5 74bd
000003f0: df28 b2bc ba79 a7bd d2bf 063c fcc7 1e3c
0.0920286 0.06630743 0.008692454 0.02450974 0.10683398 -0.07023126 0.029419495 0.014212005
0.0018379583 0.00045632047 -0.03145979 0.075353935 0.015832664 0.07147926 -0.09904329 0.18956666
-0.028811444 0.013153596 -0.0050353343 -0.013163987 0.08628136 -0.10142928 0.07914777 -0.08045383
0.06102867 0.032883286 -0.11780645 -0.1442754 0.110987365 0.02159559 -0.17278822 -0.22159275
0.016340958 0.043532193 -0.054992825 0.01726145 0.015287325 0.066618815 -0.064949214 -0.05574889
-0.13052033 0.005948147 0.07418539 0.031345397 -0.14196391 0.15220729 0.040315043 -0.015054566
0.022727562 0.041215073 0.038578026 0.007401316 -0.1288134 0.057907272 -0.033011116 -0.1719792
-0.046907097 -0.05086438 0.092464894 -0.1297086 0.011021442 -0.16163349 0.09423353 0.055218965
-0.035848122 -0.017522652 0.043206256 0.16683504 -0.018514594 -0.040173326 0.05056142 -0.06537217
0.17072351 -0.010628901 -0.024624141 0.00012834535 -0.0891725 -0.06012711 -0.07725348 -0.2101027
0.1427796 0.013587777 0.10098372 -0.101193085 -0.33052355 -0.058913253 0.06849978 -0.07555533
0.008564393 0.095610656 -0.09674845 -0.028075967 -0.010109029 0.03588019 -0.09143961 0.06134052
0.11319384 0.047591653 -0.15616095 0.1041761 0.10251551 -0.054963134 0.09070178 -0.081224754
0.031948417 -0.0067800023 0.059012424 -0.25112075 -0.18090151 -0.031720154 -0.10313861 -0.003380966
-0.04585319 0.03013397 -0.040037245 0.10647397 -0.039119747 -0.07575339 0.0036325394 -0.14881511
0.1259757 -0.09033602 -0.11326705 -0.06778093 -0.07282776 0.14068928 0.05293631 0.11835726
-0.005687988 -0.054531537 0.06631591 -0.26921648 0.16356303 0.03466993 0.07708811 0.12500533
0.047099285 0.13785285 -0.09167788 -0.05457107 0.048011094 0.107371785 -0.174 -0.11121897
-0.1696424 -0.04892806 0.024551488 -0.20971575 0.09394683 0.0058771614 -0.15652244 -0.013117604
-0.050890956 0.14393507 0.115115464 0.17600393 -0.070131585 0.1479419 -0.058232978 0.09152412
-0.07439148 0.0038051866 -0.03312228 0.19737874 0.06989656 0.023238134 -0.12771428 0.07437902
0.17670776 -0.14330152 0.048278783 -0.06988532 0.14766559 -0.08003071 -0.004637411 0.08301134
0.14777029 0.15957169 0.006671695 -0.04359484 -0.08818862 0.05656 -0.1011455 0.075598784
-0.020511951 -0.0056884605 -0.024799878 0.005153818 -0.014665241 0.017731598 -0.15391724 0.26072398
0.0067592785 0.0002077609 -0.021679897 -0.033505514 0.23700558 0.023682145 -0.06696727 -0.13590205
0.0072763884 0.06355504 0.11111404 0.13767155 0.1420143 -0.0864344 -0.030965775 -0.052305095
-0.0729944 0.32281432 -0.013148475 -0.03563568 0.018710097 0.08406769 -0.09315042 0.1581773
0.07087117 0.0073414245 0.015285986 -0.038572248 0.1025921 -0.046238285 0.09016534 -0.012966043
0.053560898 0.17121607 0.13190448 -0.0010021834 -0.02620755 -0.0853143 0.050983652 -0.00067739736
-0.07018592 -0.16778715 -0.019144213 -0.23309675 -0.15084632 0.082219705 0.058333926 0.087304294
0.08003589 0.0062292926 -0.060254917 0.15423541 -0.032916833 -0.1126305 0.082895346 0.05081205
0.0020435185 0.10402677 0.0034848773 -0.059728537 -0.021748004 -0.081775144 0.008224444 0.009691235

bias f4 [128]
00000000: 361b 33be 427b 24be 376e 0c3e f9da 1c3e
00000010: 4770 3fbe da8e 083e 54f3 c53c 6773 063e
00000020: 2dd7 4fbe 015a 60be e8c4 5dbe a609 053e
00000030: 236e 1bbe 538a d5bd ed5e cebd 80f0 933d
00000040: 1c58 373e a28a 2ebe 68a5 aebd 4d90 203e
00000050: c64d 1dbe 2a22 c63d 11c4 073e c839 d93d
00000060: a121 2abd 6d19 393e 9249 9bbe 0663 eebd
00000070: 8d56 333e 4327 90bd 9d76 b73d ef9b 1c3e
00000080: 51fd 2a3e e983 0cbe 0e58 463e 85a4 08be
00000090: 48e8 333e 8d2b 8a3e 4ef9 b8bd 79c1 5e3e
000000a0: ef5d 0cbe a929 9ebd 4518 18be b6ab d8bd
000000b0: faed 073e b283 21be a924 0b3e 609f fdbd
000000c0: 7a44 7dbe 6089 fdbd 8c2a 97be b671 ec3d
000000d0: 28ad 00be 32dc 133e 678d 203e 59cb 133e
000000e0: 0d9b fb3d 7df8 e83d e874 313e bd15 2abe
000000f0: dae1 383e 523b 2fbe f315 4b3e 0f85 f33d
00000100: 400c 183e 1f9d 23be ddbf ccbd 911e 0bbe
00000110: 35c9 1bbe 3c45 f23d 904c 0dbc 5c24 8f3e
00000120: 7188 373e 3017 2dbe 185d 483e 3167 29be
00000130: 40d4 0b3e 9a14 923d 37e2 083e 45f4 e23d
00000140: 56ef 103e b9ad fb3d 7442 6c3e 8bd7 103e
00000150: 954d 003e 363b 033e bcf9 dbbd 145f 093e
00000160: 6a75 45be fdab 143e 04da 003e cbb4 13be
00000170: 59b9 debd d3df ebbd 350f 043e 4054 c83a
00000180: 0cfa 38be c52a 1fbe 3646 20be 981d 143e
00000190: cf79 dbbd aaea 2b3e 9add 0d3e 33d2 f4bd
000001a0: 429e 29be 14b5 3e3e 603d f03d 6aea 08be
000001b0: 9e02 ccbd 7cd8 3abe 9763 6ebe d8f5 10be
000001c0: cf22 213e b256 fb3d 93b2 af3d 0109 1b3e
000001d0: 111e c43d a161 66be cfe8 17be 165e 96be
000001e0: cdf4 05be ddd4 10be fe07 fcbd dfa3 233e
000001f0: a475 10be 72f2 e93d ad36 143e a65f adbd
-0.17490849 -0.16062644 0.13713919 0.15317906 -0.18695174 0.13335744 0.02416388 0.1312996
-0.20296927 -0.21909334 -0.21657145 0.12991962 -0.15178733 -0.10426774 -0.100766994 0.07223606
0.17904705 -0.17045072 -0.085276425 0.15680046 -0.153617 0.09674485 0.13258387 0.10606724
-0.041535977 0.18076105 -0.30329567 -0.11639981 0.17513485 -0.070387386 0.089581706 0.15293859
0.16698195 -0.13722195 0.19369528 -0.13344009 0.17569077 0.26986352 -0.09031926 0.21753491
-0.13707708 -0.0772279 -0.14853008 -0.10579626 0.13274375 -0.15772894 0.13588203 -0.12383914
-0.24733153 -0.12379718 -0.29524648 0.11545126 -0.12566054 0.14439467 0.1567894 0.1443304
0.12285433 0.113755204 0.17329752 -0.16609855 0.18054906 -0.17112473 0.19832592 0.11890613
0.14848423 -0.15977906 -0.099975325 -0.13585879 -0.15213473 0.11829612 -0.008624211 0.27957428
0.17923142 -0.16903377 0.19566762 -0.1654327 0.13655186 0.07132836 0.13367544 0.11081747
0.141538 0.12288994 0.23072225 0.14144723 0.12529595 0.12815556 -0.107409924 0.13415176
-0.19283071 0.14518733 0.12583166 -0.14424436 -0.10875196 -0.115173005 0.12896426 0.0015283898
-0.18064135 -0.15543659 -0.15651783 0.14464414 -0.107165925 0.16788736 0.13854066 -0.11954155
-0.16564277 0.18623763 0.11730456 -0.13370672 -0.09961437 -0.18246645 -0.23280178 -0.14156282
0.15735935 0.12272395 0.08578982 0.15140153 0.09576047 -0.2249818 -0.14834903 -0.29368657
-0.13081665 -0.14143701 -0.12306212 0.1598048 -0.14107376 0.11423196 0.14473982 -0.08465509

weight f4 [1, 128]
00000000: 9b64 90bd 01ed 64be 5b1c 433e a1b9 913e
00000010: eacb 85bd ea73 e93c 977e 81bb 3016 a93d
00000020: ba00 0cbe 0d90 e0bd 252a 85bd 78b5 1e3c
00000030: f7d1 4abd 3288 56bd c2fa b9bd 74ea 0d3b
00000040: 6bed 323e b9b6 f1bd 9489 95bd 017e be3d
00000050: bfe1 86be c750 0b3e 8ee2 aa3d 312c aa3c
00000060: e496 dabb d9e3 6b3d ee3b 4fbd 51d3 44bd
00000070: e0b5 ac3d 4c99 bbbd a8fb f23c 0904 a13d
00000080: 890c 113d e9c4 58bd 2cc1 173e ffe2 32be
00000090: bc49 3a3d ba96 ca3d bdeb a1bd 6bb7 b73d
000000a0: e97f 16bd 87e3 c7bc cf72 04bd 283b afbd
000000b0: b1d2 8c3e 9e24 18be 1ee1 1c3e bd43 b4bd
000000c0: 9ef4 72bd c3b1 86bc 353c 05be f889 7c3e
000000d0: 0540 60be ed59 c73d f077 873d 0887 023d
000000e0: 9813 103e 39a0 5d3c 4305 143d 6a58 0fbe
000000f0: 2bfe 1f3e b898 07be f4fd 1d3e 845b eb3c
00000100: d695 bb3d a5d2 bbbe d86f 4bbe e48d 7ebd
00000110: df78 17bd ce92 933c 01fb 4b38 8df4 823d
00000120: dc78 7b3d 9b75 7ebd 1965 ca3d f851 b5bc
00000130: e8ab b13d cefb 3e3a 3dbf 153e 9b34 3a3d
00000140: 9699 b13d bddc 923d 6d75 2f3e c7e2 383d
00000150: 1b8a c23c 87d1 963e 6f54 68bc 4da6 ea3c
00000160: 6466 04be 27ac b83c 1289 da3d d5ce 35bd
00000170: 7635 e7bd 2158 babd ae79 143e e777 04bb
00000180: 48ba 38be a8e1 cbbd c3b1 33be 6134 5e3d
00000190: e764 0cbe 7288 e33d 30e7 263c 51e3 31bd
000001a0: d9c1 e3bd f5e5 c63d 813b e43c 872d b3bc
000001b0: 767b 18bb cf97 03bd 6704 35be e92d a4bd
000001c0: 8b1e f93d bf16 8d3d 7c8b cf3d f2f5 353d
000001d0: 7994 803c ac45 5cbd 9ca4 6abd 3417 03be
000001e0: 90ec a2be 0b14 27bd 951c 56bd e7a3 073e
000001f0: ac64 a6bd 7ae7 d13d 3e56 dd3d 4a60 5dbc
-0.07050439 -0.22356035 0.19053786 0.28461936 -0.06533034 0.028497655 -0.0039518583 0.08256185
-0.13672152 -0.109649755 -0.06502179 0.00968682 -0.049516644 -0.05237598 -0.090810314 0.0021654638
0.1747338 -0.1180243 -0.073016316 0.09301377 -0.26344106 0.13605033 0.08343993 0.020773025
-0.0066708196 0.05759034 -0.050594263 -0.04805309 0.084331274 -0.091600984 0.029661015 0.07862098
0.035412345 -0.052922163 0.14819783 -0.17469405 0.045480475 0.0989203 -0.07906292 0.08970531
-0.03674308 -0.024400486 -0.032336053 -0.08556205 0.27504495 -0.14857718 0.1532025 -0.088019826
-0.059315316 -0.016442185 -0.13011248 0.24662006 -0.21899422 0.09733949 0.06614673 0.031867057
0.14069974 0.01352697 0.03613783 -0.13998571 0.15624301 -0.13241851 0.15428907 0.028730161
0.09159438 -0.36684147 -0.19866884 -0.062147036 -0.036980506 0.018014338 4.8632737e-05 0.063943006
0.061394557 -0.062123876 0.09882564 -0.022133812 0.08675367 0.00072854466 0.14623733 0.045460325
0.08671872 0.07171009 0.17134638 0.045138147 0.023747494 0.29456732 -0.014180287 0.028643752
-0.12929684 0.022543026 0.10670675 -0.044386704 -0.11289494 -0.090988405 0.14499542 -0.002021307
-0.1803981 -0.0995515 -0.1754828 0.05424917 -0.13710366 0.11110009 0.010186955 -0.043429676
-0.11120958 0.097118296 0.027860405 -0.021872295 -0.0023266948 -0.032127198 -0.1767746 -0.08016569
0.12164029 0.06889104 0.101340264 0.044424005 0.015695797 -0.05377738 -0.05728589 -0.1280182
-0.31821108 -0.0407906 -0.05227335 0.13246118 -0.081246704 0.10249229 0.10807465 -0.013511727
