trained_models/ppo/me5418-Cassie-v0/0524-14-57-26-s37/critic.pt (torch, 319998 bytes, 5 tensors)

weight f4 [256, 50]
00000000: 18ca 963c d54b acba c8aa 79be 5eb7 3bbc
00000010: ef11 eabd 77e5 64be 3136 8abd 6a3e b73d
00000020: 8917 efbd 4454 cebd a07d b3bd 2f93 36bd
00000030: 19c8 c13d f384 95bd 8ca6 74bd a2ea 4c3d
00000040: e725 f23c c9f0 2f3c ff0f 41be 4523 933d
00000050: 473b aebc 23ff 8b3c 0225 4a3c 6950 703d
00000060: 6791 e23b 6e3b 50bd 3fa8 43bd c6a3 fc3d
00000070: b007 24bc 853e 853d cd73 d8bd b7d9 523c
00000080: 76b2 5f3d 548c 193e 591c a4bc 32b0 ca3d
00000090: 82c1 523b 43c7 ab3d b34e 2cbc 23fd 143d
000000a0: f7c9 4dba a18e 10bd 3fd3 0dbd d938 643d
000000b0: 362f 633d 9c0d 22bd 5156 38bb 7e26 c4bc
000000c0: 1000 4ebc ebcf 933d d9df 8bbd d65c 25be
000000d0: 6607 72bc a6d0 3e3c a14a 04bd 47dd a83c
000000e0: 45f1 c7bc 8b4d 24bd 4a8f a3bd 1b64 33bb
000000f0: 54d2 b53d 7ac3 8cbd c228 b13c baf9 e7bd
00000100: d9ea 033e e098 873d 81f0 9abc 187b 053d
00000110: c029 5a3d 2227 313d 5919 ae3d ebd3 c2bc
00000120: d1f5 61bd 7251 47bd 3139 debd c541 3a3c
00000130: 24f6 9b3d 2a28 e63c 736c 8d3c a468 6bbd
00000140: 5a6a 123d d94c 583d a451 05bd 993d b2bc
00000150: 91f3 053c 8bc4 f0bc a49f 013e e46e b83c
00000160: cae0 133d a818 ce3d 17ac b5bd d4ce 17ba
00000170: c244 37bd bfda 1dbe acd0 b73b 1379 9a3d
00000180: 9119 03be 58da 27bb 844d bc3d 3740 bfbb
00000190: 12c0 d13d 1c23 323e 45be 713e 9faa 163e
000001a0: 7c95 a93d fffd f63d caa4 b23d ebbb 583b
000001b0: 21b1 113e 9e0a 33bc 5d82 8abd ec28 b73d
000001c0: fd54 f73c 66bd 233e 0ece 0fbe 8511 e83d
000001d0: e17e c1bc 0129 4dbd 32d4 263e bc67 0e3e
000001e0: 8d90 c53d ad02 82bc 1fc6 063d 07eb 113d
000001f0: 0c34 6f3d af93 06bd 3829 9b3d 0860 19bc
00000200: de47 b2bd 9ea6 68bd 9777 96bd beec 243d
00000210: 455f 213a cd82 e0bc 89fd 033d 4318 b33b
00000220: 33f0 94bd bdd1 68bd 6fcc dabd fe1e 08bd
00000230: 0537 293d 925c 5b3d 7f4e 973d 0abd e63c
00000240: ef31 803c 92f2 fcbc 6549 ddbd 69ef b33d
00000250: 0d48 0fbd 9537 1f3d 48ff d43c 0d9d 16be
00000260: cc51 2dbe b164 a73d 45df 8bbd 338b a03c
00000270: e6cd c63d 5467 01be db8d 153d 4419 363e
00000280: 0920 ac3d 243e 0ebc c6b4 14bc e2af 1e3d
00000290: 7ae7 383e 3178 243e e4c5 023d a8ed 2e3e
000002a0: a816 adbd 8958 843b 001c 883c 61a0 4cbd
000002b0: d6e2 463d 5edf 033e 9911 2f3c 68be 8abc
000002c0: f0a0 14bd 4e77 ef3c ae56 a0bd 0a02 cf3d
000002d0: 8879 e93d 5a30 8e3c f8e2 d4bc 4a01 4ebd
000002e0: 54f9 1ebd e50e 1a3d 378b 443e 3571 073e
000002f0: 21fa bbbd bbbf 3c3e 015b 4b3c 592e 86bd
00000300: b73a 02bd dd7e f3bd 0aff acbd 1920 513d
00000310: baa1 c1bc 2ca5 f43a e355 a53d 3bcf 3ebb
00000320: 11b2 5e3d 785c 913d e975 8c3e 6b5c 543d
00000330: 1586 183e 2537 213e 7d33 cc3c 3ae8 013c
00000340: 0010 0c3e 9871 87bd f341 833d 42c0 0a3e
00000350: 68d8 b93d c496 33bd c48a a93c 9488 403d
00000360: 8381 babb 310c d1bc df5c 9d3d 8973 cdbd
00000370: eb60 05bd 0966 87bd 05f5 1abd 7b45 3abb
00000380: ecf1 a3bd 4b12 dc3c 783c 33bd 4780 23bc
00000390: 8c3c 94bd cefb fbbd bf3e a7bd de09 32bd
000003a0: bbe5 1abc 15fe 373d e26f 893d 0c53 4fbd
000003b0: d62c 993d 0a45 fcbd ef0a e73c 0ec6 3bbe
000003c0: 4bf6 3b3c dc5b 1a3e 9e9a b43d eb2f 13bd
000003d0: f22b 893d 1748 bf3d eb92 373d d2f7 0f3c
000003e0: 1481 1e3d a258 36bd 26a8 01bd 75f4 b43d
000003f0: 9ec8 923d a899 19bc 7517 15bc f632 933b
0.018406913 -0.0013145158 -0.24381554 -0.011457292 -0.11429202 -0.22353159 -0.067486174 0.089474514
-0.11674411 -0.10074666 -0.087641954 -0.04457396 0.09461994 -0.07300749 -0.059729144 0.05002845
0.029559089 0.01073856 -0.18853758 0.071844615 -0.0212685 0.017089432 0.012337925 0.058670435
0.006914306 -0.050837927 -0.047767874 0.12335925 -0.0100115985 0.06506065 -0.10568962 0.01286929
0.054613553 0.14994937 -0.020033048 0.09896888 0.0032158797 0.083876155 -0.01051681 0.036374222
-0.00078502245 -0.03529227 -0.034625288 0.055718277 0.055464946 -0.03956376 -0.002812762 -0.023944136
-0.012573257 0.072173916 -0.06829805 -0.16148695 -0.014772272 0.011646425 -0.032297734 0.020613326
-0.024407038 -0.040113013 -0.079863146 -0.00273729 0.088780075 -0.06873222 0.02162588 -0.113269284
0.12882556 0.066209555 -0.01891351 0.032588094 0.053262472 0.04325021 0.085009284 -0.023782691
-0.05516607 -0.048661657 -0.10850752 0.01136822 0.07615307 0.028095324 0.017263627 -0.05747284
0.035745956 0.052807663 -0.03254856 -0.021757888 0.008175747 -0.029390594 0.12658554 0.022513814
0.036103047 0.100632966 -0.08870714 -0.00057910127 -0.044743307 -0.15415476 0.0056095924 0.07542624
-0.12802722 -0.002561232 0.091944724 -0.0058365124 0.10241713 0.17396206 0.23607738 0.14713524
0.08280465 0.12060165 0.08722837 0.0033070992 0.14227726 -0.010927824 -0.06763146 0.08943352
0.030191893 0.15990219 -0.14043447 0.113314666 -0.02362007 -0.050087932 0.16291884 0.13906759
0.096467115 -0.015870417 0.032903787 0.03562453 0.058399245 -0.032855686 0.07576221 -0.009361275
-0.08705114 -0.056799524 -0.07347029 0.040264837 0.0006155859 -0.02740612 0.03222421 0.0054655387
-0.07272377 -0.056840647 -0.10683524 -0.03323268 0.041312236 0.05355508 0.07388019 0.028166313
0.01564881 -0.030877385 -0.108050145 0.08785898 -0.034980822 0.038871367 0.026000634 -0.14708348
-0.16925734 0.08173502 -0.06829695 0.019597625 0.09707241 -0.12637073 0.036512237 0.17783076
0.08404548 -0.008681808 -0.009076303 0.038741954 0.18057051 0.16061474 0.031927004 0.17082846
-0.08451587 0.0040388745 0.016614914 -0.049957637 0.04855617 0.12878177 0.010685348 -0.016936496
-0.036286294 0.029231694 -0.07829033 0.10107811 0.11400133 0.01735704 -0.025987133 -0.050294198
-0.038811997 0.03761186 0.19193731 0.13226779 -0.09178568 0.18432514 0.012411834 -0.06551809
-0.031794276 -0.118894316 -0.08447082 0.051056 -0.023636688 0.0018664948 0.08073022 -0.0029115218
0.054369036 0.07097715 0.27433708 0.05184595 0.14894898 0.15743692 0.024926895 0.007928902
0.13677979 -0.06613463 0.06409063 0.13549903 0.09074479 -0.043844953 0.020696051 0.04700525
-0.0056917085 -0.025518509 0.076837294 -0.10031802 -0.03256313 -0.066112585 -0.037831325 -0.0028422761
-0.08005127 0.026864192 -0.04375884 -0.009979314 -0.07238111 -0.12303887 -0.08166265 -0.04346644
-0.009454186 0.044920046 0.06710793 -0.05061631 0.07479255 -0.12317856 0.028203456 -0.1833727
0.011472295 0.15074104 0.088185534 -0.03593437 0.06697835 0.09339922 0.044817846 0.008787112
0.038697317 -0.04451812 -0.0316545 0.08835689 0.07167171 -0.009375013 -0.009099831 0.004492159

bias f4 [256]
00000000: 577b 39bd b744 a13c c583 6e3b 47c3 2e3d
00000010: 46a7 bcbc c4ea c9bc 808c ac3c f273 afbc
00000020: dba2 8f3c e123 87bc 1ede 0fbd a546 093b
00000030: e334 98bc a628 d63c b279 abbc b465 963c
00000040: e57f d5bc 328b 7739 b811 4ebd 1955 483c
00000050: 513c 983b 42bc 833c ccde 49bd 00b6 5ebc
00000060: a441 a8bc 9389 5f3d e0df 2bbd 2fc6 843a
00000070: 4311 4c3d 56c9 adbc 0d83 593d 55bb 073c
00000080: eea3 d1bc 25e3 9d3c 715d 9dbc e9b8 5bbd
00000090: 133f 473c b07a 093d 56cd 6dbc 7514 0e3c
000000a0: a10c 973c 0638 b23b 83e4 813b b48b f23a
000000b0: 8185 efbc df30 b4bc e322 79bc 233e a53b
000000c0: 6112 c43c e84a 66bc 8185 43bc d96e 0f3d
000000d0: 3d19 1bbd 3329 443c 5e2a aa3b ec0f 6abc
000000e0: d877 20bb 84ce 90bd 0d7b 31bd a94b 383d
000000f0: 3ecd 8d3c 2538 f9bc 7696 debc cd3a ebbc
00000100: 909c e5bc 7d6c 74bd 2795 203d 3be9 123d
00000110: 7208 063d e422 3e3d 9b34 2fbd 048d c23c
00000120: 2728 063d 1201 aa3a 638a d63c d9c1 3fbd
00000130: ea90 2ebd d712 0f3c 2123 fc3c c6c2 7ab9
00000140: 5619 953d c312 f3bc 2395 7cbc d21f c63c
00000150: cfd6 dfbc e3bc a2bc 6b53 a03c 051e 2e3d
00000160: 756d 21bd 7edd 06bd 8c70 a8bc 661a ccbc
00000170: d50c 5dbd 855b 43bc e802 d23c 0d1c 0a3d
00000180: 9ec7 23bd 2395 c93c 25d5 65bc 33af 87ba
00000190: f836 2fbc 729c 31bd b65e c53c 1415 353d
000001a0: cf21 743d 8a10 95bc 20f9 e6bc c036 3d3d
000001b0: 18fa 273d 830c 103c e730 a93c 5203 dab9
000001c0: 9968 c43a be67 323d 828c 16ba 5749 4b3d
000001d0: a845 fa3c dfcd 3bbc 75e5 a13c eaa2 13bd
000001e0: 0e6d febc 87bf 1c3d 5bb0 bd3c c25a 82bd
000001f0: 4507 15bd 055f 113c b407 8d3d 8e5a 2bbd
00000200: 8f55 dd3c 56e1 8ebc a0cc 7f3d e4b4 78bc
00000210: ce89 e93c da53 873c fa36 413d cd9a c13c
00000220: 42b3 71bd d8a3 7e3d a553 4f3c d64d 9b3c
00000230: c1c9 81bc 3290 e3bb 52b1 163d d382 1ebd
00000240: 7c0f c03a 29d2 f2bb 936f 5b3c 98a6 573c
00000250: 4151 3d3c 9bc5 26bd 24a9 0bbc f6b6 15bd
00000260: a6cf cc3c c2d2 913a eb20 6eba 7a16 d63c
00000270: 36c1 fbbb 1cee 5f3d a973 0ebd d637 14bc
00000280: 15c6 073d cb42 433d d6f5 61bb da90 cf3c
00000290: 9133 e93c 3adb 28bd af58 8abc 61c5 30bd
000002a0: 421c e9bc b439 f8bb ac8f 7a39 1f1e b13c
000002b0: 35ee 6a3d b516 31bd 2939 45bd 8753 a5bc
000002c0: a804 9e3c b921 a4bb f1fa babc f2cb 083d
000002d0: ebf4 1dbc 523f 413d 8fe5 0a3c 4259 07bd
000002e0: 1a66 37bd 2d17 863d bc8c d43c df4b 963d
000002f0: 94cc 91bc 5195 883d f171 2abc aca0 ccbc
00000300: 6fa5 0fbd 14f2 b23c 3637 18bb c513 0b3d
00000310: 2b6e 463c cf47 b03c 6832 6ebd d2f3 c83b
00000320: 17a1 65bc 6441 fd3c 135b 8bbc 50d4 0b3d
00000330: bc63 a0bc 4eec 63ba 9fd9 023d cfed 7f3c
00000340: d82e 1fbd 5fdd 09bc e5a0 48bc ea00 f63c
00000350: 4440 82bd 263e a3bc 9aab 273c c9ac 2e3c
00000360: b4b1 a9bb 4d6c 463c 04f6 0f3d e952 f03c
00000370: f989 813c 40ca 773b 54d4 6abd 9511 23bb
00000380: 4c4a 34bd 7f63 4ebd 0d8c 1abd 2250 1b3d
00000390: 9407 a9b9 46b8 073c 8819 f03c a882 1b3d
000003a0: 5118 b4bc 7732 0ebd ed18 c0bc 3711 b0bc
000003b0: 30dc adbc 73ea 04bd cf06 b8bc b5ea 2dbc
000003c0: fec9 d63c 9b6d 8ebb 4073 623d f8e6 f0bc
000003d0: c7ab d3bc 22ac babc 9cea d2bc 3fcd 003d
000003e0: 6fe4 513d 0c15 df3c 94b0 7abc a8f5 cc3c
000003f0: 829c 293c 9683 b9bc 02f0 163d f2ae 8abc
-0.04528364 0.019686086 0.0036394459 0.0426667 -0.023028981 -0.024648078 0.02106309 -0.021417592
0.01753371 -0.0164966 -0.035123937 0.0020946648 -0.018579906 0.02614243 -0.020932052 0.018359043
-0.026061961 0.0002360761 -0.050309867 0.01222732 0.004645862 0.01608098 -0.04928474 -0.013593197
-0.020539112 0.05457456 -0.04196155 0.0010129864 0.04982115 -0.021214169 0.053103495 0.0082844095
-0.025590863 0.01927335 -0.019209595 -0.05364314 0.012161034 0.03356427 -0.014514288 0.0086718695
0.01843864 0.0054388074 0.0039640083 0.001850477 -0.029238464 -0.02199596 -0.015206072 0.0050428077
0.023934545 -0.014055945 -0.011933685 0.035017822 -0.037865866 0.011972713 0.005193039 -0.014286023
-0.0024485495 -0.0707064 -0.04333024 0.04499403 0.017309781 -0.03042228 -0.027171355 -0.028714562
-0.028028756 -0.059673775 0.039204743 0.035866957 0.032722898 0.046419993 -0.042774778 0.023748882
0.032753136 0.001297029 0.026189035 -0.046815727 -0.04261867 0.008732519 0.03077847 -0.00023914417
0.07280223 -0.029672032 -0.015416416 0.024185095 -0.027324108 -0.019865459 0.019571027 0.042509098
-0.039411027 -0.032926075 -0.020561479 -0.024914932 -0.053967316 -0.011923675 0.025636151 0.033718158
-0.03998529 0.024607247 -0.014027868 -0.0010351896 -0.010694258 -0.04336209 0.024093013 0.044209555
0.059602555 -0.018196363 -0.028194964 0.04619479 0.041009992 0.0087920455 0.020653201 -0.00041582674
0.0014984786 0.043555968 -0.0005742983 0.04963049 0.030550793 -0.011462658 0.019762734 -0.03604404
-0.03105786 0.038268592 0.023155382 -0.06364967 -0.036383886 0.008872752 0.06886235 -0.041834407
0.027018337 -0.017441433 0.062451005 -0.015179846 0.028508093 0.016519476 0.04717157 0.023633385
-0.059008844 0.062167972 0.01265422 0.018958014 -0.015843274 -0.0069446797 0.0367902 -0.038698982
0.0014653052 -0.007410307 0.013393301 0.013162278 0.011555017 -0.040715795 -0.008524213 -0.03655144
0.025001358 0.0011125433 -0.00090838847 0.026133765 -0.0076829446 0.05467044 -0.03477827 -0.009046515
0.03314789 0.04767112 -0.0034478805 0.025337625 0.028466972 -0.041224696 -0.01688799 -0.043156985
-0.028455857 -0.007575238 0.0002389538 0.021620808 0.05735608 -0.043234546 -0.048150215 -0.02018143
0.01928933 -0.005008903 -0.022824736 0.033397622 -0.0096409125 0.047179528 0.008477583 -0.033044107
-0.044775106 0.06547389 0.025946014 0.0733869 -0.017797746 0.06669105 -0.010403142 -0.024978958
-0.03506988 0.021843947 -0.0023226268 0.0339544 0.012111227 0.021518616 -0.05815354 0.0061325813
-0.014015458 0.03091497 -0.017011201 0.034138024 -0.019578807 -0.0008694575 0.03194582 0.015620663
-0.038863033 -0.008414595 -0.0122453915 0.030029733 -0.06359914 -0.019927096 0.010233784 0.010661312
-0.0051786546 0.012110782 0.03514673 0.02933641 0.01581286 0.003780976 -0.057331398 -0.0024882306
-0.044016168 -0.050387856 -0.03773122 0.037918217 -0.00032239838 0.00828368 0.02930905 0.0379664
-0.021984251 -0.034716096 -0.023449386 -0.021492584 -0.021223158 -0.03245015 -0.022464184 -0.010615041
0.026219364 -0.004346562 0.055285692 -0.02940701 -0.025838746 -0.022787157 -0.025746636 0.031445738
0.051243242 0.027231716 -0.015300889 0.025019482 0.010352256 -0.022645753 0.036849983 -0.016929124

weight f4 [256, 256]
00000000: 8a6b 683d 500d f7bc 1dbb ae3d 78f1 323d
00000010: d4e1 a53c 0979 743c 34a8 003e 14c5 213d
00000020: 4d50 8b3c 455f 5c3d 5d14 92bd 3621 a63a
00000030: d8a1 893c 5f28 f6bd c3d5 17be fd50 243c
00000040: b933 6bbd 81ac 12be 9cc5 a1bc 3e40 293e
00000050: 9107 ccbb 958f 64bc 3597 0a3e 9e2d 0dbd
00000060: 8141 c13c 05c5 8bbd bcca 50bd ef48 07bd
00000070: 275d efbb 29a5 b23d 36c0 c8bc 8763 f7bd
00000080: ad24 d73c 473d b73c e02d 27bd 0264 57bd
00000090: 0c1f 393a 6fdc 78bd c29e 3dbc ee29 ad3d
000000a0: f951 173d 17a8 e6bd a92f 953d 7087 a13d
000000b0: 1a38 e83c a872 233c 1efb 0abc 3ee5 6f3d
000000c0: 9bbc 2e3d f340 bf3d 4018 84bd 3031 643d
000000d0: b95c ccbb c607 8cbc b049 08be 5e98 333c
000000e0: e8ea 183d 88b0 c33d e907 a7bc 64ed 2b3d
000000f0: a548 1d3c 1349 d03c ba06 6abd c7bf f93d
00000100: dee6 04bb 8d24 ea3c 9a27 1a3d 8688 463c
00000110: 42df 8dbd d83b c93c 9b89 843d 2d1f b33d
00000120: fd8b 813b 46f2 0b3e 3f43 04bd 4055 073e
00000130: 2dfd e73d 1a9a 2c3d 6ac2 b7bd 3ab6 87bd
00000140: 3e50 533d 28d3 283e 4931 89bc d5f3 0f3d
00000150: 8dec 0b3a 37da 313e 7a7c 9fbd 5bde 4ebd
00000160: b715 9dbc 8cea 60bc e8fd 9a3d dc4f ebbd
00000170: 9a4e de3d 474b eebd 0a8d 2ebd ed94 4c3c
00000180: 6b62 3d3e 9a40 433d 6c8a 8cbd 33d1 9f3c
00000190: c65a 283b 5e28 1c3d 65b3 c4bc 172e dabd
000001a0: 1847 92bc 3c6a 18bd ddd7 913d ba4c 50bd
000001b0: 9a28 0bbe b0a1 6bbd d4d1 0dbc 2956 8b3d
000001c0: 23cd 7d3c 3e5c 253c a106 adbd 33be c83c
000001d0: 4734 a9bd 649c 883d 6c97 53bd 809d ea3d
000001e0: c096 b63d 8713 f1bb 3d67 80bd 94ee 69bd
000001f0: f686 09ba f837 cc3c f8a6 90bd c311 ed3d
00000200: c1bc 88bd 8b70 30bc 9067 0b3e f2b3 203d
00000210: 3235 62bd 8e9b 16bd d93a b33b c496 eabd
00000220: b768 9d3c 9f8a d33b 4007 8a3d 948f 0a3d
00000230: 2b2f 1e3d fda7 4d3d bebb 4bbb 57fd 873d
00000240: 1140 22bd dcb5 d4bc 1d67 1fbd cbd9 85bc
00000250: d6f1 b43c f7a0 0d3e 4414 94bd 0b30 5d3d
00000260: b58e bbbd 85da 8cbd 79b2 7d3c 53a0 9e3c
00000270: 1f3f 4dbd b49b d73b 1df3 4dbc db98 b03d
00000280: f4d7 3b3d f758 d43c 4bf1 d63c 7fb8 f0bc
00000290: 673e 8fbd f284 383e 5083 07be f6a2 2abc
000002a0: 7ee6 893d 46dc 963d f917 583d 049d b7bd
000002b0: 461b f8bd b323 82bd b231 87bd cd2b 613d
000002c0: dcfc cdbc 3709 18be 76ee 093d 1d35 31bd
000002d0: 0226 463d 2560 98bc 3d62 89bd 4ec1 273c
000002e0: 0316 86bd 6564 68bd 30ef 42bd b632 26bd
000002f0: 0e00 acbc 591a 493c 0060 fa3c 9fcf 74bb
00000300: 71a8 eabd c64d 21be 1e66 6ebb eab1 b33d
00000310: 6d07 b9bd 459e 9b3d 4d39 aabd d7f8 ce3d
00000320: ff21 aeba dabd 003d 2029 e23d d864 6bbd
00000330: 446f 9e3c faa3 083c ecf4 0c3c 6a17 9f3b
00000340: 365b a5bd 6639 f23c 68ed b83c b856 1dbd
00000350: 3a11 883c 07bd 383a 6b2d 0bbe 300e 02be
00000360: 6efc f63d 78cb e9bc 27b3 41bd 5506 813c
00000370: d887 19bd 60b9 843d c838 c13d d929 b13c
00000380: 13a2 b03d d9f6 013e ae7c 6f3d 5792 443d
00000390: 67d9 b13d 941a 5bbd f865 d13d 3851 7c3d
000003a0: 633f d4bc dd27 0c3b 54ab 463b 1a13 403e
000003b0: f417 723d b937 d33d 182a 1e3d 6328 143b
000003c0: ba8f 58bd bebf 3d3c 3cd6 883d 37f6 61bb
000003d0: cb83 70be 6a60 2cbd 847c 02bd 5de4 c5bb
000003e0: 95fa 4ebd 07c4 2ebb 0706 173d 7c29 84bc
000003f0: fc48 c23d b53c dd3d c6a7 6b3d c897 9c3d
0.056743182 -0.030157715 0.08531783 0.043687314 0.020249285 0.014921435 0.12564164 0.03949459
0.017006064 0.053801794 -0.0713279 0.0012674693 0.016800806 -0.12019419 -0.14827637 0.010029075
-0.057422373 -0.14323618 -0.019747548 0.16528413 -0.006226488 -0.013950248 0.13534243 -0.034467332
0.023590805 -0.06824688 -0.050974593 -0.03302854 -0.007304806 0.08722908 -0.024505716 -0.1207953
0.026262606 0.022368087 -0.040815234 -0.05258561 0.0007061816 -0.060757097 -0.011573495 0.08455263
0.03694341 -0.11262529 0.07284481 0.07887161 0.028347064 0.009976067 -0.008482723 0.05856823
0.042660337 0.0933856 -0.06449938 0.05571097 -0.0062366393 -0.01709355 -0.1330936 0.01096162
0.0373334 0.09555155 -0.020389514 0.04197444 0.009599839 0.02542547 -0.05713532 0.12194782
-0.002027921 0.028581882 0.037635423 0.012117511 -0.06927349 0.024564669 0.06471559 0.08746181
0.0039534555 0.13666639 -0.032290693 0.13216114 0.11327586 0.04213915 -0.089726284 -0.06626554
0.051590197 0.164868 -0.016747134 0.035144646 0.0005337678 0.17368399 -0.07787414 -0.050505023
-0.019175394 -0.013727795 0.0756796 -0.11489841 0.10854836 -0.11635452 -0.042614974 0.012486679
0.18494575 0.04766903 -0.068623394 0.019508934 0.002568887 0.038124435 -0.024011323 -0.10653322
-0.017856166 -0.037210688 0.07121251 -0.050854422 -0.13589707 -0.057527244 -0.008655984 0.06803543
0.015490803 0.010092793 -0.0844853 0.024504757 -0.08261924 0.06670454 -0.05165808 0.11455822
0.08915472 -0.007357064 -0.06269691 -0.05711229 -0.0005246246 0.024929032 -0.07063097 0.115756534
-0.06676627 -0.01076902 0.13613725 0.03923411 -0.055226512 -0.036769442 0.0054696617 -0.114545375
0.019214971 0.006455734 0.06739664 0.033828333 0.0386192 0.050209034 -0.0031087245 0.066401176
-0.03961188 -0.025965624 -0.038916696 -0.016339203 0.022087973 0.13830934 -0.07230428 0.054000895
-0.091580786 -0.06877617 0.015484446 0.019363558 -0.050109025 0.0065798406 -0.01257017 0.08622905
0.045860246 0.025921328 0.026238104 -0.02938485 -0.06994324 0.18019465 -0.13233685 -0.0104148295
0.06733416 0.073662326 0.052757237 -0.08965495 -0.12114577 -0.06354465 -0.066012755 0.054973412
-0.025144987 -0.14847265 0.03367468 -0.043263543 0.04837609 -0.018600533 -0.067081906 0.0102389585
-0.06547167 -0.05673637 -0.04759139 -0.040575705 -0.02099612 0.012274348 0.030563354 -0.0037355197
-0.11457909 -0.15752324 -0.0036376785 0.08774169 -0.090346195 0.07598547 -0.083117105 0.10106056
-0.0013285278 0.031431057 0.11043 -0.05746922 0.019340165 0.008339876 0.008603316 0.004855086
-0.08074038 0.029568385 0.022574142 -0.03841278 0.016609777 0.000704721 -0.13591544 -0.12700725
0.12059866 -0.028539404 -0.047289994 0.01575009 -0.037483066 0.0648067 0.09434658 0.0216264
0.08624663 0.12691821 0.058468513 0.047991123 0.08684044 -0.053492144 0.10224527 0.061600894
-0.025909131 0.0021386065 0.0030314522 0.18757287 0.059104875 0.10313363 0.038614362 0.002260708
-0.052871443 0.011581359 0.06681487 -0.003447903 -0.23487775 -0.042084135 -0.03185703 -0.006039186
-0.050531942 -0.0026667134 0.036870982 -0.016133063 0.09486577 0.108025946 0.057533048 0.076461375

bias f4 [256]
00000000: d2f7 ea3d 6bff e6bc 3708 053e b196 e53c
00000010: 6dac 23bd 6725 5e3a 28ab 3abd 87d3 0fbb
00000020: 7102 a8bd aba5 82bd 8bed 233e 0a08 633d
00000030: 8521 d33d b8df a9bc 820a 9a3d d298 51bc
00000040: e3ad 143e bd3f 02bd 50b0 963d b453 5dbd
00000050: 56f1 883d 2f7e d1bb f255 cd3d 07d7 363d
00000060: cdb0 d93d b6d3 4fbd 4b89 a63d 6fc7 03bd
00000070: 1a0e 70bd 7cc8 b1bd 1df7 443d 4c69 063e
00000080: eafc 09bd be58 b43d 9440 58bd 7679 d7bc
00000090: e59a 283d b28e 41bd d950 053e 6398 debc
000000a0: 5d8f 10bd 29a3 d23c 7f7d 46be be2c 823d
000000b0: 2704 243d d4c8 533d a7c8 23be c9f5 e23d
000000c0: d363 24bd 95b5 893d 3e7d 3cbd 21b0 0b3e
000000d0: d4f5 333c 8b44 9fbd 1548 3bbd 84ff b33d
000000e0: a086 4dbd 3193 213d 1e19 aabc 7c02 ccbd
000000f0: 5bfa d5bd 9e5a babc 6978 b93d 4217 143e
00000100: 3d6a 5fbd 34ed 89bd 5bbd 6e3d 4d89 1cba
00000110: 3e4e dc3d a796 f9bc 2d88 02bd 8fe6 59bd
00000120: 0e24 83bc 9643 a03d 9efa 18bd e9a1 b5bd
00000130: 407e ed3b 018a 7bbd 89bc 1ebe 2ab9 82bd
00000140: 085f 0f3e 299e 93bd 4300 243d a80d 18bd
00000150: c3a7 2cbe ae87 973d fc8e 803d 3544 c53d
00000160: 8914 99bd d07c 833c 1dcc 84bd 5f75 c0bb
00000170: 0044 ed3c 0485 62bd 426c aabd 0177 13be
00000180: 0884 a1bd faba 843d 7e90 84bd 05d8 10be
00000190: fc69 29bd 8dcb 3c3c 7135 87bd b1c4 433c
000001a0: ea62 253d 64a5 5dbd 1e6f 033d b3fc 983d
000001b0: c00c e6bd c23a 743d 6b66 2dbd db6d 873d
000001c0: 93d8 923d 8326 46bd 7b84 ac3d 680d 703d
000001d0: 7b6d 0f3c 57e9 47bd afc0 913d 9851 653d
000001e0: 65f0 08bc f230 a0bd c9d0 c23d 4a86 863d
000001f0: 3781 ae3d cd54 233d 6f09 883d 8eae 9a3d
00000200: 7182 68bd 8495 d03d cabc ed3d be35 bc3d
00000210: 642e 9b3d d746 03bd 0c86 0c3d 5592 913d
00000220: dd76 f23c 5831 20be 3e81 843d 8644 25be
00000230: 212b a73d 7da9 a1bd 486f 9abd 95e0 d43d
00000240: 6b14 38bc 3a38 503d 0b1a babd 8fbe 00bd
00000250: 9216 a33d 2ddd d7bd 58db 353d f58a ac3d
00000260: 74d0 babd f363 0abd e4a8 9bbd 0d12 533d
00000270: b708 62bd c38a 933c 7c1b c2bd 507b 853d
00000280: 2606 763d 7b92 833d 345b 3bbd 450b 08be
00000290: 3216 103d 740f 393c 995d 69bd 9e2f 4cbd
000002a0: 7b98 c03d 69ff b13c 24e1 1fbd 4182 c93d
000002b0: e019 a63d ab31 0ebd c1a1 ca3d 4982 a03c
000002c0: a303 54bd ca58 003e 9dd6 a33d de81 8dbd
000002d0: fa31 86bd b3e7 7bbc e451 473d d63b 8cbd
000002e0: 5d9f 87bd 2c12 a0bd 1315 2fbd 69b7 c6bb
000002f0: 3833 723d f53a fe3d 0405 593d d4fe 303d
00000300: e27e 5fbd 37aa 70bd 558e a53d 0c44 5cbd
00000310: aab6 4bbd ad0f 7c3d d31d 6d3d a8da 29be
00000320: 6f35 31bd 5358 093d d49a c03d 385a 3e3d
00000330: 2ad5 4b3b 15e9 203e f927 a0bd 5caa 27be
00000340: ad69 64bd fdbb 853d 1895 463d 0e0f 72bd
00000350: fbab 703d af8d 8d3d 33c3 a33d 8b4a 97bd
00000360: 4bba 89bd 9747 6c3d 1d64 bbbc d8a4 c2bd
00000370: e513 743d 9f2c 263d 0cf2 9ebd a2c2 11be
00000380: bc02 cd3d 44da 0a3d 4f98 bc3d da1e 17bc
00000390: 2b0e c53d 590c 27bc 8dfa b83d 8272 b93d
000003a0: db44 edbd 4fac 41bd e790 dcbd ec1d 67bd
000003b0: b98b a93c 3a4c 86bd e715 2d3e b8c1 77bb
000003c0: 7ffd 4d3d 5380 a6bd ba15 9f3d a692 8a3d
000003d0: 1c05 bc3d 2441 b83d 9ac3 903d 708d f8bd
000003e0: 7bb0 a53c ce7f e63d 9c1b 1f3e 5915 113d
000003f0: fc7a b1bd 90b8 3bbb e3eb 11bd e554 84bd
0.11473049 -0.028197965 0.12991415 0.028025957 -0.03995936 0.00084742013 -0.045573384 -0.0021946148
-0.08203591 -0.06379255 0.16008584 0.05542759 0.10309128 -0.02073656 0.075215355 -0.012792783
0.14519458 -0.031799067 0.07357848 -0.054034904 0.06686656 -0.006393216 0.100261584 0.04463866
0.10629425 -0.050739013 0.08131655 -0.032172617 -0.0586072 -0.086808175 0.048087228 0.13126105
-0.033688463 0.08805989 -0.05279596 -0.026303034 0.041163344 -0.047255225 0.13019122 -0.027172273
-0.035292972 0.025712566 -0.1938381 0.0635619 0.040043022 0.051705196 -0.15994512 0.11082036
-0.040134262 0.06724087 -0.046017878 0.13641407 0.010983903 -0.077767454 -0.04572304 0.0878897
-0.050177217 0.039447013 -0.02076393 -0.09961411 -0.10448142 -0.022748288 0.090561695 0.14461997
-0.054544676 -0.06734696 0.058286052 -0.0005971387 0.10757111 -0.030467344 -0.03186815 -0.053198393
-0.016008403 0.07825391 -0.037348382 -0.088687725 0.007247716 -0.061410908 -0.15501608 -0.063829735
0.14001095 -0.07207901 0.040039312 -0.0371224 -0.16860871 0.07398926 0.06277272 0.0963215
-0.0747462 0.016050726 -0.06484244 -0.0058733667 0.028963089 -0.055302635 -0.0832143 -0.14400865
-0.07886511 0.064809754 -0.06472872 -0.14144905 -0.04136084 0.01152314 -0.0660199 0.01194875
0.040377535 -0.054112807 0.03208839 0.074700736 -0.112329006 0.05962635 -0.042334 0.0661275
0.071702145 -0.04837657 0.08423706 0.058606535 0.0087541295 -0.048806515 0.071168296 0.055986017
-0.008358096 -0.078218356 0.09512479 0.06568582 0.085207395 0.039875794 0.06642424 0.07552825
-0.056765024 0.10184768 0.11608274 0.09189938 0.07577208 -0.03204998 0.034307525 0.07107989
0.029597694 -0.15643823 0.064699635 -0.16139421 0.08162523 -0.078936554 -0.075407565 0.10394398
-0.011235337 0.05083487 -0.090869986 -0.03143173 0.07963289 -0.10540233 0.044398636 0.084249415
-0.091217905 -0.033786725 -0.07600573 0.051530886 -0.055184092 0.018010503 -0.094778985 0.065176606
0.060064457 0.06424423 -0.045741275 -0.13285549 0.035177417 0.011295188 -0.056974027 -0.0498501
0.09404083 0.021728234 -0.03903307 0.09839297 0.08110404 -0.034715336 0.09894133 0.019593375
-0.05176128 0.1253387 0.079999186 -0.06909536 -0.06552501 -0.015375066 0.04866208 -0.0684735
-0.06622193 -0.07815966 -0.042744707 -0.0060643447 0.059130877 0.12413589 0.0529833 0.043211773
-0.054564364 -0.05875608 0.08083788 -0.053775832 -0.04973475 0.061538387 0.05788977 -0.16587317
-0.04326385 0.0335315 0.09404531 0.046472758 0.0031102397 0.15713914 -0.07820124 -0.1637358
-0.055764843 0.065299965 0.04848203 -0.05909639 0.058757763 0.069117896 0.07996216 -0.07387265
-0.06724986 0.05768546 -0.022874886 -0.09504098 0.059589285 0.040569898 -0.077610105 -0.14234403
0.10010287 0.03389956 0.09208738 -0.009223664 0.09621843 -0.010195815 0.09032164 0.09055044
-0.11585399 -0.047283467 -0.107698254 -0.05642502 0.020696508 -0.06557508 0.16902886 -0.0037804674
0.05029058 -0.08129945 0.07767816 0.06766252 0.09180662 0.089967996 0.07068558 -0.12136352
0.020225754 0.112548456 0.15537876 0.03542075 -0.086660355 -0.0028643943 -0.03562535 -0.06461505

weight f4 [1, 256]
00000000: 4b0d 933d 269c 813b 8ef4 bb3d 5bf4 c4ba
00000010: 9503 34bc 90f3 3ebb 8e6b 24bb 1c64 ceba
00000020: c513 8cbc 5a7e 68bc 67cf e93d 3868 bc3c
00000030: 297e 753d 3738 b038 eebd 07b8 7e6b 1dba
00000040: 9941 b13d 53ce 6fbb 9b09 cf3d 5d92 bbb8
00000050: d939 303d 4d3b 113b 2e37 c33d 871d 61bb
00000060: cad8 b83d 72ef 313a 4abb 633c 4465 25bc
00000070: b74f d1bc 9bc5 a6bd 1e8e 22bb cc21 d13d
00000080: e0ec 813a 7335 1f3d 7abe 7bbb 7b72 693b
00000090: e19b a7ba 5db5 47bb fb59 153e 264e 74b9
000000a0: fc13 79bd 4c1e 08bb 11ff 88bd e9b0 313d
000000b0: 6fc4 9e3c ac90 ae3d 83f6 64bd cec3 c43c
000000c0: ecca 72bb f9af 7b3c cebd 7c3a 8928 703d
000000d0: fc9f a53b 47cf 75bd 33ac ebba 4cb2 293e
000000e0: 73a7 0abd c522 0a3c d287 d3b8 59c0 27bd
000000f0: 891d 24bd 3e11 603b 555e 0b3d ef21 0e3d
00000100: 743f 65bc 2fc2 34bd ab18 283e 6c94 3e3a
00000110: eac6 1f3e 7330 933b 1ec0 b4bc 1ff6 34bb
00000120: cd2e 7d3b 1c80 753d d10e 1f3b 3744 b3bd
00000130: 0a47 053a cd82 f8bb 2362 0fbe 948d eebd
00000140: 250e aa3d 50c8 7ebc b295 c6ba bb5b 263c
00000150: 94c6 dcbd a41b 333e 8c19 973b 2320 a13d
00000160: b4e3 9dbd 9693 bbb9 666f 8cbc 98ab 7dbb
00000170: f831 32bb afa6 b0bd c26f d0bc c188 b3bd
00000180: e00e e4bd de88 f23b 8dcc 29bc 5e08 7abd
00000190: 8db0 3cbb 5c1f 3d3b 1a6f 86bd 21df efba
000001a0: 2913 9bbb 8c2e afbc 12f1 1a3a 40ec 6e3c
000001b0: 1613 a3bd acc6 bc3b 07c0 db3a 38f4 e63b
000001c0: 9b52 653d e4a0 41bb 32e4 d83d b21f 043d
000001d0: 2321 42bc 1675 a53a 6eb8 923c d898 8f3c
000001e0: e71f ed3b 44d4 38be 60e7 233d fd85 ea3b
000001f0: 9036 663d dac9 023c 509d 863c f166 733d
00000200: fe87 94bd db73 c03d fbc6 333d f68a 153e
00000210: dbca bd3c 3683 4cbb 59a7 6dbb ff60 153e
00000220: 5475 adba 61b4 4dbd 694d b93d 0be1 a6bd
00000230: ecdd 4b3d c786 09be 1e30 0cbd ebc1 883d
00000240: 0636 213b 72e4 983b a5a0 b0bc 1324 873b
00000250: aac1 a43c 9eb9 abbd c7a4 6a3b 34c2 283d
00000260: 109e b0bc a1b3 22bd 3aa6 54bc 9d4b bc3c
00000270: e2e3 6dbc 5bab f0bb 7cbb bbbc d020 cb3c
00000280: c011 33bb f170 5e3d 3b4e 49bb 05a1 66be
00000290: 127e 343c 7125 493b 605a 06bd 7b59 2fbc
000002a0: cb17 a03d 3ea1 0b3b c4b5 a8b8 273c 2e3d
000002b0: 8d0a 8e3d d50f d33a 5ad6 cd3c c4c5 d63a
000002c0: 3e37 23bd 8c99 bd3d 321e 8f3c 83d1 3bbd
000002d0: 0370 00bd cc3b 123a 5dde 60bb c09e 96bd
000002e0: 95e1 3cbc 4199 adbb 6f67 92b9 d967 6a3b
000002f0: 0fbc 4c3b 097a 973d 02b0 223c 540b 863c
00000300: d3b3 54bc f83d ecba 3fb2 d13d f32e b6bc
00000310: 6c5f c4bb 4233 a23b 7398 fb3c a088 64bd
00000320: cb8f 4939 42f9 1d3b 293a b43d 7f2d 7d3c
00000330: 957a 9cbb f5ad a63d 274b 0dbe e888 e9bd
00000340: 7fab 9cbb 6680 163c a31e 993d a9dc 1bbd
00000350: 6156 ba3b 9f62 d73d b185 ad3d 3067 bdbd
00000360: a59a d5bc 4b61 10bb f9de dbba bcf1 01bc
00000370: 3c08 3d3d 7f7d 213c fcd4 73be eaf1 89bd
00000380: 8baa d13d fab8 9c3a 6e2a f83c 2cea fdba
00000390: 30eb 843d f5bc 25bb b582 e43d 9c8d 063e
000003a0: 39d8 29bd dc90 0fbc b1e5 05be f6d0 82bd
000003b0: ed99 0f3b 09c6 01bd f9ee ab3d 2f5f a0bb
000003c0: ff84 a93b 525f 51bd d567 e73b 351b 173d
000003d0: cf93 293e 14d0 513e 1891 613d 583c 10bd
000003e0: 3a33 583a 07ba e03c 44fc 8a3d 322d 63bb
000003f0: c188 6cbd 5432 923a 7c13 23ba 8008 79bd
0.0718027 0.003955382 0.091775045 -0.0015026437 -0.010987182 -0.0029136874 -0.0025088522 -0.0015746388
-0.01709927 -0.014190281 0.11416512 0.022998914 0.05993477 8.402805e-05 -3.2363394e-05 -0.00060050923
0.0865509 -0.0036591485 0.10109254 -8.944117e-05 0.043023918 0.002216059 0.09532009 -0.0034349875
0.09025724 0.00067876943 0.013899634 -0.010094944 -0.025550706 -0.08143159 -0.0024803947 0.10211524
0.0009912513 0.038869333 -0.0038413093 0.0035621214 -0.0012787544 -0.0030473091 0.14585106 -0.00023298766
-0.060810074 -0.0020770011 -0.06689275 0.043381605 0.019380776 0.08523688 -0.055899154 0.024019148
-0.003704722 0.015361779 0.000964132 0.058632407 0.005054472 -0.06001213 -0.0017980397 0.16571921
-0.0338511 0.008431141 -0.000100865625 -0.04095492 -0.04006723 0.0034189965 0.03402551 0.03470033
-0.013992179 -0.0441305 0.1641566 0.00072700414 0.15603223 0.0044918596 -0.022064265 -0.002761252
0.0038632632 0.059936628 0.0024270306 -0.08753245 0.0005084133 -0.007583952 -0.1400228 -0.11648098
0.08303479 -0.015550688 -0.0015150814 0.010153706 -0.10780063 0.17491013 0.0046111997 0.07867458
-0.077094465 -0.0003577738 -0.017142963 -0.0038707014 -0.0027190428 -0.08625542 -0.025443915 -0.08766318
-0.1113565 0.0074015697 -0.01036371 -0.061043136 -0.0028791756 0.0028857803 -0.0656416 -0.001830075
-0.0047325087 -0.0213845 0.0005910556 0.014582694 -0.07962625 0.005760988 0.0016765603 0.007048156
0.05598698 -0.0029545361 0.105904 0.03225679 -0.011848721 0.0012623395 0.017910209 0.017528936
0.007236469 -0.18049723 0.04001558 0.007157086 0.05620438 0.0079826955 0.016432434 0.059424344
-0.07252501 0.09397098 0.043890934 0.1460379 0.023168018 -0.0031206138 -0.0036263077 0.14587782
-0.0013233819 -0.05022085 0.09047968 -0.08148392 0.049772188 -0.1343032 -0.034225576 0.06677612
0.002459885 0.0046659047 -0.021560976 0.0041241734 0.020111877 -0.08385013 0.0035803781 0.04120083
-0.021559745 -0.03972209 -0.012979085 0.022985274 -0.0145196635 -0.007344646 -0.022916548 0.02479592
-0.0027323812 0.054306928 -0.0030716795 -0.22522362 0.011016386 0.0030692483 -0.032801032 -0.010702486
0.07817038 0.0021305825 -8.044721e-05 0.042537834 0.06935606 0.0016102741 0.025126625 0.0016385843
-0.039847605 0.09257802 0.017470453 -0.045854103 -0.031356823 0.00055783684 -0.0034312226 -0.07354498
-0.011528392 -0.0052978103 -0.00027924354 0.0035767464 0.0031240021 0.07396323 0.009929659 0.016362824
-0.012982327 -0.0018023839 0.10239076 -0.022239184 -0.0059928205 0.004949958 0.030712342 -0.05579436
0.00019222421 0.0024104868 0.08800156 0.015452742 -0.004775355 0.081386484 -0.137982 -0.11403066
-0.004781186 0.009185886 0.074765466 -0.038052235 0.0056865667 0.10516857 0.08472765 -0.09248197
-0.026074717 -0.0022030647 -0.0016774825 -0.007931169 0.04615043 0.009856581 -0.23811716 -0.067355946
0.102376066 0.0011956983 0.03029367 -0.0019372157 0.06490171 -0.002528963 0.11157743 0.13139957
-0.04146597 -0.0087625645 -0.13075902 -0.063875124 0.0021911815 -0.031683 0.0839519 -0.0048941593
0.005173325 -0.051116295 0.0070619383 0.03689118 0.16560291 0.20489532 0.055070013 -0.0352138
0.00082473794 0.027432455 0.06786397 -0.003466439 -0.057747606 0.0011153915 -0.000622086 -0.06079912
