trained_models/ppo/me5418-Cassie-v0/0524-07-59-30-s3737/actor.pt (torch, 906874 bytes, 11 tensors)

log_std f4 [1, 10]
000000 9f e4 20 bd 19 d6 d9 bc df 7d 70 bd 1e 4a 4d bc
       -0.03928053 -0.026591348 -0.05871379 -0.012529878
000010 83 f1 de bc 37 0b 86 bd 7e 4e 5b bb d9 b1 cf bc
       -0.027214771 -0.06545108 -0.0033463533 -0.025353359
000020 6a 9b 5d bd c5 c5 d1 bc
       -0.054103293 -0.025607

weight_ih_l0 f4 [512, 50]
000000 c3 cf 99 3d 1a bd d7 bc 17 15 50 3c c1 6d af 3d
       0.075103305 -0.026335288 0.012700341 0.08565856
000010 73 22 cd bc 0b 6c 2b 3d 43 fb 54 bd 4e 52 41 3d
       -0.02504084 0.041851085 -0.051997434 0.047197632
000020 92 ad 28 bd 75 12 9c bc f8 f1 28 3d 46 54 39 bd
       -0.041181155 -0.01905177 0.041246384 -0.045246385
000030 46 ce 6e 3d ea 01 a6 3d 5c 7c f8 bc 57 6e c9 3c
       0.058302186 0.08105834 -0.030332737 0.024588747
000040 0d be be bc 2a f2 e4 3b e3 0b 2a bd 58 c5 15 bd
       -0.023283983 0.006986876 -0.041515242 -0.036565155
000050 69 8a af bc 18 96 99 bd 95 f8 99 bc ef 6a 88 3c
       -0.021428304 -0.07499331 -0.018795291 0.016652552
000060 de b2 89 bd 1c e6 9c bd d6 30 db bd fd 17 a9 bc
       -0.06723569 -0.076610774 -0.10702674 -0.020641321
000070 05 a2 98 3d 42 6b c8 3c 19 96 f0 bc a0 e7 e4 bc
       0.07452778 0.024465207 -0.029368447 -0.027942479
000080 7d 41 e4 3c 44 7e 29 3d bb 50 9c 3d cf ac 89 bd
       0.027863258 0.041380182 0.076325856 -0.06722414
000090 bc 98 84 3b 5b 69 51 bd fa 09 af bd 99 23 1d bd
       0.0040465277 -0.051125865 -0.08546825 -0.038364027
0000a0 d8 c0 72 3b 05 6b a6 bb 72 4b f3 bd 21 e4 5c 3c
       0.0037041213 -0.0050786757 -0.118796244 0.013482125
0000b0 b0 c4 56 3d 8a ab 4f 3c b6 0c 02 3d 88 c8 bf 3c
       0.05243367 0.012675175 0.031750403 0.02341105
0000c0 03 a2 cc 3b 64 64 83 bc e6 d5 c5 ba da e3 ec 3c
       0.0062448992 -0.01603908 -0.0015093654 0.028917242
0000d0 ed c0 9c 3d 42 a4 9b 3d f0 f4 58 3c fc 2b b9 bd
       0.07653985 0.07599689 0.013241991 -0.090415925
0000e0 2d 60 3c 3d 96 e3 d2 bd f1 f3 22 3c 0b 45 a4 3d
       0.045990158 -0.10297315 0.0099458555 0.080209814
0000f0 e4 5b c2 bc ab d4 9d bc 0e f6 84 bc 84 07 91 bb
       -0.023725457 -0.019266447 -0.01623061 -0.0044259448
000100 7e 7e ce 3c 31 1e 88 3c 1d 94 5b bd 9a ca 8e 3d
       0.0252068 0.016615959 -0.05360805 0.06972237
000110 4b eb 17 3d be 0b 9a bd fb d7 16 bd b2 33 e3 bc
       0.037089627 -0.07521771 -0.03682707 -0.027734611
000120 6b e6 5e 3c ac 8d 82 3d 03 19 28 bd 33 85 9c 3c
       0.013604741 0.06374678 -0.041039478 0.019106483
000130 10 8b b1 3c 4d 8b 95 bd dc 5d 52 3d 36 b4 40 3d
       0.021672755 -0.0730196 0.051359043 0.047046863
000140 12 74 a0 bd f2 f4 61 bd 78 69 7b bd 59 96 62 bd
       -0.07834639 -0.05516524 -0.06137988 -0.055319164
000150 6e 3d 87 bd 50 51 66 3d 79 61 66 3d d9 df 19 3c
       -0.06603514 0.05622989 0.0562453 0.009391748
000160 99 1f ac bd fa 4e 3f bd a3 5c 12 3d 00 e5 16 3d
       -0.08404464 -0.046706177 0.035732877 0.036839485
000170 fe a9 86 3d 8f 87 23 bd 4a 34 b9 3d d1 ae 35 bc
       0.06575392 -0.0399242 0.090431765 -0.011089043
000180 42 33 1d 3d e9 91 85 bc 56 0a 9f 3c 8c f1 1a bc
       0.03837896 -0.016304927 0.019414108 -0.009457003
000190 a0 d8 e8 bb 22 73 4d bd 2f c1 9e 3d be f0 5f 3c
       -0.007105902 -0.050158627 0.077516906 0.013668237
0001a0 7d 69 97 bd 96 6c b0 3d 60 8c 5c 3c f2 16 3c bc
       -0.07393167 0.08614461 0.013461202 -0.01148008
0001b0 5e 53 96 bd 91 91 97 bd 27 a7 0f bd 06 b6 98 bc
       -0.0734012 -0.074008115 -0.03507152 -0.018641483
0001c0 d0 3b 07 3c ca 79 4b 3d b3 af 0c bd fc 31 be bd
       0.0082540065 0.049676694 -0.034347247 -0.092868775
0001d0 65 b3 c7 bc 1e 6d 89 bd 69 6d a3 bc 08 2f 91 bd
       -0.024377534 -0.067102656 -0.019949632 -0.070890486
0001e0 5a ea e2 bc 8a 4d 90 3d 90 d1 76 bd 83 57 25 3d
       -0.027699638 0.070460394 -0.060258448 0.04036666
0001f0 a5 9a 1a 3d b0 24 a2 bd 80 37 dc bc 1e 40 1c 3d
       0.037745137 -0.07917154 -0.026881933 0.038147084
000200 27 8b 93 bd 76 d9 84 3d 0b 2f 8e 3c cc bf fd bc
       -0.072042756 0.0648679 0.017356416 -0.030975245
000210 f2 95 d6 bc 18 c3 aa bd 9b be 74 bd 36 24 23 bd
       -0.026194546 -0.083379924 -0.059752088 -0.039829455
000220 dd 59 80 3d e9 33 2f 3d b8 78 a9 3d 35 5c 71 3d
       0.0626714 0.042774115 0.082749784 0.058925826
000230 29 ca 06 3c 98 eb 19 bd f4 15 e2 bd 76 b7 b1 3d
       0.00822691 -0.037578195 -0.110393435 0.086775705
000240 b0 a1 ed bc e9 8b fb 3c 92 85 24 bd 51 44 6f bd
       -0.029007763 0.030706363 -0.040166445 -0.05841476
000250 f1 9e 3d bd 80 e9 0b 3d c9 6e b8 3c cb df 4d bd
       -0.046294156 0.03415823 0.022513764 -0.050262254
000260 23 c1 01 3d 55 7c a7 3c 9d 3f 89 bd 49 d0 8d bd
       0.03167833 0.020445028 -0.067015864 -0.06924493
000270 ba b5 7a 3c c7 48 db bc 0d fd be 3d cf 18 02 bd
       0.015302116 -0.026768101 0.09325609 -0.03176194
000280 35 b4 86 3d ba 58 77 bd 68 c5 92 bc e1 9a 34 bc
       0.065773405 -0.06038735 -0.017916396 -0.011023254
000290 8a 09 86 bd 83 9b da 3c 1c 1c 1a 3d bf d9 dc 3c
       -0.06544788 0.026685482 0.037624463 0.026959298
0002a0 4d c3 93 bd 84 05 65 bd 17 80 0f bd 9c dc 53 3c
       -0.07214985 -0.055913463 -0.035034265 0.012931015
0002b0 a7 8a 83 bd 2d 22 70 bc f4 5c c3 3d d0 94 05 bd
       -0.0642293 -0.014656586 0.09539214 -0.03261262
0002c0 4c a5 5f bd 3f 9f a4 3d 50 05 75 3d 53 f6 c4 bc
       -0.054601 0.08038186 0.05981952 -0.024043238
0002d0 c2 ab 51 3d 58 87 87 bc f8 25 a2 bd 38 f6 50 bd
       0.05118919 -0.01654403 -0.07917398 -0.051016062
0002e0 45 7a 80 3c bc d5 b2 bd 25 e0 ee 3c 65 84 52 3d
       0.015683303 -0.08732173 0.029159615 0.051395793
0002f0 53 20 c0 bc 7b d0 a9 bc 98 9d 3a bd 3a 7c 89 bd
       -0.023452913 -0.020729294 -0.04556045 -0.067131475
000300 e6 bf 9d bb 51 f9 56 bd 84 5d c9 bd 7b 96 d8 3c
       -0.004814136 -0.05248386 -0.0983229 0.026438942
000310 66 67 28 bd f5 a2 55 3d da 0d da 3c 0e 58 8c bc
       -0.041114233 0.05215736 0.026617933 -0.017131831
000320 b2 4d 64 bd 52 15 d0 bd 14 b7 02 bb 51 8c 22 bd
       -0.05573816 -0.101603165 -0.001994555 -0.039684597
000330 db f2 13 3d 85 ec 49 bd 9c 7c 7d bc 0e d6 6c bd
       0.036120277 -0.04929783 -0.015471604 -0.057821326
000340 bc 9b 94 bc 49 80 f5 bb 0e 2d b1 3d d7 d8 82 3b
       -0.018140666 -0.0074920994 0.086511716 0.0039931345
000350 ec e0 70 3d 85 82 59 bd 0c c7 cd 3d 73 39 b3 bb
       0.058808252 -0.05310299 0.10047731 -0.005469495
000360 d7 15 49 3d bc 12 74 3c a3 68 d2 3c 96 b3 c9 bd
       0.049093094 0.014897045 0.02568466 -0.098487064
000370 f2 e9 7e bd f2 0d 60 3d ae c7 12 bd a1 c8 ea 3c
       -0.062234826 0.0547008 -0.03583496 0.02866012
000380 77 b6 8d bc 0c d3 d6 bd 93 cd 4a 3c 78 e2 5a 3d
       -0.01729892 -0.10489473 0.012378114 0.053438634
000390 78 f8 2f 3d 3f 4b be 3c 36 04 8a 3c 44 66 b9 bb
       0.042961568 0.02322924 0.016847711 -0.005657943
0003a0 91 df aa 3d 09 1c ac 3d 30 6a 93 bd cf 7b 32 3d
       0.08343423 0.08403785 -0.07197988 0.043575104
0003b0 98 5a ae 3d 2a 68 ff bc e2 80 92 bd eb 41 c6 3d
       0.08513373 -0.031177599 -0.07153489 0.096805416
0003c0 f9 f1 9a bd 8b 81 eb 3c d5 97 4b bd 2e 11 90 3d
       -0.07565684 0.028748294 -0.049705345 0.07034527
0003d0 64 cc ed bc b8 08 46 3c 20 7a e7 bb c7 96 7f 3d
       -0.029028125 0.01208704 -0.007064119 0.06239965
0003e0 20 93 da 3c 43 50 86 bd bd 56 b1 bd 62 d0 91 3c
       0.026681483 -0.065582775 -0.08659122 0.01779956
0003f0 3e b4 8a bd 9b 90 cb bb d8 c7 03 bd 70 38 34 3d
       -0.0677266 -0.0062123067 -0.032173008 0.043999135

weight_hh_l0 f4 [512, 128]
000000 72 0a 29 3d 14 ca 97 3d da 00 b1 3c 40 94 0d bd
       0.041269727 0.0741159 0.021606851 -0.03456521
000010 cb 0c c8 3c 2c 0f af 3d 88 a0 bf 3d 26 3e ad bc
       0.024420163 0.08547816 0.09356791 -0.021147799
000020 a9 1d a9 3c 89 cc 84 3b bf 65 5c bc d9 cb a9 3d
       0.020644026 0.004052703 -0.0134519925 0.08290834
000030 ea ea f2 bc 82 e4 7b 3c 89 4e 80 3d 57 e3 38 3b
       -0.029653031 0.015374305 0.062649794 0.0028211677
000040 93 76 c7 3d 77 62 cf bd 55 6a 36 3d 9a ef 10 bc
       0.09739413 -0.101262026 0.044535 -0.008846188
000050 86 ef 37 3b 33 62 0b bd 0a 1f b1 bd c5 00 48 3d
       0.002806635 -0.034029197 -0.08648498 0.04882886
000060 3d f3 34 bd 19 47 70 bd 80 4b 87 bd 8a 5f 3d 3d
       -0.044177283 -0.058661554 -0.06606197 0.04623369
000070 7e ae 7a bd 2e 6d 37 3c 9d 3b 9f bd 54 4b 03 bd
       -0.061201565 0.011195464 -0.07775042 -0.03205426
000080 01 61 79 3d 82 1f e7 bc 2c 22 bc bc d5 40 6f bd
       0.060883526 -0.028213266 -0.022965513 -0.058411438
000090 b6 a6 84 bc 0a 1a 50 3d 5d b3 cc bd 20 5b 7f bd
       -0.016192775 0.050806083 -0.09995148 -0.062342763
0000a0 72 d4 a2 3d d7 ef 9a 3d 0b 35 56 3c 2c 9d 6b bd
       0.07950677 0.07565277 0.01307417 -0.057522938
0000b0 ba 75 89 bd 69 e9 60 bc 74 fd 80 bd a9 19 6b bc
       -0.06711908 -0.013727524 -0.06298342 -0.01434938
0000c0 89 16 6b bd 56 95 50 3d 77 00 be 3d 82 cd 6f 3c
       -0.057394538 0.050923668 0.092774324 0.014636399
0000d0 b0 d0 7c 3d a6 44 08 bd d9 cc 9e 3b dd 6a 3c bd
       0.061722457 -0.033268593 0.004846197 -0.04600035
0000e0 8d aa b7 bb fc 49 a6 bd 7b dd 53 bd 0d f8 8d bd
       -0.005605048 -0.0811958 -0.051724892 -0.069320776
0000f0 02 0c 9f 3d a7 62 8f 3d cb bc 63 3d 3b 79 82 bd
       0.07765962 0.07001238 0.05559997 -0.06370779
000100 60 de d4 3c ec af 55 bd aa f2 1f 3c ad 07 dd 3c
       0.025984943 -0.052169725 0.009762445 0.0269812
000110 d9 e0 89 bd 61 9f 89 bd 17 8a 48 3d ce 6c e1 bc
       -0.067323394 -0.06719852 0.048959818 -0.027517702
000120 60 eb 80 bd b5 41 c7 3c f5 9a 05 3c 62 e4 98 bb
       -0.06294894 0.024323324 0.00815462 -0.004665897
000130 0d 0d d9 bb b7 c0 a4 bc 8c f5 86 3d 2c bb c0 3c
       -0.00662387 -0.020111425 0.06589803 0.02352675
000140 42 c6 2a bd 98 59 5e 3d ad ba 01 3d 4b f6 d3 bb
       -0.04169298 0.054284662 0.03167217 -0.0064685694
000150 83 cf 86 bd 10 6b c4 3d a6 a2 2a 3c ca e5 bf 3a
       -0.065825485 0.09590733 0.010414755 0.0014640626
000160 9d 8e b7 bd 35 49 a9 3d f9 97 81 bd 9d df 85 3c
       -0.08962748 0.08265916 -0.063278146 0.016341979
000170 d6 b5 ad 3b 1a 5e 3c bc 34 67 88 bc 0b df 0d 3d
       0.0053012175 -0.011497045 -0.016650774 0.03463654
000180 f4 c0 a3 bd c7 17 6b b9 ed ac 37 3c 3c 0c 7d bd
       -0.07995787 -0.00022420204 0.011210662 -0.061779246
000190 ed 03 0b bd da f3 10 bd 6d 35 27 3d ae 8c 56 bd
       -0.03393929 -0.035388805 0.040822435 -0.052380256
0001a0 45 f6 99 bc 1f 07 1c bc fc d4 02 3d 51 c3 18 bc
       -0.018794188 -0.009523182 0.0319414 -0.009323911
0001b0 29 89 f6 3c 23 f5 5e bd 4c e8 70 3d 6e b1 0e 3d
       0.0300947 -0.054433 0.058815286 0.03483718
0001c0 d8 c5 8f bd 54 37 2f 3d 73 0a 60 3d bd 1b ae 3d
       -0.070201576 0.042777374 0.054697465 0.085013844
0001d0 81 2b 84 bd a0 49 79 3d 49 59 86 bd 72 74 92 3d
       -0.0645361 0.06086123 -0.065599985 0.071511164
0001e0 df 46 05 3c 04 87 8b 3d 18 f3 5b 3d b7 d0 35 bc
       0.008134573 0.068128616 0.05369863 -0.011097125
0001f0 3f de 84 bd 63 c4 27 bc 67 82 a0 bc 0e 20 84 bb
       -0.064877026 -0.010239693 -0.01959343 -0.0040321415
000200 ce 84 1e bd 12 e2 c8 3c 3f e8 8c 3d 69 03 86 3c
       -0.03870087 0.024521861 0.06880235 0.016359048
000210 ef 5e a2 bd a9 19 00 bd 84 39 8f 3b 66 d7 8f 3d
       -0.079282634 -0.03127447 0.00437087 0.07023506
000220 a1 b3 3c bd 8d d3 ac 3b 9a af 40 3c 15 7c a0 3c
       -0.046069745 0.0052742423 0.011760617 0.019590417
000230 fe ae 9d 3d 67 cc 08 3d 13 df 00 3d 43 f4 6d bc
       0.07699393 0.03339806 0.03146274 -0.014523569
000240 5e f0 b7 3c 57 2a 94 bd 59 11 51 bc b4 ca 9e bd
       0.022453483 -0.07234638 -0.012760484 -0.07753506
000250 ae 8b c1 3a 6e aa 3f 3d 2c bb 97 3d 5b c1 de 3c
       0.0014766359 0.046793394 0.07408747 0.027191808
000260 51 91 a7 3d a7 70 89 bd c7 8d e5 bc 51 94 86 bd
       0.08182014 -0.0671094 -0.028021706 -0.06571258
000270 f4 33 41 3d 4e a2 18 bd b3 9b 65 3c af a1 9f bc
       0.047168687 -0.03726416 0.014014172 -0.019486276
000280 3a ad 9e ba 3e fa a4 3d 9b c7 89 3d ac 5b ce bc
       -0.0012106069 0.080555424 0.06727525 -0.025190197
000290 37 3a 0c 3c b6 e6 96 bd 7a 7f 01 bd 1f 9b 92 bd
       0.008558801 -0.07368223 -0.03161571 -0.07158493
0002a0 de e8 91 bd 13 46 19 3d a8 40 91 3d 57 b7 0b bd
       -0.07124494 0.037420344 0.0709241 -0.034110393
0002b0 28 aa 24 bc 67 94 0b 3d 5b fc 98 bd 77 02 1c 3c
       -0.010050334 0.034077074 -0.07470008 0.009522072
0002c0 1d 7e ac 3d 72 40 b9 3d 5b 71 5a bc db 8e e4 3c
       0.08422492 0.09045495 -0.01333269 0.02790015
0002d0 e4 02 2e bd ed 8f 8f bb 52 a6 a9 3d 16 79 40 3d
       -0.042483225 -0.004381171 0.08283676 0.046990477
0002e0 e2 95 ac 3d 97 a6 a4 3d 17 2b 80 bc 79 aa ab bc
       0.084270254 0.08039587 -0.015645547 -0.020955311
0002f0 c8 1a 3a 3d 54 7d 50 bd a1 7a 29 bd 3a 6b 86 3c
       0.045435697 -0.050900772 -0.041376714 0.016408551
000300 43 57 c2 bd 4d 4f 9d 3d bb cc 7d bc aa 94 e3 bc
       -0.094893 0.07681141 -0.015490706 -0.02778085
000310 d0 24 2d bd 65 1f 7e bd c3 c4 e1 bc e5 cc a1 bd
       -0.042271435 -0.06204166 -0.027559644 -0.07900409
000320 41 b8 86 3d 9b a8 cf 3c bc 27 67 bd cb b1 46 3d
       0.065781124 0.025348952 -0.056434378 0.0485094
000330 ad bd b1 bd a5 03 57 3d 69 11 d6 bc b8 73 0b 3d
       -0.08678756 0.05249371 -0.026131349 0.034045905
000340 6a 26 31 3d 9b 9d 96 bd ef e8 2c bd 32 61 5e bd
       0.043249525 -0.073542796 -0.04221433 -0.05429191
000350 bb d5 29 3d 2a 3b 71 3c cc 84 7a bd ef cd 02 bd
       0.041463595 0.0147235785 -0.0611618 -0.031934675
000360 d4 8f 86 bd e7 45 df 3b 5e f2 b7 bd 9d f4 fe 3a
       -0.06570402 0.006813753 -0.08981775 0.0019451563
000370 62 01 2b 3d ee 67 2a 3c 0b 75 d9 bb 0e 5d c8 bb
       0.041749366 0.010400755 -0.006636267 -0.0061146086
000380 66 8f c5 bc dd 39 dd bc 1a 5d a6 3d 17 14 0f bd
       -0.02411623 -0.02700513 0.081232265 -0.03493127
000390 41 17 a2 3d 12 61 96 3d 06 d8 8b bd 91 34 a6 bd
       0.079145916 0.073427334 -0.068283126 -0.08115495
0003a0 4c 86 ba bc 34 f7 f3 bb 1f ce af 3a 58 64 ac ba
       -0.022769116 -0.0074452404 0.0013412869 -0.0013152463
0003b0 6b 50 23 3d 60 d3 b1 bd dc 0d 8e 3c 33 20 d3 3c
       0.039871614 -0.08682895 0.017340593 0.02577219
0003c0 3c 89 a1 3d 92 65 4a bd df b5 37 bd 72 b3 8c 3d
       0.078875035 -0.04941327 -0.04485118 0.06870164
0003d0 31 c7 68 bd 44 4a 50 bd a1 06 89 bd c8 1d af bd
       -0.05683059 -0.050852075 -0.066907175 -0.08550602
0003e0 d4 ff 0e 3d 8c 9b 7a 3d e0 f7 b0 bd c5 71 6a 3d
       0.034911945 0.061183497 -0.086410284 0.057237405
0003f0 69 2e af 3d c6 a8 60 bc 4c 21 53 3c e7 9c 97 3d
       0.08553774 -0.013712114 0.012886357 0.074029736

bias_ih_l0 f4 [512]
000000 af 76 44 bc f1 86 da bc 16 77 9a 3d 80 00 4e 3c
       -0.011991187 -0.026675673 0.07542245 0.012573361
000010 06 bd 5a bd 2c 69 71 bd fd 72 ad 3c a1 56 46 bd
       -0.053402923 -0.05893819 0.021172995 -0.04842246
000020 18 ed 8d 3d cb 2d d4 bc d7 89 69 bd 58 e3 92 bb
       0.06929988 -0.025900742 -0.05701622 -0.004482668
000030 f6 50 55 3d 78 0c f9 3b 7c 10 f7 3c 10 48 e8 bc
       0.052079163 0.0076003633 0.030159228 -0.028354675
000040 b9 43 5f bd eb 1b a4 3c 39 0f 7d bd e9 ee 48 3c
       -0.054507945 0.020032844 -0.061782096 0.012263992
000050 7c 79 9d bc 23 17 0f bd a8 ab 60 3c f6 a0 a5 3c
       -0.019222967 -0.034934174 0.013712801 0.020218354
000060 b8 26 96 3c 35 a8 85 bd 6a cf cc bd 9d de 8b bd
       0.01832901 -0.065262236 -0.100004986 -0.068295695
000070 36 06 3e b9 f2 3a 44 3d 37 8f a8 bc e9 78 03 3d
       -0.00018122126 0.047907777 -0.020576103 0.03209773
000080 b6 74 ed 3c 61 a8 b6 bb 8b fd a4 3d 5d ad 98 3d
       0.028986316 -0.0055742715 0.08056172 0.074549414
000090 bb 08 2f 3c 78 df 9d bc dd 67 bc 3d df db 4e 3c
       0.010683234 -0.019271597 0.09199498 0.012625664
0000a0 f1 bf be bc 37 d8 ca bd 5a 02 5a 3d 30 0c 18 bd
       -0.023284884 -0.09904521 0.0532249 -0.037120998
0000b0 b8 1f db 3c ed 54 f6 bb 91 a6 6b 3d ac 7a 4b bd
       0.026748523 -0.007517448 0.057531897 -0.049677536
0000c0 d8 fa 10 3d c0 09 55 bd 23 90 7b 3d c8 ac b0 3d
       0.035395473 -0.05201125 0.061416756 0.086267054
0000d0 d4 f9 49 bc a4 a4 e4 3c 00 6f 90 3c d1 fd 30 3c
       -0.01232763 0.027910538 0.017631054 0.010802702
0000e0 71 a7 21 bd d0 d2 0a 3d dc 21 8e bd 5f 96 8a bc
       -0.039466325 0.033892453 -0.06940052 -0.016917406
0000f0 36 60 2f 3c a4 f4 20 bd c3 18 e5 3c 5b 8b 11 bd
       0.010704091 -0.039295807 0.027965909 -0.03553329
000100 cf d9 71 3d db 3f 7b 3c c6 10 1a 3c b4 7b e3 bc
       0.05904561 0.015335049 0.009403413 -0.027768947
000110 99 c3 8d 3c 1a 6c b7 bd 5e d8 c1 3c a1 71 33 bb
       0.017305182 -0.089561656 0.023662742 -0.002738096
000120 ad d3 ae bb 30 07 c4 3d e6 19 30 3d d7 12 94 3d
       -0.0053352923 0.095716834 0.04299345 0.07230156
000130 37 ad 39 bc 0d 77 e9 3b 5a 58 9c bd bf 1f a4 3d
       -0.011332802 0.0071247877 -0.07634039 0.080138676
000140 e9 d8 1f bd 04 7e 90 bd 84 36 2e 3d 6a bc 28 bd
       -0.03902522 -0.070552856 0.04253246 -0.04119531
000150 06 f5 47 bd 80 2d 5c 3d 8f 2e 1d bc 59 e9 8e b9
       -0.048817657 0.05375433 -0.00959362 -0.00027258208
000160 0b 70 9a bc b2 55 81 bd 37 f2 3e bd 19 6e 6c 3d
       -0.018852254 -0.06315173 -0.046617713 0.057722185
000170 3b f1 41 3d ca 67 a5 bc be 0f 93 bd fa 7a 83 3d
       0.047349196 -0.020191092 -0.07180737 0.0641994
000180 8a 22 c6 3d 9c ac 29 bd fb 19 a9 bd 78 5c 0c bc
       0.096745566 -0.04142438 -0.082569085 -0.008566968
000190 91 64 5b bd d0 bc a3 ba b4 df a7 bd 79 ed c0 bd
       -0.053562704 -0.0012492184 -0.08196965 -0.09420294
0001a0 cd 83 9c 3d 6b a6 46 bd 0d 1f 45 3d 58 c8 2c bc
       0.076423265 -0.048498552 0.048125315 -0.010545813
0001b0 04 2b 3c 3d c1 7e 85 3d 8d 43 e1 bc 2a 5e 24 bd
       0.04593946 0.06518317 -0.027498031 -0.040128864
0001c0 38 94 a5 bd cf b2 13 bd 00 b3 cd bc de e0 ac bd
       -0.08084911 -0.036059197 -0.025109768 -0.084413275
0001d0 66 a2 3c 3d 91 f1 2f 3d 0f 60 a4 bc 94 31 52 3d
       0.046053313 0.042954985 -0.020065336 0.051316813
0001e0 71 3d eb bc c5 c7 4e 3d 8a df 01 3d 08 bf 9f 3d
       -0.028715821 0.050483484 0.031707324 0.07800108
0001f0 67 a9 b1 bd 22 c3 80 3d 5a 56 4c 3c 60 2d 81 bd
       -0.08674889 0.06287219 0.01247176 -0.06307483
000200 75 01 a5 bd ef 85 3c 3d 40 7b 73 bd 76 18 85 bd
       -0.080569185 0.046026167 -0.059443712 -0.06498806
000210 36 55 10 3d 08 00 a1 3d dd 9b 01 3d a2 f5 16 3d
       0.035237513 0.07861334 0.031642783 0.036855347
000220 2a 3f 10 3c dd 71 5c bd 31 7f 14 3d 74 2f 59 bc
       0.008804122 -0.053819526 0.03625411 -0.013255943
000230 91 34 b7 bd a8 54 05 be 4f 5b 9d b9 f7 62 a5 bd
       -0.08945573 -0.13020575 -0.00030013404 -0.08075517
000240 11 3a 03 bd ff 90 1e 3d 8c e9 aa 3b 88 e8 af 3c
       -0.0320378 0.038712498 0.0052158292 0.021473184
000250 df 82 ad bd 10 f8 aa bc 17 44 63 bd d2 49 01 3d
       -0.08472227 -0.020870239 -0.055484857 0.03156454
000260 5f 0a 63 3d 5e cf 9f 3d a3 59 17 3d e1 eb 9b 3d
       0.055429813 0.07803224 0.03695072 0.0761335
000270 09 b9 d1 3c 25 9b 3c 3d d7 a8 71 bc 57 d1 87 bd
       0.025600927 0.046046395 -0.014749727 -0.06631725
000280 f7 2d 54 bc 41 38 3b bd 85 bb 92 bd f7 4b 2c 3d
       -0.012950412 -0.045707945 -0.07164673 0.042064633
000290 f5 49 06 3d 23 6c 09 bd 30 69 bd bd df f1 cf bd
       0.032785375 -0.033550393 -0.092485785 -0.10153555
0002a0 23 95 39 bd 84 b7 0e 3d 81 71 0e bd ad 85 9d bd
       -0.045308243 0.034842983 -0.034776215 -0.07691512
0002b0 3c 5c d8 3c 91 cd 7f 3d a3 b2 93 bd 39 7c fe bc
       0.026411168 0.062451903 -0.072118066 -0.031065093
0002c0 54 6a 0b bc d2 28 fe ba 05 b1 9d bc 70 7b 15 3d
       -0.008509237 -0.0019390828 -0.019249449 0.036494672
0002d0 e8 91 44 3d 3a 81 06 bd 83 db 6d 3d 32 fe 81 3d
       0.04799071 -0.032838084 0.05807067 0.06347312
0002e0 05 64 b1 bd d4 ea f6 bc c5 8a 7b bb 08 d6 a8 bd
       -0.08661655 -0.030141272 -0.0038382274 -0.08243948
0002f0 65 5b a7 3d 00 4c cf 3c d2 23 d4 bc c1 4b 15 3d
       0.08171729 0.025304794 -0.025895987 0.036449198
000300 1d 34 ad 3b f8 aa a3 bd f1 9d 55 bd ee a8 7c 3d
       0.0052857534 -0.07991594 -0.052152578 0.06168454
000310 bc dd 3e bc 82 c3 d8 3c 67 77 84 3c 78 e3 34 3c
       -0.011649545 0.026460413 0.016170217 0.011040561
000320 9b 0f bf bc 25 7e 93 bd 93 a5 b1 bd f9 5c b5 3d
       -0.023322871 -0.072017945 -0.08674159 0.08855624
000330 42 58 8b 3b 05 28 d8 bd fe 03 4c 3d 70 b4 ad 3b
       0.0042524645 -0.10554508 0.049808495 0.005301051
000340 63 e3 9f bd 47 4e c4 bd c6 f2 64 3b 8e 2c ad 3d
       -0.078070424 -0.09585243 0.0034934743 0.08455764
000350 94 a8 ea bd aa d1 9f 3c 8e 01 a0 bc 8c 88 9c 3d
       -0.11457935 0.019509155 -0.019531991 0.07643232
000360 54 e2 80 bd 8d 13 3a bd e8 aa 50 3d 34 5f a9 bd
       -0.06293169 -0.0454288 0.05094424 -0.08270112
000370 b1 39 98 3d f6 b3 2f 3d 09 0d e8 bc ad ac 0e 3d
       0.07432879 0.042896233 -0.028326528 0.034832645
000380 3f 59 8a 3d d3 91 d7 bd 61 a5 a7 bb 5f fa f0 3c
       0.067553036 -0.10525861 -0.0051161502 0.029416261
000390 29 5d 1b 3d bb 1d 02 3c d0 1d 0c 3d 39 72 90 3d
       0.03793064 0.007941659 0.03420812 0.07053036
0003a0 eb f5 2d 3d 78 c0 c0 3c b3 d2 84 3d e6 ee b9 bd
       0.042470854 0.023529276 0.064855 -0.090787694
0003b0 ad 7e 85 bc d7 a2 74 bc 66 2a 05 3c d9 59 21 bb
       -0.016295755 -0.014931402 0.008127784 -0.0024620204
0003c0 9e 13 83 bd 37 92 3d 3d 81 d1 db bb 8d 14 92 bd
       -0.06400226 0.04628202 -0.0067083244 -0.07132826
0003d0 85 a6 5a 3d ad 47 a0 bd 65 a6 8a bc ad e3 e9 bc
       0.05338146 -0.07826171 -0.016925046 -0.028550947
0003e0 af bb a5 3c 6a 27 01 3d d9 dd 83 bd d0 db 2e bd
       0.020231096 0.03153173 -0.064387985 -0.0426901
0003f0 d5 3a b3 bc 4d a6 c5 3b b4 ad 46 bc 62 db 1c 3c
       -0.02187864 0.0060317875 -0.012126375 0.009573789

bias_hh_l0 f4 [512]
000000 a9 e6 75 bd 42 0a 43 3d 53 c6 a8 bd 03 4c bd 3b
       -0.060034428 0.047617204 -0.08240952 0.0057768836
000010 70 ee 89 bd 92 6f bf 3c 37 d1 12 bd 2b 72 b8 bd
       -0.067349315 0.02336863 -0.035844054 -0.09006151
000020 0a 6b 8d bd f9 68 eb bc 46 31 89 3c b1 2d 42 3c
       -0.06905182 -0.028736578 0.016747128 0.011851714
000030 4c cb c2 bc b8 b2 79 bd bb 87 78 bd 90 b0 77 bc
       -0.02377858 -0.060961455 -0.060676318 -0.015117779
000040 c6 e1 87 bd af 2e 47 3d 02 78 1a 3d 0f 80 3b 3c
       -0.0663486 0.048628505 0.037712105 0.011444106
000050 5a 92 aa bb f4 0d 09 bb 15 38 ce bc 42 a2 8b 3d
       -0.0052054347 -0.0020912858 -0.025173226 0.068180576
000060 67 86 76 bd d3 5e 32 bd 2c c7 92 bd 45 ee 5f bc
       -0.06018677 -0.043547463 -0.07166895 -0.013667648
000070 1c d3 85 3c 5b f2 fe bb 5e 7f 70 bd 9e 06 9f 3d
       0.016336016 -0.007780356 -0.058715217 0.07764934
000080 bb 66 8e bd 39 a5 5f 3d 77 36 46 bc 0b dc a6 3c
       -0.06953188 0.054600928 -0.012097946 0.020368597
000090 b9 5e 69 3c 52 ec 8a bd b4 6f b5 bc a1 18 8f bd
       0.014243775 -0.06783356 -0.02214799 -0.069871195
0000a0 28 ab 20 3d 77 84 d4 3b b6 8a b4 3c a1 8f c0 3c
       0.039225727 0.0064855176 0.022038799 0.023505988
0000b0 52 30 3d bd 81 c6 b4 3b fd c2 92 3d 46 22 29 3d
       -0.04618866 0.0055168276 0.07166097 0.04129245
0000c0 07 9a a4 bd 0f 4d c6 3c c8 a6 8c bd a6 a5 9b bd
       -0.08037191 0.024206666 -0.068677485 -0.07599954
0000d0 b8 c2 07 bc 5c f2 67 bd aa a9 01 bd 64 02 30 bc
       -0.008286171 -0.056627616 -0.031655945 -0.0107427575
0000e0 85 e8 6b bd 7b c5 42 bd dc ad f0 3c fc 40 e4 3c
       -0.057594795 -0.047551613 0.029379778 0.027863018
0000f0 bd 66 66 3c 8e 5c 57 bc 02 6d 45 3d e3 cd 54 3c
       0.014062581 -0.013144625 0.04819966 0.01298854
000100 44 82 9f bc 52 67 a8 3c 27 6f 6b bd 46 bb 3c 3d
       -0.019471295 0.02055708 -0.05747905 0.046077035
000110 b6 a8 4a bd 15 bb 69 3c 87 f0 cb bc 4c 9d 01 bc
       -0.0494773 0.014265795 -0.024894966 -0.007911038
000120 3d 76 6b 3d 29 74 2c bd ff 66 97 3d 31 24 9b bc
       0.057485808 -0.042102966 0.07392692 -0.018938156
000130 28 ae bc bd 3c 8d ad bb d2 e4 8d 3d b0 45 b4 bc
       -0.09212905 -0.0052963775 0.0692841 -0.022005886
000140 67 86 85 3c ac 93 4f bd 85 7a 34 3d 21 02 48 3d
       0.01629944 -0.05067794 0.044062156 0.048830155
000150 4b be 8f 3d a0 a9 26 bc 31 64 9e 3d cb 77 28 3d
       0.070187174 -0.010172278 0.07733954 0.04112987
000160 f1 1a 72 bd d4 13 b1 bd ac 5b 95 3c e4 1d 1f bd
       -0.059107725 -0.0864636 0.01823219 -0.038846865
000170 df ed 55 3d 0d 43 8d 3d b5 7b c6 3c 5a 21 15 bd
       0.052228805 0.068975545 0.02422891 -0.03640876
000180 99 e2 d6 39 02 02 a1 bc 0c c8 91 3c fe 41 e9 3c
       0.0004098609 -0.019654278 0.017795585 0.02847385
000190 f3 ea 3e bd 45 c3 74 bc 68 ae 0c bc 4a b1 90 3d
       -0.046610784 -0.014939134 -0.008586504 0.07065065
0001a0 bd 8e fc 3c 5d 9f 5e bd 2d 0c 29 bc 84 c4 88 3d
       0.030829782 -0.0543512 -0.010317844 0.066781074
0001b0 e5 b9 9d 3c 6c 38 a4 bd 88 f9 0b bc 9a e7 b5 bc
       0.01925368 -0.08018574 -0.00854338 -0.022205163
0001c0 9e 26 f5 3c 40 85 c5 3c 7b 69 83 3d 38 d8 4a bd
       0.02992564 0.02411139 0.06416603 -0.04952261
0001d0 71 39 8d bc 91 57 b5 bd b8 c7 66 bd b8 eb 8e 3c
       -0.017239304 -0.088545926 -0.05634281 0.017446384
0001e0 78 0a 24 bc d5 7b ab bd b3 f9 07 bc 4a 45 b2 3d
       -0.010012262 -0.083732285 -0.008299279 0.08704622
0001f0 5a ff 8b 3d 39 d0 d9 bc 25 9a 41 bb 63 22 c3 3c
       0.06835814 -0.026588546 -0.002954134 0.023820108
000200 c3 42 84 bd 46 78 06 bd f4 7d 80 bd 3d 1c b3 3c
       -0.06458046 -0.032829545 -0.06274024 0.021864051
000210 a3 39 db bc b4 74 5d 3d ed da ca bd 19 f0 90 3d
       -0.026760882 0.054066375 -0.09905038 0.07077045
000220 fd 64 6d bd ef f0 bb bd 76 0e 94 bd 31 14 d4 bc
       -0.057957638 -0.09176814 -0.07229321 -0.025888534
000230 90 a0 71 3d e5 fb 1d 3d 83 f4 57 3d 04 cc 2e bb
       0.058991015 0.038570303 0.05272342 -0.0026671896
000240 99 de 58 bd 4b df ae 3d 70 97 95 3d cd 25 ac bd
       -0.05294666 0.085386835 0.07304275 -0.084056474
000250 3f 94 34 3d 73 a9 00 bc 10 54 8d 3d ed 4b d6 bd
       0.04408669 -0.0078529 0.06900799 -0.104637004
000260 77 1b 4d 3d d0 85 48 bd 52 a8 63 3d 22 1a 79 3d
       0.05007502 -0.04895574 0.055580445 0.060815938
000270 7f e1 96 3c ec 9f 96 3d aa 71 76 3c 73 b5 b4 b8
       0.018418072 0.073547214 0.015041748 -8.6168664e-05
000280 e9 22 53 3d b4 2c c4 3c e4 42 79 3d 94 0e 92 3d
       0.051546965 0.023947097 0.060854807 0.07131687
000290 93 c0 03 bd 16 db 4a 3d a9 30 bf 3c f2 11 0e 3d
       -0.032166075 0.049525343 0.023338633 0.034685083
0002a0 f0 8a 59 bd fc ee bf bd 96 2d a1 3d 97 cf 32 bd
       -0.053111017 -0.093717545 0.07870023 -0.043655004
0002b0 69 b9 45 3d 76 da 89 3c 16 3e 94 bd 2e 2c a1 bd
       0.048272524 0.016827803 -0.072384045 -0.07869755
0002c0 b8 1b a4 3d 72 de d3 3c 8b cd 96 bc e1 a2 16 3d
       0.080130994 0.025862906 -0.018408557 0.036776427
0002d0 7c 99 84 bd 8d 8b 5f 3d 83 6e 45 bd a8 2e 4b bc
       -0.06474587 0.054576445 -0.048201095 -0.01240126
0002e0 a1 24 55 3c d1 08 d1 3c be 9d 9f 3d 57 5c ed 3c
       0.013009221 0.0255169 0.07793759 0.028974695
0002f0 a2 e8 ce 3c 49 f3 d1 bd 37 cd 28 bd ec 96 a2 3c
       0.025257412 -0.10251481 -0.041211333 0.019847356
000300 18 76 b0 bd ed fd 87 bc 5a 8a d7 bd 13 c1 82 3b
       -0.086162746 -0.016600573 -0.10524435 0.0039903014
000310 99 7e 9c bc e8 8a ef 39 69 b2 77 39 2e c9 85 bd
       -0.019103335 0.00045689126 0.00023622219 -0.065325126
000320 80 0a 71 bd 95 96 56 3d 47 28 a6 bd 35 08 7d 3d
       -0.058847904 0.0523897 -0.08113151 0.061775405
000330 b7 a0 81 bc b4 80 dc bd b6 35 84 bd 98 53 80 bd
       -0.015823705 -0.10766736 -0.06455557 -0.06265944
000340 74 0e a7 bd 56 fe 38 bd 99 28 e5 bd 64 68 81 bd
       -0.081570536 -0.04516443 -0.11189384 -0.06318739
000350 f3 7c 68 3c 6b 79 6b 3d dc e7 0a bd 58 21 84 bd
       0.014189946 0.05748884 -0.033912525 -0.06451672
000360 1c 29 fc 3c 36 5a 82 bb 44 b4 2b bd 00 b7 be 3b
       0.030781321 -0.003978039 -0.04191996 0.005820155
000370 ec 85 34 3d 86 86 3f bd 7a 8b aa 3c 2a ca 35 bd
       0.04407303 -0.04675915 0.02081846 -0.04438225
000380 44 80 db bc 64 94 23 bc cf f5 86 bd ef 40 79 3d
       -0.02679456 -0.00998411 -0.06589853 0.06085294
000390 2c 5c 2b 3d 0f 87 ad b8 0e d2 89 3d df ea c0 bd
       0.04183595 -8.2744395e-05 0.06729518 -0.09419798
0003a0 9f 66 b0 bd 01 e9 d4 bd 90 5a dd 3c 33 ce 8a bd
       -0.086133234 -0.103960045 0.027020723 -0.06777611
0003b0 e1 83 b0 bb 41 c2 b3 bc cb 28 09 3d 78 9c b3 bd
       -0.005386815 -0.021943213 0.03348617 -0.087700784
0003c0 bf 30 9b 3d a6 a2 ca bd f0 c3 86 3b d9 61 8b 3d
       0.07577657 -0.09894304 0.004112713 0.06805772
0003d0 ac f5 7d 3d e3 d2 72 3b f6 87 b5 3d aa 32 98 bc
       0.06200187 0.0037051968 0.08863823 -0.018578846
0003e0 db 5b b2 bd 25 ab 8d bd f0 02 8f 3d de 8d 5b 3d
       -0.08708926 -0.06917409 0.06982982 0.053602092
0003f0 4f 4e a6 bd c9 1d 8b bd e3 0c 6f 3d 9a c7 42 bd
       -0.08120405 -0.067927904 0.0583619 -0.047553636

weight_ih_l0 f4 [512, 128]
000000 5c 01 c2 bd 64 f2 1c 3d 4f a2 00 b9 18 08 43 3d
       -0.094729155 0.0383171 -0.00012267496 0.04761514
000010 02 77 24 bd bf a2 83 3b a0 0a 7d 3d 28 69 49 3c
       -0.040152557 0.0040172036 0.06177771 0.012293138
000020 fa e6 92 3c d2 57 b3 bc 61 2a d3 3b 66 ba 29 3d
       0.017932404 -0.021892462 0.006444261 0.04143753
000030 e4 57 4d 3c 24 75 dc 3c 48 f1 89 3c 56 b6 59 3d
       0.012533162 0.026911326 0.016838685 0.053152405
000040 60 0a 17 3b f2 56 42 bd 7f 5f 02 3d bc 4e 33 3c
       0.0023046955 -0.0474462 0.031829353 0.010944065
000050 8d 29 8f bd f8 ff 47 bd eb 1d 58 3d 8b 26 af 3c
       -0.06990347 -0.048828095 0.052762907 0.021380683
000060 a0 dd 5b 3d df 72 bd 3b a0 6f 8c 3c a6 8a 79 3b
       0.053678155 0.005781516 0.01714307 0.0038077026
000070 a6 33 48 bd c3 c4 a8 3d 5d 8f ad 3b 74 92 aa 3c
       -0.04887738 0.08240654 0.0052966313 0.020821787
000080 88 02 a5 3b 17 5b ae bc 7c a7 6e bd 3a 26 65 3c
       0.005035702 -0.02128367 -0.058265194 0.013986165
000090 e0 2e a4 bd 68 3b 2e 3d 2b 33 2b 3c a9 c4 8c bd
       -0.08016753 0.042537123 0.010449211 -0.068734474
0000a0 c2 de 63 bd 50 8d 96 3d e0 9c 90 bd 0c 87 38 3d
       -0.05563236 0.07351172 -0.070611715 0.045050666
0000b0 44 1e bf 3d 6e 2b 9e 3a 41 1f 49 bc ed b6 a0 3c
       0.093319446 0.0012067386 -0.012275518 0.019618476
0000c0 ea ef 30 bd f9 6e 4b 3d c9 dd 15 3d 60 8d 44 bd
       -0.04319755 0.04966638 0.036588464 -0.04798639
0000d0 62 b1 14 3d ff 6f 19 3d 3f f6 c2 bc 29 43 6f bd
       0.036301978 0.037460323 -0.02379906 -0.05841366
0000e0 39 82 c0 bb 26 a6 59 bb 07 dc 9c 3d 2f b4 3a bd
       -0.0058748988 -0.0033210604 0.076591544 -0.045581993
0000f0 26 a7 96 3d f1 fb fa bc 01 2a 3f bc 04 ff 8c 3d
       0.073561 -0.030637713 -0.011667729 0.06884578
000100 4c bf d8 3c 7d ac 84 bc 53 39 8a bc e4 24 b9 bb
       0.026458405 -0.01619553 -0.016873037 -0.0056501497
000110 f7 21 8d bc ff 07 46 3d a4 90 31 3d 6c 19 9a 3d
       -0.01722811 0.04834747 0.04335083 0.0752438
000120 db f3 41 bd 62 40 36 bc 4c 11 29 bd 4f c5 dd 3c
       -0.0473517 -0.0111237485 -0.04127626 0.027071623
000130 77 45 91 3d ab 2c 96 3d bf 76 96 bd 42 5e 42 bc
       0.070933275 0.073327385 -0.07346868 -0.011863293
000140 ca 01 e6 3b f1 ed af bd be 88 18 bd e6 a7 82 3c
       0.0070192562 -0.085903056 -0.037239783 0.0159492
000150 46 dd 41 bd ef ea 39 3d 73 40 3f bd 15 3c 33 3d
       -0.047330163 0.045390066 -0.046692323 0.04375847
000160 a4 dd e9 3a 89 1e da 3c 05 af 92 3d 80 78 a3 3c
       0.0017842543 0.026625888 0.071622886 0.01995492
000170 80 db 84 bc 90 d8 13 bd 74 b9 d2 ba ed d9 9f 3c
       -0.016217947 -0.036095202 -0.0016076998 0.019513095
000180 30 c3 2f bd 6b 8e 8e bd 80 b0 d7 bc e6 56 7b bc
       -0.042910755 -0.06960758 -0.026329279 -0.015340542
000190 e5 ce 95 bd bd 94 7c bd 77 69 2d bd 54 e9 a1 bd
       -0.073148526 -0.061665285 -0.042336907 -0.07905832
0001a0 02 aa 77 3d 3e 7b 8b bd 60 9d 38 bd 70 7c 85 3d
       0.060464866 -0.06810616 -0.04507196 0.06517875
0001b0 09 83 1d 3c 5a 5b d4 3c 95 30 84 3d 61 fe aa 3d
       0.009613761 0.025922466 0.06454579 0.083493
0001c0 a4 43 97 bd 21 e3 02 3d 1a 45 23 bd 1e 04 30 bd
       -0.07385948 0.03195489 -0.039860822 -0.042972676
0001d0 06 2c 91 bd 2a 32 a4 bd 2d d9 07 3d 1a 26 8d bc
       -0.07088475 -0.080173805 0.0331661 -0.017230082
0001e0 1f 36 85 3d 3b b7 28 3d 89 94 38 bc bb bd a7 bc
       0.065044634 0.041190367 -0.011265882 -0.020476213
0001f0 a7 9e f0 3b b2 ac 42 bd 84 72 bb 3d b7 d9 8c bc
       0.0073431316 -0.047527976 0.091527015 -0.017193658
000200 0d ac dc bc 18 1a 0c bd bf 75 23 bd 08 7e d0 bc
       -0.026937509 -0.034204572 -0.039907213 -0.025450721
000210 ec 86 14 3d 62 11 9d bd c4 0c 30 3d bf 37 06 3c
       0.036261484 -0.07669331 0.042980924 0.008192002
000220 bd 99 fb 3c 88 ba 7c bc c4 0c 79 3d 62 8f 03 3d
       0.030712957 -0.015425332 0.06080319 0.032119162
000230 25 c8 4d bd 24 e2 58 bd 2b b4 a3 bd b2 63 67 3c
       -0.0502397 -0.05295004 -0.07993349 0.01412289
000240 8f 71 8e ba 72 d5 95 3c 4e a9 9b bd 8d 22 51 3c
       -0.0010867583 0.018290255 -0.07600652 0.012764585
000250 fb f6 9a bd b4 e8 b0 bd bb 32 8b 3d ba 3d 6d 39
       -0.07566639 -0.086381346 0.067967854 0.00022625076
000260 05 12 8d bd 31 61 57 3d e4 06 3b bd e2 3d e6 bb
       -0.068882026 0.052582923 -0.04566087 -0.00702642
000270 24 fb a7 bd e1 16 79 3d 76 70 a6 bd bf 48 8b bb
       -0.08202198 0.060812835 -0.08126919 -0.0042506154
000280 1d 88 80 3c 39 94 2a 3d 9c 54 3c bc 40 80 2c 3b
       0.015689904 0.041645262 -0.011494782 0.002632156
000290 42 9d 0e 3c 8c 3e 51 3d 6a ef 8b bb a3 ec 7d bd
       0.008704485 0.05108504 -0.0042704837 -0.061993252
0002a0 0e 5d 8b bc 41 7a 7d bb 1b 9b 83 bd ca 97 af 3c
       -0.017012145 -0.0038677605 -0.064260684 0.021434683
0002b0 33 99 84 3c ca 1e 92 bd 7c 84 46 3d e8 08 5b bd
       0.016186332 -0.07134779 0.04846619 -0.05347529
0002c0 70 28 27 bd 6a ad 6d 3d b7 13 02 bc df 02 9f 3d
       -0.04081005 0.05802671 -0.007939271 0.077642195
0002d0 a7 79 06 3b 35 8b 7d bd a6 c4 8a 3d 11 c0 b8 3c
       0.0020519288 -0.061900336 0.06775789 0.022552522
0002e0 3d 05 c6 3d 0d 44 79 3d eb ad b3 bd 2e 21 e2 3c
       0.09668968 0.060855914 -0.087734066 0.027603712
0002f0 da 03 9f 3d 0a 2f e2 bc f4 36 b2 3d b0 d2 b9 3c
       0.077644065 -0.02761032 0.08701888 0.022683471
000300 02 20 80 bd 39 2e 20 3b 60 69 20 bd 1a 67 c4 3d
       -0.06256105 0.0024441613 -0.039162993 0.095899776
000310 9c b2 93 bd 06 25 01 bd 6d dc 4c bd dc 40 35 bc
       -0.072118014 -0.03152945 -0.050014902 -0.011062827
000320 a9 b8 0d bd d5 e6 a0 bd d6 a2 97 3d 5a df ae 3a
       -0.034599934 -0.07856528 0.07404105 0.001334171
000330 a2 93 43 bc 15 b2 44 3d 7c 6e 5c 3d ce ae 83 3d
       -0.011937054 0.048021395 0.053816304 0.06429826
000340 3e 8f d1 3c 2d f7 85 3c c1 1e 17 3d 32 5f 1e bd
       0.025580999 0.016353214 0.036894564 -0.038665004
000350 0b 72 da ba 9e 9a 3d 3d 5b 70 80 bb 69 b1 8a 3d
       -0.0016666068 0.046290033 -0.003919644 0.067721196
000360 c7 c8 98 bd 50 4c 8a bd 55 45 65 bd 7f d5 6b bb
       -0.0746017 -0.06752837 -0.055974323 -0.0035985408
000370 e3 61 37 3c 30 ec 16 3d 22 45 b4 bc bb 2c 5e 3d
       0.011192772 0.03684634 -0.022005621 0.054241877
000380 43 05 85 3c a7 b7 1c 3d 8c a0 24 3d 43 b7 a9 bd
       0.01623786 0.038261082 0.040192172 -0.082869075
000390 ef 84 3e bd 8c 26 0a bc 03 9c 7a 3d 2d ea a2 bd
       -0.046513494 -0.008432042 0.06118394 -0.07954822
0003a0 bc 0b 01 3d 56 c2 3e 3d fb ff 1c bd bf 42 92 bb
       0.03150533 0.046572052 -0.03833006 -0.004463523
0003b0 a9 c9 69 bc 21 e6 1e 3b f1 74 12 bd 28 37 8f 3d
       -0.014269271 0.0024246054 -0.035756055 0.06992942
0003c0 49 6b 9e bd 94 41 c2 bd 8a 0d 0e 3c 96 e3 41 3d
       -0.07735307 -0.09485164 0.00867022 0.047336183
0003d0 47 06 aa bd 8f b6 89 3d 8f 70 9a bd 72 55 ff bc
       -0.083019786 0.067242734 -0.07541 -0.031168673
0003e0 52 41 1c 3c c6 0a b4 3b 12 ba 34 3d e6 10 5d 3d
       0.009537058 0.0054944484 0.044122763 0.053971194
0003f0 93 ff e8 bc f4 02 9c 3d 95 7c 00 3c b6 fa 10 3d
       -0.02844218 0.07617751 0.007842203 0.035395347

weight_hh_l0 f4 [512, 128]
000000 40 e2 c6 bd 11 09 cf bb e5 c9 db bc 52 13 4c bc
       -0.097111225 -0.0063182195 -0.02682967 -0.012455778
000010 76 7b a0 bd b2 ae 4a 3d 53 28 1b bd 97 7d 25 bc
       -0.07836048 0.04948301 -0.037880253 -0.010100744
000020 60 1f 9b 3d f5 3a 2f bd 05 1a 61 3d 1a 19 79 3d
       0.07574344 -0.042780835 0.054956455 0.060814954
000030 be ca 90 3d ce c8 82 bd 01 a9 aa ba 95 b9 34 3d
       0.0706992 -0.06385957 -0.0013020338 0.044122297
000040 fb a3 90 bd 15 5a 80 3d ce 05 6c bd 22 0b ad bd
       -0.07062527 0.06267182 -0.057622723 -0.08449389
000050 70 57 97 3d 22 78 91 3d 76 11 7d 3c 94 16 4f bb
       0.07389724 0.07102992 0.015446058 -0.003159915
000060 03 a2 4d 3d 8a 82 bb bc bc b1 a4 3c da ec f9 bc
       0.050203335 -0.022889394 0.020104282 -0.030508447
000070 5e de 3d 3d 39 51 8a bd e8 09 2e bb 39 83 de 3c
       0.046354644 -0.06753773 -0.0026556198 0.027162181
000080 f0 bb 8a bd bc 26 1f bd ba f9 16 3d d8 67 81 3d
       -0.067741275 -0.0388553 0.03685925 0.06318635
000090 3f a6 8b bb d2 e4 78 3d dd d8 88 3c 24 60 97 3d
       -0.0042617614 0.060765095 0.016704971 0.07391384
0000a0 f6 99 7c 3c 60 d1 c1 bc 58 79 2c bd 93 7d 22 3d
       0.0154175665 -0.023659408 -0.04210791 0.03967054
0000b0 e5 81 2d 3d c3 cf df 3c 31 99 72 3d 01 27 57 3d
       0.042360205 0.027320748 0.059228126 0.05252743
0000c0 0f 93 21 bd d4 0d 1a bd 4e e0 6e bc b7 3d 1a 3d
       -0.039446887 -0.037610844 -0.014579846 0.037656512
0000d0 b0 ed a0 3d e2 2d 34 bc bf 09 2a bd a4 26 ca bc
       0.07857835 -0.010997267 -0.0415132 -0.024676628
0000e0 72 c8 83 bd 09 9e 9e bd fe d1 d0 3c 0d 7f ca bc
       -0.06434716 -0.077449866 0.025490757 -0.024718786
0000f0 66 8e 1d bd 20 82 84 bd 0b 34 48 bd c8 22 36 3d
       -0.03846588 -0.06470132 -0.048877757 0.044466764
000100 16 55 17 bd 5a c2 6b bd c5 af 26 bd 36 9b 9d bd
       -0.03694638 -0.057558395 -0.04069497 -0.0769562
000110 79 00 6d ba 02 19 6c bd 52 97 7a 3d 24 85 72 bd
       -0.0009040903 -0.057641037 0.061179467 -0.059209004
000120 0d 42 93 bd 76 4b 29 bc de 80 33 bd b9 5b a4 bc
       -0.071903326 -0.010332933 -0.04382407 -0.020063268
000130 59 1d 83 bd b5 34 27 3d 97 d9 31 bd 53 13 a4 3c
       -0.06402082 0.04082175 -0.0434204 0.020028746
000140 c3 c2 d2 3c 62 a6 a6 bd f7 24 73 3d 18 50 a1 bd
       0.025727635 -0.08137204 0.059361424 -0.07876605
000150 92 36 61 bc d9 6e 39 3c 5c 01 7e 3d 27 4e a9 bd
       -0.013745921 0.011317932 0.062013015 -0.082668595
000160 e9 68 33 3d 21 2d 27 3d 19 d6 11 3d 20 17 4f bc
       0.043801222 0.040814523 0.03560457 -0.012639791
000170 2e c5 40 3d 3f bf 49 3d ab 2b 98 3d bf 16 33 3b
       0.047063045 0.049254652 0.07430204 0.002732679
000180 22 33 5a 3d 8b 1f 26 bd 9a 98 33 3d ca 30 9f 3c
       0.05327142 -0.040557425 0.043846704 0.019432444
000190 93 7a ad 3d e1 59 6f 3d ac 71 a0 bd eb 4c 63 bd
       0.08470645 0.058435325 -0.07834181 -0.055493277
0001a0 e3 cb 06 bd 05 40 4f 3d 1b e1 19 3d 83 b1 ec 3b
       -0.032909285 0.050598163 0.037568193 0.0072233095
0001b0 a4 4c 9c 3d 30 e1 ab bd c7 d3 1e bc 40 cb e2 bc
       0.076318055 -0.083925605 -0.009694046 -0.027684808
0001c0 58 a4 9a 3d 66 d9 4c 3d c9 fd 96 3d 93 3a 1f bc
       0.07550877 0.050012015 0.073726244 -0.009718555
0001d0 ae 53 03 3d e1 95 5c 3a 55 53 44 3d bd e2 5f bc
       0.032062225 0.00084146677 0.047931034 -0.013664898
0001e0 ab 98 f1 bc 49 c2 a3 3d 50 b1 6f bd 97 d5 8e bd
       -0.029491743 0.07996041 -0.058518708 -0.06974333
0001f0 0c e7 40 3d 3d 75 2a bb 23 43 a6 3d 58 4d a3 bb
       0.047095343 -0.002600982 0.08118274 -0.0049835853
000200 ab 5d ce bc b9 d8 77 3c 12 92 95 bc c1 aa c7 bc
       -0.025191149 0.015127354 -0.018258128 -0.024373414
000210 3f 43 27 3d 89 87 8f bd 21 62 fe bb df d1 86 bd
       0.040835615 -0.07008273 -0.0077631627 -0.065829985
000220 81 f7 22 bd e0 51 6e bd da 42 af 3d 04 9c d9 bc
       -0.03978682 -0.05818355 0.08557673 -0.026563652
000230 ab bd 96 bd 02 bd 81 3d d4 42 12 bd 76 dd 8a bc
       -0.07360395 0.063348785 -0.035708264 -0.016951304
000240 72 c4 59 bd 78 ae ab bd 12 50 42 3d 6e 5f 23 bd
       -0.05316586 -0.08382887 0.047439642 -0.03988593
000250 41 15 84 3d 35 ef 83 3d 46 55 c5 bc 6c 67 e8 bb
       0.06449366 0.064421095 -0.024088513 -0.007092407
000260 63 86 10 bd f5 0c 98 3d c2 52 b5 bd 1a ac a2 3d
       -0.03528441 0.07424346 -0.088536754 0.07942982
000270 e0 bd 23 bd f6 99 23 3d 53 a1 92 bd 46 eb 58 bd
       -0.039976 0.03994175 -0.071596764 -0.05295875
000280 33 59 64 bb 1b 61 53 3b c1 be 92 bd db 9f 76 3d
       -0.0034843206 0.0032253924 -0.0716529 0.060211044
000290 2e 0c ec 3c cc e5 0a 3c 04 03 91 bd 44 4a de bc
       0.028814401 0.008477639 -0.07080653 -0.027135022
0002a0 6f 02 4b bc e0 1e 84 bc 84 9c 89 bd 50 5a c2 bc
       -0.012390717 -0.016128004 -0.06719306 -0.023724705
0002b0 7b 9e 89 3d af df 85 3d e2 83 87 bc 9e 24 21 3d
       0.06719681 0.06536805 -0.016542379 0.03934156
0002c0 61 fa 76 3d 31 3d 96 3d cd 3b 95 bd 75 2a 72 bd
       0.060297374 0.0733589 -0.07286797 -0.05912252
0002d0 ee 7f f3 ba 55 b5 a8 bd db 0c 96 bc 83 0f 57 3d
       -0.0018577555 -0.08237711 -0.018316677 0.052505028
0002e0 80 ee 7b 3d 98 70 45 bd 23 61 94 3d 24 35 26 bd
       0.06150675 -0.04820308 0.0724509 -0.040578023
0002f0 c9 93 0c bd c0 36 21 bc f1 4c ac bd 18 fb 96 3d
       -0.034320626 -0.009839714 -0.08413113 0.07372111
000300 99 a4 4d bc f0 c8 13 3d ea 8f 95 bd cb f4 2e bc
       -0.01255145 0.0360803 -0.0730284 -0.01067848
000310 04 35 a8 3c 83 e2 79 3b 41 e0 87 bd 47 2e 18 bc
       0.020533092 0.0038129396 -0.0663457 -0.009288377
000320 67 ad d9 b7 42 51 a3 bd 88 26 60 3d 88 26 85 3c
       -2.5949163e-05 -0.07974483 0.054724246 0.016253725
000330 05 28 bd 3d 40 a6 25 bd 93 d0 57 bd 11 ce 39 bd
       0.09236149 -0.04044175 -0.052689146 -0.045362536
000340 60 60 8c 3d 57 87 40 bd 20 ca 13 bd 3b 2c 98 3d
       0.068543196 -0.04700407 -0.036081433 0.07430311
000350 bb b2 a1 3d dd 2b 11 bc e8 5a a6 3c 3d bc 5e bc
       0.07895418 -0.0088605555 0.02030702 -0.013594684
000360 5a 55 1f 3d 91 4f da bc d6 7f 53 bd 24 ff 7e 3d
       0.038899757 -0.026649268 -0.051635586 0.06225504
000370 c8 c5 21 bd c0 6d e8 bc 06 10 93 bd 06 73 a3 3c
       -0.03949526 -0.028372645 -0.071807906 0.019952308
000380 fc c8 a3 bd 98 bf 64 bd 92 ae 05 3c c3 de c0 3d
       -0.07997319 -0.05584678 0.008159297 0.094174884
000390 3f dd ab 3d 90 88 08 bd c1 01 8e 3d a5 b8 89 bd
       0.08391809 -0.03333336 0.06933928 -0.06724671
0003a0 69 74 93 3c ad 69 df bc 37 a5 a1 bd 5d 06 5d 3d
       0.017999845 -0.02727207 -0.0789284 0.053961147
0003b0 8f f0 9c 3d 84 9b e2 3c 5f d9 51 3d 8d 1f aa bd
       0.076630704 0.027662046 0.05123269 -0.08306799
0003c0 4a 74 78 bd 63 5b a6 3c ea 6f 25 3d 6c 7d 81 bd
       -0.060657777 0.020307248 0.040389933 -0.063227504
0003d0 79 ca 4c 3d 38 09 a4 3d b0 a8 5a 3c 35 40 82 3c
       0.04999778 0.08009571 0.013345882 0.015899757
0003e0 d4 b6 0c 3b c8 bc 9f bd 0e d1 62 3d 23 ff 19 3d
       0.0021471279 -0.07799679 0.05537515 0.037596833
0003f0 57 60 1a 3d b9 6e 4a bd bf 89 9d ba 69 79 8b 3c
       0.037689533 -0.049422 -0.0012019201 0.017025666

bias_ih_l0 f4 [512]
000000 4b 40 53 3c 77 f2 cc 3c 68 a0 0e bd 16 56 3a 3d
       0.012893747 0.02501796 -0.034820944 0.045492254
000010 20 9c c0 3c 02 4e 06 3b 64 cf a2 3c 5a 00 7f bd
       0.023511946 0.0020493274 0.019874282 -0.062256195
000020 68 84 83 3c dd 14 d5 bd 5e 15 b7 3c 83 38 a5 bd
       0.016054347 -0.1040437 0.022349056 -0.080674194
000030 8d 4a ef bc ec fc 56 3d e3 6f 13 bd cb 77 ca bc
       -0.029210353 0.0524873 -0.035995375 -0.024715325
000040 14 c9 84 3d ae a6 9f bc dc 80 78 3d 5b 7e 5c bd
       0.06483665 -0.019488659 0.060669765 -0.05383144
000050 78 11 2c 3d f7 2a f5 bb ad dc e8 bd a8 63 38 bd
       0.042008847 -0.0074819284 -0.113702156 -0.045016915
000060 9d 97 8a bd d3 28 96 3d f2 7f 90 bd ce 81 61 3d
       -0.06767199 0.07332005 -0.07055654 0.055055432
000070 83 40 8e bc 00 ad 8f bd e4 c5 91 3d 0f af 8b bd
       -0.017364746 -0.07015419 0.07117823 -0.06820499
000080 d2 64 10 3a ed ce 7d 3d 4e f3 ab bd f9 ce 04 bc
       0.00055081875 0.061964918 -0.08396016 -0.008105987
000090 d2 45 90 bc b9 73 25 3d d6 d8 95 bd 9e 88 59 bd
       -0.017611418 0.040393565 -0.07316749 -0.053108804
0000a0 a1 98 eb bc c4 b8 ef bc 3d 36 46 3c ed 40 95 bd
       -0.028759303 -0.029262908 0.012097892 -0.07287774
0000b0 be 2f 42 3d 29 81 cc bd 94 e4 6f bc ef dd c3 bd
       0.04740881 -0.09985573 -0.0146419 -0.09563815
0000c0 89 fe 14 3d e2 f3 5e 3d f7 6a e6 bd 1c a5 a4 3c
       0.036375556 0.054431804 -0.11250871 0.020098262
0000d0 7c a2 9c 3c 90 cc 92 bd fa 8a aa 3d 22 2d 76 3d
       0.019120447 -0.071679235 0.08327289 0.060101636
0000e0 ab e4 9b 3d 1c 4d 7d 3d 66 c5 89 3d 87 1d af bb
       0.07611974 0.061841115 0.06727104 -0.005344096
0000f0 d2 8e a5 3d 51 eb a3 bd eb 68 37 bd 51 ec 14 3d
       0.080838814 -0.080038674 -0.044777792 0.03635818
000100 38 e9 8c bd 3f 31 11 3d 0f 39 60 3d 7c 8f b2 bd
       -0.068804204 0.035447355 0.054741915 -0.08718774
000110 12 47 bf bc 11 40 e1 3c b6 ef 1a bd 03 ab 91 bd
       -0.023349319 0.02749637 -0.037826262 -0.07112696
000120 a3 99 92 bd 20 83 c7 bc 37 cb 9c bd 3c 4b 6a 3b
       -0.0715821 -0.024354517 -0.07655948 0.003575041
000130 91 88 57 bd 77 be da bd e9 48 b8 bd 1d 94 4a 39
       -0.052620474 -0.106808595 -0.089982815 0.00019319398
000140 30 31 bf 3c 8f 9d ca 3b fb 4a 20 bb 28 5b 48 3d
       0.023338884 0.006183333 -0.0024458754 0.04891506
000150 35 60 30 bd d5 22 28 bd 70 a3 37 3d d0 14 8c 3c
       -0.0430605 -0.041048843 0.0448336 0.017099768
000160 34 a1 40 bc ac a2 42 bb 40 2e 1c 3c cf 7e 86 3d
       -0.011757184 -0.002969901 0.009532511 0.065671556
000170 b0 27 82 bd ac dc 21 bd 7b 2b 83 bd 79 02 2a 3d
       -0.06355226 -0.03951709 -0.064047776 0.041506264
000180 58 fb 47 3d 99 39 03 bc e8 f2 95 bd 79 31 57 bd
       0.048823684 -0.008009338 -0.07321721 -0.052537415
000190 ab bf 2f bd cb a5 66 bd 78 1e ab bd 9a 58 84 bd
       -0.0429074 -0.056310456 -0.08355421 -0.06462212
0001a0 43 09 9f bd db 7c cb bd a6 15 5f bc a0 ba 98 bd
       -0.077654384 -0.09935924 -0.013616001 -0.07457471
0001b0 50 b0 8f bd 4c 1b c4 bd 82 5d 62 bc 93 b4 94 bb
       -0.07016051 -0.09575519 -0.013816239 -0.0045381277
0001c0 0d 43 bb bd 6a 2c c6 bd b0 04 9b bd 95 41 67 bd
       -0.09143648 -0.0967644 -0.075692534 -0.05645903
0001d0 9b b4 4c 3d ad df b9 bd 21 02 50 bd 75 25 07 3c
       0.049976926 -0.09075866 -0.05078328 0.008248677
0001e0 e6 37 49 bd b1 b2 a0 3b f2 a9 80 3d c8 1b 10 bd
       -0.049125575 0.004904114 0.062824145 -0.035182744
0001f0 91 d1 bc bb c5 aa 21 bd cb 37 22 bd 88 8b 1d 3c
       -0.005762287 -0.0394695 -0.03960399 0.009615786
000200 45 2a 95 bc e0 c8 2b 3d ca 91 e9 bd e2 22 d7 3c
       -0.018208632 0.041939616 -0.1140476 0.02626175
000210 0c c2 65 bd 7d 14 b4 bd b4 19 30 3d a3 8c 66 bc
       -0.05609326 -0.0879297 0.042993262 -0.014071616
000220 d1 05 71 bd 7c ec a7 bd e0 ed 34 3d 58 16 c6 3c
       -0.058843438 -0.08199403 0.044172168 0.024180576
000230 2b 60 ce 3c 1b f6 6a bd fb e8 e2 bd b0 5c 79 3c
       0.02519234 -0.05736361 -0.11079594 0.015219852
000240 79 a2 a2 bd dd ab e1 bd fe 99 d1 bc 86 7b e4 bd
       -0.079411454 -0.110191084 -0.025586125 -0.11156373
000250 bd d3 63 bd b6 e8 97 bd f2 e1 ed bd 37 59 39 bd
       -0.05562185 -0.07417433 -0.11615361 -0.045251098
000260 a2 f7 f6 3b ff 2d c7 bd b0 cc bd bd 19 09 2d bd
       0.0075368444 -0.0972557 -0.09267557 -0.042245004
000270 9d 52 bd 3b c8 ce 41 bd fb 6a aa ba 42 00 b2 bd
       0.0057776705 -0.047316343 -0.0013001853 -0.086914554
000280 21 8d 0a 3c 07 f0 d2 bd e6 06 b6 3c 3a 10 f8 39
       0.008456499 -0.10299688 0.022220086 0.00047314336
000290 90 73 8f 3d 63 d0 e1 bd c4 0e 9a bd c1 80 23 3d
       0.07004464 -0.11026075 -0.075223476 0.03991771
0002a0 32 81 93 3d 83 38 99 3c 27 8b 38 3d 9b 25 3a bc
       0.072023764 0.018703705 0.04505458 -0.011361505
0002b0 15 b2 21 3d d7 e9 b1 bd 36 63 65 3c e4 82 01 be
       0.039476473 -0.086871795 0.0140007045 -0.12647587
0002c0 d1 d6 8c 3b cb 2f 72 3d 25 bf da bd 65 1e 59 3d
       0.004298069 0.05912761 -0.10680989 0.053007502
0002d0 9f 89 fe 3c 3d 21 88 bc 4e c1 0d 3d 8b 2a 7d bd
       0.031071482 -0.016617412 0.034608178 -0.06180815
0002e0 38 42 dc bd 7f 62 06 3c 28 02 4f bd ec 8c 2f bc
       -0.10754818 0.008202194 -0.050539166 -0.010714751
0002f0 f4 f3 c9 bd 5b d9 03 bc a3 a4 b6 bd c5 4d d0 bd
       -0.098609835 -0.008047427 -0.08918121 -0.10171083
000300 ee 4b f9 b9 82 6c 95 bd 27 4a 0d bd 42 1f fe bc
       -0.00047549553 -0.07296087 -0.034494545 -0.031020764
000310 bb f1 31 bd b1 b2 d1 bd eb 95 54 bd 3e 8f 21 3d
       -0.043443423 -0.10239161 -0.051900785 0.039443247
000320 14 04 a3 bd 82 67 0e 3d c9 03 f7 3c f4 2a c3 bd
       -0.07959762 0.03476668 0.030153172 -0.09529677
000330 2e 1f af bd cf a5 e5 3c 03 90 10 bc 91 69 64 bc
       -0.08550869 0.028033165 -0.008823398 -0.013941185
000340 b1 80 38 bd 74 4e 7d 3d 38 19 b5 3c 09 7d 09 bc
       -0.045044605 0.061842397 0.022106752 -0.008391627
000350 c1 e7 c2 bd 17 89 60 3d 5b 98 30 ba e0 ef 84 bc
       -0.0951686 0.05481824 -0.000673657 -0.016227663
000360 86 45 48 bd bc 13 b4 3c 60 c9 98 3c ad 95 94 3b
       -0.048894428 0.021982066 0.01865071 0.0045344443
000370 d0 b4 9c 3c fe c4 6b 3b 97 86 27 3c bf 71 42 3b
       0.019129187 0.003597557 0.01022496 0.0029669849
000380 ee 16 96 bc 6b 65 59 3c 65 8e 9b bd b1 fb 17 3b
       -0.01832148 0.013268809 -0.07595519 0.0023190791
000390 4c 79 05 3d b5 f7 23 3d 1d f7 82 bd 00 f1 ae bc
       0.03258638 0.040031154 -0.06394789 -0.021355152
0003a0 19 bc c0 bd cd 99 2c 3d bf de 8b bc 31 c7 b3 bd
       -0.09410877 0.042138863 -0.017073987 -0.08778227
0003b0 37 7e f2 39 78 76 01 bd cb 8f 88 3d 8a bd ba bd
       0.00046251874 -0.03160712 0.06668051 -0.09118183
0003c0 bf 21 05 bd 35 56 f9 bd 8a 48 89 3d de dd 79 3d
       -0.032502886 -0.12174646 0.06703289 0.061002605
0003d0 e1 19 44 3d 0f d9 14 bc 55 1a 3b 3b a1 75 35 bc
       0.047876243 -0.009084954 0.002854963 -0.011075408
0003e0 fa ec 33 bc 30 f7 bf 3c 8b 50 e9 3c 96 15 2c 3d
       -0.010981793 0.023433298 0.028480789 0.042012773
0003f0 57 6c 42 bd 36 30 46 3c ef a7 d7 bd d3 15 9a bd
       -0.047466602 0.012096455 -0.10530078 -0.07523694
