trained_models/ppo/me5418-Cassie-v0/0524-07-59-30-s3737/critic.pt (torch, 96254 bytes, 5 tensors)

weight f4 [128, 50]
0	0xbdaed64a	-0.08536966
1	0xbbb08263	-0.005386637
2	0x3c110da3	0.008853349
3	0xbd21eccf	-0.03953248
4	0xbdc7976b	-0.097456776
5	0x3e32f3e5	0.17475851
6	0xbdb98c7a	-0.09059997
7	0xbca60623	-0.020266598
8	0x3d2e4ee5	0.04255571
9	0x3d57f4f1	0.05272383
10	0xbcd53f69	-0.026031213
11	0xbdd6e90e	-0.104936704
12	0x3c390ef1	0.011295066
13	0xbd289e58	-0.041166633
14	0xbd38fd09	-0.045163188
15	0xbe9adc49	-0.3024619
16	0xbd632e88	-0.055464298
17	0xbce836c4	-0.028346427
18	0xbe25821a	-0.16162911
19	0xbe1c2e8b	-0.1525213
20	0x3c8dd10a	0.017311592
21	0x3d7081b7	0.058717456
22	0x3d8be917	0.06831568
23	0xbdc68cfc	-0.096948594
24	0x3df43b03	0.11925318
25	0xbe0fc05f	-0.14038227
26	0xbd84c68f	-0.064831845
27	0xbc956b7a	-0.018239725
28	0xbe01b758	-0.12667596
29	0xbdba3990	-0.090930104
30	0x3db1e8d8	0.086869895
31	0xbc78f5b1	-0.015195296
32	0x3cd7accb	0.026327511
33	0xbd63c9ce	-0.055612378
34	0x3e505a64	0.20346981
35	0xbe1ae339	-0.15125741
36	0xbd563b63	-0.05230273
37	0x3d781c7b	0.060574036
38	0x3d9f3472	0.07773675
39	0x3b24d685	0.0025152278
40	0x3d5d2502	0.05399037
41	0xbdbc6281	-0.09198476
42	0x3df20c98	0.11818808
43	0x3d9f2407	0.077705435
44	0x3c8e0a6d	0.017338956
45	0xbd943431	-0.07236517
46	0xbc721b99	-0.014777088
47	0xbd94c7c5	-0.072646655
48	0x3d8efd9a	0.069819644
49	0xbcfb7f8d	-0.03070047
50	0xbe255b88	-0.16148198
51	0x3b0ca95f	0.0021463258
52	0x3d4d7d01	0.05016804
53	0x3cd09c55	0.02546517
54	0xbddbc568	-0.10731012
55	0xbdac3cf3	-0.08410063
56	0xbbc0fb61	-0.0058893417
57	0xbbc71120	-0.0060750395
58	0xbd9ef64a	-0.0776182
59	0x3d030652	0.03198845
60	0x3e4ab41c	0.19795269
61	0xbdca79eb	-0.09886535
62	0xbdd621c8	-0.10455662
63	0x3e1d8ed4	0.15386516
64	0x3e17c85a	0.14822522
65	0x3d571751	0.05251247
66	0x3d899347	0.06717544
67	0x3d60ce12	0.054884024
68	0x3ccc0371	0.024903985
69	0xbb8545fd	-0.004067181
70	0xbe5b7e86	-0.21434984
71	0x3d56cc59	0.052440975
72	0xbdb3bdb1	-0.08776415
73	0x3d88592a	0.06657632
74	0xbdc14b40	-0.09438181
75	0x3d59feeb	0.053221624
76	0x3e0951df	0.13410138
77	0xbdc5b3d1	-0.09653438
78	0xbd19aa31	-0.037515823
79	0xbd0baa74	-0.034098104
80	0x3e1e2cff	0.15446852
81	0x3bd82f95	0.006597469
82	0x3c8f68dc	0.017506056
83	0xbd238652	-0.03992302
84	0x3e0cb8d5	0.13742383
85	0xbb385d73	-0.0028131872
86	0x3d0bc33d	0.03412174
87	0x3e581505	0.21101768
88	0xbe032457	-0.12806831
89	0x3d9eea01	0.077594765
90	0x3dd323be	0.10309552
91	0xbe6117e3	-0.21981768
92	0xbd8904b2	-0.06690349
93	0xbd00daeb	-0.031458776
94	0xbd6a7d49	-0.057248387
95	0xbe4964ed	-0.19667406
96	0x3d2bc486	0.041935466
97	0x3c514bc9	0.012774416
98	0xbe55e425	-0.20887811
99	0xbc654b9b	-0.0139950765
100	0x3d5a7991	0.05333859
101	0xbd94e9ca	-0.07271154
102	0x3ce70097	0.028198523
103	0x3d99fd36	0.07518999
104	0xbd938863	-0.07203748
105	0x3d986ff8	0.07443231
106	0x3ce6fafb	0.028195849
107	0xbdbab231	-0.091160186
108	0xbe04cce3	-0.12968783
109	0x3c5e0666	0.01355133
110	0x3e0ea841	0.13931371
111	0x3dbddbfe	0.09270476
112	0xbd445c5d	-0.047939647
113	0x3dfd2377	0.1236028
114	0x3bc765b1	0.0060851206
115	0xbe231fee	-0.15930149
116	0xbe304fc6	-0.17217931
117	0xbbe284d4	-0.006912807
118	0x3dd5b578	0.10435003
119	0x3e1d410e	0.15356848
120	0xbd4bd776	-0.049766026
121	0x3cfd196b	0.03089591
122	0xb8d4a2d6	-0.00010139278
123	0x3dca6501	0.09882546
124	0x3d8c735c	0.068579406
125	0x3d18b8f4	0.03728576
126	0xbd7af6cb	-0.061270516
127	0xbda3c84a	-0.079971865
128	0x3dd40a59	0.10353536
129	0xbd3b8427	-0.045780327
130	0x3e81e337	0.25368664
131	0xbda5cc2c	-0.08095583
132	0x3d7d95e5	0.06191053
133	0x3b49d2c1	0.0030795785
134	0x3d2875f0	0.0411281
135	0xbe25041e	-0.16114852
136	0x3d56cf22	0.05244363
137	0xbdb261ce	-0.08710061
138	0x3c13d6d1	0.009023384
139	0x3e1246cb	0.14284818
140	0xbd8aefb8	-0.06784004
141	0xbdb0575d	-0.08610413
142	0xbda1727f	-0.078831665
143	0xbb8dc560	-0.0043265074
144	0x3d5abf4b	0.053405087
145	0x3c5d840c	0.013520252
146	0x3dcfe1f8	0.10150522
147	0xbd3498b8	-0.044090956
148	0xbb189086	-0.0023279502
149	0xbd0ab04e	-0.033859544
150	0xbe175abb	-0.14780705
151	0x3de0e1b5	0.1098055
152	0x3dbc3e33	0.09191551
153	0x3e316357	0.17323051
154	0xbddbe25b	-0.10736533
155	0xbe4c6acd	-0.19962616
156	0xbe55004d	-0.20800896
157	0x3cd0ebbc	0.025503032
158	0x3df05273	0.11734476
159	0xbdd86cd8	-0.10567635
160	0xbd42dddc	-0.047574863
161	0x3d7a4e99	0.061110113
162	0x3e0f57ef	0.13998388
163	0x3e2d49f3	0.1692274
164	0xbd96910c	-0.07351884
165	0xbda13c1a	-0.078727916
166	0x3dae7e8a	0.08520229
167	0x3db402e5	0.087896146
168	0x3e1a8b1c	0.15092129
169	0x3dd08db3	0.10183277
170	0x3c5d20af	0.013496562
171	0x3cd648cf	0.026157765
172	0xbc03af8a	-0.008037457
173	0xbd9b4fb6	-0.07583563
174	0xbc0a41cc	-0.008438539
175	0x3c457efd	0.012054202
176	0x3e1c0200	0.15235138
177	0xbd1cc3ee	-0.03827279
178	0xbd843a60	-0.06456447
179	0x3dc8d6db	0.098066054
180	0xbcdf2d48	-0.027243271
181	0x3ccd683c	0.025074117
182	0x3be554fd	0.006998657
183	0xbe0c655e	-0.13710544
184	0xbaade276	-0.0013266343
185	0xbdea3841	-0.11436511
186	0xbcd344e0	-0.025789678
187	0xbdadaba5	-0.08480004
188	0xbce166c0	-0.027514815
189	0xbe14698d	-0.1449339
190	0xbde52d15	-0.11190239
191	0xbdb8489b	-0.089982234
192	0xbd49bc15	-0.049251635
193	0xbdfa37fe	-0.12217711
194	0x3d1b44f2	0.03790755
195	0xbd1c2317	-0.0381194
196	0x3e430ce5	0.19047888
197	0x3d3e0b90	0.046397746
198	0xbe37b20f	-0.17939018
199	0x3ca26404	0.019823082
200	0xbcefe5a0	-0.029284298
201	0x3db7738b	0.08957585
202	0x3e00f86b	0.12594764
203	0xbdb3eb6c	-0.087851375
204	0xbd12d0e7	-0.035843756
205	0x3c932113	0.017960107
206	0x3d904e78	0.07046217
207	0x3d24ec3e	0.04026436
208	0x3e6f2b60	0.2335639
209	0xbe834800	-0.2564087
210	0x3d3adae4	0.045618907
211	0xbce56cd0	-0.028005987
212	0x3de71a01	0.11284257
213	0xbb8f2c16	-0.004369269
214	0xbd98a07b	-0.07452484
215	0x3db7674e	0.08955251
216	0x3bd786fc	0.0065773707
217	0x3c9aef1d	0.018912846
218	0xbd898c6a	-0.06716235
219	0x3e185100	0.14874649
220	0x3d5402b3	0.051760387
221	0x3cc9e20c	0.02464392
222	0xbd066400	-0.03281021
223	0x3c0f3aec	0.008742075
224	0x3dc73495	0.09726826
225	0xbc2552eb	-0.01009057
226	0xbd03a7d0	-0.03214246
227	0x3da2a779	0.07942099
228	0xbd9f6bdf	-0.07784247
229	0xbd9027fd	-0.07038877
230	0x3d2ecd65	0.04267635
231	0x3cddd461	0.02707881
232	0xbb8acdbf	-0.0042359526
233	0xbd36ce3e	-0.04463028
234	0x3cd2d83e	0.025737878
235	0x3d6678b1	0.056267444
236	0x3c141430	0.009038016
237	0xbcad906a	-0.021187026
238	0x3d1fcc70	0.039013326
239	0x3cc3f030	0.023918241
240	0x3e7733ed	0.24140902
241	0xbb9dd1fe	-0.004816293
242	0xbd6dac37	-0.058025565
243	0x3e3586c0	0.17727184
244	0xbd078fd2	-0.033096142
245	0x3bbe76f2	0.005812519
246	0x3cef588c	0.029217027
247	0x3cb75abc	0.022382133
248	0xbe53c338	-0.20679939
249	0xbe82af33	-0.2552429
250	0xbde5a6d5	-0.11213461
251	0x3d35cc8d	0.044384528
252	0xbe068074	-0.13134938
253	0xbb852367	-0.004063058
254	0xbe4ec079	-0.2019061
255	0xbded5764	-0.11588934

bias f4 [128]
0	0xbcc720ed	-0.024307692
1	0xbd1cafd7	-0.03825363
2	0xbcef4f6f	-0.029212682
3	0x3cd1c073	0.025604462
4	0x3c97c0c8	0.018524542
5	0xbcbdb620	-0.023158133
6	0xbd13c2f2	-0.036074586
7	0x3d48e4ff	0.049046513
8	0x3bfc3903	0.007697226
9	0xbd1866e4	-0.0372075
10	0x3cf50665	0.029910276
11	0x3c8b4631	0.017001243
12	0xbcff8c5e	-0.031194862
13	0x3ccd8c1f	0.025091229
14	0x3ccf8134	0.025330164
15	0xbcd7a0c8	-0.026321784
16	0x3d2815a9	0.04103628
17	0xbce496ac	-0.027903877
18	0x3c99e70e	0.018786933
19	0xbcea3271	-0.028588505
20	0x3c0eba92	0.008711474
21	0xbd533aca	-0.051569737
22	0xbaba2422	-0.0014201442
23	0xbc46fe1b	-0.012145544
24	0xbd37be22	-0.04485906
25	0xbd2b6a73	-0.041849565
26	0x3d1cca2c	0.038278744
27	0x3cf5465c	0.029940777
28	0x3d28b0fb	0.041184407
29	0x3c9233d1	0.017846974
30	0x3cb854cc	0.022501372
31	0x3d5e186e	0.054222517
32	0xbd36ec04	-0.044658676
33	0xbd4d53ee	-0.05012887
34	0x3cc8784d	0.024471426
35	0xbcd03d4b	-0.025419852
36	0xbcb10aaf	-0.02161154
37	0x3c6947af	0.014238282
38	0x3d297f66	0.041381262
39	0x3d283c4c	0.04107313
40	0xbcd7505a	-0.026283432
41	0xbbaebdf2	-0.005332702
42	0xbb4f7c8e	-0.0031659934
43	0xbd1fe56e	-0.03903716
44	0xbd1d6915	-0.038430292
45	0x3c044002	0.008071901
46	0xbd0ad4a7	-0.033894207
47	0xbc944902	-0.01810122
48	0xbd3081b4	-0.043092445
49	0xbcc46e1f	-0.023978291
50	0x3d010919	0.031502817
51	0xbc5ed476	-0.013600459
52	0x3d545b6d	0.051845003
53	0x3ce2a6ce	0.02766743
54	0x3cf75051	0.030189665
55	0x3d1bd2ec	0.038042948
56	0xbc96baec	-0.018399678
57	0xbc54f829	-0.012998619
58	0x3cb396b0	0.02192244
59	0x3d182dca	0.037153043
60	0x3cdab312	0.026696716
61	0x3d2d32bc	0.042284712
62	0x3d35b44c	0.044361398
63	0xbd2cbe93	-0.042173933
64	0x3d198b9d	0.03748666
65	0xbcbca093	-0.023025787
66	0x3d123e56	0.03570398
67	0xbc8f8f0a	-0.017524261
68	0xbc994d4f	-0.018713621
69	0xbd3a9ed9	-0.045561645
70	0x3cd5c92a	0.026096899
71	0xbbd56b75	-0.006513054
72	0xbd1a2670	-0.037634313
73	0x3d4a71ef	0.04942506
74	0x3cdc2578	0.026873335
75	0x3cf5e71a	0.030017424
76	0xbd1b1dfb	-0.03787039
77	0x3d4c5744	0.04988791
78	0x3d036ad9	0.03208432
79	0x3d0e5743	0.034751188
80	0xbd353fce	-0.044250302
81	0xbd678c75	-0.056530435
82	0x3c862e22	0.01637942
83	0xbc26d65a	-0.010182941
84	0x3d06cc89	0.032909904
85	0x3be1e11f	0.0068932916
86	0x3d361b04	0.044459358
87	0x3d0849b9	0.033273432
88	0x3c28f056	0.010311207
89	0x3b98f301	0.00466764
90	0x3bffc171	0.0078050424
91	0x3d044b86	0.032298587
92	0xbd274c31	-0.040844146
93	0xbce5ba13	-0.028042829
94	0x3ce91c1b	0.028455785
95	0xbc9d7241	-0.01921952
96	0xbd26a79a	-0.04068718
97	0xbd089a27	-0.033350136
98	0xbd07369f	-0.033011075
99	0xbd5e861e	-0.054327123
100	0x3ccc9e48	0.024977818
101	0x3d1b8b96	0.037974916
102	0xbd15edc9	-0.036603723
103	0x3cc588d1	0.02411309
104	0x3cc23eac	0.023711525
105	0xbc9ea02d	-0.019363487
106	0xbccc0195	-0.024903098
107	0x3c515733	0.012777138
108	0x3d1a5ff3	0.03768916
109	0x3d700d25	0.058606286
110	0x3bf56001	0.007488251
111	0x3d131586	0.0359092
112	0xbd6220cc	-0.05520706
113	0x3d1ebdf7	0.038755383
114	0x3cb581ff	0.022156714
115	0xbca847e6	-0.020542096
116	0x3d2bd709	0.04195312
117	0x3ca29786	0.019847643
118	0x3d053f96	0.032531343
119	0xbc4fe307	-0.012688405
120	0xbd3a0480	-0.045414448
121	0xbc2e77cc	-0.010648679
122	0xbd12878a	-0.03577379
123	0xbcaf2993	-0.021382129
124	0xb94575b9	-0.00018831239
125	0x39a3b714	0.00031226187
126	0xbcd8fd0f	-0.026487855
127	0xbd505b17	-0.05086812

weight f4 [128, 128]
0	0x3dd9fda6	0.10644083
1	0x3de8e562	0.11371876
2	0x3d249516	0.040181242
3	0xb99f0d2a	-0.0003033665
4	0x3decd7b7	0.11564582
5	0xbd11e089	-0.035614524
6	0xb901aaa9	-0.00012365975
7	0xbc1d1114	-0.009586591
8	0x3b85d88f	0.0040846537
9	0x3b3d03ff	0.0028841493
10	0xbd145b38	-0.036219805
11	0x3d21a364	0.039462462
12	0x3d5467b5	0.051856715
13	0x3ccf2fbc	0.025291316
14	0xbdc4b2c5	-0.0960441
15	0x3e491532	0.19636992
16	0xbcdc8e7c	-0.02692341
17	0x3d7459e1	0.059656028
18	0x3aa3951d	0.0012480352
19	0xbd73800c	-0.059448287
20	0x3d23daa9	0.040003452
21	0xbd84902a	-0.064728096
22	0x3d3dfb67	0.046382334
23	0xbd927e73	-0.071530245
24	0x3d218872	0.039436765
25	0x3c10af6e	0.008830888
26	0xbdbf0f2e	-0.09329067
27	0xbe1423a5	-0.14466722
28	0x3dcc4287	0.099736266
29	0xbb529ed3	-0.0032138124
30	0xbe31da76	-0.17368492
31	0xbe4dbf70	-0.20092559
32	0x3d7862b4	0.060641006
33	0x3cd02e23	0.025412625
34	0xbdb90b6e	-0.09035383
35	0xbc061096	-0.008182665
36	0x3d7b8c91	0.06141335
37	0x3d9a3e8c	0.07531461
38	0xbd37bdd6	-0.044858776
39	0xbd61f2a8	-0.055163056
40	0xbdf28247	-0.11841255
41	0x3c66a537	0.014077476
42	0x3daf3df9	0.08556742
43	0x3b01372b	0.001971672
44	0xbdef94b2	-0.11698283
45	0x3db9cbef	0.090721
46	0x3cd90888	0.026493326
47	0xbc19c9c2	-0.009386482
48	0x3d8af726	0.06785421
49	0x3ced37db	0.028957298
50	0x3c5b86a9	0.013398805
51	0x3c616bc1	0.013758601
52	0xbd539f9e	-0.051665895
53	0x3cb11e2d	0.021620834
54	0xbd2aab66	-0.041667365
55	0xbe246915	-0.1605571
56	0x3cb4446d	0.022005284
57	0xbcb5a4f0	-0.022173375
58	0xbc8509e1	-0.016240062
59	0xbddc1827	-0.10746794
60	0xbc870f51	-0.016486796
61	0xbe29d896	-0.16586527
62	0x3da66a4b	0.081257425
63	0x3dd6872d	0.104750015
64	0xbdb96cfb	-0.090539895
65	0x3c9bb3a7	0.019006563
66	0xbb8d87c3	-0.0043191626
67	0x3e01216f	0.1261041
68	0xbc9a4066	-0.018829536
69	0xbc9b7534	-0.018976785
70	0x3d4d08e3	0.050057303
71	0xbd908998	-0.07057494
72	0x3e4fda81	0.20298196
73	0xbd6cdece	-0.05782967
74	0xbd0aa035	-0.03384419
75	0xbcea6e69	-0.0286171
76	0xbdcf0cb8	-0.10109848
77	0xbdb52df7	-0.08846658
78	0xbda58cba	-0.08083482
79	0xbd8da0c6	-0.06915431
80	0x3e2c7361	0.16840889
81	0xbc26f8d0	-0.010191157
82	0x3df5c0e5	0.11999682
83	0xbd8cf15c	-0.06881973
84	0xbeb5e15a	-0.35523492
85	0xbdbc7ff6	-0.09204094
86	0xbd37cf5c	-0.044875488
87	0xbdb617f5	-0.08891288
88	0xbc205132	-0.0097849835
89	0x3db693db	0.0891492
90	0xbdd6c75a	-0.10487242
91	0xbca59f8c	-0.02021768
92	0xbcc3e158	-0.023911163
93	0x3d822140	0.06353998
94	0xbdd88ca2	-0.105736986
95	0x3d8f1447	0.069862895
96	0x3dd40c48	0.10353905
97	0x3d9066de	0.0705087
98	0xbdd00241	-0.1015668
99	0x3e08fb33	0.13377075
100	0x3daa5812	0.08317579
101	0xbd8493de	-0.06473516
102	0x3db7319f	0.08945011
103	0xbdc55a10	-0.09636319
104	0x3d2385b4	0.03992243
105	0x3cdddd48	0.027083054
106	0x3de58cbe	0.11208485
107	0xbe3befcc	-0.18353194
108	0xbe63e22b	-0.22254245
109	0xbd0c8f4e	-0.034316353
110	0xbddefaa4	-0.1088765
111	0x3b8e0530	0.0043341145
112	0xbd9e8ee2	-0.077420965
113	0x3b93082f	0.0044870595
114	0xbd797a65	-0.06090774
115	0x3e0a6f7b	0.13519089
116	0xbda6db2c	-0.081472725
117	0xbd3196be	-0.04335665
118	0xbca77824	-0.02044303
119	0xbda46aa6	-0.08028154
120	0x3e493c1e	0.19651839
121	0xbdcc41fc	-0.09973523
122	0xbdc4f0b4	-0.09616223
123	0xbd89420b	-0.0670205
124	0xbde2ba91	-0.11070741
125	0x3e26d0e7	0.16290627
126	0x3c755685	0.014974241
127	0x3da47187	0.08029466
128	0xbc78fb22	-0.0151965935
129	0xbd153872	-0.036430784
130	0x3dc56e25	0.09640149
131	0xbe5eac79	-0.2174548
132	0x3e711caf	0.23546098
133	0xbd016a78	-0.031595677
134	0x3da9298d	0.08259878
135	0x3d93abdb	0.07210513
136	0x3d33bbe5	0.043880362
137	0x3db71ec5	0.08941416
138	0xbd479566	-0.04872646
139	0xbd8024ef	-0.062570445
140	0x3d0179c3	0.03161026
141	0x3cfd3e18	0.030913398
142	0xbe25ae17	-0.16179691
143	0xbdd65382	-0.104651466
144	0xbe40309f	-0.18768547
145	0xbd4131fc	-0.04716681
146	0x3cd69bf2	0.026197407
147	0xbe58c1df	-0.21167706
148	0x3d9b4965	0.07582358
149	0xbd8e2129	-0.069399185
150	0xbe208a6b	-0.15677802
151	0xbccdea02	-0.025135998
152	0xbcca7b03	-0.02471686
153	0x3da3cb14	0.079977185
154	0x3ddb2faf	0.10702454
155	0x3dbb5fe0	0.09149146
156	0xbd82cb0d	-0.06386385
157	0x3e37245d	0.17884965
158	0xbd0c774b	-0.034293454
159	0x3d844242	0.0645795
160	0xbd657b18	-0.056025594
161	0xbd80960f	-0.062786214
162	0x3c9b9898	0.01899366
163	0x3e551c2e	0.20811531
164	0x3d88343f	0.0665059
165	0x3d0e1b36	0.03469392
166	0xbcdc6f80	-0.026908636
167	0x3dd7633f	0.105169766
168	0x3e08ad42	0.13347343
169	0xbdcac271	-0.09900368
170	0x3d19895b	0.037484508
171	0xbd8a1b70	-0.067435145
172	0x3ddae1a9	0.106875725
173	0xbdb0bf25	-0.08630208
174	0x3d3b6318	0.0457488
175	0x3d2925d4	0.04129584
176	0x3e1b606d	0.15173502
177	0x3dc2336e	0.09482466
178	0xbc6a17d0	-0.014287904
179	0xbcefcefd	-0.029273504
180	0x3c41cecd	0.01182909
181	0x3d870711	0.06593145
182	0xbdb1e63b	-0.08686491
183	0x3d85aeb5	0.06527463
184	0xbc5528fa	-0.013010258
185	0xbd9cf041	-0.07663012
186	0x3c9aa1ca	0.018875975
187	0xbd7ef9e5	-0.062250037
188	0xbce63167	-0.028099729
189	0x3ca2842b	0.019838413
190	0xbe0220c5	-0.12707813
191	0x3e5eb6d5	0.21749432
192	0x3c938e07	0.01801206
193	0x3c87b843	0.016567355
194	0xbc27cf75	-0.010242333
195	0xbdb9f36b	-0.090796314
196	0x3e1cb05c	0.15301651
197	0x3d1a07db	0.037605148
198	0xbca39cb8	-0.01997219
199	0xbe19e36e	-0.15028164
200	0x3d2d6a9f	0.04233801
201	0x3deaaa61	0.114582784
202	0x3def2200	0.11676407
203	0x3dd04603	0.10169604
204	0x3dcb24ca	0.09919126
205	0xbd55ae51	-0.052168194
206	0xbc674403	-0.014115336
207	0x3b4f5449	0.0031635931
208	0xbdd1d605	-0.10245899
209	0x3e2f8879	0.17141904
210	0x39b2faca	0.00034137658
211	0xbcc6598a	-0.024212617
212	0x39f88998	0.0004740476
213	0x3d7ac506	0.061223052
214	0xbdb92b28	-0.090414345
215	0x3de9fd03	0.11425211
216	0x3d918557	0.07105511
217	0x3c02abb3	0.007975507
218	0xbd35a9e4	-0.044351473
219	0xbd227e38	-0.039671153
220	0x3ca65771	0.020305367
221	0xbc36d7b7	-0.011159829
222	0x3caceccf	0.021109013
223	0xbd6b0e04	-0.057386413
224	0xbc7472f4	-0.014919985
225	0x3dff2191	0.12457574
226	0x3e12ccae	0.14335892
227	0xbd1fbb98	-0.038997263
228	0xbd4b917a	-0.049699284
229	0xbc1efc2b	-0.009703676
230	0x3d3f0641	0.046636824
231	0x3c64604d	0.0139389755
232	0xbd9bb31d	-0.076025225
233	0xbe1a5cfe	-0.15074536
234	0xba3aac9f	-0.00071210595
235	0xbe66f54b	-0.2255451
236	0xbe168217	-0.14698063
237	0x3da8d813	0.08244338
238	0x3d82a3f1	0.063789256
239	0x3db3b1e0	0.08774161
240	0x3dcc193c	0.099657506
241	0xbd14a818	-0.03629312
242	0xbd59db84	-0.053187862
243	0x3e3051aa	0.17218652
244	0xbd85ece9	-0.06539328
245	0xbdb4be86	-0.08825402
246	0x3d7473fd	0.059680928
247	0x3d3ee9ce	0.046609692
248	0xbcce00f5	-0.02514694
249	0x3dbfd86b	0.0936745
250	0x3c4d3262	0.012524219
251	0x3d00a4c1	0.03140712
252	0x3c1f4679	0.009721392
253	0x3bcdfb17	0.0062860358
254	0xbd8377ae	-0.064193115
255	0xbd043549	-0.03227738

bias f4 [128]
0	0xbd3616e9	-0.044455443
1	0xbd007a76	-0.031366788
2	0x3d0a5aae	0.033777885
3	0x3d19c62b	0.037542503
4	0xbd44ff98	-0.048095316
5	0x3d0b41ae	0.033998184
6	0x3d091f6a	0.033477224
7	0x3d1acafc	0.037791237
8	0xbd0a7a4c	-0.033808038
9	0xbd15f58f	-0.036611136
10	0xbd1f0f62	-0.03883303
11	0x3d641e3a	0.05569289
12	0xbd4702f1	-0.04858679
13	0xbd30e685	-0.04318859
14	0xbccea541	-0.025225284
15	0x3d056693	0.032568526
16	0x3d2a5a2d	0.041589905
17	0xbd2a1c6b	-0.041531008
18	0xbd057536	-0.032582484
19	0x3d04d628	0.032430798
20	0xbd0b0197	-0.033937063
21	0x3d0443ac	0.0322911
22	0x3d143aad	0.03618877
23	0x3cc15b09	0.02360298
24	0xbd106902	-0.035256393
25	0x3d4ab57b	0.04948948
26	0xbd472944	-0.04862334
27	0xbd0f90c7	-0.03505018
28	0x3d2833e4	0.04106511
29	0xbd180a23	-0.037119042
30	0x3ce787eb	0.028263053
31	0x3d0d203c	0.03445457
32	0x3d4a205c	0.049347267
33	0xbd13aaf6	-0.036051713
34	0x3d22d725	0.03975596
35	0xbd18840e	-0.037235312
36	0x3d10ce18	0.035352796
37	0x3d3b8c0c	0.045787856
38	0xbd04b636	-0.032400332
39	0x3d1c5e41	0.038175825
40	0xbd28a67a	-0.04117439
41	0xbce0eb28	-0.027455881
42	0xbd4727fb	-0.048622113
43	0xbd0cea5d	-0.034403194
44	0x3d17815c	0.0369886
45	0xbd087b0b	-0.033320468
46	0x3d16daf4	0.036829904
47	0xbd1cedcf	-0.03831273
48	0xbd547953	-0.051873516
49	0xbcfd2bbd	-0.030904645
50	0xbd15ceda	-0.036574222
51	0x3d0f6b4f	0.035014447
52	0xbd0a52ce	-0.033770375
53	0x3d0c7a9b	0.034296613
54	0x3d1e506e	0.038650922
55	0x3d23dea9	0.040007267
56	0x3ccf37a3	0.025295084
57	0x3ca22e07	0.019797338
58	0x3d2e9c62	0.042629607
59	0xbd139afe	-0.036036484
60	0x3d2c3f03	0.04205228
61	0xbd11fccd	-0.03564148
62	0x3d1d29f5	0.03837009
63	0x3cf501d1	0.029908093
64	0x3cff40d6	0.031158846
65	0xbd0a3e53	-0.033750843
66	0xbd205a9e	-0.03914892
67	0xbd0a6c48	-0.03379467
68	0xbcc96cf5	-0.024588088
69	0xbc6fb6aa	-0.014630953
70	0xbd293ceb	-0.04131786
71	0x3d2a24fe	0.041539185
72	0x3d3bbbc9	0.045833383
73	0xbd301df8	-0.04299733
74	0x3d14f001	0.036361698
75	0xbd40a0c3	-0.047028314
76	0x3d0c6a72	0.0342812
77	0x3d1bcaaa	0.038035072
78	0x3d1c7e68	0.038206488
79	0x3d028088	0.03186086
80	0x3d10725d	0.035265315
81	0x3d11dd0c	0.035611197
82	0x3d1e2f78	0.03861949
83	0x3d27c981	0.040963653
84	0x3b2ee963	0.0026689402
85	0x3d1194b7	0.035542216
86	0xbcc9052c	-0.024538599
87	0x3d07aa67	0.033121493
88	0xbd2184db	-0.03943334
89	0x3d384fe0	0.04499805
90	0x3d1f9883	0.038963806
91	0xbd2bff29	-0.041991387
92	0xbd2020df	-0.03909385
93	0xbcfee918	-0.031117007
94	0x3d0ae0cd	0.033905793
95	0x3d1c9301	0.03822613
96	0xbd232d2b	-0.039837997
97	0xbd183c4e	-0.037166886
98	0xbd154225	-0.036440033
99	0x3d2515f2	0.04030413
100	0xbcfb5133	-0.030678367
101	0x3d244171	0.040101472
102	0xbd0ba03c	-0.03408836
103	0xbd2a9978	-0.041650265
104	0xbcf28336	-0.029603582
105	0x3d2e1129	0.042496834
106	0x3ced546a	0.028970916
107	0xbd2962a1	-0.041353825
108	0xbd34282d	-0.043983627
109	0xbd52d73b	-0.05147479
110	0xbd0e8682	-0.034796245
111	0xbd190779	-0.037360642
112	0x3d11dc3b	0.03561042
113	0x3d14b5a4	0.03630604
114	0x3d01a269	0.031649027
115	0x3cdb109b	0.026741317
116	0x3cee5430	0.029092878
117	0xbd29048d	-0.041264106
118	0xbd47041c	-0.048587903
119	0xbd1c6dd3	-0.038190674
120	0xbd0b6f58	-0.034041733
121	0xbd1cd906	-0.038292907
122	0xbd11e598	-0.03561935
123	0x3d130dfb	0.035902005
124	0xbcf26e99	-0.029593753
125	0x3d04d4bb	0.032429438
126	0x3d0931fd	0.03349494
127	0xbd473687	-0.048635986

weight f4 [1, 128]
0	0xbdb32e73	-0.08749094
1	0xbe4da7d0	-0.20083547
2	0x3e4a0095	0.19726785
3	0x3e463308	0.19355404
4	0xbd7231d9	-0.05912957
5	0x3cd47eb2	0.02593932
6	0x3ca94940	0.020664811
7	0x3dc8f54a	0.0981241
8	0xbdc27d4c	-0.09496555
9	0xbd9b64d1	-0.075875886
10	0xbd5dda9d	-0.054163564
11	0x3d01f0fd	0.031723965
12	0xbd4fb1e0	-0.050706744
13	0xbd8d45b3	-0.0689806
14	0xbe34a52d	-0.17641135
15	0x3d4f7f92	0.05065877
16	0x3e1392eb	0.14411514
17	0xbd57a08b	-0.05264334
18	0xbe0f73a9	-0.14008965
19	0x3db077ca	0.08616598
20	0xbe332fe3	-0.17498736
21	0x3e1d5096	0.15362772
22	0x3dc8f65b	0.098126136
23	0x3c99e0db	0.018783977
24	0xbd442d75	-0.047894914
25	0x3d87b80c	0.06626901
26	0xbd0c8d26	-0.034314297
27	0xbdc0b376	-0.094092295
28	0x3dabaf20	0.08383012
29	0xbdc47892	-0.095933095
30	0x3dcb68b9	0.09932084
31	0x3de33c62	0.110955015
32	0x3d1e05f0	0.03857988
33	0xbd45ab8c	-0.048259303
34	0x3e010ebb	0.12603275
35	0xbdd281de	-0.102786765
36	0x3d6c846e	0.057743482
37	0x3d6e0268	0.058107764
38	0xbd8a7ce3	-0.067621015
39	0x3da8d4e1	0.082437284
40	0xbdb014c6	-0.08597712
41	0xbd451162	-0.04811228
42	0xbce1d334	-0.02756653
43	0xbe347c35	-0.17625506
44	0x3e8381d4	0.25684988
45	0xbe00b71f	-0.12569855
46	0x3dfb65de	0.12275289
47	0xbdcd7ef1	-0.10033978
48	0xbcf7c520	-0.030245364
49	0xbd35f4d3	-0.044422936
50	0xbdd5b2a6	-0.10434465
51	0x3e5c3666	0.21505126
52	0xbe8f1c20	-0.27951145
53	0x3dd3ddc5	0.103450336
54	0x3db1ace6	0.08675556
55	0x3db5f85e	0.08885263
56	0x3e2c2758	0.16811883
57	0x3c15f4c0	0.009152591
58	0x3ce8ba30	0.028409094
59	0xbdd6e8ab	-0.10493597
60	0x3d898ce3	0.06716325
61	0xbdd9525d	-0.10611413
62	0x3e18efa8	0.14935172
63	0x3d543265	0.051805872
64	0x3d1321e4	0.035920992
65	0xbead6a15	-0.33869997
66	0xbdd95115	-0.10611168
67	0xbdb0ae5f	-0.08627009
68	0xbd811e3b	-0.06304594
69	0x3d4a3a13	0.04937179
70	0xbd0c94f4	-0.03432174
71	0x3d2be2f0	0.04196447
72	0x3d5ab963	0.053399455
73	0xbd50c94b	-0.050973218
74	0x3db781ae	0.08960281
75	0xbd212dec	-0.039350435
76	0x3df1a7ec	0.11799607
77	0x3c936811	0.017993959
78	0x3e2162a3	0.15760283
79	0x3dd825f0	0.10554111
80	0x3dcc6c29	0.099815674
81	0x3df38c6f	0.1189202
82	0x3e1ab6ad	0.15108748
83	0x3d7e2c17	0.062053766
84	0x3c609c7c	0.013709184
85	0x3e3b05f4	0.1826399
86	0xbd10740b	-0.035266917
87	0x3d22a93a	0.03971217
88	0xbdd9c38e	-0.10633002
89	0x3d3b4dd6	0.045728527
90	0x3daec642	0.085339084
91	0xbd98420e	-0.07434474
92	0xbdf2c972	-0.11854829
93	0xbda98bd6	-0.08278625
94	0x3e5bdc96	0.21470866
95	0x3d2108cf	0.03931504
96	0xbd94baac	-0.07262167
97	0xbd93cda9	-0.07216961
98	0xbe1fab6a	-0.15592733
99	0x3d517f3d	0.051146735
100	0xbde3a52b	-0.11115488
101	0x3d8734a7	0.066018395
102	0xbc79e10f	-0.015251412
103	0xbd7c9442	-0.061664827
104	0xbdfab213	-0.12240996
105	0x3dbf63cc	0.093452066
106	0x3d6e1a8f	0.058130797
107	0xbd37c9c8	-0.044870168
108	0xbcc6624d	-0.024216795
109	0xbd1133c1	-0.035449747
110	0xbe0d19e3	-0.13779406
111	0xbda9205f	-0.082581274
112	0x3e0734fe	0.13203809
113	0x3e09b24a	0.13446918
114	0x3e19a8d1	0.15005805
115	0x3d918512	0.07105459
116	0x3d1a027a	0.037600018
117	0xbd515a5d	-0.051111568
118	0xbd729ace	-0.059229665
119	0xbdbd47f4	-0.092422396
120	0xbe5ad9b7	-0.21372114
121	0xbd811dbd	-0.063045
122	0xbd9526fc	-0.07282826
123	0x3dbe6482	0.09296514
124	0xbd402686	-0.04691174
125	0x3e2d03c3	0.16895966
126	0x3e39c1c4	0.18140322
127	0xbcbe0d21	-0.02319962
