trained_models/ppo/me5418-Cassie-v0/0524-08-37-23-s37/actor.pth (torch, 906874 bytes, 11 tensors)

log_std f4 [1, 10]
-0.14027256 -0.0070403907 -0.20915268 -0.18916675 -0.080310114 -0.105170034 -0.09269594 -0.13946173
-0.20479964 -0.084922
00000000: 9ca3 0fbe 14b3 e6bb 1f2c 56be eeb4 41be
00000010: a179 a4bd 6363 d7bd 5ed7 bdbd 0ecf 0ebe
00000020: ffb6 51be 96eb adbd

weight_ih_l0 f4 [512, 50]
0.061327647 0.015759502 0.006723252 -0.07400372 -0.029135762 -0.0073777926 0.12109966 -0.04096366
0.043682747 0.03960752 -0.031305373 0.029925294 0.0006458296 0.07751694 0.06495471 -0.042406034
-0.05600426 -0.08079964 0.04613942 -0.11676932 0.06299523 0.07373766 0.0881373 -0.10592099
0.02078184 -0.0911952 0.013229686 0.03751491 -0.029876512 -0.020453647 -0.07104157 -0.03509373
0.025156872 -0.013754761 0.068328485 0.07792009 -0.0007245923 -0.028816203 0.06417425 0.017340675
-0.04299929 -0.10410643 -0.027473256 0.19685797 0.041566707 0.0014899353 -0.051325615 -0.047779497
0.004558227 -0.0752164 -0.036575854 -0.020805554 -0.013777711 -0.011431382 0.032321043 -0.061020125
0.03735413 0.106739536 -0.1340505 0.012547835 -0.024894249 -0.09288118 0.07214944 0.017995689
-0.025480447 0.05198091 0.026491802 -0.006639312 0.012518972 -0.12684658 -0.11481633 -0.014239848
0.070121594 -0.0045059314 0.038739737 0.0903765 -0.06321598 0.09551805 -0.053387705 0.013116738
0.057311144 -0.09160058 -0.058250956 0.0626209 -0.069994114 5.3546635e-05 -0.11542302 0.04716458
0.10407299 0.008398738 -0.018330105 -0.0018904273 0.048158433 -0.038835328 -0.028220272 -0.09879484
-0.04483802 0.09786737 0.09154087 -0.07381081 -0.10545984 0.06478681 -0.0348751 -0.110097066
-0.06759861 0.09033298 0.06690655 -0.027141683 -0.066430494 0.03620016 0.049135707 -0.06622627
-0.01841401 -0.011914228 -0.018096043 -0.057683904 0.03297033 -0.07291848 0.028398043 -0.091184385
-0.0004062103 0.0049073165 0.05440506 -0.06655177 -0.017322581 -0.02657811 0.06279504 0.024099289
-0.15771735 -0.047696322 -0.03365284 -0.028518168 -0.02996502 0.06950243 -0.019893872 0.022854252
-0.046302635 -0.065527044 0.068451405 0.009193734 0.0009616409 0.02369074 -0.028465854 -0.110173084
-0.1229302 -0.045250386 0.1251989 0.1541445 0.030240519 -0.02732648 0.006306734 -0.040068936
-0.031702377 -0.0482907 -0.06756455 0.00078402995 0.106250376 -0.08006163 0.0298727 0.0354243
-0.083842516 -0.03995405 -0.029849302 0.07210798 0.07644324 0.09046123 -0.081249654 0.018721242
-0.08263463 0.049176116 -0.119451806 0.09651861 0.10818204 0.047165226 0.011595299 0.022863148
-0.109977625 0.0083864 -0.049072772 0.054350015 -0.093338035 0.01340412 -0.011252182 -0.054987654
-0.06062578 -0.06009082 -0.03474262 0.10153336 -0.040337574 0.07416829 -0.08582763 -0.06698259
0.100030296 -0.098222345 -0.11861966 -0.045900468 -0.047453154 0.091700256 -0.06566718 -0.043140158
0.04827638 0.03177127 -0.048039895 0.10609773 0.016687954 0.08417714 -0.023195442 -0.045925938
-0.009325259 -0.036507167 0.05070104 0.08142638 -0.05988255 -0.007546424 0.04202895 -0.10028409
0.03755679 0.020642502 0.014225163 0.03365786 0.018824052 0.110624135 -0.10426796 0.041948978
0.09344926 -0.015825013 0.04277283 0.0175858 -0.08254693 0.004145295 -0.16300647 0.074491456
-0.000999039 -0.026612679 -0.07839097 -0.024644023 -0.0064544803 -0.010803519 -0.05595332 -0.013640847
-0.00079457666 -0.084914 0.017329356 -0.020039493 0.008536732 -0.118021354 0.0196292 -0.11564972
-0.021389017 0.040227324 0.05423727 -0.035656147 -0.05451621 0.008843763 -0.031815916 0.032179333
00000000: b332 7b3d 121a 813c ba4e dc3b 438f 97bd
00000010: 1fae eebc 69c1 f1bb 1903 f83d 83c9 27bd
00000020: aeec 323d 7f3b 223d 103a 00bd e425 f53c
00000030: e44c 293a 34c1 9e3d fa06 853d f3b1 2dbd
00000040: b964 65bd 487a a5bd b0fc 3c3d c124 efbd
00000050: a503 813d c503 973d 5481 b43d 1bed d8bd
00000060: ad3e aa3c 8dc4 babd 53c1 583c 3ca9 193d
00000070: 96bf f4bc 688e a7bc 3e7e 91bd 71be 0fbd
00000080: c915 ce3c a65b 61bc ceef 8b3d 9194 9f3d
00000090: 91f2 3dba f50f ecbc ca6d 833d 080e 8e3c
000000a0: 0620 30bd c135 d5bd 980f e1bc 2395 493e
000000b0: da41 2a3d ef49 c33a cf3a 52bd 6fb4 43bd
000000c0: 2e5d 953b 0e0b 9abd 90d0 15bd 6970 aabc
000000d0: e9bb 61bc b14a 3bbc 1263 043d 3df0 79bd
000000e0: a500 193d 429a da3d 8944 09be 6f95 4d3c
000000f0: 06ef cbbc 7d38 bebd 16c3 933d b26b 933c
00000100: 5fbc d0bc efe9 543d 5605 d93c 968e d9bb
00000110: 601c 4d3c 12e4 01be d324 ebbd 404e 69bc
00000120: e99b 8f3d 7ea6 93bb 8fad 1e3d 5017 b93d
00000130: 6177 81bd f89e c33d 11ad 5abd 96e7 563c
00000140: 17bf 6a3d 1699 bbbd 8e98 6ebd 633f 803d
00000150: 1359 8fbd 4397 6038 e862 ecbd a62f 413d
00000160: 3824 d53d dc9a 093c 0429 96bc 37c8 f7ba
00000170: c741 453d cb11 1fbd 332e e7bc f354 cabd
00000180: 12a8 37bd b06e c83d c879 bb3d 1f2a 97bd
00000190: 54fb d7bd f2ae 843d 31d9 0ebd 927a e1bd
000001a0: 2471 8abd 7f00 b93d 4d06 893d 3c58 debc
000001b0: b60c 88bd 9e46 143d 8642 493d a3a1 87bd
000001c0: fad8 96bc e533 43bc 273e 94bc f545 6cbd
000001d0: e60b 073d 4956 95bd 03a3 e83c e1be babd
000001e0: a0f8 d4b9 8ecd a03b d7d7 5e3d 4b4c 88bd
000001f0: 16e8 8dbc 56ba d9bc b09a 803d df6b c53c
00000200: a880 21be 385d 43bd 8fd7 09bd ef9e e9bc
00000210: 3479 f5bc 4a57 8e3d 79f8 a2bc d738 bb3c
00000220: d5a7 3dbd 0b33 86bd 4030 8c3d 51a1 163c
00000230: a116 7c3a 1513 c23c 3931 e9bc 6da2 e1bd
00000240: d4c2 fbbd 7858 39bd 2434 003e 0ed8 1d3e
00000250: f7ba f73c c8db dfbc b8a8 ce3b 531f 24bd
00000260: 5ada 01bd 78cc 45bd 485f 8abd 5c87 4d3a
00000270: cc99 d93d 5af7 a3bd 98b7 f43c 1219 113d
00000280: a0b5 abbd dca6 23bd 8686 f4bc 59ad 933d
00000290: 468e 9c3d bd43 b93d 3866 a6bd 4a5d 993c
000002a0: 583c a9bd e56c 493d 26a3 f4bd 8dab c53d
000002b0: 8c8e dd3d 5330 413d 35fa 3d3c 7f4b bb3c
000002c0: f33b e1bd 1c67 093c 8800 49bd 1f9e 5e3d
000002d0: 0328 bfbd f49c 5b3c 125b 38bc bc3a 61bd
000002e0: bd52 78bd cb21 76bd 474e 0ebd b9f0 cf3d
000002f0: 0339 25bd 8be5 973d 65c6 afbd 2b2e 89bd
00000300: afdc cc3d cc28 c9bd ddee f2bd 2102 3cbd
00000310: 3d5e 42bd 58cd bb3d 847c 86bd bcb3 30bd
00000320: 74bd 453d 9722 023d 7bc5 44bd c449 d93d
00000330: 2db5 883c 1065 ac3d 5e04 bebc d61c 3cbd
00000340: f9c8 18bc 8a88 15bd e5ab 4f3d e0c2 a63d
00000350: 6847 75bd fe47 f7bb 8c26 2c3d bf61 cdbd
00000360: 26d5 193d 771a a93c a810 693c d3dc 093d
00000370: e634 9a3c e88e e23d 718a d5bd b1d2 2b3d
00000380: 5362 bf3d 75a3 81bc 9032 2f3d 1810 903c
00000390: 5d0e a9bd 41d5 873b 2beb 26be fa8e 983d
000003a0: 30f2 82ba d502 dabc 728b a0bd 43e2 c9bc
000003b0: 1b80 d3bb 3e01 31bc 4f2f 65bd dc7d 5fbc
000003c0: 234b 50ba 64e7 adbd 4bf6 8d3c dd29 a4bc
000003d0: a6dd 0b3c 2eb5 f1bd 6bcd a03c c3d9 ecbd
000003e0: 0538 afbc 68c5 243d e627 5e3d 2e0c 12bd
000003f0: 644c 5fbd 6ee5 103c 6851 02bd 7ace 033d

weight_hh_l0 f4 [512, 128]
0.07848019 -0.029358143 0.026064044 -0.014702708 -0.012361853 -0.02600184 -0.06813157 0.04165698
0.08075385 0.05211041 -0.017680379 0.032547 0.03800217 0.030601673 -0.07130982 0.11091832
-0.07677733 -0.07938762 -0.021964215 -0.015416381 -0.04776678 -0.0015250695 0.02764944 0.08930932
0.06293885 0.0134211015 -0.070291385 0.010204766 -0.02232651 -0.03888499 0.04747611 -0.0472503
0.014228116 0.046054572 0.05122076 -0.016949024 -0.0729397 0.07197123 -0.009855442 -0.021940498
-0.029017938 0.032223538 -0.034619115 -0.044691775 -0.066775344 -0.06947332 -0.038955256 0.037075795
-0.01190807 -0.07479019 -0.012792213 -0.011124516 -0.026690349 -0.050938416 0.053361423 0.0006565553
0.038208403 -0.1199528 0.040838487 -0.07655818 -0.011724901 -0.0078122164 -0.08484009 0.030044978
0.04517528 0.0026465 0.084447116 0.010119333 0.013038613 -0.008226047 -0.093684494 0.055196404
0.03575396 0.056979977 -0.049376138 0.07515192 -0.07683331 0.099824145 0.12797563 0.057561792
-0.0051209396 0.09540289 -0.04037971 -0.08641746 -0.026165826 -0.043310303 0.028153662 -0.028178139
0.0015708099 0.023094214 -0.056278285 -0.021938985 -0.07100767 -0.00063013105 0.06981895 -0.06546654
0.008488999 0.02221643 -0.08231842 -0.06187674 0.005476089 0.031631842 0.061429836 0.031617932
0.0040050973 -0.010403934 0.030639242 -0.057617553 -0.06948244 -0.050145715 0.043310955 -0.10242788
-0.062846825 -0.008022377 -0.020617992 0.035802566 0.071185246 -0.058486763 0.0036622628 0.012243206
-0.0474178 -0.04617353 -0.028118744 -0.0013083986 0.05496793 -0.015330088 0.06448396 0.06541317
0.052424256 -0.019956706 0.07985842 -0.09231789 -0.0026077738 0.102320395 0.08141601 -0.015945453
0.06436918 -0.029749796 0.011049237 -0.008634316 0.02729226 -0.05443491 0.01023082 -0.059265453
-0.08871608 0.0020402493 -0.074478194 -0.028961675 0.09126434 -0.08071105 0.002142185 0.058588404
0.030773249 -0.0088122245 0.005115982 -0.0363186 -0.01722058 -0.073776565 0.066857144 -0.009253754
0.015490943 0.00059737306 -0.030303074 -0.094728954 0.055770967 -0.06335376 -0.0728733 0.027730094
-0.007503364 -0.030866396 0.026498018 -0.02039416 0.054344032 -0.011143941 0.027794281 0.058921095
0.001668902 0.0051253582 0.009793712 -0.11348491 0.03966855 -0.042489044 0.064832926 0.010153199
-0.055252284 -0.049406104 0.05526221 0.02307698 0.07707691 -0.08609758 0.017908609 -0.0061083576
-0.06116674 -0.059030645 0.029489685 0.035336018 -0.033215348 0.11515319 0.038817506 -0.038624868
-0.014752138 -0.0074031726 -0.054384295 -0.015229308 -0.0317079 -0.041829214 0.051823854 -0.037037894
-0.031808887 -0.0055429344 0.029840803 -0.024397923 0.10546161 0.016748212 -0.021972675 0.114638135
0.04318189 0.093613714 0.03509806 0.0017972213 -0.087813 -0.09325986 0.037872024 0.0022221957
0.08622539 0.037916563 -0.09443444 0.04332266 -0.07147213 -0.060526505 -0.09049809 0.11823517
-0.02680916 -0.023998236 0.06394793 0.0750367 0.009465956 0.13157183 -0.04678917 -0.07355431
-0.05188686 0.057878446 0.050977062 0.035541184 -0.0035712575 -0.07965785 0.022436647 0.031368356
0.06996818 -0.009197507 -0.12939748 -0.04779726 -0.024170171 0.020975994 -0.088495255 0.007540665
00000000: 39ba a03d 7d80 f0bc 4384 d53c a1e3 70bc
00000010: 5f89 4abc d001 d5bc 9188 8bbd 82a0 2a3d
00000020: 4662 a53d ba71 553d 71d6 90bc 0150 053d
00000030: 2aa8 1b3d 5cb0 fa3c e20a 92bd 2529 e33d
00000040: 6f3d 9dbd fa95 a2bd 4cee b3bc fd94 7cbc
00000050: 19a7 43bd d7e4 c7ba 1481 e23c cee7 b63d
00000060: 15e6 803d 2ee4 5b3c eef4 8fbd e431 273c
00000070: 16e6 b6bc de45 1fbd 4f76 423d 8889 41bd
00000080: 0b1d 693c b8a3 3c3d dccc 513d aed8 8abc
00000090: 6961 95bd a765 933d b878 21bc 8fbc b3bc
000000a0: 07b7 edbc d4fc 033d c6cc 0dbd b90e 37bd
000000b0: 83c1 88bd 0748 8ebd 8c8f 1fbd cadc 173d
000000c0: 111a 43bc 992b 99bd 6e96 51bc 9a43 36bc
000000d0: b8a5 dabc cda4 50bd 8291 5a3d ae1c 2c3a
000000e0: 6a80 1c3d d0a9 f5bd 4246 273d 89ca 9cbd
000000f0: cd19 40bc 9ffd ffbb a4c0 adbd e320 f63c
00000100: b709 393d e770 2d3b 9cf2 ac3d 8fcb 253c
00000110: e89f 553c 8bc6 06bc a8dd bfbd a015 623d
00000120: bf72 123d d663 693d a23e 4abd 40e9 993d
00000130: c85a 9dbd 9a70 cc3d 0b0c 033e eac5 6b3d
00000140: 8ecd a7bb 9762 c33d 3265 25bd a3fb b0bd
00000150: b759 d6bc 2566 31bd 82a2 e63c d7d5 e6bc
00000160: a2e3 cd3a 1430 bd3c 0f84 66bd 63b9 b3bc
00000170: 786c 91bd 612f 25ba 3dfd 8e3d 5213 86bd
00000180: 7115 0b3c 3bff b53c 8f96 a8bd 7772 7dbd
00000190: c470 b33b 6490 013d da9d 7b3d ce81 013d
000001a0: 313d 833b 4375 2abc 26ff fa3c 6200 6cbd
000001b0: cf4c 8ebd 9865 4dbd d466 313d b5c5 d1bd
000001c0: d6b5 80bd 4a70 03bc 10e7 a8bc b6a5 123d
000001d0: 92c9 913d d18f 6fbd 9302 703b ba97 483c
000001e0: 2b39 42bd 7520 3dbd 4859 e6bc 927e abba
000001f0: 0d26 613d 0d2b 7bbc 2b10 843d 57f7 853d
00000200: d1ba 563d 3f7c a3bc d08c a33d 2911 bdbd
00000210: 2fe7 2abb 5b8d d13d 70bd a63d 0aa0 82bc
00000220: fdd3 833d d8b5 f3bc dc07 353c f276 0dbc
00000230: 0594 df3c 24f7 5ebd 2b9f 273c 55c0 72bd
00000240: c7b0 b5bd b4b5 053b 0688 98bd 0941 edbc
00000250: cce8 ba3d d64b a5bd e763 0c3b 65fa 6f3d
00000260: 2e18 fc3c 2661 10bc f8a3 a73b d0c2 14bd
00000270: 2c12 8dbc 2b18 97bd 66ec 883d 0f9d 17bc
00000280: b9cd 7d3c 0799 1c3a 273e f8bc 4101 c2bd
00000290: 1970 643d 9ebf 81bd 993e 95bd 392a e33c
000002a0: c7de f5bb 86db fcbc 5f12 d93c a711 a7bc
000002b0: d997 5e3d 1495 36bc d5b0 e33c 3f57 713d
000002c0: 0fbf da3a 9ff2 a73b ce75 203c c76a e8bd
000002d0: 7d7b 223d fe08 2ebd 20c7 843d 9a59 263c
000002e0: 3850 62bd 0e5e 4abd a15a 623d ef0b bd3c
000002f0: 80da 9d3d ee53 b0bd 13b5 923c 9e28 c8bb
00000300: fa89 7abd 1eca 71bd 5a94 f13c 80bc 103d
00000310: d10c 08bd 70d5 eb3d 1bff 1e3d 1c35 1ebd
00000320: f4b2 71bc 5096 f2bb 11c2 5ebd 5984 79bc
00000330: 25e0 01bd 1c55 2bbd 4045 543d 0cb5 17bd
00000340: 094a 02bd 81a1 b5bb b374 f43c 27de c7bc
00000350: 42fc d73d 8c33 893c 0a00 b4bc 66c7 ea3d
00000360: 7edf 303d 8cb8 bf3d fcc2 0f3d bd90 eb3a
00000370: 4dd7 b3bd 07ff bebd b21f 1b3d 42a2 113b
00000380: f096 b03d 664e 1b3d d866 c1bd 1a73 313d
00000390: fb5f 92bd a4ea 77bd 1057 b9bd 4825 f23d
000003a0: e29e dbbc f397 c4bc 22f7 823d d7ac 993d
000003b0: 1917 1b3c c4ba 063e 00a6 3fbd a4a3 96bd
000003c0: 5187 54bd f311 6d3d 53cd 503d a293 113d
000003d0: c20b 6abb a823 a3bd 0fcd b73c 1b7c 003d
000003e0: 7a4b 8f3d 24b1 16bc c680 04be 0fc7 43bd
000003f0: 8600 c6bc d9d5 ab3c 003d b5bd af17 f73b

bias_ih_l0 f4 [512]
0.018527571 0.084639095 0.059556205 -0.067522824 -0.09860156 -0.041199222 -0.012000805 0.07142071
-0.056316778 -0.0025053774 0.039537195 0.008549338 -0.105073586 0.04121769 -0.13834532 -0.016766284
-0.10597579 -0.029598119 0.06365404 -0.080196954 -0.006854398 0.031165069 0.016693177 0.029980563
0.00203702 -0.041853443 0.088644095 0.03327057 0.098780096 -0.009995175 -0.069031306 -0.05552514
-0.06177735 -0.0035206124 -0.11271696 -0.07916413 -0.09439785 -0.03678828 -0.073623136 0.048681013
-0.021174572 -0.038737126 -0.032140978 0.016262192 0.005575883 -0.084358625 -0.15278226 0.00088106527
0.07463679 0.027517399 -0.045226123 -0.08451287 -0.08557913 -0.015796557 -0.0463792 -0.024077108
-0.053568322 -0.0027244028 -0.008480961 -0.10201615 -0.08019631 -0.021448322 -0.054379825 0.07632667
0.07853044 0.04717908 -0.031608585 0.09684806 0.074303836 0.04528872 0.0099100815 -0.015083075
0.0039170017 -0.008161348 0.030318357 0.032597218 0.036751993 0.06931367 -0.01121656 -0.05366388
-0.017233143 0.07206039 0.08097698 -0.02162371 0.032945286 -0.008224079 -0.022685435 0.087784916
0.06629463 -0.010280086 0.118524365 0.047244865 -0.04607279 -0.06330165 0.014830047 -0.09884355
0.011143398 -0.0998654 -0.0516617 0.008060124 0.004171053 0.052770957 0.09441387 0.0005698448
0.010051685 0.022625115 0.0643315 -0.003302141 -0.05766995 0.08431448 -0.03059263 0.072339885
-0.018822838 -0.023113064 0.0795059 0.026674548 0.011554568 -0.106574826 0.116694935 0.08942716
0.0065572667 -0.11501812 -0.027188452 0.08800376 -0.02731033 -0.056952532 0.026423475 -0.0114645865
-0.17048346 -0.11447758 -0.012155116 -0.012340783 -0.12799625 -0.01800187 -0.075147 -0.17000028
-0.0961312 -0.1916153 -0.19268161 -0.20957202 -0.095903106 -0.17990258 -0.10890258 -0.08050376
-0.15104096 -0.10650194 -0.15764435 -0.052677505 -0.09747423 -0.15957971 -0.09201806 -0.19939467
-0.1156535 -0.013687182 -0.089505985 -0.12517944 -0.22006367 -0.15609463 -0.14666627 -0.14701632
-0.15534082 -0.040111315 -0.0778141 -0.18288498 -0.006690714 -0.1666245 -0.09318585 -0.16979158
-0.07663676 -0.094857246 -0.014430373 -0.079954475 -0.16565518 -0.09715701 -0.035055928 -0.21271361
-0.10593076 -0.108248785 -0.14546339 -0.046045672 -0.04078367 -0.17130928 -0.07132191 -0.20392402
-0.15944335 -0.100809656 0.002812855 -0.16587815 -0.15817416 -0.05064803 -0.1276307 -0.09262598
-0.16475686 -0.15341185 -0.07519091 -0.10022121 -0.20436409 -0.17192383 -0.116521806 -0.20122015
-0.05381978 -0.15861228 0.0340753 -0.09882607 -0.034891065 -0.14532857 -0.10771937 -0.09968405
-0.0653678 -0.11852654 -0.17190276 -0.18608843 -0.04810507 -0.14151081 -0.17501414 -0.12820394
-0.18346664 -0.015467874 -0.1222845 -0.11730791 -0.1975576 -0.17492259 -0.13401845 -0.13451704
-0.098261915 -0.1719421 -0.09374263 -0.12199831 -0.075559236 -0.058684822 -0.14757015 -0.09583389
-0.19570345 -0.10000873 -0.22361566 -0.047676682 -0.11385526 -0.12829642 -0.14032927 -0.08178291
-0.103726685 -0.075742975 -0.1482609 -0.11300303 -0.09933061 -0.15520576 -0.18080346 -0.08882695
-0.08992405 -0.06508092 -0.013976565 -0.07583055 -0.06594148 -0.0076014027 -0.17064813 -0.04591874
00000000: 22c7 973c 4357 ad3d 35f1 733d 6849 8abd
00000010: 9def c9bd 84c0 28bd 069f 44bc 0545 923d
00000020: 6cac 66bd 4231 24bb c1f1 213d 8612 0c3c
00000030: d230 d7bd e1d3 283d 65aa 0dbe 7259 89bc
00000040: d609 d9bd c177 f2bc 0d5d 823d 4d3e a4bd
00000050: dc9a e0bb e34d ff3c 21c0 883c cc99 f53c
00000060: 867f 053b 846e 2bbd 098b b53d b946 083d
00000070: 384d ca3d cdc2 23bc 4960 8dbd 546e 63bd
00000080: 3f0a 7dbd 13ba 66bb 26d8 e6bd ce20 a2bd
00000090: a953 c1bd 4faf 16bd bac7 96bd be65 473d
000000a0: 4c76 adbc d2aa 1ebd 42a6 03bd 4a38 853c
000000b0: e6b5 b63b 37c4 acbd f472 1cbe 4af7 663a
000000c0: 2cdb 983d 2b6c e13c 073f 39bd 1515 adbd
000000d0: 1c44 afbd c867 81bc 1ef8 3dbd 5b3d c5bc
000000e0: 756a 5bbd e58b 32bb bbf3 0abc d8ed d0bd
000000f0: f73d a4bd 64b4 afbc 61bd 5ebd 2851 9c3d
00000100: 91d4 a03d da3e 413d 0178 01bd 4758 c63d
00000110: 9c2c 983d aa80 393d e55d 223c 001f 77bc
00000120: 315a 803b 2db7 05bc 345e f83c a984 053d
00000130: 4289 163d 53f4 8d3d aac5 37bc a8ce 5bbd
00000140: 852c 8dbc 6694 933d 42d7 a53d 3524 b1bc
00000150: a3f1 063d 4abe 06bc ced6 b9bc 94c8 b33d
00000160: 7bc5 873d ce6d 28bc e7bc f23d d583 413d
00000170: d2b6 3cbd 4ca4 81bd baf9 723c 7d6e cabd
00000180: cc92 363c 3b86 ccbd 389b 53bd 9c0e 043c
00000190: 54ad 883b 5c26 583d 0f5c c13d a361 153a
000001a0: d3af 243c 4e58 b93c 3cc0 833d bc68 58bb
000001b0: 5337 6cbd 12ad ac3d 659d fabc ef26 943d
000001c0: 5a32 9abc 9c57 bdbc fdd3 a23d 9584 da3c
000001d0: 5f4f 3d3c e743 dabd c1fd ee3d 9625 b73d
000001e0: 57de d63b 9f8e ebbd 51ba debc 513b b43d
000001f0: eab9 dfbc 0f47 69bd 0b76 d83c f6d5 3bbc
00000200: 3793 2ebe 3973 eabd 4026 47bc ff30 4abc
00000210: 7311 03be a878 93bc ace6 99bd 8e14 2ebe
00000220: 6fe0 c4bd cd36 44be 544e 45be 0c9a 56be
00000230: d968 c4bd 6238 38be 5108 dfbd 28df a4bd
00000240: 7baa 1abe b01d dabd 856d 21be 5ec4 57bd
00000250: 92a0 c7bd dd68 23be f773 bcbd 1e2e 4cbe
00000260: bedb ecbd 3440 60bc ea4e b7bd 0a2f 00be
00000270: 5f58 61be 45d7 1fbe af2f 16be 728b 16be
00000280: aa11 1fbe c34b 24bd 005d 9fbd 3346 3bbe
00000290: c73d dbbb 9d9f 2abe 39d8 bebd d8dd 2dbe
000002a0: bcf3 9cbd 8444 c2bd 5f6d 6cbc 2cbf a3bd
000002b0: 83a1 29be 41fa c6bd ce96 0fbd 99d1 59be
000002c0: 3af2 d8bd 8ab1 ddbd 5bf4 14be 639a 3cbd
000002d0: c70c 27bd b36b 2fbe 3911 92bd 75d1 50be
000002e0: 1e45 23be 4b75 cebd e057 383b f6db 29be
000002f0: 68f8 21be 4f74 4fbd 9fb1 02be b1b2 bdbd
00000300: 06b6 28be ff17 1dbe b1fd 99bd c740 cdbd
00000310: d244 51be cd0c 30be fca2 eebd a80c 4ebe
00000320: 2172 5cbd 426b 22be 8b92 0b3d 5365 cabd
00000330: efe9 0ebd 03d1 14be f99b dcbd 2727 ccbd
00000340: 8edf 85bd 0bbe f2bd 4707 30be f78d 3ebe
00000350: d209 45bd 36e8 10be e836 33be e547 03be
00000360: aede 3bbe f76c 7dbc 4c70 fabd 213f f0bd
00000370: 8a4c 4abe e81e 33be 223c 09be d6be 09be
00000380: 8b3d c9bd 9711 30be 23fc bfbd 40da f9bd
00000390: cdbe 9abd 7f5f 70bd a11c 17be 8f44 c4bd
000003a0: 7c66 48be 61d1 ccbd 81fb 64be a048 43bd
000003b0: f22c e9bd 2360 03be 7ab2 0fbe cc7d a7bd
000003c0: a86e d4bd 221f 9bbd b5d1 17be 226e e7bd
000003d0: d96d cbbd 42ee 1ebe 8b24 39be e7ea b5bd
000003e0: 1a2a b8bd 2549 85bd f6fd 64bc 0c4d 9bbd
000003f0: 540c 87bd 3015 f9bb 62be 2ebe 4a15 3cbd

bias_hh_l0 f4 [512]
0.042323638 0.059833806 -0.088427044 -0.019810775 -0.10796257 0.099798016 -0.045015514 0.07511898
-0.07707903 -0.0053969333 -0.02489881 -0.022784846 0.023237862 -0.0017990597 0.03002674 0.07281291
0.057186816 -0.0038782384 0.06502324 0.08333336 -0.010550099 -0.012573691 -0.025270363 0.0044992003
0.05806856 0.020407615 0.030516874 -0.019055452 0.0025867575 -0.05163724 -0.00090605265 0.062177505
0.00089848676 0.07030618 -0.10099897 -0.04111516 0.036751904 0.037426643 -0.104933634 -0.007933965
0.08852845 -0.043144416 -0.103961006 -0.03493317 0.0918226 0.00060376566 0.011488913 -0.05595638
0.059794214 -0.028388273 -0.07775012 -0.05515174 -0.046558443 0.071737796 0.1103767 0.06408395
0.08192499 0.07702094 -0.039180283 0.04677223 0.0027362925 -0.0077215647 0.08412742 0.06871085
-0.0050302953 -0.06779718 -0.04097808 -0.04363269 -0.017695403 0.021905849 0.068258405 0.10084152
0.040118907 -0.012866309 0.026115265 -0.093863025 -0.05279197 0.025417611 -0.011432844 -0.03647982
-0.12831038 0.011573861 0.00919811 0.06814926 -0.014636761 -0.09663596 -0.04337416 0.08734256
0.029938117 0.028083215 0.013420767 -0.04185641 0.04264225 0.048630252 -0.11057125 -0.013401103
-0.10186194 -0.08749083 0.004298546 -0.021969823 -0.014768905 -0.023397187 0.037826292 -0.048335645
0.03215023 -0.0067746737 0.028801959 -0.016445952 -0.03627141 0.06990577 0.014744176 0.031377718
0.038747303 0.05799239 -0.06189147 0.064336605 -0.009612492 -0.068283215 0.11221888 0.044367246
-0.050791584 -0.11007197 -0.0012171034 0.07233586 -0.042462736 -0.068638854 0.0724795 -0.01717339
-0.10125825 -0.1402341 -0.018257659 -0.0144170895 -0.17066988 -0.04680069 -0.107881404 -0.051943302
-0.007011617 -0.10641564 -0.2093153 -0.060300037 -0.034949474 -0.0844491 -0.013155846 -0.042936355
-0.124877445 -0.04320459 -0.14207068 -0.13766561 -0.106836386 -0.15834138 -0.046300486 -0.17250758
-0.023473477 -0.06364683 -0.063774176 -0.11961609 -0.1847505 -0.123648115 -0.12793106 -0.16471934
-0.107285246 -0.050521128 -0.034474984 -0.24108401 0.014658802 -0.027933747 -0.15691896 -0.17873362
-0.17278144 -0.15291242 -0.010673611 -0.055716433 -0.040683847 -0.17331676 -0.022853749 -0.15576845
-0.15261105 -0.005136164 -0.14790773 -0.05618756 -0.17078461 -0.10843662 -0.11837044 -0.097519055
-0.17292829 -0.2152146 0.02832998 -0.12941669 -0.12945662 -0.09128891 -0.03785997 -0.18999188
-0.09654855 -0.06542857 -0.010562876 -0.1766238 -0.1037583 -0.033604525 -0.11940336 -0.18496296
-0.16154498 -0.12214821 -0.0715608 -0.13147262 -0.0777727 -0.13019659 -0.18954591 -0.012782008
0.013791852 -0.045205683 -0.05334403 -0.16082332 -0.168831 -0.017764354 -0.05453772 -0.037379052
-0.06682282 -0.1383455 -0.16718031 -0.08219415 -0.17419636 -0.07402156 -0.15494108 -0.17233972
-0.12023446 -0.06560663 -0.052627966 -0.004607295 -0.037831675 -0.03907422 -0.027331417 -0.045371294
-0.16376364 0.018110393 -0.18584804 0.0037402199 -0.09091994 -0.15473492 -0.094621785 -0.10453029
0.003573454 -0.13195497 -0.059421785 -0.19934385 -0.13737628 -0.08934357 -0.18514472 -0.16884494
-0.1146066 -0.14062667 -0.09969969 -0.20824312 -0.09436331 -0.15276146 -0.049394876 -0.13466366
00000000: 8d5b 2d3d 4b14 753d 3d19 b5bd 354a a2bc
00000010: 7b1b ddbd e762 cc3d 3062 38bd fbd7 993d
00000020: 9cdb 9dbd c2d8 b0bb 97f8 cbbc 49a7 babc
00000030: 545d be3c 6dce ebba a3fa f53c ef1e 953d
00000040: b93c 6a3d 0b2a 7ebb e82a 853d aeaa aa3d
00000050: 53da 2cbc e201 4ebc cb03 cfbc 076e 933b
00000060: 4cd9 6d3d df2d a73c 86fe f93c 2e1a 9cbc
00000070: 9786 293b 9281 53bd 2a84 6dba d7ad 7e3d
00000080: 6d88 6b3a b0fc 8f3d 8cd8 cebd 5f68 28bd
00000090: 2a89 163d ae4c 193d 72e7 d6bd 76fd 01bc
000000a0: 674e b53d 33b8 30bd 82e9 d4bd 1516 0fbd
000000b0: 7d0d bc3d 0746 1e3a fe3b 3c3c 8432 65bd
000000c0: c7ea 743d 868e e8bc 743b 9fbd cae6 61bd
000000d0: 11b4 3ebd 44eb 923d 2e0d e23d 723e 833d
000000e0: 4ac8 a73d 28bd 9d3d 817b 20bd 3d94 3f3d
000000f0: 5f53 333b 2e05 fdbb ff4a ac3d 46b8 8c3d
00000100: 2dd5 a4bb 3fd9 8abd a2d8 27bd 31b8 32bd
00000110: f3f5 90bc e573 b33c 10cb 8b3d 0086 ce3d
00000120: b953 243d 36cd 52bc aeef d53c 423b c0bd
00000130: 653c 58bd 9838 d03c d350 3bbc dd6b 15bd
00000140: cc63 03be 4ba0 3d3c abb3 163c d791 8b3d
00000150: 06cf 6fbc 13e9 c5bd 1aa9 31bd a8e0 b23d
00000160: c840 f53c c50e e63c c7e2 5b3c a171 2bbd
00000170: a4a9 2e3d 8430 473d 2e73 e2bd 4d90 5bbc
00000180: fe9c d0bd 642e b3bd d1da 8c3b 0ffa b3bc
00000190: 47f9 71bc 75ab bfbc beef 1a3d 99fb 45bd
000001a0: f6af 033d 15fe ddbb 16f2 eb3c a9b9 86bc
000001b0: 5491 14bd c22a 8f3d 8e91 713c ec85 003d
000001c0: 7eb5 1e3d 6e89 6d3d e981 7dbd e9c2 833d
000001d0: b77d 1dbc 12d8 8bbd 03d3 e53d 6eba 353d
000001e0: d60a 50bd 6a6d e1bd 3787 9fba d324 943d
000001f0: 68ed 2dbd 8792 8cbd 2270 943d 36af 8cbc
00000200: 7c60 cfbd 8799 0fbe 1691 95bc a835 6cbc
00000210: 16c4 2ebe 15b2 3fbd edf0 dcbd 80c2 54bd
00000220: b5c1 e5bb 71f0 d9bd c056 56be 2cfd 76bd
00000230: 2e27 0fbd a6f3 acbd 9e8b 57bc 08de 2fbd
00000240: bfbf ffbd 4cf7 30bd fa7a 11be 37f8 0cbe
00000250: 09cd dabd 3e24 22be 94a5 3dbd d4a5 30be
00000260: 734b c0bc 4559 82bd 099c 82bd 48f9 f4bd
00000270: 3c2f 3dbe 393b fdbd 5c00 03be 30ac 28be
00000280: 5eb8 dbbd 3eef 4ebd a435 0dbd bade 76be
00000290: 792b 703c 50d5 e4bc 5daf 20be f205 37be
000002a0: 9eed 30be 1395 1cbe 5fe0 2ebc ea36 64bd
000002b0: 1ba4 26bd f379 31be c937 bbbc c481 1fbe
000002c0: 1246 1cbe 444d a8bb 2075 17be ed24 66bd
000002d0: 29e2 2ebe 0514 debd 346c f2bd 12b8 c7bd
000002e0: 1d14 31be 3761 5cbe 4614 e83c cf85 04be
000002f0: 4790 04be aef5 babd 0e13 1bbd 3b8d 42be
00000300: 3fbb c5bd 6aff 85bd ea0f 2dbc dfdc 34be
00000310: 3b7f d4bd e6a4 09bd c089 f4bd ee66 3dbe
00000320: 0c6c 25be d728 fabd 788e 92bd c2a0 06be
00000330: 4b47 9fbd 4152 05be 5318 42be a16b 51bc
00000340: 38f7 613c 9829 39bd 457f 5abd deae 24be
00000350: 09e2 2cbe 8d86 91bc f262 5fbd c71a 19bd
00000360: 67da 88bd 71aa 0dbe 5131 2bbe 6855 a8bd
00000370: 8860 32be 9e98 97bd e0a8 1ebe d379 30be
00000380: 7c3d f6bd c55c 86bd 6c90 57bd cbf8 96bb
00000390: 63f5 1abd 4a0c 20bd 23e6 dfbc 40d7 39bd
000003a0: a8b1 27be 3f5c 943c f34e 3ebe 7a1e 753b
000003b0: 3c34 babd d572 1ebe 11c9 c1bd fa13 d6bd
000003c0: 9c30 6a3b 341f 07be 4264 73bd cb20 4cbe
000003d0: 5eac 0cbe c3f9 b6bd 9496 3dbe b0e5 2cbe
000003e0: ddb6 eabd 7000 10be 5a2f ccbd af3d 55be
000003f0: 8d41 c1bd 806d 1cbe 4852 4abd 45e5 09be

weight_ih_l0 f4 [512, 128]
0.017793728 0.07658656 0.048022393 0.046799973 0.13121071 -0.024841027 0.006745934 -0.013045274
0.14780734 0.052809518 -0.09254841 0.090152115 -0.00013820747 0.113171235 -0.052020915 0.006721286
0.11214319 -0.015160736 -0.0043492387 -0.066308804 0.0047963606 0.022415455 -0.0583516 -0.040086523
0.00997455 0.003100037 -0.06078546 -0.031054204 0.100262515 -0.027340462 0.0019292377 -0.14593332
0.026774498 -0.039847992 0.006696211 0.0574405 -0.009777261 0.038255684 -0.049519684 0.06686188
0.07527842 0.016264092 3.4396355e-05 -0.009298148 -0.08888456 0.0067844195 0.042572185 0.130721
0.016711125 -0.009774132 -0.09932777 0.06462516 0.12380872 0.0350354 -0.06718836 -0.06378402
-0.062914774 0.04804303 0.052894037 0.095415674 0.12523584 0.057669032 -0.11857421 -0.111693926
0.09893482 0.02077794 -0.09486811 0.025659524 0.049044453 0.12168057 -0.075226545 0.014721869
0.032170184 -0.008747642 -0.015390213 -0.06844714 0.0019595271 0.076508164 0.07350916 0.061730225
0.04734468 -0.0014864515 -0.10672777 0.0011647366 -0.014862337 -0.018053666 -0.054560676 0.08894716
-0.06225676 0.07040405 0.032637395 0.0036946796 0.046839364 -0.042411104 -0.024139145 0.08740965
0.010076975 0.089968 -0.075457476 -0.038986214 -0.09354165 -0.070331626 0.094782904 -0.10027201
-0.022039596 -0.0042676693 0.072428994 0.06567711 -0.051634338 0.05153165 0.004849762 -0.036313612
-0.047405813 0.04587721 -0.077574186 0.06085302 0.06346864 -0.12352756 -0.1058926 -0.0134113785
0.029794337 0.084530525 -0.060730375 -0.111485034 -0.077263236 -0.0019463897 -0.065270506 -0.06428325
-0.064913064 0.07360756 0.04071786 -0.05455384 0.12643011 0.09341363 -0.04183321 0.03582298
-0.067762405 0.0017874185 -0.053173326 0.06707834 0.054757137 -0.13101773 0.03382212 0.05368381
-0.103467785 0.05369933 0.0038064867 -0.09080613 0.113022275 0.057909984 0.027938556 0.03678074
-0.08546057 -0.0923985 0.014517273 0.020563245 -0.064917676 -0.09653242 -0.0101919975 0.051795054
0.0054016123 0.07090772 -0.0067093745 -0.07152627 0.060534842 -0.030162686 -0.003541312 -0.03990848
-0.021761378 -0.04850138 0.0015150105 -0.06605543 -0.01011218 0.0052530416 -0.07387476 -0.049929418
-0.1372617 0.027557036 0.13181531 -0.073626846 -0.011065307 -0.09614047 0.0540754 0.037988048
0.04683173 0.039190028 0.06809936 0.044983573 -0.08068285 0.034645166 -0.023569636 -0.05588499
-0.08742334 -0.06413174 -0.013193639 0.049026433 0.06757583 0.023464663 0.05280239 -0.10681877
-0.020790676 -0.039208464 -0.118646964 -0.050481826 0.06702858 -0.010562454 0.044054944 -0.050848864
0.029334875 -0.035358213 0.047561187 0.1262875 -0.1477555 -0.0049435934 0.026343761 0.021756265
0.02354532 -0.072686814 0.038375728 0.012735561 -0.031115394 0.04845804 -0.012183817 0.07462926
0.096547425 -0.08295702 0.03172626 0.084818125 0.03605968 0.031689797 -0.033093642 -0.025413515
0.01992363 -0.06921944 0.0030298864 -0.032735314 -0.047104098 -0.060047023 0.06815727 -0.014555314
0.056730036 -0.07597478 0.006170918 -0.0042430526 -0.017793516 -0.03578155 0.013417085 0.06440905
0.045082092 0.027839879 -0.09496555 0.074763626 -0.04588814 0.060647912 -0.051609024 0.007651404
00000000: 27c4 913c 6ad9 9c3d 21b3 443d 54b1 3f3d
00000010: 1a5c 063e 697f cbbc ff0c dd3b d8bb 55bc
00000020: cf5a 173e cb4e 583d 058a bdbd aca1 b83d
00000030: c9eb 10b9 52c6 e73d e213 55bd 3c3e dc3b
00000040: 54ab e53d bc64 78bc 0f84 8ebb e9cc 87bd
00000050: ca2a 9d3b 9ea0 b73c 1602 6fbd c431 24bd
00000060: 4c6c 233c fe29 4b3b 2dfa 78bd 6365 febc
00000070: 6f56 cd3d 1bf9 dfbc 7ade fc3a 8b6f 15be
00000080: 3156 db3c a637 23bd e46b db3b bb46 6b3d
00000090: ce30 20bc feb1 1c3d 27d5 4abd e2ee 883d
000000a0: 922b 9a3d 463c 853c ce44 1038 4257 18bc
000000b0: 1c09 b6bd d64f de3b 2c60 2e3d badb 053e
000000c0: c5e5 883c ae23 20bc 5c6c cbbd 325a 843d
000000d0: 6d8f fd3d 4881 0f3d 0d9a 89bd 32a1 82bd
000000e0: 76d9 80bd c5c8 443d 6ba7 583d 4b69 c33d
000000f0: d33d 003e 5d36 6c3d 09d7 f2bd c9bf e4bd
00000100: 579e ca3d 8036 aa3c 364a c2bd ec33 d23c
00000110: d6e2 483d aa33 f93d 6010 9abd fe33 713c
00000120: e2c4 033d 4552 0fbc 3b27 7cbc 042e 8cbd
00000130: 696b 003b 50b0 9c3d f88b 963d d5d8 7c3d
00000140: 7fec 413d 09d5 c2ba 1794 dabd 13aa 983a
00000150: 2981 73bc 48e5 93bc 047b 5fbd ee29 b63d
00000160: f200 7fbd 0030 903d caae 053d 7022 723b
00000170: a2da 3f3d 44b7 2dbd 75bf c5bc d503 b33d
00000180: e619 253c 2541 b83d 7389 9abd 02b0 1fbd
00000190: c492 bfbd 070a 90bd 8a1d c23d 695b cdbd
000001a0: 628c b4bc ced7 8bbb a755 943d b881 863d
000001b0: 877e 53bd da12 533d c1ea 9e3b 95bd 14bd
000001c0: 992c 42bd bee9 3b3d 37df 9ebd 0441 793d
000001d0: d9fb 813d 04fc fcbd 38de d8bd 66bb 5bbc
000001e0: 4113 f43c 571e ad3d 6ac0 78bd 4452 e4bd
000001f0: 303c 9ebd 001e ffba 8bac 85bd f0a6 83bd
00000200: 24f1 84bd 8fbf 963d c5c7 263d d973 5fbd
00000210: e576 013e a54f bf3d 4d59 2bbd 1ebb 123d
00000220: 04c7 8abd d047 ea3a 46cc 59bd 5e60 893d
00000230: 0549 603d 8329 06be 1089 0a3d 8ee3 5b3d
00000240: ebe6 d3bd d4f3 5b3d 4076 793b 90f8 b9bd
00000250: 3978 e73d 0533 6d3d 66df e43c 67a7 163d
00000260: f405 afbd 6d3b bdbd dbd9 6d3c 4074 a83c
00000270: 8ff3 84bd cab2 c5bd 56fc 26bc 0d27 543d
00000280: 0200 b13b 1138 913d 50da dbbb 5d7c 92bd
00000290: 62f3 773d bd17 f7bc 5b15 68bb 1377 23bd
000002a0: eb44 b2bc 62a9 46bd 5193 c63a 1248 87bd
000002b0: 8fad 25bc b521 ac3b a64b 97bd ca82 4cbd
000002c0: 558e 0cbe 4bbf e13c 98fa 063e acc9 96bd
000002d0: 434b 35bc 4be5 c4bd 2b7e 5d3d 5b99 1b3d
000002e0: a1d2 3f3d b985 203d ad77 8b3d b240 383d
000002f0: 0d3d a5bd 17e8 0d3d 1c15 c1bc a9e7 64bd
00000300: 020b b3bd 8057 83bd 222a 58bc f1cf 483d
00000310: 3265 8a3d f738 c03c 5247 583d cdc3 dabd
00000320: 3551 aabc 0e99 20bd 2efd f2bd 08c6 4ebd
00000330: 4846 893d 250e 2dbc f572 343d e646 50bd
00000340: b14f f03c c6d3 10bd 85cf 423d 8351 013e
00000350: 384d 17be defd a1bb dfce d73c 323a b23c
00000360: 1de2 c03c d3dc 94bd de2f 1d3d d0a8 503c
00000370: b6e5 febc f07b 463d a29e 47bc 3ad7 983d
00000380: a8ba c53d 5fe5 a9bd 65f3 013d 20b5 ad3d
00000390: 51b3 133d 29cd 013d 338d 07bd 0130 d0bc
000003a0: e136 a33c ecc2 8dbd 0f91 463b 7715 06bd
000003b0: 3af0 40bd def3 75bd 0a96 8b3d 6979 6ebc
000003c0: c15d 683d aa98 9bbd 6935 ca3b 4e09 8bbb
000003d0: b5c3 91bc ad8f 12bd 55d3 5b3c e4e8 833d
000003e0: 00a8 383d 7510 e43c 4c7d c2bd ac1d 993d
000003f0: 34f5 3bbd f269 783d fc63 53bd a1b8 fa3b

weight_hh_l0 f4 [512, 128]
-0.03685139 -0.045156576 0.024946803 0.060504775 -0.008676189 0.09241449 -0.085521206 -0.027448384
0.04491198 -0.040761728 -0.05417237 0.06689561 0.006226909 -0.08361002 -0.0027047226 0.005842759
-0.021082632 -0.021267885 0.05305704 -0.007765758 0.076572604 0.01248397 0.0133639565 0.013767759
0.08722117 -0.03498776 0.08226275 0.094848946 -0.08194015 0.0018452844 0.11833286 -0.0067262547
-0.040593315 -0.016002107 -0.02459338 0.017137228 -0.017887553 -0.022071509 0.014721699 -0.051052097
0.064687386 0.038147364 0.007666886 -0.07016116 -0.024638757 0.10933272 -0.043468546 -0.010187843
0.053482678 -0.022236122 0.02360093 -0.025869345 -0.045390103 0.027662141 0.112570725 0.030391255
-0.0867649 0.12248787 0.0064662406 -0.109786585 -0.05807653 -0.039756097 -0.03124141 -0.015070056
-0.051061213 0.060698137 0.05388155 -0.030230382 0.06757734 0.044025656 0.0010898677 0.049005155
-0.053858567 0.035899084 -0.020761808 -0.07020039 0.00740854 -0.0067908773 -0.053284023 0.019237379
-0.030772043 -0.069320545 0.0103908265 0.015430439 -0.05431881 0.041180167 0.05281393 -0.070151135
0.018384576 -0.050903566 0.003442067 0.060945153 -0.012857087 0.07011088 -0.044479623 -0.08349335
0.010578235 0.074766174 -0.111650474 0.0051297816 0.024275396 0.11009039 -0.019701507 -0.07324222
-0.066948704 0.03082563 0.020557165 0.10221841 0.034266803 0.05533891 -0.01570026 0.05240512
-0.018467892 0.09476674 0.026116045 0.014799618 -0.028301824 -0.030641263 0.040348817 0.025250483
-0.075015806 -0.029711522 0.053053774 0.11447303 0.01118046 -0.008688859 -0.039945193 0.043999128
0.04116803 0.050026458 -0.051205136 0.034516864 0.09675949 -0.10538613 0.025391396 -0.061412472
0.032468125 0.040516138 0.00041481512 -0.057050716 -0.05165971 0.024061842 0.039042138 -0.06842847
-0.09025573 0.007664506 0.040331595 -0.05088128 -0.020592336 -0.07481757 -0.0071872766 0.055856436
-0.10090357 -0.057726998 0.024384102 0.030590335 0.018975163 0.02654913 -0.0736446 -0.059588745
0.008243733 0.0018817657 -0.040146846 -0.082803965 0.05870174 -0.073444806 0.016671546 0.06249374
-0.026466733 0.012173415 0.062093418 -0.055705756 0.018009702 0.02774899 0.062168393 0.003994716
0.05874816 -0.12048493 0.023645192 0.07618947 -0.043196153 -0.046324115 -0.004313377 0.023193229
0.025635662 0.073767364 0.029147167 -0.025208114 0.05243176 0.0913662 0.004111138 -0.1148069
0.0002850796 0.056310333 -0.05695494 -0.0505646 -0.022521354 -0.062178075 -0.08491355 -0.08097174
0.052876323 -0.09190968 0.052238956 0.062110707 -0.048331555 -0.04103396 -0.04516847 -0.030707344
-0.08324564 0.006675983 0.019793572 0.048522305 0.011401922 0.019342624 -0.08624644 0.039782617
0.013467054 0.09069065 -0.007326804 -0.008606359 0.030090868 -0.0243116 -0.002751566 -0.0048120143
-0.012484896 0.021090044 -0.060120165 -0.08121351 -0.06377088 -0.06118529 -0.018670391 -0.059794188
0.0849187 0.014202863 -0.0017334048 0.039670315 0.040931623 0.08424888 0.08233472 -0.113727115
0.07852958 -0.093246974 0.041742645 -0.011815541 -0.084384695 -0.050838694 -0.003294313 -0.01800091
0.05656228 0.06074655 -0.0044837347 0.014562743 0.03116585 0.07402818 -0.0009736529 -0.05882055
00000000: 7cf1 16bd 1af6 38bd 3d5d cc3c dbd3 773d
00000010: 9326 0ebc cf43 bd3d be25 afbd 6fdb e0bc
00000020: a0f5 373d c5f5 26bd d9e3 5dbd 9100 893d
00000030: 190b cc3b bb3b abbd b741 31bb 9d74 bf3b
00000040: 7cb5 acbc fd39 aebc 5752 593d e677 febb
00000050: 19d2 9c3d 9189 4c3c 7ff4 5a3c 2b92 613c
00000060: 03a1 b23d 534f 0fbd 5f79 a83d 2a40 c23d
00000070: 3dd0 a7bd 78dd f13a 8058 f23d ea67 dcbb
00000080: 2d45 26bd da16 83bc 0e78 c9bc 5f63 8c3c
00000090: eb88 92bc 4fcf b4bc 4833 713c 011c 51bd
000000a0: d27a 843d 6940 1c3d 803a fb3b a7b0 8fbd
000000b0: 38d7 c9bc d5e9 df3d 130c 32bd e9ea 26bc
000000c0: a710 5b3d 8728 b6bc bd56 c13c f3eb d3bc
000000d0: f9ea 39bd b79b e23c 7b8b e63d 15f7 f83c
000000e0: ccb1 b1bd ecda fa3d c2e2 d33b cad7 e0bd
000000f0: a8e1 6dbd 4ad7 22bd fced ffbc 65e8 76bc
00000100: 9025 51bd 9c9e 783d e6b2 5c3d b5a5 f7bc
00000110: fd65 8a3d 3f54 343d e4d9 8e3a a1b9 483d
00000120: cd9a 5cbd eb0a 133d ab14 aabc 39c5 8fbd
00000130: 57c3 f23b 0286 debb 5940 5abd b597 9d3c
00000140: a715 fcbc eef7 8dbd 493e 2a3c f4cf 7c3c
00000150: 677d 5ebd 89ac 283d 6b53 583d 66ab 8fbd
00000160: 409b 963c 4280 50bd 4d94 613b a0a1 793d
00000170: 88a6 52bc 4b96 8f3d 4430 36bd 90fe aabd
00000180: 5550 2d3c 021f 993d 01a9 e4bd ba17 a83b
00000190: 32dd c63c 1277 e13d 0e65 a1bc 0400 96bd
000001a0: 671c 89bd 0886 fc3c 8067 a83c e357 d13d
000001b0: 595b 0c3d 0eab 623d d59d 80bc c0a6 563d
000001c0: fa49 97bc 1115 c23d 51f1 d53c 197a 723c
000001d0: 3ad9 e7bc 6303 fbbc cd44 253d 1ada ce3c
000001e0: e3a1 99bd 9465 f3bc ea4e 593d d670 ea3d
000001f0: 402e 373c b75b 0ebc 929d 23bd 6e38 343d
00000200: cf9f 283d 8be8 4c3d 7abc 51bd 8e61 0d3d
00000210: d729 c63d afd4 d7bd 9e01 d03c a58b 7bbd
00000220: 4cfd 043d 40f4 253d 8b7b d939 03ae 69bd
00000230: 2299 53bd 571d c53c a6ea 1f3d 3a24 8cbd
00000240: ffd7 b8bd 8926 fb3b be32 253d e468 50bd
00000250: 42b1 a8bc f439 99bd 3f83 ebbb b8c9 643d
00000260: 88a6 cebd 2573 6cbd 2bc1 c73c 9598 fa3c
00000270: cd71 9b3c 907d d93c fbd2 96bd 5413 74bd
00000280: b910 073c 94a5 f63a 0571 24bd 2095 a9bd
00000290: 3c71 703d 3b6a 96bd c492 883c 70f9 7f3d
000002a0: c3d0 d8bc 0173 473c ab55 7e3d b82b 64bd
000002b0: 1589 933c da51 e33c 49a4 7e3d 1be6 823b
000002c0: e9a1 703d cec0 f6bd 90b3 c13c 3a09 9c3d
000002d0: 73ee 30bd 5bbe 3dbd 3b57 8dbb baff bd3c
000002e0: e101 d23c 5813 973d 0ac6 ee3c 3f81 cebc
000002f0: afc2 563d 341e bb3d bab6 863b e11f ebbd
00000300: bc76 9539 aaa5 663d 9549 69bd d31c 4fbd
00000310: b47e b8bc 70ae 7ebd 28e7 adbd 83d4 a5bd
00000320: d894 583d 243b bcbd 84f8 553d cc67 7e3d
00000330: 4ff7 45bd 3a13 28bd 9302 39bd f88d fbbc
00000340: b17c aabd 34c2 da3b 2126 a23c 53bf 463d
00000350: 21cf 3a3c 6c74 9e3c f9a1 b0bd 19f3 223d
00000360: eba4 5c3c 05bc b93d b015 f0bb b001 0dbc
00000370: 2081 f63c 1f29 c7bc 9e53 34bb 1aae 9dbb
00000380: 738d 4cbc 07c5 ac3c 9040 76bd 4553 a6bd
00000390: 4f9a 82bd 6d9d 7abd a6f2 98bc c0ea 74bd
000003a0: dbe9 ad3d 20b3 683c 6a33 e3ba 577d 223d
000003b0: eba7 273d ad8a ac3d 1b9f a83d c3e9 e8bd
000003c0: 1ed4 a03d 45f8 bebd 56fa 2a3d f995 41bc
000003d0: e2d1 acbd 3c3c 50bd 67e5 57bb a576 93bc
000003e0: d9ad 673d 60d1 783d 4bec 92bb 9298 6e3c
000003f0: 864f ff3c 169c 973d bd3c 7fba d1ed 70bd

bias_ih_l0 f4 [512]
0.0980901 0.029110242 0.086776294 -0.040514518 0.021253258 -0.07772999 -0.09146871 0.092531405
0.098316535 0.014130576 0.007836946 0.028056132 -0.05428744 0.022713393 -0.026379328 -0.059487797
-0.09457416 -0.04024369 -0.09249112 -0.0835087 -0.039814804 -0.12850448 -0.0063381023 -0.04715704
-0.09877397 -0.046907436 0.092804395 -0.007358825 0.09880923 0.04814778 -0.08538403 -0.07226076
0.1001377 -0.03463995 -0.08803734 -0.06863307 0.011351334 -0.083605476 0.04869567 -0.0035974686
0.0448758 -0.104938276 0.058146253 -0.080936484 -0.08351836 -0.08344913 0.06607786 -0.054193404
-0.04520465 -0.015705332 -0.026544062 0.008725195 -0.04191736 -0.06467609 -0.05997963 0.019871183
0.028796619 0.072195485 0.06060877 -0.016135547 0.026842872 -0.039308697 -0.0745624 -0.013776521
0.047757708 -0.10613925 -0.045960613 -0.012248171 -0.08065281 0.029938938 0.061565656 -0.027450394
-0.06519101 -0.05796766 -0.07146838 -0.016123898 -0.10145874 -0.032530043 -0.09835266 -0.01987016
0.061464854 0.03840909 0.005704458 -0.0887324 -0.040050127 -0.09480713 0.07598642 0.020865645
0.049510267 -0.05925301 0.028026536 -0.06687013 -0.074639924 -0.021915145 -0.0009273055 -0.08546083
-0.06728688 0.0630269 0.040319227 0.08929389 0.045293346 0.09457716 -0.08990834 0.049844723
0.13544108 0.028756255 -0.10416921 0.042493273 0.0023084292 -0.1055601 0.035449132 0.089004606
0.024346406 0.01670054 0.035416514 -0.06042606 -0.07079698 0.07498232 0.08354507 -0.021105926
-0.03413277 -0.0116262715 0.036448445 -0.06378605 -0.10656806 -0.018704068 -0.028464943 -0.12106242
-0.205293 -0.07524509 -0.08387561 -0.15166384 -0.09949631 -0.14306436 -0.15112892 -0.16270478
-0.15826648 -0.23012911 -0.059310593 -0.12757455 -0.15490875 -0.19328116 -0.117182925 -0.1584061
-0.064654894 -0.12188466 -0.112296686 -0.17434965 -0.077775605 -0.08013823 -0.2003724 -0.14365464
-0.053399168 -0.16327511 -0.20124725 -0.1452682 -0.126744 -0.16946705 -0.05017798 -0.10368926
-0.028577035 -0.22118835 -0.062149536 -0.09978204 -0.1459806 -0.16666603 -0.18792754 -0.21693975
-0.23987208 -0.09474183 -0.10283763 -0.051372897 -0.092752255 -0.12562512 -0.17192897 -0.1407034
-0.0709547 -0.05054675 -0.11958709 -0.05308845 -0.2104991 -0.11377137 -0.060473997 -0.14785945
-0.17564097 -0.13122873 -0.07944888 -0.040995885 -0.1508859 -0.17323029 -0.014888552 -0.13634375
-0.19239768 -0.055302337 -0.14597371 -0.16511744 -0.08320813 -0.10584304 -0.092298344 -0.112611875
-0.14065325 -0.1139065 -0.15699728 -0.18590237 -0.105105296 -0.0721011 -0.16247304 -0.17762874
-0.067857675 -0.22538853 -0.019875236 -0.111061744 -0.038885314 -0.18554346 -0.08042516 -0.18277642
-0.15902849 -0.22863123 -0.013951092 -0.059067916 -0.08047364 -0.11881961 -0.18685801 -0.14303811
-0.21515803 -0.04608975 -0.1138155 -0.037459522 -0.20800243 -0.1064997 -0.17977197 -0.14497648
-0.17152327 -0.04787641 -0.14680277 -0.170516 -0.15469697 -0.16835165 -0.0716833 -0.18715487
-0.055305548 -0.06179942 -0.18706626 -0.058215618 -0.10266906 -0.20583732 -0.039794628 -0.006133959
-0.119897544 -0.14623833 -0.11960415 -0.08188529 -0.11759776 -0.22461207 -0.09914698 -0.007562638
00000000: 76e3 c83d 9a78 ee3c c5b7 b13d 8df2 25bd
00000010: 501b ae3c e730 9fbd f253 bbbd 1b81 bd3d
00000020: 2e5a c93d ee83 673c 8966 003c f9d5 e53c
00000030: 825c 5ebd 7011 ba3c 7619 d8bc 7aa9 73bd
00000040: 19b0 c1bd 91d6 24bd fc6b bdbd 9c06 abbd
00000050: d914 23bd ae96 03be dbaf cfbb be27 41bd
00000060: 024a cabd 0322 40bd 3b10 be3d 4c22 f1bb
00000070: 7e5c ca3d 9b36 453d d3dd aebd 73fd 93bd
00000080: ff14 cd3d 9fe2 0dbd ec4c b4bd 7f8f 8cbd
00000090: f2fa 393c 5939 abbd 1c75 473d 82c3 6bbb
000000a0: b0cf 373d e1e9 d6bd c42a 6e3d 07c2 a5bd
000000b0: ad0b abbd 61e7 aabd d453 873d e7f9 5dbd
000000c0: 8328 39bd 78a8 80bc ef72 d9bc 1ff4 0e3c
000000d0: 8ab1 2bbd e674 84bd 33ad 75bd e4c8 a23c
000000e0: e3e6 eb3c 3adb 933d e740 783d b22e 84bc
000000f0: 95e5 db3c 2802 21bd 2cb4 98bd ebb6 61bc
00000100: 969d 433d 895f d9bd 3241 3cbd 8dac 48bc
00000110: 4d2d a5bd 8142 f53c 452c 7c3d a6df e0bc
00000120: dd82 85bd 7f6f 6dbd 045e 92bd 4416 84bc
00000130: 9ac9 cfbd 393e 05bd 1f6d c9bd bfc6 a2bc
00000140: 92c2 7b3d da52 1d3d 76ec ba3b 55b9 b5bd
00000150: 9a0b 24bd 3e2a c2bd c59e 9b3d 6eee aa3c
00000160: 47cb 4a3d 49b3 72bd e897 e53c 35f3 88bd
00000170: d1dc 98bd 6487 b3bc 6b16 73ba 1606 afbd
00000180: b4cd 89bd 3f14 813d c625 253d b7df b63d
00000190: 8485 393d acb1 c13d dd21 b8bd fb29 4c3d
000001a0: 11b1 0a3e 3d92 eb3c ab56 d5bd 6d0d 2e3d
000001b0: 0449 173b e52f d8bd 1c33 113d 0c48 b63d
000001c0: 1d72 c73c 92cf 883c e810 113d 5181 77bd
000001d0: 02fe 90bd 5590 993d ad19 ab3d 56e6 acbc
000001e0: cece 0bbd 1e7c 3ebc f74a 153d 43a2 82bd
000001f0: 5b40 dabd 4639 99bc 502f e9bc 93ef f7bd
00000200: 5438 52be 191a 9abd fac6 abbd c44d 1bbe
00000210: b9c4 cbbd 777f 12be 8ac1 1abe 159c 26be
00000220: 9c10 22be f7a6 6bbe aaef 72bd e7a2 02be
00000230: 66a0 1ebe 7feb 45be 9afd efbd 3535 22be
00000240: c969 84bd aa9e f9bd cefb e5bd b788 32be
00000250: d148 9fbd 831f a4bd 6c2e 4dbe 341a 13be
00000260: 16b9 5abd 9731 27be c213 4ebe 30c1 14be
00000270: 2ec9 01be c588 2dbe 6d87 4dbd 095b d4bd
00000280: 631a eabc 337f 62be 8390 7ebd 875a ccbd
00000290: f07b 15be 80aa 2abe 1470 40be 7425 5ebe
000002a0: 07a1 75be 0108 c2bd 899c d2bd 636c 52bd
000002b0: e5f4 bdbd dfa3 00be 260e 30be 8d14 10be
000002c0: b350 91bd 1c0a 4fbd 14ea f4bd 4673 59bd
000002d0: 138d 57be f700 e9bd 95b3 77bd 7868 17be
000002e0: 3adb 33be d360 06be 18b6 a2bd 4deb 27bd
000002f0: d581 1abe 4863 31be 1def 73bc b29d 0bbe
00000300: e603 45be b484 62bd 227a 15be 8c14 29be
00000310: 0669 aabd 3cc4 d8bd ea06 bdbd 0ea1 e6bd
00000320: 6807 10be d047 e9bd e5c3 20be 315d 3ebe
00000330: 7241 d7bd bea9 93bd 555f 26be 4fe4 35be
00000340: f7f8 8abd 40cc 66be 64d1 a2bc 5774 e3bd
00000350: 3546 1fbd 1bff 3dbe f2b5 a4bd be29 3bbe
00000360: 5dd8 22be 4e1e 6abe 1f93 64bc 33f1 71bd
00000370: 5dcf a4bd b257 f3bd b557 3fbe 9578 12be
00000380: 6352 5cbe 9bc8 3cbd 1a18 e9bd 286f 19bd
00000390: 97fe 54be 841c dabd 2516 38be b774 14be
000003a0: cca3 2fbe 0e1a 44bd 7753 16be bf9b 2ebe
000003b0: e268 1ebe 6064 2cbe b2ce 92bd 87a5 3fbe
000003c0: 1288 62bd 6321 7dbd 4c8e 3fbe 8073 6ebd
000003d0: 2844 d2bd 05c7 52be b1ff 22bd 61ff c8bb
000003e0: d88c f5bd 80bf 15be 05f3 f4bd 7ab3 a7bd
000003f0: 18d7 f0bd b500 66be 920d cbbd 01d0 f7bb
