trained_models/ppo/me5418-Cassie-v0/0524-08-37-23-s37/critic.pth (torch, 96254 bytes, 5 tensors)

weight f4 [128, 50]
0.01764517 0.3276537 0.13716918 0.4930543 -0.17884198 -0.29637185 -0.086284876 -0.21135917
0.09400324 -0.030039318 0.12280995 0.07613219 0.15448688 0.32716748 -0.0679943 -0.02558867
0.0006840073 0.0013093837 0.075624295 0.025267916 0.036671977 0.015367789 0.024425052 -0.01883939
-0.014922534 0.015337134 0.045423843 0.010090233 0.03347391 0.031581704 -0.023531184 0.0057402127
0.0010624472 -0.00086442515 0.13441245 -0.058308873 -0.050621897 0.124698445 -0.26283655 -0.1709152
-0.020158835 -0.018947504 -0.0043621813 0.013637438 0.0047478955 0.0114167 0.0807759 -0.14364673
-0.015213717 -0.04718859 0.02285914 0.08354689 -0.10305887 -0.045210514 -0.21549234 -0.29946554
-0.021095965 0.08998575 0.04165389 -0.13093993 -0.062132783 0.042086698 0.024576956 -0.1242309
-0.017760545 -0.12997381 0.12510079 0.09012549 -0.12930097 -0.12538394 -0.014752396 0.016986601
-0.023311326 0.024385884 -0.07506836 0.053658057 -0.042520277 -0.057481617 0.17151524 0.15054128
-0.016119912 0.041231953 0.025655387 -0.00051817944 -0.15450042 -0.1662344 -0.11636305 0.17638211
0.04016723 -0.09598175 0.03831055 -0.045229312 -0.024258079 0.095214225 -0.052588563 0.10372069
0.027972091 -0.032774024 -0.22284904 -0.059739362 0.023603212 -0.029585222 0.14400376 0.0022009055
-0.048915442 -0.019142041 0.09800054 -0.14627133 0.10876974 0.105883256 -0.23717646 0.093274444
0.23732065 -0.052669104 0.11621261 0.1255123 -0.14738348 0.17195809 0.04238453 -0.026035236
-0.0067199734 -0.022122819 -0.11835615 0.07087168 0.079249345 -0.102532946 -0.10927407 -0.03727234
-0.059610367 0.044508267 -0.034478996 0.009575943 0.09113533 0.047342725 -0.025527198 0.12231796
0.10790246 0.077454716 0.13737924 -0.08814918 -0.0062002256 0.033521697 -0.017079161 -0.006779956
0.11699543 -0.06926836 -0.12545095 0.059897706 -0.09714095 -0.007973839 -0.022894507 0.14772514
-0.10218203 -0.02075113 -0.25321612 0.030377664 -0.20778781 -0.111018 -0.06338959 -0.21152885
0.0740053 0.0822726 -0.0003849908 -0.004673083 -0.09864917 -0.06264054 0.16590299 0.13113812
-0.004386669 -0.17086855 -0.03213313 -0.03927866 -0.0032358489 -0.036094017 0.021855839 -0.013146595
0.02393046 -0.07954289 -0.08800258 0.14133577 -0.012143177 -0.26218086 0.2643012 -0.045058914
0.18423466 0.07949707 -0.12133689 0.09483744 0.02880548 -0.04254559 0.010062912 0.0056510638
0.017037502 0.14055108 0.051179435 0.06016353 -0.037533145 -0.05806859 0.021967966 -0.01062283
-0.051374014 0.19128212 0.18067345 0.31800395 -0.09975897 -0.06848192 -0.1539847 -0.044792976
-0.0055389027 -0.15138195 -0.02673771 -0.154365 0.1447416 0.07307019 -0.016988682 0.24025139
-0.073664375 0.107967004 -0.048723698 0.0151803605 0.028022373 0.10976621 0.14591849 0.06262079
-0.05124924 0.084907606 0.06205906 -0.006792489 0.026045084 0.09468439 -0.03690987 0.09632016
0.04320518 -0.13397175 -0.06319546 -0.0061782673 -0.07424992 0.035723776 0.24180788 -0.17470872
-0.1146133 -0.050563287 0.011771969 -0.14518571 0.10056734 -0.10967414 -0.052387673 -0.10108928
-0.061227337 0.10311649 0.031654276 0.49228802 0.33749005 0.26290795 -0.13019346 -0.14491516
00000000: 9b8c 903c 3ac2 a73e 1476 0c3e 9d71 fc3e
00000010: 5a22 37be 0dbe 97be 20b6 b0bd 8a6e 58be
00000020: c584 c03d 0415 f6bc c883 fb3d 32eb 9b3d
00000030: cf31 1e3e 7f82 a73e 9840 8bbd 559f d1bc
00000040: f44e 333a a09f ab3a e9e0 9a3d a9fe ce3c
00000050: 5b35 163d 2ec9 7b3c 0c17 c83c 1055 9abc
00000060: a57d 74bc 9a48 7b3c 5a0e 3a3d 8151 253c
00000070: f01b 093d d15b 013d 78c4 c0bc 6518 bc3b
00000080: d041 8b3a 979a 62ba 6ba3 093e 49d5 6ebd
00000090: e858 4fbd e661 ff3d 8392 86be 6504 2fbe
000000a0: 2424 a5bc cc37 9bbc a1f0 8ebb 906f 5f3c
000000b0: 3c94 9b3b 1c0d 3b3c d66d a53d 2118 13be
000000c0: f442 79bc d348 41bd 1743 bb3c a21a ab3d
000000d0: 8710 d3bd a92e 39bd 06aa 5cbe 8c53 99be
000000e0: 72d1 acbc 734a b83d 459d 2a3d 1e15 06be
000000f0: f27e 7ebd 1a63 2c3d 9d55 c93c c56c febd
00000100: 907e 91bc db17 05be 6c1a 003e b793 b83d
00000110: 7967 04be a664 00be 09b4 71bc 7c27 8b3c
00000120: 65f7 bebc e8c4 c73c 71bd 99bd 8dc8 5b3d
00000130: be29 2ebd d871 6bbd b1a1 2f3e 7e27 1a3e
00000140: e80d 84bc d6e2 283d 3f2b d23c 6fd6 07ba
00000150: 5c35 1ebe 5a39 2abe c04f eebd 839d 343e
00000160: 6586 243d 1492 c4bd 86eb 1c3d 5f42 39bd
00000170: e1b8 c6bc adff c23d 1b67 57bd 836b d43d
00000180: ba25 e53c 0e3e 06bd 8a32 64be 43b1 74bd
00000190: 865b c13c b55c f2bc b975 133e 113d 103b
000001a0: 8f5b 48bd c5cf 9cbc 82b4 c83d 27c8 15be
000001b0: abc2 de3d 52d9 d83d 63de 72be ac06 bf3d
000001c0: 2f04 733e 8fbb 57bd e000 ee3d 4c86 003e
000001d0: b2eb 16be c815 303e 679b 2d3d d947 d5bc
000001e0: 3933 dcbb ea3a b5bc b664 f2bd 2c25 913d
000001f0: 7b4d a23d cbfc d1bd 15cb dfbd e2aa 18bd
00000200: 002a 74bd 4d4e 363d d939 0dbd 6be4 1c3c
00000210: 29a5 ba3d 72ea 413d 6a1e d1bc d781 fa3d
00000220: f7fb dc3d 94a0 9e3d 25ad 0c3e 8f87 b4bd
00000230: 432b cbbb 0c4e 093d 99e9 8bbc 652a debb
00000240: 4d9b ef3d 92dc 8dbd 3776 00be 4c57 753d
00000250: d6f1 c6bd b4a4 02bc 438d bbbc 4245 173e
00000260: d044 d1bd 46fe a9bc 8ba5 81be 94da f83c
00000270: 54c6 54be 685d e3bd 67d2 81bd 059b 58be
00000280: 1790 973d 897e a83d 97d8 c9b9 a920 99bb
00000290: 9308 cabd af49 80bd 79e2 293e 1249 063e
000002a0: 0cbe 8fbb 2af8 2ebe 079e 03bd a9e2 20bd
000002b0: 8910 54bb 52d7 13bd 040b b33c d164 57bc
000002c0: d009 c43c 62e7 a2bd b23a b4bd 53ba 103e
000002d0: 2df4 46bc 923c 86be 7d52 873e b28f 38bd
000002e0: 03a8 3c3e 5ccf a23d 7a7f f8bd 223a c23d
000002f0: 78f9 eb3c 4944 2ebd e9de 243c 8f2c b93b
00000300: 3b92 8b3c 9fec 0f3e 87a1 513d 096e 763d
00000310: 5bbc 19bd 54d9 6dbd 2af6 b33c 610b 2ebc
00000320: 8f6d 52bd 76df 433e 7602 393e 6ad1 a23e
00000330: 6e4e ccbd 4040 8cbd 2aae 1dbe d778 37bd
00000340: af7f b5bb df03 1bbe 0b09 dbbc dc11 1ebe
00000350: 2437 143e d3a5 953d d92b 8bbc 7604 763e
00000360: 59dd 96bd ce1d dd3d 8092 47bd 0cb7 783c
00000370: 2d8f e53c 1bcd e03d a86b 153e 543f 803d
00000380: b9ea 51bd 0ae4 ad3d a431 7e3d 8793 debb
00000390: 805c d53c e4e9 c13d ce2e 17bd 8143 c53d
000003a0: eaf7 303d e42f 09be 9f6c 81bd 1073 cabb
000003b0: 5810 98bd 1853 123d 7c9c 773e d8e6 32be
000003c0: 61ba eabd 731b 4fbd 37df 403c 90ab 14be
000003d0: 40f6 cd3d d69c e0bd 7594 56bd e507 cfbd
000003e0: 84c9 7abd bd2e d33d eaa7 013d 2d0d fc3e
000003f0: 7fcb ac3e df9b 863e 6f51 05be a464 14be

bias f4 [128]
0.051229734 -0.06635404 0.0726086 -0.20402496 -0.022074088 0.05541243 -0.11298454 0.07059508
-0.30896342 0.034517918 -0.16592164 0.14364295 0.024027733 -0.043648075 0.04443542 -0.0050319456
-0.08961499 0.06700801 -0.11875688 -0.1300138 0.09398716 0.097050615 0.015165594 0.05337875
-0.15366466 0.004538933 -0.016589856 0.117189564 -0.017818972 -0.10525507 0.031920176 -0.089452855
-0.016285367 0.0059166723 0.06516948 -0.038914524 0.0029371534 -0.014287118 0.1394776 0.058586095
0.2568438 -0.0885784 0.029894067 0.04140501 0.03075085 -0.03690153 0.012343421 0.086506285
0.20833027 -0.009426752 0.045925114 0.13694403 0.072220206 -0.115604304 0.030562831 0.08481049
0.0040180204 0.15209316 -0.016850404 -0.065528445 -0.13353005 0.024319157 0.03365601 0.08653921
-0.081107 -0.06562746 0.052024256 0.08344118 -0.05455736 -0.14997292 0.029076504 -0.03775594
0.046407003 0.011662151 0.08268512 -0.029299993 -0.072837405 0.010971911 0.041708454 0.12606451
-0.064344816 0.0628585 -0.05163497 -0.10606683 0.121099114 -0.048946004 0.055579446 0.04753531
0.04110378 0.006361961 0.07884253 -0.103050806 -0.08753875 0.18923214 -0.10814079 0.0717881
-0.11314842 0.032236733 -0.16011345 0.018584704 -0.040334173 -0.11677205 0.029112663 0.0027317042
-0.16502647 -0.05911602 -0.12738582 0.111796856 0.08519403 -0.04806188 -0.16200963 0.23644282
-0.11078125 -0.07652076 -0.08086524 0.022728248 -0.023950076 0.07724915 0.066135295 0.14007768
-0.04336043 -0.029479438 0.0040299874 -0.052913606 -0.082866445 0.00025270914 -0.02671992 -0.033856437
00000000: 45d6 513d a0e4 87bd d1b3 943d ebeb 50be
00000010: b8d4 b4bc 25f8 623d 7064 e7bd 2794 903d
00000020: 7430 9ebe a962 0d3d 5de7 29be 2317 133e
00000030: cfd5 c43c 53c8 32bd ea01 363d 05e3 a4bb
00000040: 1088 b7bd 7f3b 893d cf36 f3bd 5622 05be
00000050: 577c c03d 79c2 c63d 1d79 783c ada3 5a3d
00000060: 455a 1dbe 54bb 943b 73e7 87bc 1501 f03d
00000070: 18f9 91bc f88f d7bd bbbe 023d 0f33 b7bd
00000080: e468 85bc a5e0 c13b 9477 853d d664 1fbd
00000090: 427d 403b 8414 6abc 37d3 0e3e f9f7 6f3d
000000a0: 0881 833e 9868 b5bd 67e4 f43c 4d98 293d
000000b0: 35e9 fb3c 0f26 17bd 0f3c 4a3c 352a b13d
000000c0: 8854 553e aa72 1abc f91b 3c3d 0e3b 0c3e
000000d0: 30e8 933d f3c1 ecbd e75e fa3c 1fb1 ad3d
000000e0: 99a9 833b 4fbe 1b3e dc09 8abc c733 86bd
000000f0: 1abc 08be f838 c73c e2da 093d 783b b13d
00000100: 6d1b a6bd b167 86bd 6317 553d 36e3 aa3d
00000110: 8a77 5fbd 8092 19be d931 ee3c f9a5 1abd
00000120: 4515 3e3d 9b12 3f3c d156 a93d 8a06 f0bc
00000130: c72b 95bd 88c3 333c 7cd6 2a3d 0e17 013e
00000140: 37c7 83bd f5bb 803d 317f 53bd 9139 d9bd
00000150: d002 f83d 9b7b 48bd 46a7 633d 63b4 423d
00000160: 705c 283d ff77 d03b 3178 a13d 4d0c d3bd
00000170: 8447 b3bd 12c6 413e eb78 ddbd a405 933d
00000180: 5cba e7bd aa0a 043d c8f4 23be f33e 983c
00000190: 7235 25bd 2f26 efbd ae7d ee3c 6406 333b
000001a0: b3fc 28be a423 72bd 6e71 02be c0f5 e43d
000001b0: 357a ae3d 89dc 44bd dae5 25be 111e 723e
000001c0: 48e1 e2bd ebb6 9cbd ad9c a5bd 9730 ba3c
000001d0: f332 c4bc cd34 9e3d f171 873d 8670 0f3e
000001e0: b59a 31bd dd7e f1bc fc0d 843b f0bb 58bd
000001f0: e2b5 a9bd 0c7e 8439 bce3 dabc 0cad 0abd

weight f4 [128, 128]
0.22338578 -0.010404993 -0.07933203 0.098306976 0.005156611 0.05669927 -0.3345856 0.17615904
0.016114546 -0.066756144 -0.017878124 0.07573936 -0.08584576 0.1256597 -0.021825142 -0.01857142
0.121083334 0.029206937 -0.083801456 0.17166744 0.01475149 0.08528774 -0.0069727018 -0.05752534
0.16473147 0.0047304425 -0.023113756 -0.13577259 -0.0762288 -0.071745306 0.07699364 -0.054333918
0.008485609 0.06565714 0.056397345 -0.11125986 -0.004260709 -0.055831637 -0.051609915 0.02592595
0.0018455994 0.053017028 -0.10708963 0.0340026 0.07548759 -0.12822662 0.0004950019 0.075811915
-0.053691745 -0.030768983 0.051637087 0.07323748 -0.029744297 -0.08005548 0.04518993 0.07390595
0.018641159 -0.01993164 0.0474086 -0.1017115 0.0816717 0.10729188 0.018650483 -0.16608179
0.08408147 -0.16975391 0.041813128 -0.021881435 0.08654643 0.029562559 0.09114644 -0.029239215
0.15473482 -0.062380172 -0.047136925 -0.0066947173 0.037411314 -0.008846767 0.18070823 0.07566785
-0.025993189 -0.008783074 0.252034 -0.006901007 0.1259612 -0.04006783 -0.10049078 -0.07252843
0.0674074 0.007262389 0.045036048 -0.029117493 0.08072633 0.1110821 0.01185997 -0.050878238
0.038141314 0.12736163 0.081174836 -0.08344309 0.11123365 0.1127909 0.012838315 -0.050642237
0.038840253 -0.17828101 0.01841758 0.10083982 -0.00887472 -0.004932318 0.20377228 -0.05729517
-0.12890764 0.020432893 -0.16748331 0.086128235 0.05927141 0.0871141 -0.135318 0.046824377
0.10081746 0.06340735 -0.0028923925 -0.004562811 -0.071361504 -0.11858761 -0.07335557 0.053676527
-0.034965962 0.0988094 0.04652789 0.028571427 0.030236498 0.0034590182 -0.036352895 -0.03995028
0.13157904 0.014383334 0.14673617 -0.20061433 0.054262284 -0.069703035 0.05785258 -0.047325645
0.08060719 0.0046857847 -0.07237562 0.060522318 0.2742773 -0.06539346 0.10748659 0.12960508
0.11027409 0.042613894 -0.043385927 0.03427349 0.07199711 0.12308654 -0.061505638 -0.07046352
-0.06788464 0.06491684 0.07838839 -0.033522297 -0.06586884 0.001366839 -0.04346251 0.15086663
-0.025789648 0.2154497 0.04503571 0.07201233 0.01741344 0.013857294 0.08808889 0.020173289
0.06844135 -0.079001695 -0.18247662 0.08184929 -0.07589363 0.11532598 0.10019458 -0.02260914
0.08368175 0.04175829 0.022982325 0.10488055 0.13862672 -0.18461108 -0.07456167 -0.047562122
0.10943754 -0.0058770855 0.09192687 0.10311986 -0.014715927 0.03813494 0.02721978 -0.09127877
-0.10006071 0.07009405 -0.004754147 -0.26232842 -0.039935432 0.014847746 0.013700472 -0.10646882
-0.05091594 -0.1307083 -0.039828993 -0.09393247 -0.016641388 -0.06453852 0.042625397 0.23800492
0.08817726 0.0012608132 -0.09778547 -0.043105483 0.14228301 -0.040597003 0.12493723 -0.119620085
-0.03739611 -0.02939174 0.00913475 0.080522105 0.004750585 -0.0481873 -0.020518232 -0.00046651927
0.08312835 -0.068602055 0.09809639 0.033362266 0.033845082 -0.087664455 -0.03134669 0.06710179
-0.020813765 -0.054205637 -0.12535341 -0.2058225 -0.07149197 0.03461152 -0.07055103 0.05429562
0.12292172 0.089590125 -0.157667 -0.0051760655 0.023919426 0.13080508 0.114911266 -0.06895417
00000000: 3ebf 643e b479 2abc d578 a2bd 2b55 c93d
00000010: caf8 a83b 7e3d 683d ce4e abbe 0963 343e
00000020: a702 843c 72b7 88bd 2575 92bc 3d1d 9b3d
00000030: e7cf afbd f0ac 003e a4ca b2bc 1723 98bc
00000040: 8afa f73d 6343 ef3c 19a0 abbd 97c9 2f3e
00000050: 3cb0 713c 57ab ae3d 437b e4bb b19f 6bbd
00000060: 5eaf 283e d401 9b3b 0f59 bdbc f807 0bbe
00000070: d81d 9cbd 34ef 92bd d7ae 9d3d 3e8d 5ebd
00000080: 3907 0b3c 4077 863d e700 673d 36dc e3bd
00000090: 6b9d 8bbb b7af 64bd eb64 53bd a862 d43c
000000a0: 0ae8 f13a 6228 593d cf51 dbbd 4f46 0b3d
000000b0: 3d99 9a3d d74d 03be 04c3 013a 4743 9b3d
000000c0: e0eb 5bbd 3c0f fcbc 6981 533d 88fd 953d
000000d0: 50aa f3bc 21f4 a3bd 1319 393d 015c 973d
000000e0: 58b5 983c ae47 a3bc 852f 423d 1e4e d0bd
000000f0: 7e43 a73d d8bb db3d e6c8 983c 5811 2abe
00000100: e832 ac3d f8d3 2dbe 3e44 2b3d b240 b3bc
00000110: 413f b13d 2e2d f23c fcaa ba3d 1487 efbc
00000120: ce72 1e3e 5a82 7fbd a612 41bd 5c5f dbbb
00000130: 9b3c 193d 08f2 10bc 940b 393e bff7 9a3d
00000140: abef d4bc e2e6 0fbc 9a0a 813e d821 e2bb
00000150: f9fb 003e 2a1e 24bd 1cce cdbd c989 94bd
00000160: e40c 8a3d 56f9 ed3b b877 383d cf87 eebc
00000170: d953 a53d 037f e33d 5250 423c b365 50bd
00000180: 113a 1c3d 166b 023e fe3e a63d 36e4 aabd
00000190: 78ce e33d eafe e63d cc57 523c 3c6e 4fbd
000001a0: f516 1f3d 4c8f 36be 77e0 963c 1c85 ce3d
000001b0: 4667 11bc 489f a1bb aea9 503e 57ae 6abd
000001c0: 5d00 04be e262 a73c bf80 2bbe 0064 b03d
000001d0: 94c6 723d e168 b23d cd90 0abe ebca 3f3d
000001e0: 6279 ce3d b6db 813d 4b8e 3dbb a283 95bb
000001f0: fb25 92bd 10de f2bd 723b 96bd ebdb 5b3d
00000200: 7838 0fbd 955c ca3d 0794 3e3d a00e ea3c
00000210: 88b2 f73c b2b0 623b c6e6 14bd e8a2 23bd
00000220: a8bc 063e 13a8 6b3c 0242 163e d86d 4dbe
00000230: 2142 5e3d 77c0 8ebd d4f6 6c3d 89d8 41bd
00000240: 6215 a53d 368b 993b ab39 94bd 40e6 773d
00000250: 136e 8c3e 02ed 85bd ee21 dc3d 32b7 043e
00000260: 62d7 e13d e88b 2e3d 71b5 31bd 5c62 0c3d
00000270: 3973 933d cc14 fc3d 56ed 7bbd 2e4f 90bd
00000280: 1a07 8bbd 1ff3 843d 188a a03d ad4e 09bd
00000290: 3ee6 86bd 8227 b33a bf05 32bd c87c 1a3e
000002a0: d044 d3bc d99e 5c3e 5d77 383d 337b 933d
000002b0: a1a6 8e3c b409 633c f367 b43d 7442 a53c
000002c0: fa2a 8c3d a4cb a1bd 27db 3abe 9aa0 a73d
000002d0: 1f6e 9bbd 0730 ec3d d132 cd3d ce36 b9bc
000002e0: 5661 ab3d be0a 2b3d 6e45 bc3c 9dcb d63d
000002f0: 2af4 0d3e b00a 3dbe cab3 98bd 80d0 42bd
00000300: ca20 e03d 9194 c0bb 2844 bc3d 8130 d33d
00000310: 121b 71bc 6233 1c3d 04fc de3c 5df0 babd
00000320: a1ec ccbd 788d 8f3d adc8 9bbb e94f 86be
00000330: 5693 23bd f643 733c f277 603c 530c dabd
00000340: 3c8d 50bd 66d8 05be ba23 23bd ab5f c0bd
00000350: 8553 88bc c62c 84bd f897 2e3d 90b7 733e
00000360: 4796 b43d df41 a53a c043 c8bd 608f 30bd
00000370: a3b2 113e 0b49 26bd 17df ff3d 60fb f4bd
00000380: aa2c 19bd f2c6 f0bc eba9 153c c6e8 a43d
00000390: ccaa 9b3b 0c60 45bd da15 a8bc 2897 f4b9
000003a0: 323f aa3d 3c7f 8cbd c3e6 c83d dfa6 083d
000003b0: 24a1 0a3d 6c89 b3bd 6365 00bd aa6c 893d
000003c0: a181 aabc bb06 5ebd a55c 00be 22c3 52be
000003d0: 626a 92bd cfc4 0d3d 0f7d 90bd 1665 5e3d
000003e0: 62be fb3d 077b b73d 7573 21be fc9b a9bb
000003f0: acf2 c33c c4f1 053e 9956 eb3d d837 8dbd

bias f4 [128]
0.084765434 0.057859745 -0.057095766 0.068796225 -0.061729815 -0.072135754 0.09683965 -0.03499849
-0.06559859 0.08188082 -0.076001585 0.056205697 0.057816613 0.058401737 0.0899526 -0.07149235
0.05866896 -0.062217303 -0.073652275 0.05197959 -0.10593527 -0.08756512 0.07465234 0.044795252
0.051680166 -0.07921674 0.07739014 -0.06976751 0.06516738 -0.023568047 -0.07118804 0.056205854
0.07408677 0.037649736 0.06659976 -0.05369499 0.063730545 0.06568648 -0.050651565 0.07628851
0.05867441 -0.06245254 0.0876782 0.06943125 0.081110485 0.060430564 -0.08457622 0.024669351
0.027478138 0.0759938 -0.054754302 -0.03877665 0.07255337 -0.06577138 0.06360033 -0.019263934
0.0766225 -0.08901941 0.07455019 0.07452027 0.06273244 -0.0957632 0.051294375 -0.055753507
0.075725034 0.07033783 0.02495587 0.11583638 -0.07607699 0.09324324 0.06238861 0.11065927
-0.06269948 0.011374055 0.07993056 0.08661231 0.0771819 -0.06672203 0.054825652 0.06017833
-0.08088291 -0.10094116 0.060797706 0.05875394 -0.090402566 0.064752646 -0.06663513 -0.05174612
0.062560886 -0.067251034 -0.0647122 -0.075271614 0.079202935 0.07439941 -0.10117707 -0.068039194
0.08582276 -0.10921255 0.04601999 -0.07558734 -0.09946198 -0.05874796 -0.047283895 -0.06603138
0.056668308 -0.095607065 0.09321539 -0.033189766 -0.0422712 -0.043215804 -0.08202396 0.066477194
0.061789975 0.07455738 0.07013056 0.057339597 -0.10695277 0.07101834 -0.077088565 -0.0498185
-0.017718574 -0.06402719 -0.063945316 0.0795842 0.06879847 0.08757672 0.08414918 -0.06819508
00000000: 8099 ad3d 57fe 6c3d 40dd 69bd 09e5 8c3d
00000010: 67d8 7cbd e9bb 93bd de53 c63d 945a 0fbd
00000020: 8e58 86bd 22b1 a73d b8a6 9bbd f237 663d
00000030: 1dd1 6c3d a936 6f3d 1239 b83d 956a 92bd
00000040: dd4e 703d 92d7 7ebd 01d7 96bd 8de8 543d
00000050: 97f4 d8bd 5755 b3bd 53e3 983d 3a7b 373d
00000060: 95ae 533d 633c a2bd b97e 9e3d 45e2 8ebd
00000070: 7a76 853d c711 c1bc 09cb 91bd 1c38 663d
00000080: ceba 973d 9c36 1a3d 7465 883d 47ef 5bbd
00000090: 2985 823d a286 863d 0478 4fbd 263d 9c3d
000000a0: 9454 703d 3cce 7fbd a190 b33d f931 8e3d
000000b0: 411d a63d 0a86 773d 4c36 adbd 6117 ca3c
000000c0: d519 e13c a3a2 9b3d 0c46 60bd 44d4 1ebd
000000d0: dc96 943d 25b3 86bd e440 823d 66cf 9dbc
000000e0: 42ec 9c3d cf4f b6bd c5ad 983d 159e 983d
000000f0: de79 803d 7f1f c4bd 0d1a 523d ca5d 64bd
00000100: ba15 9b3d 480d 903d 4170 cc3c a03b ed3d
00000110: 41ce 9bbd 50f6 be3d 338b 7f3d 54a1 e23d
00000120: 9668 80bd 3f5a 3a3c a2b2 a33d cb61 b13d
00000130: 8b11 9e3d 8fa5 88bd dd90 603d 8d7d 763d
00000140: f0a5 a5bd 3dba cebd 0407 793d f9a7 703d
00000150: fb24 b9bd 099d 843d 0078 88bd bdf3 53bd
00000160: ec1f 803d e9ba 89bd d487 84bd 0128 9abd
00000170: 2635 a23d b85e 983d ec35 cfbd 2258 8bbd
00000180: d8c3 af3d d4aa dfbd 757f 3c3d 89cd 9abd
00000190: b9b2 cbbd b3a1 70bd c2ac 41bd 763b 87bd
000001a0: 071d 683d a3cd c3bd b6e7 be3d fef1 07bd
000001b0: 9124 2dbd 0e03 31bd 2efc a7bd 3225 883d
000001c0: 7c17 7d3d 8ab1 983d 9ca0 8f3d eddc 6a3d
000001d0: 0e0a dbbd 1072 913d 9ce0 9dbd 7c0e 4cbd
000001e0: 8b26 91bc b020 83bd c3f5 82bd 0bfd a23d
000001f0: 36e6 8c3d 6c5b b33d 6856 ac3d dda9 8bbd

weight f4 [1, 128]
0.110323854 0.084096156 -0.08184786 0.03542384 -0.096101955 -0.059592854 0.076891415 -0.10999379
-0.028296828 0.06739441 -0.049905144 0.048800215 0.10007897 0.02492306 0.09918135 -0.07172257
0.06297416 -0.068597466 -0.14278175 0.043745622 -0.04858838 -0.028660558 0.022584073 0.032535322
0.14790665 -0.16157718 0.10292055 -0.114069305 0.094936 -0.0024772766 -0.099301755 0.005601725
0.14571726 0.008957469 0.0022825056 -0.03801381 0.08715379 0.025246883 -0.19576488 0.13802116
0.07594367 -0.18922837 0.17311019 0.1087404 0.14931521 0.018271675 -0.12890097 0.2565794
0.0081900265 0.13041392 -0.045567185 -0.102556676 0.12389547 -0.07263472 0.12570475 0.0109416675
0.028941311 -0.29759428 0.020553317 0.052387036 0.055624064 -0.09250725 0.010369896 -0.02881313
0.008573044 0.06447214 -0.005010737 0.068900295 -0.026164256 0.120901905 0.057383787 0.12509024
-0.024219476 -0.0047393814 0.040683307 0.065142654 0.028710034 -0.027630785 0.026719965 0.045754585
-0.07657419 -0.088165134 0.08265665 0.10569999 -0.101450056 0.10528493 -0.061201047 -0.069285534
0.019596068 -0.059802786 -0.03465637 -0.029841444 0.0812761 0.038372166 -0.24560069 -0.050838247
0.06414422 -0.1163291 0.065450236 -0.03279592 -0.046271108 -0.14453173 -0.007336869 -0.17290482
0.013027055 -0.08110617 0.027314438 0.0016612185 -0.12724644 -0.058012247 -0.108708695 0.012387466
0.04401256 0.07738409 0.053806905 0.12819138 -0.059694726 0.059987824 -0.069213 -0.22900046
-0.004483138 -0.07495354 -0.14750713 0.03621765 0.15399042 0.12260194 0.051518384 -0.06782794
00000000: 79f1 e13d 9b3a ac3d da9f a7bd 9718 113d
00000010: 1ad1 c4bd a317 74bd 3f79 9d3d 6d44 e1bd
00000020: c0ce e7bc 1506 8a3d 5669 4cbd bce2 473d
00000030: 34f6 cc3d 722b cc3c 971f cb3d 48e3 92bd
00000040: 99f8 803d d47c 8cbd 6135 12be 9c2e 333d
00000050: 9c04 47bd 8cc9 eabc 3c02 b93c c243 053d
00000060: d774 173e 7d74 25be 02c8 d23d 2b9d e9bd
00000070: ce6d c23d ce59 22bb b85e cbbd ad8e b73b
00000080: e836 153e 59c2 123c 1796 153b 5eb4 1bbd
00000090: b07d b23d 8dd2 ce3c 9776 48be 6b55 0d3e
000000a0: 5b88 9b3d 15c5 41be cc43 313e 49b3 de3d
000000b0: 16e6 183e 7bae 953c 9efe 03be 605e 833e
000000c0: 762f 063c 3a8b 053e a8a4 3abd 3c09 d2bd
000000d0: e8bc fd3d 83c1 94bd bfb8 003e ae44 333c
000000e0: 5416 ed3c 475e 98be 6e5f a83c ca93 563d
000000f0: 0fd6 633d 7174 bdbd 7fe6 293c 8309 ecbc
00000100: f475 0c3c f809 843d 1c31 a4bb 991b 8d3d
00000110: 6c56 d6bc 6b9b f73d 430b 6b3d a817 003e
00000120: ec67 c6bc d04c 9bbb 8aa3 263d 8369 853d
00000130: 4e31 eb3c f559 e2bc d4e3 da3c 2969 3b3d
00000140: eed2 9cbd ec8f b4bd e447 a93d 3d79 d83d
00000150: 0cc5 cfbd a09f d73d f3ad 7abd 93e5 8dbd
00000160: ef87 a03c c4f3 74bd d6f3 0dbd 0b76 f4bc
00000170: 1574 a63d 222c 1d3d bf7e 7bbe c43b 50bd
00000180: 0b5e 833d f43d eebd c60a 863d 0455 06bd
00000190: c686 3dbd 2000 14be 1e6a f0bb f60d 31be
000001a0: 6e6f 553c fe1a a6bd 87c2 df3c 3ebd d93a
000001b0: e44c 02be 409e 6dbd aaa2 debd ccf4 4a3c
000001c0: 8446 343d 8d7b 9e3d a164 5c3d 9a44 033e
000001d0: 7582 74bd cbb5 753d 8cbf 8dbd 197f 6abe
000001e0: 4ae7 92bb 3e81 99bd 1c0c 17be f558 143d
000001f0: aaaf 1d3e ba16 fb3d f104 533d 60e9 8abd
