trained_models/ppo/me5418-Cassie-v0/0528-11-48-10-s3737/critic.pt (torch, 319998 bytes, 5 tensors)

weight f4 [256, 50]
00000000: 03c8 bebc b7f8 89be 1a9e 983e 2642 33be
00000010: 06ba eebe 4a71 45bd 36a7 063e 13f6 46bd
00000020: e01a 8fbc 4504 dbbb 57ff d03e 9ec0 94bd
00000030: cec5 133e c598 7c3b 44a4 d9bb f9ca 133b
00000040: f510 62be 7d04 66bc 3646 e23d 27af 3dbd
00000050: 663c fabe c2e9 9a3d fbed a6bd 86e8 c73c
00000060: 3371 07bc 38a6 28bd 0c53 ab3c d469 92bd
00000070: a744 6d3d 97fc f53c 8cc3 593b 4b42 22bc
00000080: 2866 a93b d1c7 e73c d832 023e 3ac5 67bd
00000090: 3f11 2f3e 84d9 1d3d 3dee 24bd 0a97 243d
000000a0: 1892 52bd 7fab a23d 8ba4 3e3d ee09 3fbd
000000b0: a9e8 3ebd e2d0 96bc ba67 af3a 37f3 aabd
000000c0: 698b 733c 587f 80bd 2e4c 9d3d c92c 3f3e
000000d0: 3eb9 d4bd f603 b9bc fb38 1a3e 6ac3 0f3c
000000e0: 3305 713c 3086 3abd 8450 4dbb 4abe 273d
000000f0: 0741 57be ffe0 683d c332 9c3d e018 263d
00000100: 0ac6 fa3c cdb2 743d 13f8 fabc e9fe c3bc
00000110: 2f0b ddbd 6f70 f4bc e1d0 c1ba d668 c53d
00000120: 7c95 fdbc fae3 ec3c 5af8 043e ee3f 98bd
00000130: f752 49bd 4055 babc 3467 433d e8a7 353d
00000140: b847 e33d a566 f1ba d0c1 a23d 8515 173e
00000150: f776 41be 2f9d eb3d afd0 233d 5f4a 04be
00000160: 1b9e df3d 6bbc 13be 6b0c 133d 815c 103e
00000170: 01f4 02ba fb08 7fbd 6346 783d d54b 283d
00000180: 29bf 033e ec71 cb3d 7cd0 543d a3f2 7fbd
00000190: ad1c c03d 6858 f73d 5f04 b1be 4246 043e
000001a0: 6cca bf3d 11eb 863d a66d d03d 7032 9b3e
000001b0: 7940 233d f4bf 963d 565c 6ebe 21c0 653e
000001c0: dc6b 7f3e 18ec 78bd 5731 a6bd 379d afbd
000001d0: de15 1b3d 2d90 7cbe a25f 09be 7b77 a43d
000001e0: 85af 7c3d 2d74 60bd 41c2 f43c 165b 803d
000001f0: 2aac 0b3e 6fb0 c43d 8119 00be 488d a13c
00000200: 3c82 28bd 7fc4 39bd 13f9 c73c 4869 ab3d
00000210: 9277 f3bd 36b1 01bc 807a ddbd c7f6 3abd
00000220: 840e b53c 7e4c 97bd 3618 69bd 0695 4a3b
00000230: 7585 eabd 1735 c13d 612c d9bd 0e69 a43a
00000240: 0105 bb3c 519c 89bc 9c2d e23d ae48 46bd
00000250: 7c74 2d3d 04db 74bd 8d9b 91bd 3d7f 40be
00000260: 333e 8cbd a598 623e 9bc4 96bc 2971 8abd
00000270: 01ce 76bc 2146 4bbd d5d4 2a3d 9fb1 2a3e
00000280: 6219 75bd 5a05 59bd 8a91 00bc a91c 273e
00000290: 04e3 603e efd0 f93d 4530 ca3c 6dca 103c
000002a0: 3989 ef3c ec3a 193d 9ea5 2b3d a8d7 aebc
000002b0: c6d1 5cbd 710b 283d 173e b03d ac0b 6a3d
000002c0: 11b3 2abd 3447 6e3d 5d18 cebc 3543 2abd
000002d0: 0909 bdbd 0594 903b c84b d9bb dd2c 023c
000002e0: 42ff b73c 9190 5fbd eef3 963d fe4e ec3d
000002f0: 99ba 2abe d2bd 443e 19a0 6f3d f1a9 2d3d
00000300: dc46 fb3d 3d78 01be 9fde 9abd a73c 81bd
00000310: c5d4 2fbd ae1d b2bd 769b 99be 811d 55bd
00000320: 7495 d73c 505f 14be 6f1f 2fbe fe7f 31bd
00000330: e282 08be eef2 0cbd 8f8c 1d3e 421d 53be
00000340: 3123 d1bd 836e a83d c0de e33d d545 febc
00000350: 9765 35bd 14ce ed3d cc04 823d 4a57 cabb
00000360: ebcf bc3d b665 6bbd 4b97 aabd 5eb0 183e
00000370: 76de 4e3c 1407 583d 1ede 123d c558 b83b
00000380: b182 483d 4cc5 a7bd e1ff 763b 9066 9abb
00000390: 757d aa3d 941d b0bc c82c eebd 77bb c53b
000003a0: 97ba 983d 95de e1bd 77c9 c03c 87b1 e43c
000003b0: 4428 4f3b b408 1c3e 5aea 213c 3992 b63d
000003c0: 421c a13b 9d78 983c 3bbc 7dbd aabb 493d
000003d0: 7183 883c 47a3 20bd be5e 3ebe fb78 d1bd
000003e0: 7fd7 e53d c937 043e 84f0 a9bc 6098 8dbe
000003f0: 345a 5d3e 5788 52be dee7 60be 4a16 a8bd
-0.023288732 -0.26947567 0.29808122 -0.17505702 -0.466263 -0.048203744 0.13149723 -0.04857452
-0.01746887 -0.0066838586 0.4081981 -0.07263301 0.14430925 0.0038543206 -0.0066418964 0.00225514
-0.22076781 -0.014039156 0.11048548 -0.046309616 -0.48874205 0.07564117 -0.0815086 0.024402868
-0.008266735 -0.041174144 0.020913623 -0.07149091 0.0579268 0.03002767 0.0033228127 -0.009903501
0.0051696487 0.028293522 0.12714708 -0.056584574 0.17096423 0.038537517 -0.040266264 0.040183105
-0.051408857 0.079428665 0.04654364 -0.04664033 -0.0466086 -0.01841015 0.0013382353 -0.08347171
0.014864781 -0.06274289 0.07680546 0.18669428 -0.10386895 -0.022584897 0.15060799 0.008774618
0.014710712 -0.045538127 -0.0031328509 0.04095296 -0.210209 0.056855198 0.076268695 0.040551066
0.03061201 0.05974083 -0.03063587 -0.023925262 -0.10793149 -0.029838769 -0.0014786982 0.096391365
-0.030955069 0.028917301 0.12985364 -0.074340686 -0.049151387 -0.022745728 0.047705844 0.04434958
0.11097664 -0.0018417431 0.07947123 0.14754303 -0.18893038 0.1150459 0.039993938 -0.12918995
0.10918828 -0.14427345 0.035900515 0.14097787 -0.0004995466 -0.062264424 0.060614 0.041087944
0.1286589 0.09933838 0.05195664 -0.062487256 0.093804695 0.12077409 -0.34573647 0.12917426
0.09364781 0.06587804 0.10177164 0.30311918 0.039856408 0.07360831 -0.23277411 0.22436573
0.24943489 -0.06077203 -0.081148796 -0.08574908 0.03786265 -0.24664374 -0.13415387 0.080306016
0.061690826 -0.054798294 0.029877784 0.06267373 0.13639894 0.096039645 -0.12509729 0.019720688
-0.041139826 -0.04535341 0.02441076 0.0836969 -0.118880406 -0.007915786 -0.10814381 -0.0456455
0.022101648 -0.073876366 -0.056907855 0.0030911579 -0.11451236 0.09433954 -0.10604168 0.0012543516
0.022829534 -0.01679817 0.110438555 -0.048409157 0.042347416 -0.059779182 -0.07109747 -0.18798538
-0.06847801 0.22128542 -0.018404296 -0.06759865 -0.015063764 -0.049627427 0.04170688 0.1666932
-0.05983866 -0.05298362 -0.007847199 0.16319527 0.219616 0.12198054 0.02468122 0.008837325
0.029240238 0.037409708 0.04190599 -0.021343067 -0.053910993 0.041026536 0.08605593 0.057140037
-0.041674677 0.058173373 -0.025158102 -0.041568 -0.09230239 0.0044121766 -0.0066313483 0.007945267
0.022460584 -0.05458123 0.07370745 0.11538504 -0.16672744 0.19213036 0.05850229 0.042398397
0.12269375 -0.12643524 -0.07561993 -0.06310397 -0.042927522 -0.08697067 -0.3000142 -0.05203009
0.026316382 -0.14489484 -0.17101835 -0.043334953 -0.13331178 -0.034411363 0.1538565 -0.2061663
-0.1021179 0.082242034 0.111264706 -0.031039158 -0.044286337 0.11611572 0.06348571 -0.0061749564
0.09219345 -0.057470046 -0.08329638 0.14911029 0.012626281 0.052741125 0.03585636 0.0056258165
0.048952762 -0.08191928 0.0037689137 -0.0047119334 0.0832471 -0.021498479 -0.11629635 0.0060343104
0.07457464 -0.11028782 0.023533566 0.027916683 0.0031609694 0.15237695 0.009882534 0.089146085
0.0049166987 0.0186122 -0.06194709 0.049251236 0.016664239 -0.039218213 -0.18590829 -0.10228153
0.11222743 0.12911905 -0.02074457 -0.27655315 0.21616441 -0.20559822 -0.2196345 -0.08207376

bias f4 [256]
00000000: 2b62 68bd a354 84bd 4f01 dcbc 3cf3 e43d
00000010: ffc7 833d 229e b0bc 47f2 8a3d 966c bbbc
00000020: a809 1cbc 4dc0 793d 5bca d83d 7d68 553c
00000030: 9019 983c bfd5 e1bc 499d 26bd 7ff4 8cbc
00000040: 3061 4d3c 1db4 a03d 87c5 d13c d714 993d
00000050: bf22 55bd 0e82 7c3d 8274 883c 5531 403c
00000060: 1fdf 21bc 1e42 bfbd 7c97 a03b 4431 38bc
00000070: 1f90 3a3d f124 f4ba 1d2a afbd c874 533d
00000080: 756f 85bd 41aa 14bc 60b2 273c f44e b83b
00000090: 0877 09bd 4a9e 39bc d1d9 2e3c c88b cabc
000000a0: 8900 fbbc 5369 903d 3b45 6ebd c9be 42bd
000000b0: 1b76 49bc 22cb c8bc 22cf f4bc d5ff 893d
000000c0: 5b0d 5a3c a471 ff3c 32da 82bd b178 7abd
000000d0: 6847 3d3d cfb1 32bd 9295 41bd f126 ae3d
000000e0: dd28 0b3e 6493 d73c 4529 493c 75d9 cdbd
000000f0: 444a 873d 4728 90bb dbd5 323d c4d9 debc
00000100: 091b 09bd 2237 353d fe40 f9bc 080e 22bd
00000110: c288 03bb 4bd4 353d 2340 f9bc b7c9 0b3d
00000120: 53a4 34bd 4717 c23b e1b5 fd3c f634 9abd
00000130: ee3d adbd 6374 ea3d e3b1 bb3d 1b64 6a3d
00000140: 725c dd3c 74d0 0abd ab85 46bb bd66 2d3d
00000150: 8c89 023d df5e 08bd bb34 2d3d ccff c4bd
00000160: 6246 5fbd 640a 0f3c 7d34 203d c09f f9bb
00000170: 769f a83c f927 98bc 7552 363c 6333 b9bd
00000180: 2fe4 41bd cb95 92bd 745e 7ebd 2f1c bfbc
00000190: 99c0 e8bc 2928 80bb 9990 f93c f6f9 043d
000001a0: 331b c53c 765c babd eca4 c53c b9ca 34bc
000001b0: ffe2 40bd 2a75 483d bac9 dd3d b002 f23c
000001c0: 28fe c7bd e950 be3d 45ee 493d 1686 443d
000001d0: 2b1f 3bbd cf99 ca3d 3874 453c dc29 17bd
000001e0: a04c e7bd 5287 8b3c df45 b4bd 33a0 de3d
000001f0: 9763 69bc 48a4 b03d c267 1b3d 7995 603c
00000200: 9689 9f3d 5dc1 4cbd 32c9 b53b 924f a3bc
00000210: 2c96 3dbc 23a7 12bd b202 cbbd 1158 99bc
00000220: d3e6 97bd dbb2 f0bc 3579 1b3d 1534 703d
00000230: 206c 3aba a027 d63b f6b8 b13b 6806 243b
00000240: 74a5 73bd 12ba 65bd 48fa f73c 8c79 aabd
00000250: e03b 1cbd 6a93 f0bd f1ec b73b a550 c23a
00000260: fb17 493d 9e93 913d 8944 1f3e 266e afba
00000270: 618c c73d 5ef4 8c3c 05fa 363d 36c6 793d
00000280: ac58 493d 3167 6bbd 2f1e 05bc 2303 ed3a
00000290: cd92 c2bc 5f0d 0abc e9c0 51bb d641 72bd
000002a0: 6404 2f3d cc4a 6b3d a2a8 273d 23c0 d83c
000002b0: 4de3 9cbb df8f 3b3d ca1c 6abd 7ccb c53d
000002c0: 7ceb a8bc 5d6c 043c cd9f 483d 38b2 61bb
000002d0: d60b 373d ffc3 953d 896d c3bb 1d03 cb3d
000002e0: 58ec 263c 29df 21bb a79b 6bbd dc8f 613d
000002f0: 6a61 853d 23ff 0a3d 333b 623d da7b d83d
00000300: 53ce db3b 4463 bfbd 1b04 d23c 6199 c43d
00000310: 1da3 833d fd4c d7bc 851c 333d 7467 ef3d
00000320: 27b4 d6bc 415e 923d 00ea b93d 16f5 a5bd
00000330: acca 2139 7d4d 68bd 2ea2 393d 9b8f 85bd
00000340: a957 75bd 392f 293d b2ed 72ba 4fb2 d0bb
00000350: acd5 b9bd f56b 6fbc 2b40 273d 5a7c 9dbd
00000360: 1d53 62bd f6b6 ad3d 6fc5 f2bd ff83 0e3d
00000370: 48cc c4bc 4a5e 3b3d 3946 693d a99f fc3d
00000380: 4f2e 113d 3f56 fe3b c3db 603b 6cdc 46bc
00000390: a993 3bbd 04e9 65bc 7786 6d3c 2cad 993c
000003a0: 29e9 14bd 2aec b0bb 2823 d43b e652 e6ba
000003b0: 7ba8 fbbc bba5 ad3d af2b 523d ecd7 e43b
000003c0: 0f62 5dbd b03d 283e 763e c53c 2574 483d
000003d0: a093 13bd 2cf0 5a3d 2707 e43a 4597 973d
000003e0: dcd5 84bc 45e3 493c a265 95bb 20e5 d03a
000003f0: 0e45 143d d705 853c 8aae b2bd b4b5 5c3d
-0.056734245 -0.06461456 -0.026856093 0.11179206 0.064346306 -0.021559779 0.06784492 -0.022878926
-0.009523787 0.060974408 0.10585471 0.0130254 0.018566877 -0.027567742 -0.040677343 -0.017206429
0.012535378 0.07846854 0.025606884 0.07474678 -0.05203509 0.061647467 0.016657118 0.011730512
-0.009879856 -0.09338783 0.004900871 -0.011242215 0.0455476 -0.0018626732 -0.08552954 0.051625043
-0.06515399 -0.009073795 0.010235399 0.0056246463 -0.033560783 -0.011329243 0.010672049 -0.024724856
-0.030639904 0.07051339 -0.058171492 -0.04754523 -0.012296225 -0.024510924 -0.029883925 0.06738249
0.013308848 0.031182118 -0.06389274 -0.061150257 0.046210676 -0.043626603 -0.047261782 0.08503521
0.13589807 0.026315399 0.012277906 -0.10051242 0.06605962 -0.0043993327 0.04366098 -0.027203448
-0.03347305 0.044242032 -0.030426499 -0.039564162 -0.0020070528 0.04439191 -0.03042609 0.034127917
-0.044102024 0.005923185 0.030970516 -0.07529633 -0.08459078 0.1144798 0.091647886 0.057224374
0.02702162 -0.033890203 -0.0030292075 0.042334307 0.031869456 -0.0332936 0.042286616 -0.09619102
-0.05451048 0.008730505 0.039112557 -0.0076179206 0.02058385 -0.018573748 0.011128058 -0.09043004
-0.047336753 -0.07157477 -0.062101796 -0.023328869 -0.02841215 -0.0039110375 0.030464457 0.032464944
0.024060821 -0.09099667 0.024126492 -0.011034661 -0.04709148 0.04893986 0.10829492 0.029542297
-0.09765273 0.09292776 0.049299497 0.047979437 -0.04568402 0.09892618 0.0120516345 -0.036905155
-0.11293912 0.0170323 -0.08802389 0.10870399 -0.0142449355 0.08625084 0.037940748 0.013707512
0.07789914 -0.049989093 0.005547666 -0.019935403 -0.011571448 -0.035803925 -0.099126235 -0.018718751
-0.07417073 -0.02938216 0.03795739 0.05864342 -0.0007111449 0.0065354854 0.0054236604 0.0025028232
-0.05948396 -0.056085654 0.03027071 -0.083239645 -0.03814304 -0.11746867 0.0056129624 0.0014825059
0.049095135 0.07108234 0.15553488 -0.0013384267 0.09743572 0.017206367 0.04467203 0.060980044
0.04915683 -0.057471458 -0.008124872 0.00180826 -0.02375164 -0.0084260395 -0.0032005853 -0.059144817
0.042728797 0.05744438 0.040932305 0.026458805 -0.0047878386 0.045791503 -0.05715636 0.09657952
-0.0206201 0.008082476 0.048980523 -0.0034438502 0.044689022 0.07312774 -0.0059639853 0.09912703
0.010188185 -0.0024699664 -0.05752149 0.055068836 0.06512721 0.033934724 0.055232238 0.10570498
0.0067079454 -0.09345105 0.025636723 0.09599567 0.06427596 -0.026281828 0.04372837 0.11689654
-0.02620895 0.07146884 0.09077835 -0.08103387 0.00015429658 -0.056714524 0.045320682 -0.06521531
-0.059898052 0.0413048 -0.0009266987 -0.0063689123 -0.09073958 -0.014613141 0.04083268 -0.07689734
-0.055255044 0.08482163 -0.11854064 0.03479385 -0.02402319 0.045744218 0.056951735 0.1233514
0.035444554 0.007761746 0.0034310676 -0.012137514 -0.045795117 -0.014032606 0.014497391 0.018759333
-0.03635517 -0.0053992467 0.0064739175 -0.0017572313 -0.030719986 0.08478876 0.05131119 0.0069837477
-0.054048594 0.16429782 0.024077635 0.04893889 -0.036029458 0.053451702 0.0017397151 0.07401899
-0.016215257 0.012322252 -0.0045592347 0.0015937425 0.03619867 0.016238136 -0.08724697 0.053884223

weight f4 [256, 256]
00000000: abe1 8fbb 1820 62bd 7f7b 88bd e7dd 25bd
00000010: 115a 8e3d 89c4 fe3c 292b 733c bbb0 b5bd
00000020: 9bb2 2b3d f603 c23d a4cf e9bb 3e79 90bd
00000030: 48b3 c63a e83a af3d 776b dd3c fcb5 26bc
00000040: 0e53 b43d b3ae a83d 0bfe 90bc 71b8 383d
00000050: f3aa 72bd 2bb3 6fbd 8fb7 983d 63c5 e93d
00000060: c21c e6bb 34a5 163e e0ab 083e 7e99 053e
00000070: e791 663d b53c 38bd c558 cfbd 9e58 053e
00000080: 714c d1bd e5ce 983d 8eed c63c 62ac c63d
00000090: a592 e33c 098b 25be 6c9b 1c3d 04ee 9fbc
000000a0: 421c 8a3d b211 0fbe 616a 1ebd f8dd 86bd
000000b0: 06d6 443d 5aa8 82bc 5a92 ffbd a2f7 083e
000000c0: bffd 163e 79c0 a8bc 2d00 dcbd cf28 8ebd
000000d0: 154b 73bd 5c06 b3bd 0f47 81bc 83d8 dbba
000000e0: 2c3d f03d 77f9 91bc 2023 3c3c 286f 323d
000000f0: 780f 623d 3769 073e 0cb9 5d3d f800 193e
00000100: af82 e4bd d8a2 5f3d 1a23 623d b7b3 cebd
00000110: 9c8e a6bd 871c e8bc 4926 d0bd 8352 5dbd
00000120: 9096 0d3e 478a b33d e92a 90bc cd6f a9bd
00000130: 010d 5bbe dcb6 5c3d aafb 023c b54d fd3d
00000140: 93c5 1ebe 0c43 38bd e2c5 40bd dd65 c13d
00000150: 1395 00bc 2d04 ea3d 4540 273d 1558 c53d
00000160: 97ec 9f3d b673 31be 6a5a 333c 3b6e a33d
00000170: 92ac 553e ee2a b23d 7d39 c4bc 7f65 acbd
00000180: bdff ccbd 7028 c2bd 46de 9e3d 577b ff3b
00000190: 7aee a6bd a6b4 413d fbc3 88bd a50b 9f3d
000001a0: 3710 dd3c 97b5 cfbd ed59 c23d bd85 d3bc
000001b0: f82a cebc 675a 613d d7b2 0e3d 9806 72bd
000001c0: e537 7abc f237 b5bc 7f86 eb3d 191c 383d
000001d0: cd8f 24bd 5886 17bd f7a7 0a3e 0187 12bd
000001e0: edc5 693d 6f47 97bc 4865 bd3d 841b 833d
000001f0: c6fe cabd 04cc 823d 0147 bdbc e6aa 7dbd
00000200: c9e6 953c 09a2 183e 2d61 fbbd 9c39 afbb
00000210: dee8 24bd 3865 83bd 8b2c 26bd 3609 013e
00000220: c0d1 c3bd 0f07 80bd 109e eb3d 2864 673e
00000230: b74e ac3c 6a5f 9bbd 7f04 5a3c 2ea3 79bd
00000240: 4f6e 7f3d 6925 febd b0de 8e3d 073f c43c
00000250: 71fa 0abd 04e8 1cbd e54c 613d 5bef 003c
00000260: 2850 953d fd87 143e f073 163e 27c5 213d
00000270: ecce 9f3c 6de5 04be cdd2 e5bd ef43 573d
00000280: 67c1 ec3d 2b4a 94bd f197 a4bc 8c90 c53d
00000290: 1fb0 c8bd 471c 373c 1568 00bd ca7a 3c3c
000002a0: 560d e23d 2d92 373e 16cd 64be 33c8 e0bd
000002b0: 2b8c af3d f1fd d63b 635b 3ebe ab9f bc3d
000002c0: 9fb8 eabd 2669 353b fb00 27bd 68ce 4ebd
000002d0: f636 dabd 2561 cd3d 1da9 aebd fe96 45bd
000002e0: 6f85 31bd 1d6a 30bd be13 253c 8136 30bb
000002f0: bc38 493d cf03 a0bd a51b 70bd 3d18 e03c
00000300: b44e e3bc da17 54bc ca10 58be 5a03 363d
00000310: c96a ba3b eb76 7c3c 810c 87bc adfd 633e
00000320: cdac c33d 8dcc b33d 528b 95bc bc4d 0b3d
00000330: 5ef3 0abe 266e 9f3c 967c 6f3c cebd 183d
00000340: bcc2 073e 7377 c0bc ae93 bb3a cf81 12bd
00000350: 2df3 1cbd 45d0 95be 864f cf3b 08b3 563d
00000360: 64fa 32bc 5915 e03d 10f8 19be cd8c 41bc
00000370: 4f56 80bd 5438 d53d 9ce1 083d f70e b53c
00000380: 26ba 533c 1c82 d9bc 3808 333d 56bf c639
00000390: 7331 3e3d bfbc 94bd e199 d4bd 1e5c 72bc
000003a0: 60b1 88bc ea51 34bd 16f7 b43c 8255 763d
000003b0: fb50 37bd ed51 293d 540c 09bd f4db ccbd
000003c0: db30 443d 25df 263e 8c49 b03d c604 74bb
000003d0: ec37 d93c 6930 dbbd 9de2 95bd 9b8b 903d
000003e0: 0220 d9bb 61ee 963c 5022 18be 9f84 4bbd
000003f0: 6148 f03d f80c 5ebd c9dc 65bd 205f e0bd
-0.0043909154 -0.05520639 -0.0666418 -0.040494826 0.069507726 0.031099575 0.014841833 -0.08871599
0.04191838 0.09473412 -0.0071353484 -0.07054375 0.0015159631 0.08556157 0.027028782 -0.010175224
0.08804904 0.08236446 -0.017699262 0.045097772 -0.05924506 -0.058520477 0.07456886 0.11414602
-0.007022471 0.14711457 0.13346815 0.13046834 0.056291487 -0.04497977 -0.10124353 0.13022086
-0.10219658 0.07461337 0.024283197 0.09700848 0.027779886 -0.16166319 0.03823416 -0.019522674
0.06743671 -0.13971594 -0.03867567 -0.06585306 0.04805567 -0.015949417 -0.12479086 0.13375714
0.14745234 -0.02059959 -0.10742221 -0.06941377 -0.059397776 -0.08741447 -0.015780954 -0.00167729
0.117304176 -0.01781915 0.011482984 0.043563038 0.055190533 0.1322373 0.054131553 0.14941776
-0.111577384 0.05459866 0.055209257 -0.10092872 -0.08132669 -0.028333915 -0.10163552 -0.054033767
0.13826966 0.08766609 -0.017598586 -0.082732774 -0.2139168 0.053885326 0.007994572 0.12368337
-0.15505056 -0.044985816 -0.047063716 0.09443257 -0.007848042 0.11426578 0.040832777 0.09635941
0.07808798 -0.17329296 0.010946849 0.07980009 0.20866612 0.086995944 -0.023953194 -0.08417796
-0.10009716 -0.09480369 0.07757239 0.0077966857 -0.081509545 0.04729142 -0.06678005 0.07765893
0.02698527 -0.101420574 0.09489808 -0.025820607 -0.025166973 0.055017855 0.034838524 -0.05908832
-0.015272115 -0.022121403 0.115002625 0.04494867 -0.0401762 -0.036993355 0.13540636 -0.03577328
0.057073522 -0.01846668 0.092478335 0.064017326 -0.099118754 0.06386569 -0.023105146 -0.06193056
0.018298524 0.14905562 -0.12274394 -0.0053474437 -0.040261142 -0.0641579 -0.040569823 0.1260117
-0.09561491 -0.06251346 0.115047574 0.225968 0.021033628 -0.07586558 0.013306736 -0.060946636
0.062361058 -0.12409479 0.06976068 0.023955835 -0.033930246 -0.038307205 0.055004973 0.007869567
0.07290679 0.14505 0.14692664 0.03949466 0.019507848 -0.12978144 -0.11221848 0.05255502
0.11560326 -0.07240709 -0.020091983 0.09646711 -0.097992174 0.011176175 -0.03134926 0.011503885
0.110377 0.17926855 -0.22343859 -0.10975685 0.08571657 0.006561034 -0.18589549 0.09210142
-0.11460995 0.0027681082 -0.04077242 -0.050489813 -0.10655014 0.100282945 -0.085283495 -0.0482397
-0.043340143 -0.043069948 0.010075508 -0.0026887956 0.04912637 -0.078132264 -0.058620114 0.027355308
-0.02774749 -0.01294514 -0.21100155 0.04443679 0.0056889993 0.015409212 -0.016485455 0.22264738
0.095544435 0.08779249 -0.01825491 0.03400968 -0.135694 0.019461703 0.014617106 0.037290387
0.13257879 -0.023494458 0.001431098 -0.035768326 -0.038317848 -0.2926046 0.0063266186 0.05241683
-0.010923956 0.10941572 -0.15036035 -0.011813355 -0.06266462 0.10411134 0.033418283 0.022101862
0.012922799 -0.026551299 0.04370901 0.0003790806 0.046433877 -0.07262563 -0.103809126 -0.01479247
-0.016686141 -0.04402343 0.022090476 0.06014014 -0.044754963 0.041337896 -0.033459023 -0.1000289
0.047898155 0.1629606 0.08607778 -0.003723429 0.026515923 -0.10702593 -0.07318614 0.07057878
-0.00662613 0.018424215 -0.14856839 -0.049687024 0.11732555 -0.054211587 -0.05611876 -0.10955644

bias f4 [256]
00000000: 5d87 54bd 79e6 ccbc 5690 773d dce8 053d
00000010: dece 373d 89cd 553c 9a02 17bc ba41 013d
00000020: 752b 20bd ad8d ffbc c255 713d 198a e33c
00000030: 2454 b2bc 6f3e fcbb 2a1c 9f3c 13cd 22bd
00000040: d41d b63a e74f 4e3d 9da1 553c d0d2 8b3c
00000050: 448c f43c df40 b0bc ca62 bebc 0832 8bbc
00000060: 4aad 643d 83ca 9cbd d407 0fbd 7f0e d8bc
00000070: 0b47 dabc a15d 24bd 62c9 74bd 892b 053d
00000080: c82b 1c3d 4016 1ebd 51c7 fe3b 4e15 333d
00000090: eadb 3e3d c8c1 03bd ca8b 8a3d 3baf 21bd
000000a0: 3756 063d 3e5f ed3c 096d 403d a80e 483d
000000b0: accf 8d3d 7148 dbbc 1847 8ebd 7f4f 283d
000000c0: 1c96 0fbd 32fa 483a 1f36 fc3c 9154 2fbd
000000d0: 62ab 5cbc 27b3 5fbd 8c0b 61bd 0843 a73c
000000e0: 28f4 273d c6de d53b 144f 823c ba51 8fbc
000000f0: 7f89 e3bc 725b 613c c57d 643d aea1 ffbc
00000100: e46f 4cbd febf 553d abf2 1d3a 37a1 6f3d
00000110: ca4c e43c ad91 723c 178f 1ebc 628f 82bd
00000120: 64de fcbc 8a7c 5fbd 7862 493c 2c75 993c
00000130: 03b3 5d3d a01d 37bd bb0d 11bd b4dc 15bd
00000140: 9bc1 a73c f285 ac3c 13e4 44bd 7551 673d
00000150: 809a e2bc 5bed 3ebd 2c0f 64bd c188 38bd
00000160: 727c 663d 8bce 10bd 129e 72bd 6893 c93c
00000170: 1986 4b3d 4966 10bd 8ebd 33bd 348d c4bc
00000180: d18e 3a3c 3037 113d c943 cb3c caaf 5f3d
00000190: b204 60bc 204e 38bd e478 7abd 20c6 bbbc
000001a0: f3ab 07bc 951c a33b bda1 043d 04fb cbbc
000001b0: 0e59 603d 23e0 acbb 7fb2 4f3c 6dc6 5b3d
000001c0: 4d5c 393d 0082 1abd 93fc 12bd 5c96 763b
000001d0: 51f4 723d 00f9 123d 539f 15bc eedd 2cbd
000001e0: cd17 34bd 32cd c0bc e426 923c ec2d 3d3d
000001f0: ce67 c3bc 7371 0c3d 31a1 cf3c d02f 1d3d
00000200: 8875 43bd c719 9d3d 208c ed3c 49fc 41bc
00000210: de01 e93c 4229 0fbd 22b8 d5bc 1dae 7b3d
00000220: d323 e3bc 30e4 1ebd b63c d7bb 7b44 2f3d
00000230: 15e7 083d e44b 8d3d 9b61 323d 8132 b53c
00000240: c83a de3c a6c3 c7bc d2a2 16bd de42 3a3c
00000250: de89 323d f323 a43c 9deb 213d 82e9 efbc
00000260: 3051 933d be0f 38bd a96b f43c 5c8a 2abd
00000270: dbd3 b3bb 5207 15bd aeb3 7cbc b12d 1abd
00000280: 2ce0 0e3d d304 62bd 1caf d73c 3322 ee3c
00000290: 8e08 f3bc afaf 58bd e3d6 1e3d 54dc 6ebc
000002a0: 9581 84bd c97d 343d d774 8b3d aa96 a83c
000002b0: 945f c33c 64d0 783d 8af9 fb3c 1a2a 2a3c
000002c0: 5b1c 87bd 7d1a 65bb d8a7 bfbc 65e9 0abd
000002d0: 026c 19bd ac18 903c 6300 f63c 2a63 543d
000002e0: 42f6 abbc 7fd6 f9bc adb0 163d 8cac 31bd
000002f0: 0a96 d1bc 6d6b 73bc 5e49 d2bc d914 113d
00000300: 8fb5 f53c fd5c 3c3d 05bb 27bd 66a5 6fbd
00000310: 08c6 583d f3f3 12bd 920c 81bd 207f 0cbd
00000320: 731c ed3c cb28 c3bc 9f38 dbbc 76b3 13bd
00000330: 2888 e5bc 0540 cbbb 2b9a be3b 3184 5a3d
00000340: 046d 233d 7123 0b3c d202 55bd ce28 ce3c
00000350: 1627 0f3c ac6c e5bc dd94 353d 1501 42bc
00000360: 7aa3 5b3d 987e 173d 06ee 10bd b114 29bd
00000370: c4ee a13c ad61 e33c 9f3e 493c c53c f1bc
00000380: 1660 19bd d999 e8bb d7c8 3ebd f4fe 2ebd
00000390: 086e 22bd 3773 123d 90f2 cabc 45ef 8f3d
000003a0: 2d87 b13b 0bb9 53bd 27b8 473c 7e49 253d
000003b0: 4e42 44bd ec10 59bd e517 03bd e638 14bd
000003c0: 90a4 d8bc 1e9c 8e3d 920f e43c 4d1d c5bc
000003d0: 0548 783d 00e5 2fbd e108 1ebd 4a67 673d
000003e0: 7e8c 84bd 8bd5 63bd 0dbc cb3c a1a1 2dbd
000003f0: e489 b53c 8115 433d 66e2 0b3d 9305 1ebd
-0.051886905 -0.025012242 0.060440384 0.032692775 0.04487502 0.013049492 -0.009216929 0.031556822
-0.039103944 -0.031195486 0.058919676 0.027775811 -0.021768637 -0.0076978724 0.01942261 -0.039746355
0.0013894388 0.05036917 0.01303902 0.017068297 0.02985204 -0.021515308 -0.023240466 -0.01699163
0.055829324 -0.076558135 -0.034919575 -0.0263741 -0.026645204 -0.040128354 -0.059762366 0.03251222
0.03812769 -0.038595438 0.007775225 0.04372149 0.046596445 -0.032167226 0.06764944 -0.039473753
0.032797065 0.02897608 0.046978984 0.048842102 0.06924376 -0.026767941 -0.06947154 0.04109144
-0.035055265 0.00076666765 0.030787526 -0.04280526 -0.013468595 -0.054614212 -0.054942653 0.020417705
0.04100433 0.006526801 0.015906848 -0.017495025 -0.027775524 0.013754712 0.055784006 -0.031205025
-0.049911395 0.05218505 0.0006025235 0.058503356 0.027868647 0.01480524 -0.00967767 -0.06375004
-0.030867763 -0.05456213 0.012291543 0.01873263 0.054125797 -0.044705987 -0.035413485 -0.036587432
0.02047806 0.021059964 -0.04806907 0.056474168 -0.027661562 -0.04661308 -0.05567853 -0.045052294
0.056271024 -0.035353225 -0.05923278 0.024606422 0.049688432 -0.035253797 -0.043881945 -0.023993112
0.011386589 0.03545302 0.024812596 0.054611005 -0.013672994 -0.04499638 -0.061150447 -0.022921622
-0.008280742 0.0049777725 0.03238081 -0.024899967 0.05477243 -0.0052757426 0.012676834 0.05365603
0.04525404 -0.037721634 -0.035885405 0.0037626242 0.05931503 0.035881996 -0.009132224 -0.042203836
-0.04396801 -0.023535345 0.01784081 0.046186373 -0.023853209 0.03428788 0.025345417 0.038375676
-0.04771951 0.07670932 0.02899748 -0.011839935 0.028443273 -0.034951456 -0.026088778 0.061445344
-0.027727043 -0.038791835 -0.0065685166 0.042789917 0.033423502 0.068992406 0.043550115 0.022118809
0.027127638 -0.024385285 -0.03677637 0.011368481 0.04358851 0.020036673 0.03953134 -0.02928615
0.0719322 -0.044936888 0.029836493 -0.041635856 -0.0054879016 -0.036383934 -0.015423698 -0.03764123
0.034881756 -0.055180382 0.026328616 0.029069042 -0.029667165 -0.05290192 0.03877915 -0.0145788975
-0.06470028 0.04406527 0.06809395 0.020579655 0.023849286 0.06074561 0.030758638 0.010386014
-0.06597205 -0.0034958415 -0.023395464 -0.03391399 -0.03745652 0.01758989 0.030029481 0.051852383
-0.020991448 -0.030497788 0.036789585 -0.043377444 -0.02558424 -0.014857155 -0.02566975 0.035420272
0.0299938 0.045987118 -0.04094984 -0.058507346 0.052923232 -0.03587718 -0.06301226 -0.034300923
0.02894423 -0.023823163 -0.026760397 -0.03605982 -0.028019026 -0.0062027 0.005816718 0.053348724
0.039898887 0.008492337 -0.052004643 0.025165942 0.008737346 -0.02800592 0.04433142 -0.011841078
0.0536227 0.036985964 -0.035383247 -0.0412795 0.019767173 0.027756536 0.012282996 -0.029447922
-0.03744515 -0.007098418 -0.046578255 -0.04272361 -0.039655715 0.03575441 -0.024773866 0.07028059
0.0054177255 -0.051690143 0.012189901 0.04035329 -0.047914796 -0.052994654 -0.03200521 -0.036187075
-0.026445657 0.06963371 0.027839456 -0.024061823 0.06061556 -0.042943 -0.038582686 0.05649499
-0.06472109 -0.055623572 0.024869943 -0.04239047 0.022160478 0.04762793 0.034151457 -0.038579535

weight f4 [1, 256]
00000000: 5771 a1bd 7b1e ce3a c996 a03c 91f7 933c
00000010: 0e17 523c b994 113e 77cb 72bd e44f b93a
00000020: 01f0 8abd 1d83 26ba 610a eb3d 32d3 6e3d
00000030: 004d a0bd eaa0 eb3d 98a8 83bb eae2 3abe
00000040: ed5c 663d 94ce 203d d8b1 a73b b803 7a3d
00000050: 74b6 273d 0966 cebc 4273 9a3a dd52 33bd
00000060: f1b6 923d 3c56 0fbe e3f3 5dbc e6b1 9cbd
00000070: 1ca9 9bba e0b9 aebd fa05 4bbd 16ec 053d
00000080: b61a 8d3c cc41 95ba fc66 143e d6bc 2a3d
00000090: 27c4 563d b910 d0bc 8863 0b3e 3bfa 8bba
000000a0: 1193 a23b 7ca1 9d3c 7f28 2e3d fe1f 743d
000000b0: 8792 493e 3720 943a 893a febc 74f0 8f3b
000000c0: 3bdd f7bd 3b3c 86bd 8a23 493c f288 a6bb
000000d0: 3aee 53bb 6060 5ebd 61e9 75bd 3eda b23d
000000e0: 396e 543d dbcc 9c3c 3302 2f3e 870f a2bd
000000f0: fcdb 3d3b 4967 6f3d 83ce e23d f2fb c6ba
00000100: faf6 03bb 77df 083e c267 863a 9774 663d
00000110: fe10 acbb 891d 5dbb 8cc8 84bd 1b18 e1bd
00000120: 3b8b 9cbd b14e 37bc 56a9 bd3d ac0b c1ba
00000130: 6831 1d3d e971 9fbb bb7e 35be b007 c1bc
00000140: 5f09 b73b 6aab 12ba 840c e0bd 58d4 cb3d
00000150: e4e3 01bc 68d5 b0bd 3afd 5fbd 5986 22be
00000160: d397 413d 41fa d7bc c03c 80bd 2923 063b
00000170: fbe1 0f3d 803c d8b9 6688 f6bc 7f7a b03a
00000180: 1da1 1a3b 27fd b33b 04f7 243c 4892 fe3c
00000190: a9d2 81ba 480e 97bd 1547 58bc b911 dcbb
000001a0: 9a88 cebd a989 bfba b34d ca3a 3315 9339
000001b0: 8d77 693d 51e3 7d3b 32a1 56bb 1a1e 383e
000001c0: 20a2 683c c5fc 1abd 4148 41bd 79b1 8e3a
000001d0: fe50 213d 9181 2abb ddac a7ba e855 d6bc
000001e0: faf6 81bc ce78 4ebd 906b ad3b 13ee cd3b
000001f0: 4721 79ba 7092 253b ca97 d43d 2136 873b
00000200: e693 d9bc bbee 113e 2939 a4bb 505c ccbd
00000210: 0f33 2138 1b49 feba 75f3 80bd fae1 463d
00000220: c282 acbd 354a f7bb 6fd1 30be 7e83 9f3d
00000230: a374 d939 787a 773d 4830 b33d 9b2f 2cbb
00000240: 9761 9e3a 9ede a1bd 0fff 68bc 4189 313a
00000250: 35dd 143e 44f1 463d 4f80 9a3c 7bfd 1bbd
00000260: 5584 db3c ddc9 dcbd b45e 3f3b 8eae e9b9
00000270: 2e8b 7c39 fdbe 7239 6e29 a2bd 77bd d8bd
00000280: a137 863d f3b6 26be 103a c7b8 56b8 50bb
00000290: e82c 89bd 7c0f 69bd e46c e83d 6852 b7bd
000002a0: d3c6 aebd 333d c63c 45fe 0a3e 588f a9ba
000002b0: 8f59 b83d c12a 9f3d 2533 ea3d 5a4c 333d
000002c0: ceb4 1fbe 73d4 44bd bd93 01bd e1ea c0ba
000002d0: a8fb cdbd 27cd 18bb acab e839 2100 9d3c
000002e0: c722 91bc b525 b9bc 1058 053a aab4 bfbd
000002f0: 9bd8 83bd 1c44 6dbd 686e e5bd ab9b dc3b
00000300: 3b8e 8f3d 914a 343d 739e cebd 2ff9 cdbd
00000310: 7165 533d 9df2 f8bc 0d42 40bd 4415 d5bd
00000320: e5d0 1b3e dd41 7dbd 6e8a 1dbc 39eb 9ebc
00000330: 5d73 223b ed49 a9b9 4d7f 303b b9d0 f93d
00000340: ce8a 883d 97be 423e 4cbf adbc 9215 1f3c
00000350: 9313 533b 0544 353b 9bb0 313d 2d30 dcbb
00000360: 65a2 ed3d 61bf 3a3b d291 58bb 790c 94bc
00000370: 7bcc e1ba 7112 803b b151 d63d 2dfc 36bc
00000380: c1c4 003a ae88 93b9 685b febc a991 99bc
00000390: ed26 a5bd 5122 063d b92a c8bd 5e6c da3c
000003a0: e062 9a3c 996f c0bd f330 af3c f057 e83c
000003b0: 537e 87bd 7bfa 33bd a41b 2dbe 653f ecbb
000003c0: 814b 3dbd 8a6c 443e 9a3f 813d 1157 d43b
000003d0: e075 d73d 78ee 28be 4820 47bd a119 7e3d
000003e0: 3880 c4bd cb22 75bd 0055 e43b 692e 98bb
000003f0: 2863 f93d 5326 5c3c 1682 7e3a 0f41 0e3b
-0.07882946 0.0015725637 0.01960315 0.018062385 0.0128228795 0.1421689 -0.05927607 0.0014138189
-0.06784058 -0.0006351935 0.11476589 0.05830688 -0.078271866 0.11505301 -0.0040179007 -0.18250623
0.056240965 0.03925951 0.005117636 0.061038703 0.040945485 -0.025195139 0.0011783617 -0.043780196
0.071637996 -0.1399774 -0.013546917 -0.07651119 -0.001187596 -0.085315466 -0.049566247 0.032695852
0.01722465 -0.0011387407 0.1449241 0.041683994 0.05243316 -0.025398599 0.13612187 -0.0010679433
0.0049613793 0.01924204 0.04251909 0.059600823 0.19684802 0.0011301105 -0.031033771 0.004392678
-0.12102743 -0.06554457 0.01227654 -0.005082243 -0.003233804 -0.05429113 -0.06003702 0.08733033
0.05186293 0.019140651 0.17090683 -0.07913118 0.0028970232 0.05844811 0.11074545 -0.0015181287
-0.0020136223 0.13366495 0.0010254311 0.056263532 -0.005251049 -0.0033739528 -0.06483564 -0.10990926
-0.076437436 -0.011188195 0.09260814 -0.001472821 0.038377196 -0.004865874 -0.17724125 -0.023563236
0.005585834 -0.00055950007 -0.10939887 0.09952611 -0.0079278685 -0.08634454 -0.054684855 -0.15871562
0.04726393 -0.026364448 -0.06261587 0.0020467734 0.03512762 -0.00041243806 -0.030094337 0.0013464241
0.0023594566 0.0054928246 0.010068659 0.031075612 -0.00099047 -0.07375771 -0.013200541 -0.00671598
-0.100846484 -0.001461317 0.0015434533 0.0002805382 0.056998778 0.0038740227 -0.0032749888 0.17980233
0.01419881 -0.037838716 -0.047188047 0.0010886631 0.03938388 -0.002601717 -0.0012792606 -0.02616401
-0.015864838 -0.050408177 0.0052923635 0.006284484 -0.0009503555 0.0025264286 0.10380514 0.0041263257
-0.026559781 0.14251225 -0.005011697 -0.09978545 3.8432943e-05 -0.0019400449 -0.06296436 0.04855535
-0.084233776 -0.007546688 -0.17267393 0.07788752 0.00041476366 0.06041953 0.08749443 -0.0026273492
0.0012083527 -0.07903789 -0.014220967 0.00067724666 0.14537509 0.048569933 0.01886001 -0.038083535
0.0267965 -0.1078069 0.0029200735 -0.00044571277 0.00024084441 0.00023150067 -0.07918058 -0.105830126
0.06553579 -0.16280727 -9.4998744e-05 -0.0031848154 -0.06698018 -0.056899533 0.11348894 -0.089512646
-0.085340165 0.024199104 0.13573559 -0.0012936397 0.09001457 0.077718265 0.11435536 0.043773986
-0.15596315 -0.04805417 -0.031635035 -0.0014718437 -0.10057765 -0.002331564 0.00044378394 0.0191651
-0.017716778 -0.022600988 0.00050866697 -0.09360631 -0.064377986 -0.057926282 -0.11202699 0.0067324243
0.0700955 0.044016425 -0.100888155 -0.100572936 0.051610414 -0.030389125 -0.04693799 -0.10404447
0.15216406 -0.06183039 -0.009615524 -0.019399272 0.0024788 -0.0003228927 0.0026931346 0.12198014
0.066671 0.19018017 -0.021209382 0.009709733 0.0032207712 0.002765895 0.043381315 -0.00671961
0.1160324 0.0028495418 -0.00330459 -0.018072354 -0.0017227078 0.0039084484 0.104648 -0.011168522
0.0004912131 -0.0002813986 -0.031049445 -0.018746214 -0.08064065 0.03274757 -0.09773774 0.026663002
0.018845975 -0.093962856 0.021385645 0.028362244 -0.06615891 -0.04394005 -0.16905075 -0.0072097057
-0.046214584 0.1918203 0.06310959 0.0064801057 0.1052053 -0.16497219 -0.04861477 0.06203616
-0.09594768 -0.059847634 0.0069681406 -0.0046442044 0.12177116 0.013436872 0.00097087154 0.0021706258
