trained_models/ppo/me5418-Cassie-v0/0524-16-20-23-s42/critic.pt (torch, 319998 bytes, 5 tensors)

weight f4 [256, 50]
0	0x3d81bd2b	0.06334909
1	0x3d4b5649	0.049642835
2	0x3cc3ff2d	0.023925388
3	0x3debc1ec	0.11511597
4	0x3cf742ba	0.030183185
5	0xbb9ebc6e	-0.00484424
6	0xbdc44d9a	-0.09585114
7	0x3db3a1eb	0.08771118
8	0x3e2da533	0.1695755
9	0x3cdd8c90	0.027044564
10	0xbd7a394c	-0.0610898
11	0xbc22b5d9	-0.009931051
12	0xbcb1f842	-0.021724824
13	0x3cda6a97	0.026662154
14	0x3b6f903e	0.003655448
15	0x3c640435	0.013917019
16	0xbd135b90	-0.035975993
17	0x3d09e1c4	0.033662573
18	0xbd24ff44	-0.040282503
19	0xbd3aa4e8	-0.045567423
20	0xbcf93528	-0.030420855
21	0xbdc1e998	-0.094683826
22	0xbd8ed7ce	-0.06974755
23	0x3c99e20b	0.018784543
24	0x3d353394	0.04423864
25	0xbb736866	-0.0037141084
26	0xbd830cf4	-0.06398955
27	0x3d4492c5	0.047991533
28	0xbc0b50f7	-0.00850319
29	0x3d2895cf	0.041158494
30	0x3d8b4372	0.067999735
31	0xbc859500	-0.0163064
32	0xbd465ee1	-0.048430327
33	0x3b064e80	0.0020493567
34	0xbd06be80	-0.03289652
35	0xbdb825e3	-0.08991601
36	0xbd9529c8	-0.0728336
37	0x3e208c66	0.15678558
38	0x3cd2b492	0.025720868
39	0xbde9649b	-0.11396142
40	0x3d6c1772	0.057639547
41	0x3d0af171	0.033921663
42	0xbddebd42	-0.10875942
43	0xbd009d4b	-0.031400006
44	0x3ce8137a	0.0283296
45	0x3dd5131f	0.10404038
46	0xbd9db447	-0.07700401
47	0x3d12fae2	0.03588379
48	0xbe4ac765	-0.19802625
49	0xbe0050a5	-0.12530763
50	0xbb91acec	-0.0044456627
51	0xbc9ee6ef	-0.019397227
52	0xbdc40b99	-0.095725246
53	0x3cb350ba	0.02188908
54	0xbcd8d74d	-0.02646985
55	0x3bb3c2e5	0.0054858797
56	0xbdbb45af	-0.091441505
57	0x3d1fa715	0.0389777
58	0x3b01c7e8	0.0019802991
59	0xbdbebeb0	-0.093137145
60	0x3d3c949a	0.046040155
61	0xbb2e8940	-0.00266321
62	0x3d8ad419	0.06778736
63	0x3de5c228	0.11218673
64	0x3cb974f4	0.022638775
65	0x3da81b4c	0.082083315
66	0x3df06d21	0.11739565
67	0xbc8dfe13	-0.017333066
68	0x3cc1775a	0.023616482
69	0x3d575a54	0.052576378
70	0xbe07703e	-0.13226411
71	0xbdfaf3c0	-0.12253523
72	0xbc88c51c	-0.016695552
73	0x3cb4a107	0.02204944
74	0xbe006736	-0.12539372
75	0x3dc5a5c9	0.09650762
76	0x3d894a0c	0.067035764
77	0x3daa25ca	0.08307989
78	0xbc099e83	-0.008399609
79	0xbcd56551	-0.026049288
80	0x3d7c756c	0.06163542
81	0x3db577f6	0.08860771
82	0xbd65a24f	-0.056062993
83	0x3d4cd72f	0.050009903
84	0x3cedd9b5	0.029034475
85	0x3dc863e3	0.09784677
86	0x3d6555d6	0.055990063
87	0x3d5eb603	0.0543728
88	0x3d882b37	0.066488676
89	0x3cf467d3	0.029834663
90	0xbc9002d0	-0.017579466
91	0x3c172877	0.009225956
92	0xbd2bb1cf	-0.04191762
93	0x3ce2eb77	0.027700169
94	0x3ca07eb7	0.019591672
95	0x3cad6e93	0.02117089
96	0x3d8bfbf4	0.068351656
97	0xbd16aba4	-0.036784783
98	0xbcea4184	-0.028595693
99	0xbdc84e61	-0.097805746
100	0xbd9cc7ed	-0.0765532
101	0xbda80231	-0.08203543
102	0xbcdc23c5	-0.026872525
103	0xbdd2ba9a	-0.10289498
104	0xbddb3850	-0.107041
105	0xbda3e019	-0.080017276
106	0x3dbb9340	0.09158945
107	0x3d823119	0.06357021
108	0xbe41dd3c	-0.1893205
109	0x3db8aa59	0.09016866
110	0xbdc09f64	-0.09405401
111	0x3d3b5746	0.045737527
112	0x3b770d89	0.0037697277
113	0xbd90a2bf	-0.07062291
114	0x3e012108	0.12610257
115	0x3d08fc19	0.033443544
116	0x3d72d104	0.059281364
117	0xbd23bec8	-0.039976865
118	0x3c569b16	0.013098499
119	0xbdb12a43	-0.08650639
120	0x3d14f9b5	0.03637095
121	0x3ceddfb9	0.029037343
122	0x3bbb3110	0.005712636
123	0x3bc1e04a	0.00591663
124	0x3d401087	0.04689076
125	0xbdb11bc9	-0.08647878
126	0x3cf7279c	0.030170254
127	0x3ceea8e3	0.029133266
128	0x3d250a3f	0.040292975
129	0x3bd87b3a	0.0066064866
130	0xbba7e8a3	-0.005124168
131	0xbb8225df	-0.0039717997
132	0xbb2fe8b4	-0.0026841583
133	0x3c0ddf36	0.008659175
134	0x3d939911	0.072069295
135	0x3ddfb3e8	0.10922986
136	0x3db420cd	0.08795319
137	0xbc090111	-0.008362071
138	0x3d93f406	0.07224278
139	0xba24e323	-0.00062899495
140	0xbd14c523	-0.036320817
141	0xbccd7d01	-0.02508402
142	0x3e1dec5b	0.15422194
143	0x3d86bd6b	0.06579097
144	0x3c9b9a39	0.018994438
145	0x3da46886	0.08027749
146	0xbd80e616	-0.062938854
147	0xbdbaabb6	-0.091147825
148	0x3d7a154f	0.061055478
149	0x3d8117c2	0.063033596
150	0x3d3fb6cb	0.046805184
151	0x3e1c0e37	0.15239798
152	0xbdd90d4d	-0.1059824
153	0x3d88904b	0.06668147
154	0x3de5241d	0.11188529
155	0x3d0cd242	0.034380205
156	0xbc2c55bc	-0.010518488
157	0xbcf21720	-0.029552042
158	0xbcff549c	-0.031168275
159	0xbd6e7eed	-0.058226515
160	0xbe233303	-0.15937428
161	0xbc806bdf	-0.015676437
162	0xbbd1a2cb	-0.0063975803
163	0x3cddd4e1	0.027079048
164	0xbd1e3b11	-0.03863055
165	0x3d7ff19f	0.062486287
166	0x3dc3f2f2	0.095678225
167	0x3c2a01d1	0.01037641
168	0xbd8cd60b	-0.06876763
169	0x3d1c71f5	0.038194615
170	0xbcc2a8aa	-0.023762066
171	0x3c75c632	0.015000867
172	0xbd59af13	-0.05314548
173	0x3e00b6ac	0.12569684
174	0x3d166a47	0.036722448
175	0x3d2c00ae	0.041992836
176	0x3d73bc8e	0.05950599
177	0xb9a2a9f8	-0.00031025684
178	0xbd9edb00	-0.07756615
179	0xbc57fa1f	-0.013182192
180	0x3d163162	0.03666819
181	0xbdd75f19	-0.10516185
182	0x3951ea7e	0.00020019148
183	0x3cd74311	0.026277097
184	0xbd9d6430	-0.07685125
185	0xbc8d49da	-0.01724713
186	0x3d81ae3d	0.063320614
187	0x3c58b973	0.013227808
188	0x3d16a16c	0.036775038
189	0x3c696782	0.01424587
190	0x3d27fc6e	0.04101222
191	0xbcd99669	-0.026560979
192	0x3d3ea608	0.04654506
193	0x3dab50a3	0.083649896
194	0xbca2932a	-0.019845564
195	0xbdcfb430	-0.1014179
196	0xbd8876cd	-0.066632845
197	0x3c91ae6f	0.017783372
198	0xbc603537	-0.013684562
199	0xbdc21f41	-0.094786175
200	0x3d086f78	0.03330943
201	0xbc8a5381	-0.01688552
202	0xbd1f01b5	-0.038819987
203	0xbc81971b	-0.015819123
204	0x3d7238b1	0.059136096
205	0x3d9ed5c5	0.07755617
206	0xbe0dc88a	-0.13846031
207	0xbdfaacaf	-0.12239968
208	0x3ddaf523	0.10691287
209	0xbe085941	-0.13315298
210	0xbd098659	-0.03357539
211	0x3bb7c54a	0.0056082355
212	0xbda17f83	-0.07885649
213	0x3c93b224	0.01802928
214	0x3cad87ff	0.021183012
215	0x3d039a3b	0.032129508
216	0xbba86848	-0.0051393844
217	0x3decbc42	0.11559345
218	0x3d00544c	0.03133039
219	0x3b211496	0.002457892
220	0x3d8f063b	0.0698361
221	0x3c620ce1	0.013797016
222	0x3c3ba142	0.011452021
223	0xbda51c5d	-0.080620505
224	0x3d0579dd	0.03258692
225	0xbd000fb6	-0.031264983
226	0xbc9e9b5d	-0.019361192
227	0x3da5b063	0.08090284
228	0x3ca4d2f6	0.020120125
229	0x3c405afe	0.011740444
230	0x3c230f94	0.009952445
231	0x3def4069	0.11682207
232	0x3da7340f	0.08164226
233	0xbd8b277f	-0.06794643
234	0x3d5197f8	0.05117032
235	0x3d1a7314	0.037707403
236	0x3d34fc8b	0.044186156
237	0x3bdc6360	0.0067257136
238	0xbce57cbb	-0.028013578
239	0xbdb87038	-0.09005779
240	0xbc80491e	-0.015659865
241	0x3b662fc5	0.0035123688
242	0xbd7243b0	-0.059146583
243	0xbcf796e6	-0.030223321
244	0xbd16b301	-0.036791805
245	0x3d36e609	0.044652972
246	0xbbde7093	-0.0067883222
247	0x3ccd7cfb	0.02508401
248	0x3cbdb3af	0.023156969
249	0x3c856549	0.016283648
250	0xbd0a0e65	-0.033705134
251	0x3c86353f	0.016382812
252	0xbc9076ba	-0.017634738
253	0x3e2f8938	0.17142189
254	0x3d8ae25d	0.067814566
255	0xbd1465e3	-0.03622998

bias f4 [256]
0	0xbcb32d9f	-0.02187234
1	0xbb6a0977	-0.0035711208
2	0x3c954f6c	0.018226348
3	0xbcbdb506	-0.023157608
4	0xbc8d43b1	-0.017244192
5	0xbbb7cd5e	-0.0056091985
6	0xbb1bb33a	-0.002375795
7	0x3c8b6433	0.017015552
8	0xbba309dc	-0.0049755406
9	0xbcd935cb	-0.026514908
10	0xbc9be305	-0.01902915
11	0xbc8148d5	-0.0157818
12	0xbb44d3f4	-0.003003356
13	0x3b9ce42d	0.004787943
14	0xbc8a856c	-0.016909324
15	0xbc6c3338	-0.014416508
16	0x3c404211	0.011734501
17	0xbc76c9de	-0.015062777
18	0xbcdab8b5	-0.026699403
19	0xbd07a0c2	-0.033112295
20	0xbbfa263c	-0.0076339524
21	0x3d0a1ac0	0.033716917
22	0xbc748105	-0.014923339
23	0xbc9ae622	-0.018908564
24	0x3cc52b7a	0.024068583
25	0x3bbfaa40	0.005849153
26	0x3aac61c5	0.0013151696
27	0xbbd0d211	-0.006372698
28	0x3c7073a0	0.014676005
29	0x3b2b9f97	0.0026187652
30	0x3af99336	0.0019041065
31	0x3b038572	0.0020068553
32	0x3c5c598b	0.013449083
33	0xbce4c86a	-0.027927596
34	0x3c0a0280	0.008423448
35	0x3ad3d8a8	0.0016162591
36	0x3a5d8cd1	0.0008451464
37	0x3c8fd197	0.017555995
38	0xbaeee450	-0.0018226001
39	0x3bb81dc8	0.0056187846
40	0x3cb24df1	0.021765681
41	0x3afc6a3f	0.0019257738
42	0xbc0d6602	-0.008630278
43	0x3b9a8069	0.0047150147
44	0xbc0927bf	-0.008371293
45	0xbcbc1b94	-0.022962369
46	0xbcb51f0a	-0.022109527
47	0xbcc39563	-0.023874944
48	0xbca420c1	-0.02003515
49	0x3bc048b6	0.005868043
50	0xbc25335d	-0.010083047
51	0x3bfab23e	0.0076506427
52	0x3a57e3fa	0.000823557
53	0xbb9c3b08	-0.0047677793
54	0xba0466ad	-0.00050507
55	0xbbaea3cd	-0.005329585
56	0x3ba5f427	0.0050645056
57	0xbbddc305	-0.006767633
58	0xbc7b1788	-0.0153254345
59	0x3c3e6072	0.011619674
60	0xbada7943	-0.0016668219
61	0xbc8d30d7	-0.017235203
62	0x3cfb1bf7	0.030652983
63	0x3b7cc216	0.0038567833
64	0xbb4ce7ae	-0.0031266022
65	0xbc5b8f26	-0.0134008285
66	0x3ce1a174	0.027542807
67	0x3c409a3b	0.011755521
68	0xbd2b9fe2	-0.041900523
69	0x3c06a4a8	0.008217968
70	0x3c0ad9ae	0.00847475
71	0x3b0538c1	0.0020328017
72	0x3be947ce	0.0071191555
73	0xbc6b80e8	-0.014373995
74	0x3c665492	0.014058249
75	0xbcb04e49	-0.021521704
76	0x3bba66f6	0.0056885434
77	0xbb9f65bb	-0.004864422
78	0xbcfd758a	-0.030939836
79	0xbcc690a0	-0.024238884
80	0xbca45d84	-0.020064123
81	0x3cb91156	0.022591274
82	0x3a0edcfc	0.00054497994
83	0x3c67ef2e	0.014156146
84	0xbc7c6868	-0.015405752
85	0xbc7119fe	-0.01471567
86	0x3ca1746f	0.01970884
87	0x3c56eccb	0.013117979
88	0x3c8d81f7	0.017273886
89	0xbcf3004b	-0.029663226
90	0xbc743a47	-0.0149064725
91	0xbbe565ef	-0.007000677
92	0xbb131246	-0.0022441312
93	0xbbe3095b	-0.0069286055
94	0xbc95ff28	-0.018310145
95	0xbb156608	-0.002279641
96	0x3d03ea77	0.032206025
97	0xbbf28ddc	-0.007402165
98	0x3c6bd5ed	0.014394266
99	0xbc3aeb39	-0.0114086205
100	0x3bf73f76	0.007545407
101	0xbc2e7ddc	-0.010650124
102	0xbc6cf823	-0.014463457
103	0xbb0fe0e7	-0.002195412
104	0xbc203c0c	-0.009779941
105	0x3c574987	0.013140089
106	0xbc605e24	-0.01369432
107	0x3c035457	0.008015714
108	0xbbe80d07	-0.007081631
109	0x3ac8277e	0.0015270559
110	0xbcbcbc4d	-0.023039008
111	0xb7b966b0	-2.2101536e-05
112	0xbbd05fb4	-0.006359065
113	0x3c29ffbf	0.010375916
114	0xbab29d09	-0.0013627122
115	0x3c5199d1	0.01279302
116	0xbbef627d	-0.007305442
117	0xbbd99c86	-0.0066409735
118	0x3c730467	0.014832593
119	0xbcb4c70a	-0.022067565
120	0xbc96f970	-0.018429488
121	0x3b59597b	0.0033164907
122	0x3cee3dd5	0.029082218
123	0x3c849255	0.016183058
124	0x3bab6790	0.0052308515
125	0xbc327e5e	-0.010894386
126	0x3c05e8bc	0.008173164
127	0x3b7a7026	0.0038213818
128	0x3c9390ba	0.018013347
129	0x3c8492a5	0.016183207
130	0xbb208954	-0.0024495916
131	0x3c17ee26	0.009273088
132	0x3c29e785	0.01037014
133	0xbbf58237	-0.0074923295
134	0xbd141e67	-0.036161806
135	0x3cf60543	0.030031806
136	0x3cf2f3ca	0.029657263
137	0xbc3ad88f	-0.011404171
138	0x3b0d4766	0.002155745
139	0x3cd73071	0.026268216
140	0x3bfc0434	0.0076909307
141	0xbb42bb0f	-0.0029713546
142	0x3c39a391	0.011330501
143	0xbba9aebd	-0.005178301
144	0xbc2b9ec1	-0.010474862
145	0x3bffe171	0.007808857
146	0xbcbfc82b	-0.023410877
147	0x3c723aa1	0.014784486
148	0x3bc27954	0.0059348736
149	0xbad8d92a	-0.0016544212
150	0xbc8b4d61	-0.01700467
151	0xbca997ab	-0.020702204
152	0x3d0969d5	0.033548195
153	0x3d1070e0	0.035263896
154	0xbb2a27d5	-0.0025963683
155	0x3b5825d4	0.0032981532
156	0x38780260	5.913002e-05
157	0x3cedad17	0.0290132
158	0xbc6ada82	-0.014334323
159	0xbc41c232	-0.011826085
160	0xbc349f63	-0.011024329
161	0xbd18cce8	-0.03730479
162	0x3cc2ab07	0.023763193
163	0x3b7227ab	0.0036949913
164	0xbbbf2866	-0.0058336733
165	0xbc8d5b5e	-0.017255481
166	0x3be733e0	0.0070557445
167	0xbb50a74a	-0.0031837993
168	0x3cd240c7	0.025665654
169	0x3c448875	0.0119954245
170	0x3cb26bd2	0.021779928
171	0x3b28aa2b	0.0025736194
172	0xbbc2e661	-0.0059478735
173	0xbcb0e877	-0.021595223
174	0x3cb7053c	0.022341363
175	0xbb7aeefa	-0.0038289414
176	0x3c7fbde6	0.01560924
177	0x3c642e9b	0.013927127
178	0xbbc10447	-0.0058904025
179	0xbcc7c7f9	-0.024387347
180	0x3cae233e	0.02125704
181	0xbc0d45ff	-0.008622645
182	0x3c05ab22	0.008158477
183	0x3c245697	0.01003041
184	0xbad23da5	-0.00160401
185	0xbb310d29	-0.00270159
186	0xbb823ac8	-0.0039742924
187	0x3c56d60f	0.013112559
188	0xbc35f4a3	-0.011105689
189	0xbcf0e4ec	-0.029406033
190	0xbb4d6aeb	-0.0031344246
191	0xbbffd13d	-0.0078069256
192	0xbcc6750a	-0.02422573
193	0xbd288148	-0.041138917
194	0xbca9bdb9	-0.02072035
195	0xbc98d5cb	-0.018656632
196	0x3ba6c39e	0.0050892374
197	0x3cbeb088	0.023277536
198	0xbadda698	-0.0016910611
199	0x3a88ad63	0.001042765
200	0xbc527283	-0.0128446845
201	0x3c24084c	0.010011744
202	0xbccafd67	-0.024779035
203	0x3b2b1f01	0.002611101
204	0xbae912a3	-0.0017782043
205	0x3ce71249	0.028206961
206	0x3ccfdfe5	0.025375316
207	0x3a4b2f89	0.0007750919
208	0x3c9812f1	0.01856372
209	0xba91ee84	-0.0011133705
210	0x3bb6c3da	0.0055775465
211	0xbc2bdde3	-0.010489914
212	0xbc1687c4	-0.0091876425
213	0xbbc47f04	-0.0059965868
214	0xbd1c27c6	-0.03812387
215	0xbce3cbe4	-0.027807184
216	0x3bc4c75a	0.00600521
217	0xbc3e0b29	-0.0115993405
218	0xbc887c37	-0.016660793
219	0xbbff093b	-0.007783083
220	0x3cc3cd0c	0.023901485
221	0xbd14031f	-0.03613579
222	0x3a935cbc	0.0011242847
223	0x3c84e5ec	0.016222917
224	0xbbf0ae51	-0.007344999
225	0xbc093d8d	-0.008376491
226	0x3bc43e7b	0.0059888936
227	0x3c2ace41	0.010425151
228	0x3b2f6f64	0.0026769275
229	0x3c05eec6	0.008174604
230	0xbcc62889	-0.02418925
231	0x3ccaf06d	0.024772847
232	0x3b8ebe92	0.004356214
233	0x3d44d0f5	0.04805084
234	0xbd0006fc	-0.03125666
235	0x3bd1d165	0.0064031356
236	0x3c04cb64	0.008105133
237	0xbc6ba575	-0.01438271
238	0xbcf2beb9	-0.02963196
239	0xbb910d1a	-0.0044266107
240	0x3ce61e42	0.0280906
241	0x3d01cbb6	0.031688415
242	0x3cded171	0.027199479
243	0xbc148bbc	-0.009066518
244	0x3cc55b6e	0.024091449
245	0x3a00a7bd	0.00049078075
246	0xbae74457	-0.0017644268
247	0x3c8e6690	0.01738289
248	0x3c2549ba	0.010088379
249	0x3c954791	0.018222602
250	0xbc17873d	-0.009248552
251	0x3b4bb3ac	0.0031082435
252	0x3c375028	0.011188544
253	0x3cce57f0	0.025188416
254	0x3c498b84	0.0123013295
255	0x3b2cdd10	0.002637688

weight f4 [256, 256]
0	0xbdc0e295	-0.09418217
1	0x3d546bb7	0.051860537
2	0x3d8da734	0.06916657
3	0xbd45f37e	-0.048327915
4	0x3d17a252	0.037020035
5	0xbe013c44	-0.12620646
6	0x3db796b8	0.08964294
7	0x3c1572e3	0.009121629
8	0x3cdb0e85	0.026740322
9	0xbd94ddc3	-0.0726886
10	0xbbbf92e9	-0.0058463705
11	0xbd87e152	-0.06634773
12	0xbcadbf7a	-0.021209467
13	0x3dc07045	0.09396414
14	0x3c37baac	0.01121394
15	0xbd810a32	-0.06300773
16	0x3c7a3a55	0.0152726965
17	0xbdcb51db	-0.09927722
18	0x3c46ca80	0.012133241
19	0x3d99a885	0.07502846
20	0xbc695915	-0.01424243
21	0xbbb343f8	-0.005470749
22	0x3cfecf2d	0.031104648
23	0x3d81b034	0.06332436
24	0x3d24e64f	0.040258702
25	0xbc74a1ef	-0.014931186
26	0xbdc61112	-0.09671225
27	0x3ba555a0	0.0050456077
28	0xbd7caae4	-0.06168641
29	0xbb5a9857	-0.0033354962
30	0x3bf36b11	0.007428535
31	0xbd36f13f	-0.044663664
32	0x3db91549	0.09037263
33	0x3c977fa3	0.01849348
34	0xbb8188bc	-0.0039530676
35	0x3d0a5323	0.03377069
36	0x3de0a6cd	0.10969315
37	0x3c0268f3	0.007959592
38	0xbd852667	-0.06501465
39	0x3e03b5cd	0.1286232
40	0x3c9716b2	0.01844344
41	0xbcc9e568	-0.024645522
42	0x3cbb85b7	0.022890909
43	0x3db2a592	0.08722986
44	0xbd28fbe0	-0.04125583
45	0x3c6233af	0.013806268
46	0xbcc8df5e	-0.024520572
47	0xbd8dc080	-0.06921482
48	0xbe13986f	-0.14413618
49	0x3d8366de	0.06416105
50	0xbdb7ae77	-0.089688234
51	0xbc18bdf6	-0.009322634
52	0xbe051b2d	-0.12998648
53	0xbc930c64	-0.017950244
54	0xbd9259cc	-0.07146034
55	0x3d890c9e	0.0669186
56	0xbe0d78c0	-0.13815594
57	0x3d60349e	0.05473768
58	0x3c7f1ddf	0.015571087
59	0x3cc9f6c0	0.024653792
60	0x3d97faaf	0.07420861
61	0x3da4f599	0.080546565
62	0x3db8f2be	0.090306744
63	0x3ceceb0d	0.028920675
64	0x3d5a7a30	0.053339183
65	0x3d5b430a	0.05353073
66	0xbc5761df	-0.013145893
67	0x3d669248	0.05629185
68	0x3cad2c89	0.0211394
69	0xbc8a147b	-0.016855469
70	0xbb884881	-0.0041590338
71	0xbc8e29e3	-0.017353958
72	0x3d315e26	0.043302678
73	0xbd56fe4f	-0.05248862
74	0x3d52e11f	0.051484223
75	0xbd661c60	-0.056179404
76	0xbc5bbea9	-0.013412156
77	0xbdccad71	-0.09994019
78	0x3a95d894	0.0011432343
79	0xbd2aeadc	-0.041727886
80	0x3cb83318	0.0224853
81	0xbce27be0	-0.027646959
82	0xbae3d724	-0.0017382842
83	0x3bb7ce28	0.0056092925
84	0xbce027b9	-0.027362691
85	0xbddd4fec	-0.108062595
86	0xbc8f3d51	-0.017485293
87	0xbca8d1d2	-0.020607863
88	0xbd1113d8	-0.035419315
89	0x3e15af7f	0.14617728
90	0x3d6605c5	0.056157846
91	0x3c21fe6c	0.009887319
92	0xbd65e5a2	-0.056127198
93	0x3bb19d2a	0.0054203467
94	0xbcfa01dc	-0.030518465
95	0x3d3425d7	0.0439814
96	0x3d957174	0.0729703
97	0xbcd466d9	-0.025927948
98	0x3bdf0c10	0.006806858
99	0x3d8496d9	0.064740844
100	0xbcdb90c6	-0.026802432
101	0xbd38bd8b	-0.045102637
102	0xbe06001a	-0.13085976
103	0x3c8390d8	0.016060278
104	0xbd5441b7	-0.051820483
105	0xbd9d51ed	-0.07681642
106	0xbd8126c3	-0.06306221
107	0x3e40071c	0.18752712
108	0xbbb06e02	-0.0053842077
109	0xbcc68fcf	-0.024238495
110	0xba3372a2	-0.000684539
111	0x3dfb54b7	0.122720174
112	0x3d46e1fe	0.048555367
113	0xbccec5b1	-0.025240751
114	0x3b56b9bd	0.0032764517
115	0xbb90ec89	-0.0044227284
116	0xbd0a9f9a	-0.033843614
117	0x3dfd2930	0.123613715
118	0x3de9457e	0.11390208
119	0x3cf662c1	0.030076386
120	0x3d387f71	0.045043413
121	0xbd75b808	-0.05998996
122	0x3dcd9d05	0.10039715
123	0xbd242230	-0.040071666
124	0xbc9d15dc	-0.019175462
125	0x3c4e397f	0.01258695
126	0x3dc81d30	0.09771192
127	0xbd47b1d8	-0.04875359
128	0xbc9168b3	-0.01775012
129	0x3dc08917	0.09401148
130	0xbd4241a2	-0.047425874
131	0x3d9d60b0	0.07684457
132	0xbde35f8c	-0.111022085
133	0xbc352087	-0.011055118
134	0x3dbeada1	0.09310461
135	0x3c709a6a	0.014685253
136	0xbb9c0bab	-0.004762133
137	0xbdb80056	-0.08984439
138	0xbd856167	-0.06512719
139	0x3e264267	0.16236268
140	0x3d78f67a	0.060781933
141	0xbc16e1b8	-0.009209089
142	0xbdd87be5	-0.10570506
143	0xbd8da8c9	-0.06916959
144	0xbe094e77	-0.13408838
145	0x3cff7680	0.031184435
146	0xbd902be9	-0.07039625
147	0x3dfd953c	0.1238198
148	0xbc0c7560	-0.008572906
149	0x3e0e286f	0.13882612
150	0x3e23f0ff	0.16009901
151	0x3d5b657f	0.05356359
152	0x3d63756a	0.055531897
153	0x3b8b897b	0.0042583323
154	0xbd87383d	-0.066025235
155	0xbd06ffef	-0.03295892
156	0x3d87dd96	0.06634061
157	0x3dc9d6be	0.09855412
158	0xbd43d285	-0.04780819
159	0xbc8e221a	-0.017350245
160	0xbdb4cdc7	-0.088283114
161	0xbe0a5335	-0.13508303
162	0x3bdae3dc	0.006679995
163	0x3da4edfb	0.08053204
164	0xbdc1147b	-0.094277345
165	0x3bfd86e8	0.0077370293
166	0xbd5f4e69	-0.054518137
167	0x3d5108bb	0.051033717
168	0x3c281157	0.01025804
169	0x3da64a10	0.08119595
170	0xbc99b13b	-0.018761268
171	0x3d8c4ec7	0.06850963
172	0x3d60e7bb	0.054908495
173	0x3bf6b711	0.0075291474
174	0xbda8e33b	-0.08246466
175	0xbe136a73	-0.14396076
176	0x3df94f2c	0.12173304
177	0x3d0639ca	0.032769956
178	0x3c972972	0.01845238
179	0x3bebc465	0.007195043
180	0xb9b89a81	-0.0003521033
181	0x3c752b44	0.014963929
182	0x3cb51bf2	0.022108052
183	0xbc75c7c7	-0.015001244
184	0x3b06739a	0.0020515681
185	0xbc244c14	-0.010027904
186	0xbd85ccad	-0.065331794
187	0xbba2c446	-0.0049672453
188	0x3d7febe0	0.062480807
189	0x3dcd4d22	0.100244775
190	0x3da1ace9	0.07894308
191	0xbd535073	-0.051590394
192	0xbdd488b4	-0.103776366
193	0xbd7586f7	-0.059943166
194	0x3d678541	0.056523565
195	0xbd2f395c	-0.04277931
196	0x3dee577f	0.11637782
197	0xbe01aca7	-0.12663518
198	0xbb11b957	-0.0022235715
199	0x3c9f0b63	0.01941461
200	0x3d90b1d4	0.07065168
201	0x3dae7bbf	0.085196964
202	0x3d2ec088	0.04266408
203	0x3cc4a520	0.024004519
204	0xbd4d684b	-0.05014829
205	0xbcc49580	-0.023997068
206	0xbd933d5a	-0.07189436
207	0x3de0e00c	0.109802336
208	0x3e1b349e	0.1515679
209	0xbe08836c	-0.13331383
210	0xbde154d9	-0.110025115
211	0xbcc47d81	-0.023985626
212	0xbdd26eed	-0.10275064
213	0xbb19b1dd	-0.0023451962
214	0xbaa8bbfe	-0.0012873409
215	0xbd6a44fd	-0.0571947
216	0x3da1797d	0.078845
217	0xbce14bdd	-0.027501995
218	0x3d29a1f9	0.041414235
219	0xbd0715e8	-0.032979876
220	0xbda46b78	-0.080283105
221	0xbd957045	-0.07296804
222	0x3d6703ff	0.056400295
223	0xbd93340c	-0.071876615
224	0x3c5b99e9	0.013403394
225	0x3e028592	0.12746266
226	0xbb237e72	-0.0024947193
227	0x3bf15886	0.007365289
228	0xbcc13964	-0.023586936
229	0x3db97970	0.090563655
230	0xbd5a1316	-0.053240858
231	0xbcce6cd7	-0.025198383
232	0xbbfc696b	-0.0077029965
233	0x3c88c24a	0.016694207
234	0xbd128e8b	-0.03578047
235	0x3d996329	0.074896164
236	0x3d6bca48	0.057565957
237	0xbca12de9	-0.019675212
238	0x3d4c5377	0.049884286
239	0xbd869913	-0.06572165
240	0x3d2e620c	0.042573974
241	0x3d98aefe	0.07455252
242	0x3d83b205	0.06430439
243	0x3d6ae9e6	0.05735197
244	0xbd38b1be	-0.045091383
245	0xbbb1b921	-0.0054236804
246	0x3c35f741	0.011106313
247	0x3d22411c	0.039612874
248	0x3e0e5b5c	0.13902038
249	0xbcbb8de2	-0.022894803
250	0x3e0f9c0b	0.1402437
251	0x3ce9afed	0.02852627
252	0xbb0a3392	-0.0021087867
253	0x3d77f33f	0.060534712
254	0x3d22bc83	0.03973056
255	0x3db1942a	0.08670838

bias f4 [256]
0	0xbc3385a2	-0.0109571535
1	0xbc8f735d	-0.017511064
2	0x3cd5c457	0.026094599
3	0x3ce2784a	0.027645249
4	0x3d140d37	0.036145415
5	0xbcb700d7	-0.022339268
6	0x3cc2b5df	0.023768364
7	0xbbc178bb	-0.005904285
8	0xbc84f190	-0.016228467
9	0x3c5f3a08	0.013624676
10	0x3cb6fad9	0.02233641
11	0xbcfd8eec	-0.03095194
12	0xbcb9785b	-0.022640398
13	0x3c536895	0.012903352
14	0x3cb278d8	0.021786138
15	0xbc7c7d8e	-0.015410794
16	0xbc98829c	-0.018616967
17	0x3cad8e66	0.021186065
18	0xbc8f2562	-0.01747388
19	0x3cb47391	0.022027763
20	0xbcce01de	-0.025147375
21	0x3c9a1984	0.018810995
22	0xbd08dbf9	-0.033412907
23	0xbcb16a59	-0.021657156
24	0xbca36daa	-0.019949753
25	0x3c80c69f	0.01571971
26	0xbcad9b5b	-0.021192243
27	0xbc70c85e	-0.014696209
28	0x3cbd80c1	0.023132684
29	0xbca49a6d	-0.020093167
30	0xbcab938c	-0.02094438
31	0xbd0141e4	-0.03155698
32	0xbcaa4fad	-0.020789945
33	0xbc9a047c	-0.018800966
34	0xbc7c835f	-0.015412181
35	0x3c9be0e5	0.019028137
36	0x3c19cd92	0.009387391
37	0xbc981350	-0.018563896
38	0xbcbb10e6	-0.022835206
39	0x3c8063da	0.015672613
40	0x3c86d0df	0.01645702
41	0x3ca789d3	0.020451462
42	0xbc2de10d	-0.010612738
43	0x3ca7db02	0.020490173
44	0xbc06ab7d	-0.008219597
45	0xbcd970ba	-0.02654301
46	0x3c84741d	0.016168648
47	0xbcadb333	-0.021203613
48	0x3ccd220b	0.025040647
49	0x3c8728b9	0.01649891
50	0xbc97dcb9	-0.018537866
51	0x3c314063	0.010818574
52	0x3cf4a580	0.029864073
53	0xbcea2fe3	-0.028587287
54	0xbd00a564	-0.03140773
55	0x3c818366	0.015809726
56	0x3c89614f	0.016770033
57	0x3ce02a2d	0.027363861
58	0x3c71bc64	0.0147543885
59	0x3c863a74	0.016385294
60	0xbcf2ce13	-0.02963928
61	0xbc870ff8	-0.016487107
62	0xbd029eaf	-0.031889614
63	0xbc602e5e	-0.01368293
64	0xbcba92e2	-0.022775117
65	0xbcca1f9a	-0.024673272
66	0x3ccd589b	0.025066664
67	0xbcc0d631	-0.023539634
68	0xbcb9dfe4	-0.022689767
69	0x3c57f8f6	0.0131819155
70	0xbc8e0708	-0.017337337
71	0xbcf83108	-0.030296817
72	0x3be80f45	0.0070818984
73	0xbcd3493f	-0.025791762
74	0xbc7dbc2c	-0.015486758
75	0x3ce09175	0.02741311
76	0x3c73d505	0.014882331
77	0x3ceaa2aa	0.028642017
78	0x3cb038b2	0.02151141
79	0xbca87323	-0.020562714
80	0x3cca3392	0.024682794
81	0xbcc528c9	-0.0240673
82	0xbc8f3f24	-0.017486162
83	0xbcd38774	-0.025821425
84	0xbccd9eab	-0.025100073
85	0x3cb19421	0.021677079
86	0xbc809fb2	-0.015701149
87	0xbcc14adc	-0.023595266
88	0xbc476bba	-0.01217168
89	0xbce97304	-0.028497227
90	0x3cbc0908	0.022953525
91	0x3c5d3295	0.013500829
92	0xbc97e371	-0.01854107
93	0xbcebdbfc	-0.02879142
94	0x3c8c3f5a	0.017120052
95	0xbcf5719e	-0.029961403
96	0x3c8ee071	0.017441006
97	0xbcc31fc8	-0.023818865
98	0x3cc40435	0.023927787
99	0xbc84df46	-0.016219746
100	0x3c9a296f	0.018818585
101	0x3c932b94	0.017965116
102	0xbcb6c413	-0.022310292
103	0x3cafed46	0.021475445
104	0xbc7495e8	-0.014928319
105	0x3c5029a0	0.012705237
106	0xbc8f9702	-0.01752806
107	0xbd13b7a8	-0.03606382
108	0xbc87f07a	-0.01659416
109	0x3cc9cfc1	0.024635198
110	0xbc9f204c	-0.01942458
111	0xbabecb16	-0.0014556374
112	0x3c9bbba8	0.01901038
113	0x3c571f94	0.013130087
114	0xbc98ba10	-0.018643409
115	0xbc63fc11	-0.013915078
116	0x3c768122	0.015045436
117	0x3c8c6f8a	0.01714303
118	0xbc82e4a7	-0.01597817
119	0xbc711ccd	-0.014716339
120	0x3c6f80ef	0.0146181425
121	0xba676c5b	-0.0008828097
122	0x3c92aeb4	0.01790557
123	0xbd22c810	-0.039741576
124	0xbc8bdaa8	-0.017072037
125	0x3caea877	0.021320565
126	0xbd1dffbe	-0.038573973
127	0xbcfc9f82	-0.030837778
128	0xbc88b291	-0.01668671
129	0x3c912d2d	0.017721737
130	0xbc6cdac7	-0.014456457
131	0x3cc63091	0.02419308
132	0x3cbf430b	0.023347398
133	0x3cb7c7d4	0.022434153
134	0xbc59af1f	-0.013286381
135	0xbc96a1ce	-0.018387701
136	0x3ceac700	0.028659344
137	0xbd0f280c	-0.0349503
138	0xbc97ead9	-0.018544601
139	0x3cc5b78c	0.024135374
140	0xbcc2190b	-0.023693582
141	0xbc79d04c	-0.015247416
142	0xbc6b5ce6	-0.01436541
143	0x3ccf6ced	0.025320495
144	0xbcaeb65b	-0.021327188
145	0x3cae8a3e	0.021306153
146	0xbced41b9	-0.028962003
147	0xbcde5bf4	-0.027143456
148	0xbcd6eeb8	-0.026236877
149	0x3cdef69d	0.027217204
150	0x3cc787ed	0.024356807
151	0x3d097972	0.033563085
152	0x3c23c183	0.009994867
153	0xbc951e85	-0.01820303
154	0xbc938d04	-0.018011577
155	0x3d001602	0.03127099
156	0x3cf1a056	0.0294954
157	0x3c78a35a	0.015175665
158	0x3caf075f	0.02136582
159	0xbd0a7269	-0.033800516
160	0xbc34f3c2	-0.0110444445
161	0x3cbaeb80	0.022817373
162	0xbcb4b8c9	-0.022060769
163	0xbc37e8a6	-0.011224901
164	0xbd0992ae	-0.03358715
165	0xbcbb4e03	-0.022864347
166	0x3be6646a	0.0070310133
167	0x3d0c9948	0.034325868
168	0x3cd747ae	0.026279297
169	0xbc120af0	-0.0089137405
170	0xbb06ce8a	-0.0020569884
171	0xbb92e15d	-0.004482432
172	0x3ca157c3	0.019695168
173	0xbc5835e5	-0.013196443
174	0x3d01adb1	0.031659786
175	0x3c783ad9	0.015150749
176	0x3c95b699	0.018275546
177	0x3ce882b0	0.02838263
178	0xbcc8afe1	-0.024497928
179	0x3ca5fc23	0.02026183
180	0x3c3d4d0e	0.011554016
181	0x3cd05d79	0.025435196
182	0xbb270fa1	-0.0025491493
183	0xbc527905	-0.012846236
184	0xbd007bb4	-0.031367972
185	0xbc9583b2	-0.018251274
186	0xbcbd5b26	-0.023114752
187	0x3c59888b	0.013277183
188	0x3ca91933	0.020641899
189	0x3c5cdcf8	0.013480417
190	0xbc782484	-0.015145425
191	0xbc3447b4	-0.0110034235
192	0xbc73bd7e	-0.014876721
193	0xbc9ed304	-0.01938773
194	0x3c506245	0.012718742
195	0x3ca70a2c	0.020390593
196	0xbc8c8b8b	-0.017156383
197	0xbcc186b7	-0.023623807
198	0xbc605cfb	-0.013694043
199	0x3cc62ed8	0.024192259
200	0x3ccdcb53	0.025121367
201	0x3cac27c6	0.02101506
202	0x3ce19c64	0.027540393
203	0x3d16637d	0.036715973
204	0x3cdb6a43	0.026784068
205	0xbc994f77	-0.01871465
206	0x3a9d2b23	0.0011991005
207	0x3c47f848	0.012205191
208	0x3c53794e	0.012907339
209	0x3ce7eb01	0.0283103
210	0x3cc680b2	0.024231289
211	0x3c53d0cd	0.0129282
212	0xbcaa632d	-0.020799244
213	0xbc94a9c4	-0.018147357
214	0x3cb24279	0.021760212
215	0x3cbae272	0.022813056
216	0x3c7ccf1b	0.015430237
217	0x3cc8b044	0.024498112
218	0x3be5920f	0.007005937
219	0xbcaaee4e	-0.020865586
220	0xbc9f2b01	-0.019429686
221	0x3cb22624	0.021746702
222	0x3c95871b	0.0182529
223	0xbc93a650	-0.01802364
224	0xbcb6d243	-0.022317057
225	0x3c1eed6a	0.009700159
226	0xbc9ed2ae	-0.01938757
227	0x3cc6e749	0.024280207
228	0xbc4c5100	-0.012470484
229	0x3cd90f94	0.026496686
230	0xbcd8dcb8	-0.026472434
231	0xbcc14831	-0.023593994
232	0x3d1f5468	0.038898855
233	0xbc8d51b8	-0.01725088
234	0x3c3a556a	0.011372903
235	0x3caccafc	0.021092884
236	0x3b8e8410	0.004349239
237	0x3c9f93bb	0.019479623
238	0xbc9ff2ca	-0.01952495
239	0x3c8bcb4d	0.017064715
240	0xbc48144b	-0.0122118695
241	0xbc8e46a6	-0.017367672
242	0x3ce7c7a6	0.028293442
243	0xbcc827a9	-0.024432974
244	0x3c58ceb2	0.013232874
245	0x3ca2ade3	0.019858306
246	0xbcf40321	-0.029786648
247	0x3cbfe71d	0.023425633
248	0x3cee0770	0.02905628
249	0xbcb76bb0	-0.022390217
250	0xbc742754	-0.014901955
251	0x3ca35153	0.01993624
252	0xbc84d5c2	-0.016215209
253	0xbbfb152c	-0.007662436
254	0x3cbff987	0.023434414
255	0xbc08f77e	-0.008359788

weight f4 [1, 256]
0	0xbd31d754	-0.043418244
1	0xbdd9c0dc	-0.10632488
2	0x3cfacc6d	0.030615056
3	0x3db499a7	0.08818369
4	0x3caccbe8	0.021093324
5	0xbd7a2502	-0.06107045
6	0x3db427ec	0.08796677
7	0xbd82a043	-0.06378224
8	0xbccd4c5e	-0.025060829
9	0x3d6ea2ae	0.058260612
10	0x3d2d667b	0.04233406
11	0xbda3739f	-0.07981037
12	0xbda04714	-0.07826057
13	0x3d2e5a81	0.04256678
14	0x3cbca4c8	0.023027793
15	0xbd7f4c31	-0.06232852
16	0xbcbe31bd	-0.023217076
17	0x3c3d9959	0.011572205
18	0xbd078dd5	-0.033094246
19	0x3e0a529b	0.13508074
20	0xbd6d65d7	-0.05795845
21	0x3c4762bc	0.012169536
22	0xbd82bf95	-0.063841976
23	0xbdc5bd29	-0.0965522
24	0xbd91d8be	-0.071214184
25	0x3d2a9db3	0.0416543
26	0xbc9c6c54	-0.019094624
27	0xbd60e5fa	-0.054906823
28	0x3c3e7b61	0.0116260955
29	0xbd81d13f	-0.06338739
30	0xbc4f69da	-0.012659514
31	0xbc856e01	-0.016287806
32	0xbdf708cf	-0.12062227
33	0xbd031313	-0.032000612
34	0xbd12ccc0	-0.035839796
35	0x3ddd4814	0.108047634
36	0x3babdf92	0.0052451575
37	0xbe006356	-0.12537894
38	0xbdc79be6	-0.09746532
39	0x3c101ed9	0.008796417
40	0x3dd85db8	0.105647504
41	0x3d9fb7fe	0.077987656
42	0xbbc65497	-0.0060525644
43	0x3d7546c1	0.05988193
44	0xbb8970a2	-0.004194335
45	0xbc6c71aa	-0.0144313965
46	0x3b5309ca	0.003220188
47	0xbde82170	-0.11334503
48	0x3d92766f	0.07151496
49	0x3c43fa60	0.0119615495
50	0xbd29ce7d	-0.04145669
51	0x3ab96cb6	0.0014146778
52	0x3d4a67f5	0.049415547
53	0xbdaab709	-0.083356924
54	0xbd99ecc6	-0.07515864
55	0x3d238221	0.039919022
56	0x3c88ba8a	0.016690511
57	0x3d123a2e	0.035700016
58	0x3d42793f	0.04747891
59	0x3c706198	0.014671706
60	0xbbb6f388	-0.0055832304
61	0xbd52719c	-0.051377878
62	0xbd5712a5	-0.052508015
63	0xbc41b38f	-0.011822595
64	0xbd449272	-0.047991224
65	0xbd94d232	-0.07266654
66	0x3cae2b4f	0.021260886
67	0xbcd65269	-0.026162343
68	0xbdd9beaa	-0.106320694
69	0x3c2ae3d3	0.010430294
70	0xbd28d7fc	-0.041221604
71	0xbd42e103	-0.04757787
72	0x3bd6225b	0.006534857
73	0xbdbf5275	-0.09341899
74	0xbd328485	-0.04358341
75	0x3c3d4420	0.011551887
76	0x3bd3d82f	0.00646498
77	0x3db46444	0.08808187
78	0x3cf0ec4d	0.029409552
79	0xbd1ffffc	-0.039062485
80	0x3d721043	0.05909754
81	0xbd01cf6c	-0.031691954
82	0xbc9d8f46	-0.019233357
83	0xbde250ee	-0.11050592
84	0xbc76a3bb	-0.015053685
85	0x3d1a14d6	0.037617527
86	0xbd67683b	-0.056495886
87	0xbc4ffb65	-0.0126942145
88	0xbd54b33e	-0.05192875
89	0xbda5e0d7	-0.080995254
90	0x3d9b493b	0.07582327
91	0xba9a65de	-0.0011779626
92	0xbca8ae22	-0.020590845
93	0xbc5eaac9	-0.013590523
94	0x3d007848	0.03136471
95	0xbd6c967c	-0.0577607
96	0x3da8bed4	0.082395226
97	0xbd91ddcc	-0.071223825
98	0x3da0dacc	0.07854232
99	0xbc7d9cd9	-0.01547929
100	0x3c8d9a62	0.01728553
101	0x3e11e5c0	0.14247799
102	0xbca4c8e8	-0.02011533
103	0x3deba8b0	0.11506784
104	0xbc2d7478	-0.01058685
105	0x3b1872b7	0.0023261735
106	0xbd1ca461	-0.0382427
107	0xbe265403	-0.16242985
108	0xbdd434e7	-0.10361653
109	0x3e020fcb	0.12701337
110	0xbc95c57b	-0.018282643
111	0xbbf384d1	-0.0074316044
112	0x3d03fd14	0.032223776
113	0x3d0fe7fc	0.035133347
114	0xbbf2e38a	-0.0074123787
115	0xbc936ee9	-0.017997222
116	0x3c80a0fb	0.015701761
117	0x3d5249be	0.051339857
118	0xbcde508a	-0.027138013
119	0xbd7b1f72	-0.061309285
120	0x3c7f8617	0.015595934
121	0x3b24a98c	0.0025125472
122	0x3cfbe22c	0.030747496
123	0xbde76046	-0.112976596
124	0xbbcb05c7	-0.006195757
125	0x3cf5f08f	0.030021934
126	0xbd83a8a4	-0.0642865
127	0xbdcf541e	-0.10123466
128	0xbd09d325	-0.03364863
129	0xbaeed5ef	-0.0018221716
130	0xbdc63093	-0.096772335
131	0x3da09967	0.07841759
132	0x3db5b24c	0.08871898
133	0x3dc9969b	0.09843179
134	0x3b2c9e10	0.002633933
135	0xbd7fc5e3	-0.06244458
136	0x3d837a33	0.06419792
137	0xbdcaba95	-0.09898869
138	0xbd843954	-0.06456247
139	0x3d990226	0.07471113
140	0xbd977c47	-0.07396751
141	0xbd0c6c28	-0.034282833
142	0xbc1a5829	-0.009420433
143	0x3d23ddec	0.040006563
144	0xbc9fc42a	-0.019502718
145	0x3bd0d664	0.0063732136
146	0xbe6b050d	-0.22951145
147	0xbc97965f	-0.01850432
148	0xbc0d6cae	-0.008631868
149	0x3d2261b9	0.039643977
150	0x3cfa80f4	0.030579068
151	0x3d9f79a0	0.0778687
152	0x3cea8be8	0.028631166
153	0xbd55b54b	-0.052174848
154	0xbccea0e9	-0.025223212
155	0x3d2e70ae	0.04258793
156	0x3c24efa4	0.0100669
157	0x3da1c40a	0.078987196
158	0x3dc0ca4a	0.094135836
159	0xbe108a00	-0.14115143
160	0xbcf9c6c6	-0.03049029
161	0x3db539cb	0.08848914
162	0xbd8a1ac1	-0.06743384
163	0xbb376618	-0.0027984437
164	0xbd794d01	-0.060864452
165	0xbdd7a8c0	-0.105302334
166	0x3c470a3f	0.012148439
167	0x3d3a9fe1	0.04556263
168	0x3d1ec507	0.03876212
169	0xbd280543	-0.041020643
170	0xbbcd55ef	-0.0062663476
171	0x3b741b03	0.0037247546
172	0x3c90d3ee	0.017679181
173	0xbbf16282	-0.0073664794
174	0x3ca8e0a0	0.020614922
175	0x3d3169ec	0.043313906
176	0x3d4cd89e	0.05001127
177	0x3c98ee4f	0.018668322
178	0xbd846fc8	-0.06466633
179	0x3dd24c73	0.10268488
180	0x3c6281ba	0.013824875
181	0x3cdeca5f	0.027196107
182	0x3a9e2830	0.001206642
183	0xbbc85c47	-0.006114516
184	0xbdb9d21f	-0.090732805
185	0xbd80a62f	-0.06281697
186	0xbcabc068	-0.02096577
187	0x3c0aaade	0.0084635895
188	0x3d754b34	0.059886172
189	0x3cc988cd	0.024601365
190	0xbd816bb1	-0.06319369
191	0xbd0113ad	-0.031512905
192	0x3a1ce3e7	0.0005984888
193	0xbb93c30d	-0.004509336
194	0x3bdc60b8	0.006725397
195	0x3d56c1aa	0.052430786
196	0xbd6c7ae0	-0.05773437
197	0xbd808c96	-0.06276815
198	0xbda7289b	-0.08162042
199	0x3dcb1aab	0.09917196
200	0x3c532a80	0.012888551
201	0x3d7d0aad	0.06177776
202	0x3d828225	0.06372479
203	0x3dd9b853	0.1063086
204	0x3ce73b23	0.02822644
205	0xbd441f95	-0.04788168
206	0x3b57cb32	0.003292751
207	0x3ba301db	0.0049745864
208	0x3d545fad	0.051849056
209	0x3d392001	0.045196537
210	0x3dd1fca3	0.10253265
211	0x3d65b966	0.056085013
212	0xbd1a968e	-0.037741236
213	0xbc86c7ad	-0.016452635
214	0x3c6871e3	0.014187309
215	0x3dfd80e1	0.12378097
216	0x3bc8314b	0.006109392
217	0x3d100cfb	0.03516863
218	0x3c599003	0.013278964
219	0xbcea672f	-0.028613655
220	0xbb372fe1	-0.0027952122
221	0x3d572453	0.052524876
222	0x3d2e341f	0.042530175
223	0xbd1def77	-0.03855845
224	0xbc92fc8f	-0.017942695
225	0x3a8ab3ee	0.0010582188
226	0xbc637cf4	-0.013884772
227	0x3ca31cd0	0.0199112
228	0xbd890476	-0.06690304
229	0x3cc666d8	0.024218962
230	0xbd4a40a3	-0.04937805
231	0xbd84ad63	-0.064783834
232	0x3d4451c3	0.047929537
233	0xbd1e03f5	-0.038577992
234	0x3caca412	0.021074329
235	0x3c710a11	0.014711873
236	0x3c4a60ed	0.0123522105
237	0x3ccdafc4	0.025108226
238	0xbd7f56b6	-0.062338553
239	0x3e2040fa	0.15649787
240	0xbc096b18	-0.00838735
241	0xbcc4a271	-0.02400324
242	0x3da380ca	0.07983549
243	0xbc7d2810	-0.015451446
244	0x3bee82b0	0.0072787628
245	0x3ce74544	0.02823127
246	0xbd4d9d8a	-0.05019907
247	0x3db9be10	0.09069455
248	0x3cd6b231	0.026208015
249	0xbd09ebb5	-0.033672053
250	0xbd0a3aa0	-0.033747315
251	0x3cf93e24	0.030425139
252	0x3a71fffb	0.00092315645
253	0xbd3e7f40	-0.046508074
254	0x3d602313	0.05472095
255	0xbc822c3f	-0.015890239
