trained_models/ppo/me5418-Cassie-v0/0523-16-02-01-s3737/actor.pt (torch, 906874 bytes, 11 tensors)

log_std f4 [1, 10]
00000000: 162e 2e3d 6103 033d 2a02 a63c eb70 c43c
00000010: db5e 313d 7857 e73c 24d4 2a3d 74cd 833c
00000020: d645 bd3c 8f56 fe3c
0.04252442 0.031985644 0.020264704 0.023979625 0.04330335 0.02823995 0.04170622 0.016089179
0.02310459 0.031047134

weight_ih_l0 f4 [512, 50]
00000000: 42c6 9b3d 38c3 44bd 78c2 d23c 9387 ce3d
00000010: 5b89 eabb ab74 633d be7f 37bd 8ba3 1f3d
00000020: 65a1 d7bc 5f22 8a3b d61f 0c3d 5589 4ebd
00000030: 87da 4d3d f7eb c43d 8bf9 17bc 6018 f03b
00000040: c6a7 0bbd d6c3 7e3c ba36 1cbd b43f 0cbd
00000050: f3c9 12bc fc37 5fbd b78e c4bc 91e3 123d
00000060: a8dd a7bd 6c25 c4bd 0f6a e6bd 7256 52bb
00000070: 03bf 9d3d 8bdd cdbb 13d1 0fbd 88d4 ee3c
00000080: b469 1e3d f5ad 9b3d da09 b53d 60a4 a7bd
00000090: ea42 e13c 2234 2abd 2bc1 cebd 2341 8ebc
000000a0: 002f 54bc 686c 093d 4c8a ccbd aa13 e7bb
000000b0: 16f2 2b3d e96c 643c c490 bcbb 440b 563d
000000c0: 12c6 05bc e2ac c3bc bdd3 183b 0195 fc3a
000000d0: 1938 463d 3bac b13d d357 723c 8e9d c6bd
000000e0: b3c7 443d ca08 04be eade 063d 8e7d db3d
000000f0: 3536 a4bc ed2b 31bd a477 21bd 66c1 b63c
00000100: 3aaa 583d 7d33 bf3c 4dbd 92bc 7067 d23d
00000110: ea71 a3ba cbc5 c5bd 1de9 c6bb 0f26 19bd
00000120: 3dcb 573b 965f a73d 314a f6bc 9826 f7bb
00000130: 9a0f 253c 3928 34bd 5e7d 0f3d 902f 893d
00000140: 9a69 4dbd b9dc 40bd 8259 d1bd 5a98 12bd
00000150: 53f7 4bbd e4e1 013d ea22 ab3d 9c5f b83c
00000160: adbf e0bd f7ca 9bbc fa99 9b3d a4b7 903c
00000170: 1fed 003d 368c 2fbd b0c8 c23d a7ad dd3c
00000180: e02e dcba 975b b5bc 268c abbb 75f4 61bc
00000190: 6b43 e43a 4387 a4bd 28e9 ce3d e7b7 f13b
000001a0: d608 95bd 98ad 833d ce58 e43c 2bf6 25bd
000001b0: 4039 29bd 9fd8 33bd 885a 4fbd ef59 11bd
000001c0: bc6d eebb 6118 9f3d fa06 d5bb ac24 04be
000001d0: 4de4 e8bc 5f06 5dbd 2190 c8bc 3c10 c1bd
000001e0: 2f3f 2dbd de1c b53d 5ba7 27bd 522a 443d
000001f0: f0a5 65bc e5c6 21bd b3f5 093c 824c d33d
00000200: a21f 87bd c8e2 ce3c 57f7 ed3c 59d0 bbbc
00000210: f7bb 71bd 2be7 07bd b886 62bd e697 93bd
00000220: 5ab2 bd3d e57c 593d 6eab 5a3d 8a54 b13d
00000230: ec7c de3c 1464 ffbc 6980 a5bd 1d51 0c3e
00000240: ff2a 94bd cefc 323d bfa7 5fbd 00b6 97bd
00000250: f322 a1bd 2c85 003d 2f58 e43c 187f 90bd
00000260: c837 3c3d 5be3 613c 8606 7dbd 81f0 92bd
00000270: ff67 833c 1c2b 12bd 3a3c d93d b05d 4ebc
00000280: 0f66 8e3d 90a1 44bd 42cf eebc 8332 b53b
00000290: 1c48 52bd 661e b5bb d317 e83c daab 963d
000002a0: 86f3 16bd bd2f 90bd fe09 40bc 7872 08bc
000002b0: 23d1 dabd 9f05 e2bc 94f8 9b3d 07da 283d
000002c0: 65d0 87bd 4747 723d 100d 473c 7ebb b03c
000002d0: 958b 0e3d f173 01bc 4f80 c1bd 0ead 81bd
000002e0: 2c1c e63c 1832 d2bd e6c7 453d c25c 5c3d
000002f0: 3526 21bd e24b dbbb 0ddd 89bc f26d eebc
00000300: e29d 8d3d e1d0 adbd c763 c3bd 02ca 90bc
00000310: 52d4 9bbc 5789 3c3d b3ae 7a3c b7ab 19bc
00000320: 29eb 6fbd 792e 02be 4ba5 04bc 7f89 1dbd
00000330: ffeb da3c 6d26 65bd 1e2b a4bc 02c9 acbd
00000340: 7ffa a33b 0f34 913c 331e c63d 9394 993c
00000350: 94d8 ce3c 142d e9bc 13ba 013e dc93 19bd
00000360: 663d 983d 5fdc 223d 14aa 83bc 2bd1 81bd
00000370: ff21 b2bd 2cb2 993d 34e1 05bd 4d9d 483d
00000380: cf76 b7bc e9a3 6abd 82e4 0f3d 39ae 5f3d
00000390: 7c0a 253d 15f9 0a3d 6b49 df3b 467b 42bd
000003a0: 91e3 9c3d a370 e13d a44e 82bd a394 aa3c
000003b0: 7819 e23d 45fd b7bc 5e7f c4bd 74cb fb3d
000003c0: 171c 7ebd d891 313a 8445 d4bc 8c8f a13d
000003d0: 1784 5cbd 2e6b 2c3d 2b40 763a 8976 823d
000003e0: edf4 a53c 3931 93bd 8074 94bd 08f9 2c3c
000003f0: eb03 37bd 8ac2 bcbb 2454 16bd 31d9 263d
0.07606174 -0.048037738 0.025727496 0.100844525 -0.0071574873 0.055531185 -0.04479956 0.038974326
-0.026322076 0.004215523 0.03421005 -0.05042394 0.050257232 0.09615319 -0.009275804 0.0073271245
-0.034095548 0.015549621 -0.03813813 -0.03424044 -0.008959281 -0.05449675 -0.023993833 0.035861555
-0.081965744 -0.0957745 -0.11250698 -0.0032094982 0.07702448 -0.0062825135 -0.035111498 0.029154077
0.038675025 0.07601539 0.0883977 -0.08185649 0.027497727 -0.041553624 -0.100954376 -0.017365044
-0.012950659 0.03355065 -0.099873155 -0.0070519047 0.041978918 0.013941982 -0.005754562 0.052256837
-0.008164899 -0.023886148 0.0023319565 0.0019270481 0.048393343 0.086754285 0.014791447 -0.0969802
0.04804201 -0.12893978 0.03292743 0.10717307 -0.02004538 -0.04325478 -0.03942074 0.022309016
0.052896716 0.023339981 -0.017912531 0.102736354 -0.0012469862 -0.09656867 -0.0060702697 -0.03738981
0.0032927536 0.081725284 -0.030064674 -0.0075424425 0.0100745205 -0.04398367 0.03503167 0.06698525
-0.050149538 -0.047085498 -0.102221504 -0.035789825 -0.049796414 0.031709567 0.08356269 0.022506528
-0.10974059 -0.01901768 0.07597728 0.017665692 0.031476136 -0.042858325 0.09510934 0.027060343
-0.0016798638 -0.0221384 -0.005235213 -0.013791193 0.0017415112 -0.080336116 0.10103065 0.007376659
-0.07277076 0.06429595 0.027874377 -0.040517967 -0.041314363 -0.043907758 -0.050623447 -0.035486158
-0.007276265 0.07768322 -0.006501076 -0.12904614 -0.028429175 -0.053961154 -0.024482789 -0.094269246
-0.042296585 0.088433966 -0.040931087 0.047891922 -0.014016613 -0.03949632 0.008420396 0.10317327
-0.0659783 0.025254622 0.029048605 -0.022926496 -0.059017148 -0.033179443 -0.05530426 -0.07206707
0.092625335 0.053097624 0.053386144 0.08658703 0.027159177 -0.03117565 -0.08081133 0.13702817
-0.07234763 0.043698125 -0.054603335 -0.074077606 -0.07867994 0.031377003 0.02787408 -0.07055491
0.045951635 0.013787116 -0.0617738 -0.07174779 0.0160408 -0.035685644 0.106071904 -0.012595579
0.0695306 -0.04800564 -0.029151563 0.005529703 -0.0513383 -0.0055273054 0.028331673 0.07356997
-0.036853336 -0.07040355 -0.011721132 -0.008328073 -0.10684421 -0.027590571 0.07615772 0.041223552
-0.06631545 0.059150007 0.01214911 0.021573778 0.034801085 -0.007901178 -0.09448301 -0.06331836
0.028089605 -0.10263461 0.04828634 0.0537994 -0.039343078 -0.0066923955 -0.016829038 -0.02910516
0.069148794 -0.08487106 -0.095405154 -0.01767445 -0.01902214 0.046029415 0.015300441 -0.009379319
-0.058573876 -0.1271304 -0.00809605 -0.038461205 0.02672386 -0.05594485 -0.020040091 -0.08436777
0.0050042267 0.017725019 0.09673729 0.018747604 0.025249757 -0.028463878 0.12668638 -0.037494525
0.07433586 0.039760944 -0.01607231 -0.06338724 -0.086978905 0.07504687 -0.032685474 0.04897814
-0.02239552 -0.057285223 0.03513003 0.05460951 0.0402932 0.03392895 0.006814172 -0.047480844
0.07660592 0.11007812 -0.06362656 0.020822829 0.11040014 -0.022459636 -0.09594606 0.12294665
-0.062038507 0.00067737466 -0.025912054 0.078887075 -0.05383691 0.042094402 0.0009393717 0.06370265
0.020258391 -0.07187123 -0.07248783 0.010557421 -0.04468147 -0.0057604956 -0.036701337 0.040734474

weight_hh_l0 f4 [512, 128]
00000000: ab7c 9e3d 5a25 9e3d 66c7 fe3c 81d4 82bd
00000010: c2fa de3c 9fa2 c93d 0b1a 953d 8d81 8bbb
00000020: 0ba4 153d 28ed 5b3c 4f0d a23b d579 c83d
00000030: 4544 423c 3b63 7a3c 522c 803d fb4e 663c
00000040: 7f08 a73d e61c a4bd 9c97 453d 9758 8e3b
00000050: 12f4 29bc 7ef5 20bd f7cb cabd 9a90 773d
00000060: 0503 86bd 5843 63bd 8618 15bd 174f f53c
00000070: eee6 02bd 3925 fd3c 2a7a 91bd db8d b7bd
00000080: 8b52 7f3d 5035 e9bc 1a30 d6bb 2456 75bd
00000090: b44b 13bd fdb4 5f3d e066 ebbd c116 23bd
000000a0: 996a 443d 99a1 be3d 57d0 543d a278 b7bd
000000b0: 9796 d4bc 6f01 debc 9c79 19bd dfa8 ec3c
000000c0: 3859 93bd fe94 c53d 2ed5 aa3d 3ba4 b1bb
000000d0: c8f4 0a3d ce60 df3b 8c1f dc3c a86b f2bc
000000e0: ceab 1b3d c1fb cebd 0512 5abd f0de 9fbd
000000f0: 543f a63d 52ed e23d e748 d33c 2ca8 2abd
00000100: f965 243d 8cae 8cbd a029 6f3c 974e 653d
00000110: 7440 a5bd 53a2 aabd 6543 5e3d aea2 7dbc
00000120: 6748 83bd 30b2 333d c586 193d df0e a93c
00000130: f873 43bd 9b7c 013c 77a9 0e3d 2abc 6ebb
00000140: 7186 c7bd f67a 4a3d 69a1 1f3d 2e34 e1bc
00000150: e4b3 cabd aa4a 8a3d e53e 3f3c 7c00 57bc
00000160: d249 82bd ea36 e23d d65c 5fbd d93c 483b
00000170: 9b13 8e3c 9236 a2bc 3335 953b 08ce 68ba
00000180: f959 1fbd 5ff4 a4bc a3d8 d33c 06f1 2cbc
00000190: e19b a1bd f646 49bd 69ec f93c 633f 5ebd
000001a0: 9906 08bd 2e29 cebb 8c8b 313d 1a3e 7fbc
000001b0: 320f 023d 62dd 60bd 15d5 8c3d f739 d63c
000001c0: 1eb4 aebd 9622 a03d 04ae ac3d 8db3 773d
000001d0: 4a1e 41bd e878 2c3d f5fd 17bd 4436 453d
000001e0: bc09 073d 0f75 963d f347 9d3d 2e44 8d3b
000001f0: 4a6a 7cbd b31c e7bc e5cf d1bc 6810 bbbb
00000200: 8c79 8abc 6c85 fb3c 5439 333d 9b00 df3c
00000210: 6e4f 60bd 2622 60bc 7d2c c4ba e55d c53d
00000220: ab97 5dbd fbab 023d 6f74 49bb 55dc 903d
00000230: 1b60 bd3d 3ac1 a23c f35b 013d 0353 e4bc
00000240: 69f3 4e3d b5c8 94bd 0379 bbbc 59c5 02be
00000250: 5910 0abd be2e 883d 0fb8 f43c 8ef1 163d
00000260: 34c4 ae3d 9cb2 b3bd 9073 b1bb 138b 95bd
00000270: 9642 a23d 38c9 32bd c17d c6bc a034 39bd
00000280: 8534 7d3c 3cea b73d 00ee 933d 1c5b 05bd
00000290: 7245 59bc 5df6 dbbd 3f62 b9bc 2cba abbd
000002a0: 0b3d afbd aee1 183d e26d 113d 1e37 26bd
000002b0: 6c88 95ba 9802 af3c 7ffe 9ebd b814 34bd
000002c0: cbef 6c3d e20f a23d 9d4e 83bb d43f 333c
000002d0: 4a86 50bd b718 b8bb 6276 fa3d 248e 493d
000002e0: 2c0e a33d 88c4 9f3d 783a af3c efa0 f7bc
000002f0: 9cd1 1e3d f9ad 1bbd 3aaa 86bd 8107 6a3a
00000300: ac4e a5bd 7173 a73d 982f bebc 1520 a7bc
00000310: e9d3 4abd b68c 9dbd 2aae 1bbb 4ab0 50bd
00000320: 5278 6c3d d5ca 4439 e11d 92bc 821d 743d
00000330: f3ee 9bbd 5275 143d 58e4 c53b 8ac9 5e3c
00000340: de9c 153d 8964 d7bc 31c4 e8bc be8e a5bd
00000350: 445d 7a3d 4889 f83c 38e9 c1bc d36b bbbd
00000360: 5c0d 96bd 46f4 1b3d d49f b5bd 098a b5bc
00000370: 1cf9 633d 9df2 313c 8c03 8eba 8cab d9bc
00000380: 83d5 40bb aa4a 88bd f21f a43d 5b70 fabc
00000390: 7cc8 703d 97ce 943d d701 aabd 5c62 b5bd
000003a0: 44d8 aebc 1593 48bc 22df 763b 3df9 623c
000003b0: f727 0d3d faf8 a2bd 3e83 1c3c 03f3 023c
000003c0: 56cd 023e 66a5 83bd d998 8abd a407 2e3d
000003d0: ee74 9bbd 2c03 30bd 641c cebc a3e7 e2bd
000003e0: dffa 0f3d a2d7 123d e37b 7abd 2093 9f3d
000003f0: b02d 9a3d 2d15 903a f0ef 903c 13fa bc3d
0.07738622 0.07721968 0.03110094 -0.06388188 0.02721918 0.09845471 0.07280358 -0.004257387
0.036533397 0.013423242 0.004945434 0.097888626 0.011857097 0.015282447 0.062584534 0.014056916
0.081559174 -0.080133244 0.04824029 0.004344057 -0.010373132 -0.03929662 -0.099021845 0.060440637
-0.06543545 -0.055484146 -0.03640034 0.02994494 -0.031958513 0.030901538 -0.07103379 -0.08962604
0.06233458 -0.028467804 -0.006536496 -0.059896603 -0.035960868 0.054615963 -0.11494231 -0.03981662
0.047953222 0.09308166 0.0519565 -0.08958556 -0.025950713 -0.027100293 -0.03746949 0.028889118
-0.071947515 0.09647559 0.08341442 -0.005421189 0.033924848 0.00681696 0.026870511 -0.02959235
0.038005643 -0.10106612 -0.05323984 -0.07806194 0.08117548 0.110804215 0.025791598 -0.041664287
0.04013631 -0.0686923 0.0145973265 0.055983152 -0.08068934 -0.08331742 0.05426349 -0.01548068
-0.06410294 0.043871105 0.037482042 0.020636974 -0.04771802 0.007903243 0.034829583 -0.0036428072
-0.097424395 0.04943367 0.038972292 -0.027490702 -0.09897593 0.06752522 0.01167271 -0.013122674
-0.06361736 0.1104563 -0.054531895 0.0030553846 0.017343333 -0.019801412 0.004553461 -0.00088807987
-0.038904164 -0.020136056 0.025860136 -0.010555511 -0.0789106 -0.04913994 0.030508237 -0.05425967
-0.033209417 -0.00629153 0.043345973 -0.015578771 0.031752773 -0.054898627 0.0687658 0.026150687
-0.085304484 0.07819097 0.08431628 0.060473967 -0.047148027 0.042107493 -0.037107427 0.048147455
0.032968268 0.07346546 0.07679739 0.004311106 -0.061624803 -0.028211927 -0.025611827 -0.005708743
-0.016903661 0.030703269 0.043755844 0.027221968 -0.05476325 -0.013680017 -0.0014966872 0.096370496
-0.05409972 0.031902295 -0.0030739566 0.07073275 0.09246846 0.019867528 0.03158183 -0.027871614
0.050525103 -0.07264844 -0.022884851 -0.12770595 -0.033706997 0.0664954 0.029872922 0.03685146
0.085335165 -0.087743014 -0.0054153875 -0.07301917 0.079228565 -0.04364893 -0.024229886 -0.045216203
0.015454416 0.089802235 0.07223129 -0.03255759 -0.013261186 -0.107403494 -0.022629855 -0.08385119
-0.08556565 0.0373246 0.035505183 -0.040579908 -0.0011408455 0.021363541 -0.07763385 -0.04396507
0.057845872 0.07913186 -0.004007174 0.010940511 -0.050909318 -0.0056181806 0.12229611 0.04920782
0.079616874 0.07801157 0.021390185 -0.030228106 0.038774118 -0.03800771 -0.06575437 0.000892751
-0.08071646 0.081763156 -0.023216054 -0.02040104 -0.0495185 -0.07692854 -0.0023754933 -0.050949372
0.057731934 0.00018767577 -0.017836513 0.059598453 -0.07613935 0.036244698 0.0060391836 0.013597855
0.036526553 -0.026293056 -0.028413864 -0.080838665 0.0611241 0.030338898 -0.023670778 -0.09151425
-0.07326767 0.038074754 -0.088683754 -0.022160547 0.05565749 0.010861066 -0.0010834797 -0.026571058
-0.0029424138 -0.06654866 0.080139056 -0.030571153 0.058784947 0.072659664 -0.08301132 -0.08856651
-0.021343358 -0.012242098 0.0037669619 0.013853368 0.03446194 -0.07957645 0.009552775 0.007992509
0.12773642 -0.064280316 -0.067674346 0.042487755 -0.07590662 -0.042971775 -0.025160022 -0.110793374
0.03515136 0.035850175 -0.061153304 0.07791734 0.075282454 0.0010992639 0.017692536 0.09227385

bias_ih_l0 f4 [512]
00000000: 803c 09bd 0ecb 58bd 6b20 3d3d c9f0 b8bb
00000010: 0759 a3bd f488 89bd 6c34 b43c 4674 80bd
00000020: bf7b 003e c16b 56bd 3545 47bd 02fe 013d
00000030: 0740 223d 03a7 da3b bf88 df3b de4c d4bb
00000040: ce0c 13bd 38c7 553d 506c a1bd 2cb0 7b3c
00000050: e3a5 c13b c36b 31bd b884 80ba 3148 d0bb
00000060: 1629 183c a3dd 8abd fc09 d9bd 46f8 90bd
00000070: 3cc8 94bc 92dc ca3c a0f5 c5bb 58b6 223d
00000080: 11d1 cd3c 55d8 d23a 1064 b73d 4051 863d
00000090: aebc 923b 4e95 14bd 6061 a63d 53f6 ddbb
000000a0: 0360 03bc 8eee a5bd b61e 113d a4b7 54bc
000000b0: 94d2 2e3d 030d e5bc 9f97 243d 8ec3 9abc
000000c0: a5ad 8c3c c897 0abd 2128 0c3d 62cc d33d
000000d0: 69d8 bfbc af03 3f3d 564f 82ba 8352 a73c
000000e0: 15bb 91bd ccbb 993d 2e8a 14bd 03d7 11bc
000000f0: 7d14 84bc 7fb7 47bd bed6 10bb 6db0 3cbd
00000100: b11a b73d daa0 c03b d970 153b 4455 d6bc
00000110: e3d4 3a3d 6d9c 0dbe 6950 4b3d 3e01 d5bb
00000120: 150e 62bc d350 603d c941 123d 1635 4e3d
00000130: 0448 9cbb 15ef 89ba 9425 ccbd fc9a 623d
00000140: 900f 19bd 9f3a adbd d5e8 613d 41fa 0abd
00000150: b652 81bd 04dc a13d 0ac0 bd3b 925e 733c
00000160: e80f 01bd 62d5 7dbd 29d3 31bd 850f 1d3d
00000170: ed6a 813c 59ee 55bd adf4 87bd 0544 563d
00000180: 365a 563d 1510 19bd 18c1 84bd cdb0 11bd
00000190: da36 72bd 433b dfb9 7906 abbd d976 fbbd
000001a0: 181e 463d 332a 24bd 8571 083d bb7e 6dbc
000001b0: a9c2 243d 91c4 843d c945 a3bc 2f2a f9bc
000001c0: a827 9fbd fc7f 82bd 7e13 3bbd 5c2a b3bd
000001d0: 4c77 143d d5ad 1b3d fdd2 9abc b5a2 c33d
000001e0: d100 bfbc 58c6 8c3b 19e0 4eba 5245 5b3d
000001f0: bb10 abbd 89c6 683d ec01 7b3c 5afd d3bd
00000200: f4d3 cebd 8ead 873d 624b 58bd 02a8 2abd
00000210: 3809 e33c 0bfe 893d 06b1 ff3b 108d fb3c
00000220: 3eee 753d fe66 00bd 10d1 073d b9e6 0abc
00000230: 3d2c a2bd 975d a0bd 5b3e 6a3c 95cf b4bd
00000240: a37f 4abd cb66 713d 79b1 da3b 2cd7 233d
00000250: 7562 dfbd bb51 b93b e80f 89bd 98d9 963c
00000260: aa63 433d 2fdb 603d ce7c 803d 26bd 8e3d
00000270: b38b 033d e990 2b3c 12cd 22bd 0de0 85bd
00000280: e6f5 a639 6ddd 55bd 8aab a8bd 3990 1c3d
00000290: cb7d 4a3d 6bbf 5fbd deaf b0bd f0a6 c6bd
000002a0: db01 8dbd bc9e 623d c5bd 05bd f43c 9fbd
000002b0: 003b 2c3c 4e04 003d da11 82bd fb31 f7bc
000002c0: 9de8 6abc 3c85 aebc 93bb 0abd cc7d 3b3d
000002d0: 9843 b53d 0ef0 89bd a33e 9e3d ff75 933d
000002e0: a5d6 97bd 4864 abbc d289 17bd 35a9 d3bd
000002f0: c015 493d f463 433d 5766 72bd 5842 413c
00000300: bbfa 073c 04e7 a1bd 6f8d 0dbd 94bb 3a3d
00000310: 1028 2bbd fb01 c03c 2fd9 813d 134d 503c
00000320: 65bc e5bb 0dfd 92bd e5f6 8fbd 3a77 f33d
00000330: 4d7d e6bc c32f b9bd 6b1c 203d f38c bbbc
00000340: 1d83 96bd 1185 aebd ab8d ce3d bed4 9c3d
00000350: 5564 9cbd 4aac bb3c eb2f c3bc 7856 663d
00000360: 8b66 5fbd c366 7abd 916c 4d3d faed b1bd
00000370: 468a 9d3d aa67 163d 065f b3bc 02ca db3c
00000380: 4dfc 433d e204 c5bd 022b fdba 19e9 793d
00000390: 1bc7 293d 1ac5 1c3d 7f4a 7cbb 4082 903d
000003a0: 4c20 413d 2de5 8d3d dc5a 603d 99ba cabd
000003b0: 0275 af3c acbc bfbc 92a7 493c afaf a13c
000003c0: 543d 48bd c6a3 493d 03e0 a4b8 69aa bfbd
000003d0: b1bf 143d cca9 a4bd 0d8c 84bc 2595 8dbc
000003e0: f042 393c c4b4 ca3c 58c4 4bbd d1f8 53bd
000003f0: 77c5 2ebc 9d90 e8bb e033 49bc f750 8b3c
-0.033504963 -0.052928023 0.046173494 -0.005643938 -0.07975965 -0.06715575 0.021997653 -0.062721774
0.12547205 -0.052348856 -0.048649985 0.03173638 0.039611842 0.0066727414 0.0068217213 -0.00647889
-0.035900883 0.052191943 -0.07881987 0.015361827 0.005909668 -0.04331566 -0.0009805178 -0.006356262
0.009287139 -0.06780555 -0.105976075 -0.070786044 -0.018161885 0.02476338 -0.0060412437 0.039724678
0.025124105 0.00160862 0.08954632 0.06558466 0.004478059 -0.0362752 0.081240416 -0.006773749
-0.008018496 -0.08102141 0.03542968 -0.012983236 0.04268129 -0.027960306 0.04018366 -0.018892076
0.017172644 -0.033836156 0.034217957 0.10341717 -0.023418622 0.046634372 -0.0009941857 0.020425087
-0.07115761 0.075065225 -0.03626459 -0.00890136 -0.01612305 -0.04875898 -0.0022100653 -0.04606669
0.08940638 0.00587855 0.0022802858 -0.026163705 0.04561318 -0.13829203 0.049637232 -0.006500392
-0.013797303 0.05476458 0.03570727 0.050343595 -0.004769327 -0.0010523523 -0.09968105 0.055323586
-0.037368357 -0.08458447 0.055153687 -0.033930067 -0.06314604 0.07903293 0.005790715 0.01485409
-0.03150931 -0.061971076 -0.04341427 0.03834488 0.015798056 -0.05222926 -0.06638465 0.052310962
0.052332126 -0.037368853 -0.06482142 -0.035569 -0.05913434 -0.00042578028 -0.08350844 -0.12278528
0.048368543 -0.040079307 0.033311386 -0.014495547 0.040224705 0.064828046 -0.019930737 -0.030415623
-0.07771236 -0.06372067 -0.045672886 -0.08748314 0.036246583 0.038007576 -0.018899435 0.09552518
-0.023315819 0.0042961054 -0.00078916695 0.053532906 -0.083528005 0.056829963 0.015320282 -0.10351057
-0.100990206 0.066249 -0.052806266 -0.04166413 0.027714357 0.06737908 0.0078030853 0.030706912
0.06004166 -0.03134822 0.033158362 -0.00847786 -0.07918594 -0.07830351 0.014297093 -0.08828656
-0.04943813 0.05893592 0.0066739884 0.040000126 -0.10907451 0.005655495 -0.06692487 0.018414304
0.04770247 0.05489653 0.062738046 0.06969671 0.03211565 0.010471561 -0.03974635 -0.06536875
0.00031845196 -0.05221312 -0.082358435 0.03822348 0.04943637 -0.05462591 -0.08627294 -0.096998096
-0.068851195 0.055327162 -0.03265168 -0.07775298 0.010512114 0.031254105 -0.06351061 -0.0301752
-0.014337686 -0.021303765 -0.03387029 0.045774266 0.08850783 -0.0673524 0.07726791 0.0720024
-0.07413987 -0.020921841 -0.03699667 -0.10335008 0.049093008 0.047702745 -0.05917963 0.011795603
0.008299525 -0.07905391 -0.03455871 0.045589045 -0.041786253 0.023438444 0.063402526 0.012713688
-0.007010984 -0.07177172 -0.07029513 0.11887975 -0.02813592 -0.09042313 0.0390896 -0.022894358
-0.073492266 -0.08521474 0.10085615 0.07657765 -0.07636324 0.022909302 -0.02382656 0.056234807
-0.054541152 -0.061133157 0.050152365 -0.086879686 0.07692389 0.036719956 -0.021895897 0.026829723
0.047848035 -0.09620072 -0.0019315185 0.061013315 0.041449647 0.03827391 -0.0038496552 0.07056093
0.04714994 0.069284774 0.05477415 -0.09898872 0.021418098 -0.023405395 0.012308018 0.019737093
-0.048886612 0.049228452 -7.861855e-05 -0.09358675 0.036315624 -0.08040199 -0.016180063 -0.017283032
0.011307463 0.024744399 -0.049747795 -0.05175096 -0.0106671965 -0.0070973174 -0.012280434 0.01700638

bias_hh_l0 f4 [512]
00000000: bf02 a7bd 6205 af3c 31ad e4bd d7d2 4bbc
00000010: ede8 bfbd 443c 783c 8370 0fbd 29bb d5bd
00000020: eb04 53bc 5e09 62bd b3ba cd3c d2e5 443d
00000030: 9476 14bd 677f 7dbd 730f acbd 2e72 dd3b
00000040: a68c 43bd e973 a53d 395d a93c 5c41 6e3c
00000050: 593e a33c 2d96 2bbc 174b 23bd 186b 2a3d
00000060: c8c7 8dbd a0c9 3cbd bd01 9fbd c25d 84bc
00000070: c290 d7ba 0d56 fdbc 74f6 34bd 59a5 ae3d
00000080: 9d4f 96bd ea10 7d3d c407 4cbb 4cd7 3a3c
00000090: 56b4 033c 1abf adbd bec4 06bd 81d3 b6bd
000000a0: 0a33 5f3d b2c7 c83c 6d0d 8b3b 0f26 433d
000000b0: 30db f7bc 3e8c 74bc 0977 5e3d a29d 933d
000000c0: 16ec c9bd 8298 2d3d c15a c4bd 1d0c 71bd
000000d0: debc 9ebc f840 1bbd b2f3 4dbd 97da 92ba
000000e0: 99db b6bd 7805 d1bb 3808 803d e8f5 123d
000000f0: 7622 51bc f833 b9bc 60a6 933c 7ce6 203b
00000100: 8c69 323c 2ddf 353c 2d4e 84bd 7d4e 433d
00000110: 1c6b adbc b22a 0dbd a47f 8d3a 6541 3fbc
00000120: 31cd 483d d718 aabd f27a 883d 9182 27bd
00000130: 073d afbd 16c0 5cbc 362f 3c3d 62c7 3fbd
00000140: 3e19 933c 7786 84bd d22c 683d 4ac4 653d
00000150: 0dcc 643d 7080 773c 16e6 bd3d 4a6d 663d
00000160: 66f9 92bd cba8 aebd 9d99 af3c 777c 6ebd
00000170: 3c64 a93c 8f4b 173d cfe7 f23c 46d3 45bd
00000180: 183d 34bd 4392 7fbc b995 113d fbe8 c03a
00000190: 43bd 55bd 9845 67bc f5e4 25bc d84f 2c3d
000001a0: e0dd 353b 2523 3cbd 06e1 cdbc afad 803d
000001b0: 62d2 5d3c 9bf2 a4bd 3fde 7fba dbaa 4cbc
000001c0: 6e6c 073d 6fa8 68bb f198 323d 406b 57bd
000001d0: a78f ddbc 6079 bfbd 2d01 62bd 9389 7c3d
000001e0: 7622 97bb a509 05be 6519 27bd e528 803d
000001f0: 0f98 923d d2a7 05bd 5684 ddb8 971d 88bc
00000200: 3c15 aebd 208c 4ebc 0dcc 65bd ff16 393d
00000210: 6f6d 0cbd c570 2f3d c0ad fbbd 9158 843d
00000220: 2233 dcbb 89eb 8dbd 7c65 9abd c3ef acbc
00000230: 9cd8 8d3d ac49 b93d 64df 893d 4318 27bc
00000240: 2112 90bd 2c4a d83d f493 983d 5b34 86bd
00000250: 32aa a13c def7 983c 40cc 6b3d 7d3a f1bd
00000260: c574 2d3d 9ea4 93bd 25a4 a63d b1bc 5e3d
00000270: cc3f cc3c f488 1b3d c619 23bc 4a0c 623a
00000280: 28be 843d 45e2 8e3c ab62 4d3d b230 8a3d
00000290: 1533 7ebc 8f0f e93c e615 f23c dda7 203d
000002a0: befc 9cbd 5cfb 95bd 8187 a53d 313e 36bd
000002b0: f799 043d 1c70 6bbc 529d 82bd aa59 9fbd
000002c0: fa2b 983d 3cef d43b d649 07bd 3da5 3c3d
000002d0: 9b7b c6bc 6959 a43c 7199 edbc cbc0 7dbb
000002e0: c7c7 d03c ae47 0e3d 426a 373d ef1f 043c
000002f0: a766 f1bb 5c14 a4bd d590 98bd 797d 9dbb
00000300: f049 aabd 57ee 80bc 2282 b3bd cf54 46bc
00000310: eeaf 49bd a61a 28bb 696e 423d 015c 82bd
00000320: 473a 2ebd b698 573d 9c79 84bd 529e bc3d
00000330: 0b7a 45bd 7288 bdbd 8429 9abd 1812 babd
00000340: 2fae 9dbd e06b 0dbd 9613 6ebc 31c0 91bd
00000350: afa7 563d bd66 793d 037f 1cbd a97e adbd
00000360: a272 203d e93c a1bc a1f2 2ebd e62b d73a
00000370: 2e27 3f3d d1d2 58bd 9639 df3c cf91 56bd
00000380: 5376 3ebd 4fce 72ba 2870 80bd 6756 bd3d
00000390: 1ec6 393d c8cd f73c 4d83 ef3c d8da c0bd
000003a0: 6fd1 a6bd e967 6ebd 4bc5 8a3c e199 9bbd
000003b0: 5469 043d 842d f9bc 1a48 1a3d c125 86bd
000003c0: a425 ba3d ee99 c4bd f300 303c f797 3b3d
000003d0: f40e 383d 2b1e cd3a 8c0e b73d b890 efbb
000003e0: 60a2 c4bd 9791 9bbd 98fe ac3d d870 363d
000003f0: 5058 8fbd 3601 a6bd 556b 6e3d ea55 24bd
-0.08154821 0.021364871 -0.11165846 -0.012440405 -0.09370599 0.015151087 -0.03501941 -0.104360886
-0.0128795905 -0.055184714 0.02511344 0.048070736 -0.036245897 -0.06188908 -0.08401384 0.006757996
-0.047741555 0.08078749 0.020674335 0.01454195 0.01992719 -0.010472816 -0.039866533 0.04160604
-0.06922871 -0.046090722 -0.077640034 -0.016157988 -0.001644634 -0.030924821 -0.04418035 0.08527631
-0.07339404 0.06178371 -0.0031132558 0.01140387 0.008038601 -0.08483715 -0.03290247 -0.0892706
0.054492034 0.024509285 0.004243544 0.047643717 -0.030255884 -0.0149260145 0.05431274 0.072078004
-0.09859483 0.04238177 -0.095876224 -0.058849443 -0.019377168 -0.037903756 -0.050281234 -0.0011204061
-0.08928604 -0.0063788258 0.062515676 0.035879046 -0.012764564 -0.022607788 0.01802367 0.0024551442
0.010889422 0.0111005725 -0.06460223 0.047682274 -0.021169238 -0.034464546 0.0010795486 -0.011673306
0.04902381 -0.08305519 0.06664075 -0.040896002 -0.08556562 -0.013473531 0.04594346 -0.046821006
0.017956372 -0.0647096 0.05668337 0.0560954 0.05585866 0.0151063055 0.09272401 0.05625657
-0.07176475 -0.085282885 0.021435553 -0.058224168 0.020677678 0.036937293 0.02965155 -0.04829719
-0.044003576 -0.015598836 0.035543177 0.0014717871 -0.052182447 -0.014115714 -0.010125388 0.042068332
0.0027750656 -0.045931954 -0.025131714 0.062831275 0.013538929 -0.08054086 -0.0009760595 -0.012491907
0.03306239 -0.0035500785 0.043602888 -0.052592516 -0.027046038 -0.09349322 -0.055176903 0.06165464
-0.0046122624 -0.1299196 -0.040795702 0.062578 0.07157909 -0.03263075 -0.00010562751 -0.016615672
-0.08500144 -0.012606651 -0.0561028 0.045187946 -0.03428405 0.042832155 -0.122889996 0.06462205
-0.0067199627 -0.069296904 -0.07538888 -0.021110421 0.069260806 0.09047255 0.067320615 -0.010198656
-0.07034708 0.10561022 0.07450095 -0.06552955 0.019734476 0.01867288 0.057567835 -0.11778734
0.04234769 -0.072091326 0.08136777 0.05437917 0.024932764 0.037972406 -0.009954875 0.0008623047
0.06481582 0.017441878 0.050142925 0.06747569 -0.015515109 0.028449802 0.029551458 0.039222587
-0.07665394 -0.073233336 0.08082486 -0.044492904 0.032373395 -0.014369991 -0.06377663 -0.07780774
0.07430263 0.0064982455 -0.0330294 0.04605602 -0.024228862 0.020062165 -0.02900383 -0.003871965
0.025485886 0.034736328 0.04477907 0.008064254 -0.0073669734 -0.08011696 -0.074494995 -0.0048062173
-0.08314884 -0.01573865 -0.08765055 -0.012105181 -0.049240045 -0.002565065 0.047468577 -0.063652046
-0.042536046 0.05263587 -0.06468508 0.09209885 -0.048212092 -0.092545405 -0.0752745 -0.09085482
-0.076992385 -0.034526706 -0.014531037 -0.07116736 0.05240601 0.060888994 -0.038207065 -0.08471424
0.039171822 -0.019682365 -0.042711858 0.0016416281 0.046668224 -0.052935425 0.027249139 -0.052385148
-0.04649956 -0.000926231 -0.06271392 0.092449956 0.045354955 0.030249491 0.029237414 -0.09416741
-0.08145415 -0.058204565 0.01693978 -0.075977094 0.03232701 -0.030417211 0.037666418 -0.0655017
0.09089211 -0.09599672 0.010742414 0.04579922 0.044936135 0.001564925 0.089383215 -0.007310953
-0.09601283 -0.075961284 0.084469974 0.04454121 -0.06999266 -0.081057 0.05820783 -0.040120997

weight_ih_l0 f4 [512, 128]
00000000: 0b9c d6bd 36c4 a03c f946 4e3c b3bc 1d3c
00000010: 0f6e f6bb dc17 4abc d91d 2c3d 5ab2 71bb
00000020: 2a73 3f3d 80b8 85bc e0cc 1fbd 33b0 673d
00000030: c656 ba3c 04c9 b03d 9e9f 79bc 4197 563d
00000040: 5294 b3bb 7620 40bd b3b3 333d 96d4 68bb
00000050: 2497 87bd 1a79 a9bd dbdd 0c3d d8c1 443d
00000060: 3b34 c13d 8477 553a 9d45 a43c 89c2 06bc
00000070: d074 51bd 0262 563d 574c 3c3c 650c c13c
00000080: 99e1 bf3b 92c5 0cbd 244a 8abd bf8f 3c3c
00000090: 8d2e d8bd a8de 2e3d 318e f6bb 4500 bfbd
000000a0: 9b71 8bbc 325e 3a3d 9ad2 8dbd 04b6 5e3d
000000b0: 4767 a23d c07f 473c 7430 8ebc 1a6e 48bc
000000c0: f505 38bb 156d 4c3d f098 d63c d9a4 8abb
000000d0: 9fbc a43d 56b2 b03d c241 61bc 523d 8bbd
000000e0: 7bb2 ad3b 2c38 573c 290e 913d da36 20bd
000000f0: 70dc d73d 32c3 abbc f0c4 153c cfd9 7b3d
00000100: 9ccc 683d ab11 28bc 61e8 553c 243a 2f3c
00000110: a2a7 1cbb af87 4a3d a495 443d d067 dd3d
00000120: e2fe 59bc 48d3 3b3a 0c61 15bd 3dfa 343d
00000130: b6d5 c33d 9fb2 693d a660 dcbd a787 b63c
00000140: e7c7 183d dfc7 b0bd 07fc 81bd 9a7c 3eb9
00000150: cbd0 29bd 9847 293d 3a5a 2ebd 37f5 8c3d
00000160: e190 d7bc 2665 cc3b ffc6 c43d e952 313d
00000170: 636c 0abd 168a 85bc 0962 71bc bff1 4e3c
00000180: e77e 5ebd 5a52 7cbd ca4b 00bd b76c 83bc
00000190: e16f 82bd 6264 80bd 189d 39bd b3f7 7bbd
000001a0: 9582 733d a6be a8bd 9d7f 6fbd f47d 5e3d
000001b0: 4a21 a13c e4b8 333b 4cb5 8e3d 2cee e33d
000001c0: 9837 a8bd ec89 5d3c f508 cebc aee2 0abc
000001d0: 6361 25bd 6ccd c0bd b1d2 783d fd52 41bd
000001e0: 5697 a93d 9631 8e3d 533b d0bc 2cf1 1abd
000001f0: a4b1 733c 57c4 7ebd 14b7 883d ab8c 16bd
00000200: 4c0f 45bd 62cb 20bd 3372 26bd 2f18 e3bc
00000210: 1f33 863d 4053 8bbd 48b0 b73c 0daf ea3c
00000220: 12df be3c 9efd 1d3c 6548 3f3d d66c 253d
00000230: 4623 b5bc 7266 8bbd fde7 a4bd 0d0e 413d
00000240: 88fc 873c b800 083d 4576 71bd d2c7 eabc
00000250: 5937 a1bd 3e56 aebd 01f0 2c3b 4b40 bd3c
00000260: 968b 6dbd 2216 153d cbd1 f1bc 5e6b 10bd
00000270: fbd0 73bd 145c 903c 11dc c8bd c3a4 a3bc
00000280: 0663 9d3c 4406 e63c 368c 05bd ac63 ee3a
00000290: 4469 27bd 5d45 8a3d b9aa 7a3b d0c4 afbd
000002a0: 4e8f edbc 0a66 20bc 62b5 b6bd 4635 d73c
000002b0: d01e e93c 14a2 7dbd 4bd0 0b3d 42bc b2bd
000002c0: 19a2 e1bc 2e5e 183d f6c1 a93a 1189 963d
000002d0: a031 2ebb 3c61 76bd 7740 ae3d a0df 043d
000002e0: 663a b93d e95c 843d 3de8 6abd aca9 a23c
000002f0: f716 cf3d 9b62 0e3c f9db a33d 007e 913c
00000300: e1b4 5abd 247d 1a3d e281 7ebd e3ec b43d
00000310: 2b74 3abd 6b01 a33b c8d2 7cbc dad6 513c
00000320: a5ed 2cbc ba2a bdbd ac0f 8c3d 8332 1a3c
00000330: 0590 2bbc 2bae 5e3d f454 cd3c 75a6 563d
00000340: d84a 9a3c c5ad ef3c a5f8 4e3c 6e4e 8ebd
00000350: 7d34 563c ad48 2c3d 8fd3 d7bb 4034 9c3d
00000360: 69e8 ddbd 8132 88bd 9023 b0bd 424c a93c
00000370: 4a56 633b 45fd 293d 357b 36bc 1204 593d
00000380: bd39 143d 062b 1a3d 06f4 343d ed2f 33bd
00000390: 0aab 03bd b7e6 a7bb afb0 523d 84d5 cdbd
000003a0: 9026 0d3d 985c 1b3d a3ae 43bd 24f1 07bc
000003b0: 2243 85bb 74d4 16bd 3145 32bd 1c70 c83d
000003c0: 2dfc 5abd 757d 03be c557 e93c ea7d a83d
000003d0: cca1 96bd 1963 843d f5f8 19bd 4a26 0ebd
000003e0: c53b 363d 00cf 603c e23a b73b a5db 233d
000003f0: eca4 2fbd 2b28 bb3d 8110 cf3b b457 e73c
-0.104789816 0.01962481 0.012590163 0.009627509 -0.007520444 -0.01233479 0.042020652 -0.0036879987
0.04674069 -0.016323328 -0.039013743 0.05656452 0.022746455 0.08632091 -0.01523581 0.05239034
-0.0054803276 -0.046905957 0.043872546 -0.0035527102 -0.06620625 -0.082750514 0.034391265 0.048036426
0.0943379 0.00081431144 0.020052725 -0.008225092 -0.05113679 0.05233956 0.01149281 0.02356548
0.0058557508 -0.034368105 -0.067524225 0.011508881 -0.10555754 0.04269281 -0.0075242748 -0.09326223
-0.017021945 0.045499988 -0.06924935 0.054372802 0.07929855 0.012176454 -0.017357089 -0.0122332815
-0.0028079723 0.049908716 0.026195973 -0.004231077 0.08043789 0.08627765 -0.013748588 -0.06798805
0.0053008175 0.013135951 0.07082779 -0.03911481 0.10540092 -0.0209671 0.009141192 0.061487015
0.056835756 -0.010258119 0.013055892 0.010695014 -0.0023903628 0.049445804 0.04799427 0.10810816
-0.013305398 0.0007164967 -0.036469504 0.04418396 0.095622465 0.057055112 -0.10760622 0.022281481
0.037300017 -0.086318724 -0.063468985 -0.0001816623 -0.041458886 0.041328043 -0.042566516 0.068827085
-0.0263142 0.006237644 0.09608268 0.04329196 -0.033794772 -0.016301196 -0.014732846 0.012630879
-0.054320242 -0.061601974 -0.031322278 -0.01604305 -0.063689955 -0.062691465 -0.045315832 -0.06151552
0.059450705 -0.08239488 -0.05847131 0.054319337 0.019669194 0.0027423436 0.069681734 0.11129412
-0.08213729 0.013521653 -0.025150755 -0.008476896 -0.04037608 -0.09414181 0.060747806 -0.047198284
0.08280818 0.069430515 -0.025418913 -0.037827656 0.014873896 -0.062198963 0.066755444 -0.036755245
-0.04811029 -0.03925646 -0.040636253 -0.027721493 0.06552719 -0.06802988 0.022422925 0.028647924
0.023299728 0.009642987 0.0466999 0.040386997 -0.022111546 -0.06806649 -0.08052061 0.04713254
0.016599908 0.03320381 -0.05895068 -0.028659735 -0.07871885 -0.08512543 0.002638817 0.023101946
-0.057994448 0.03639806 -0.029518982 -0.035258643 -0.05952547 0.017622031 -0.09807599 -0.019976025
0.019212257 0.02807916 -0.03260442 0.0018187664 -0.040871873 0.06751511 0.0038248731 -0.08582461
-0.028998997 -0.009789953 -0.08921315 0.02627052 0.028457075 -0.061922148 0.03413419 -0.087273136
-0.027543114 0.03719919 0.0012951482 0.07350362 -0.0026579872 -0.060151324 0.085083894 0.032439828
0.09044342 0.06463034 -0.057350386 0.019856296 0.10111802 0.008690502 0.08000941 0.017760277
-0.053395156 0.037717 -0.062135585 0.08834245 -0.045520943 0.0049745343 -0.015431114 0.012807572
-0.010554706 -0.09236665 0.06838927 0.009411457 -0.010471349 0.05436532 0.025064923 0.05240484
0.018834516 0.029257664 0.012632524 -0.06948553 0.013074038 0.042061497 -0.006586499 0.076271534
-0.10835344 -0.06650258 -0.08600533 0.020666245 0.0034688883 0.041501302 -0.011137773 0.052982397
0.036187876 0.037638687 0.04417803 -0.043746877 -0.032145537 -0.005123939 0.05143803 -0.100504905
0.034460604 0.0379301 -0.04777397 -0.0082972385 -0.0040668407 -0.036823705 -0.043523017 0.09787008
-0.05346315 -0.12840827 0.028484235 0.08227141 -0.07355079 0.06464214 -0.03759094 -0.034704484
0.044490594 0.013721228 0.005591736 0.04000439 -0.04288189 0.09138521 0.006319106 0.028240062

weight_hh_l0 f4 [512, 128]
00000000: 494b d7bd bf20 09bc 2456 d3bc 5b41 2cbd
00000010: fcfc 72bd bc15 563d 5b6e 3fbd 5b86 f1bc
00000020: a2fe 643d 6409 0ebd 7aed 8a3d 498b 433d
00000030: 3be8 423d fe3a 8dbd 8554 30bc b182 453d
00000040: 2ff1 96bd 9ef9 813d 3c3a a8bd 567f 80bd
00000050: b304 8f3d 1f48 733d 2b3a 5e3c aa78 2c3c
00000060: 25a4 8b3d ded0 92bc 89e4 1d3d e7d4 7bbc
00000070: ff11 853d 5694 a6bd 6a6d c5bb a0f9 993c
00000080: ee17 8fbd eb44 eabc 0a46 e83c d306 893d
00000090: 2e6e 453b 42aa 923d 660f a43c 6e02 9b3d
000000a0: 0b2f ad3c ca6b 48bc 880e 04bd 4902 1c3d
000000b0: bbdd 373d f1d8 e93c 3c6d 553d 1b0b 3f3d
000000c0: e55e 2cbd 96ad 14bd 0c7c b0bc 5c43 d63c
000000d0: 1c1b 9b3d 5b52 09bd 7f21 2abd a520 07bc
000000e0: 80e3 6dbd f5c3 a6bd cbb9 a43c 7cea 2bbd
000000f0: 2eeb 24bd 1f8c 48bd 0235 83bd 1134 893d
00000100: 208b 01bd 75e0 9bbd 19ff 46bd 4ab2 72bd
00000110: a393 38ba 3422 87bd 2631 823d ccaf 6dbd
00000120: 1b40 c7bd bcc9 95ba 8e20 f3bc 120f 69bc
00000130: 4e10 81bd c41c 053d 8813 7bbc 04d9 653c
00000140: 62e5 af3c 234c b3bd f972 843d e426 8fbd
00000150: d6c5 6fbb de6f 043c 36dc 743d 8bbf 9ebd
00000160: 0d40 0c3d 7dc4 4c3d bd58 f23c 132d 54bc
00000170: 3c9d 443d e146 663d 1d82 9e3d 32f3 353b
00000180: 190e 683d 0c13 dfbc 4481 563d 8305 5c3c
00000190: 3d21 c43d e062 4b3d fd88 bcbd f8f6 66bd
000001a0: 5895 babc 225a 5b3d 5a5b 543d 52de 1eb9
000001b0: e61d 973d abdb a0bd 3029 5abc 44ab d2bc
000001c0: c3c6 6b3d 3985 6e3d a940 803d 57f6 2fbb
000001d0: c388 4c3d 1e40 593c 1b2e 543d ab83 23bc
000001e0: 5afe 21bd 1fb1 8b3d bcee 6ebd aff4 a8bd
000001f0: 2444 773d 6609 56bc 0f60 b53d b770 d1bc
00000200: 3475 b8bc 804d cc3b 7dec dcbc f55f 21bd
00000210: ec28 fd3c aaab 9cbd 0841 ccbb 2750 99bd
00000220: 928f 0bbd 2344 67bd 8bf9 c53d a4f7 80bc
00000230: eecb a2bd 9c54 853d e888 6dbd 68fb f5bb
00000240: 6575 67bd 6ac5 bcbd 5380 313d 283f c2bc
00000250: e1ae 6a3d 4d29 753d c39b 26bd 5af3 8e3b
00000260: d2ad 34bc e5c8 c83d d0f8 b9bd 100e b93d
00000270: 3a85 96bc ab86 be3c d5b8 acbd 6215 8bbd
00000280: 754a c839 3ce6 5bbb 93e0 84bd c254 6a3d
00000290: 3900 1c3d ece3 423c 5775 9dbd c327 cfbc
000002a0: d2c6 1abc 240f 4abc b188 55bd 7b5e 1ebd
000002b0: 711f 493d d63b 9f3d f805 15bc cd81 213d
000002c0: 0d40 943d 4e39 5c3d ff37 a8bd 8dd3 5fbd
000002d0: 2543 9f38 e1fb 9bbd 0874 f6bc 27ea 603d
000002e0: 9452 783d d655 60bd 93f2 8c3d 455f 30bd
000002f0: fbef 53bd bc9d 33bc 0b0e bdbd af5c bf3d
00000300: b244 abbb 0b86 b63c 511b 9abd 2434 463c
00000310: b941 a73c c3b1 a3ba 6a1b 86bd 214b c4bc
00000320: 8235 3ebc 3ab2 6abd 3955 8e3d fbd1 be3c
00000330: 8682 d83d 1d12 43bd 0dd0 1bbd 08a1 52bd
00000340: e441 803d 8239 8ebd c826 9fbc 6c34 8c3d
00000350: b4d4 ab3d e3a1 4dbc 87b7 8c3c 6fd6 29bc
00000360: 883a 183d a2cb a0bc af1b 4abd 8f3a 943d
00000370: 59b7 c3bc 4718 5fbc 481c 9dbd bcad 733c
00000380: d3e2 81bd 47a6 83bd 5f5e b43c 48a7 c33d
00000390: a501 ab3d cf60 4cbd 696d 673d 6a1f 8dbd
000003a0: 8769 053d 7f11 91bc 6b16 bdbd f9c6 7a3d
000003b0: f711 7d3d fbcf 8c3c 7124 f23c 31d7 97bd
000003c0: 651d 8ebd f571 653b 67a6 cc3c 298f 87bd
000003d0: 1bd5 543d 8fdc b03d bf52 713c 7796 7c3b
000003e0: fbd1 1a3c a2ed b7bd 5aba a43d 6838 013d
000003f0: 25c2 5d3d 9133 58bd 81f7 16bc 5818 083c
-0.105124064 -0.008369624 -0.025797911 -0.042054515 -0.059323296 0.05226682 -0.046736103 -0.029483011
0.0559069 -0.034676924 0.06783576 0.047740255 0.047584753 -0.068960175 -0.0107623385 0.04822034
-0.07370221 0.06346439 -0.08214232 -0.062742874 0.06983318 0.059394952 0.013563673 0.010526815
0.068184175 -0.017921861 0.038548026 -0.015370584 0.06497573 -0.081337616 -0.006025006 0.018795788
-0.06986986 -0.028597316 0.02835371 0.06690755 0.0030125487 0.0716138 0.020026874 0.07568823
0.021140596 -0.01223273 -0.03224042 0.038088117 0.044889193 0.028545829 0.052106127 0.04664145
-0.042082686 -0.036298357 -0.021543525 0.026155166 0.0757353 -0.033525806 -0.04153585 -0.008247529
-0.05807829 -0.081428446 0.020108124 -0.04197167 -0.040263347 -0.048961755 -0.06406595 0.06699384
-0.03162682 -0.07611171 -0.048583124 -0.05925206 -0.00070410426 -0.065983206 0.063570306 -0.05802898
-0.09729024 -0.0011427919 -0.02967861 -0.014224784 -0.06301938 0.032498136 -0.015324481 0.014028791
0.021471683 -0.08754756 0.06467242 -0.0698984 -0.0036586425 0.008083312 0.059780322 -0.07751378
0.03424077 0.049992073 0.02958333 -0.0129502 0.048001513 0.05621994 0.07739661 0.0027763364
0.05665407 -0.027230762 0.05236937 0.0134290485 0.09576652 0.04965484 -0.09205816 -0.05638787
-0.02277629 0.053552754 0.051844932 -0.00015150875 0.073787495 -0.07854398 -0.013315484 -0.025716431
0.0575626 0.05823252 0.06262333 -0.002684971 0.049935114 0.013259916 0.051801782 -0.009980123
-0.03954921 0.068208925 -0.058333144 -0.08249795 0.06036772 -0.013063764 0.08856212 -0.025566442
-0.022516824 0.0062348247 -0.026968235 -0.039398152 0.030903302 -0.0764993 -0.0062333383 -0.07485991
-0.034072466 -0.056461465 0.09666737 -0.015743084 -0.07949053 0.065102786 -0.057991892 -0.0075067766
-0.05650844 -0.09217341 0.04333527 -0.023711756 0.057295684 0.05985384 -0.04067589 0.004362506
-0.01102777 0.098039426 -0.0908066 0.09035885 -0.018374074 0.023257574 -0.084336914 -0.06791188
0.00038202447 -0.0033553978 -0.06488147 0.057209738 0.03808615 0.011895161 -0.076883964 -0.025287515
-0.0094468165 -0.012332711 -0.052132312 -0.038664322 0.04910225 0.07775085 -0.009095661 0.03943043
0.07238779 0.053765588 -0.082138054 -0.05464511 7.5942175e-05 -0.076164015 -0.030084625 0.054910805
0.060625628 -0.05476936 0.06882205 -0.043059606 -0.051742535 -0.0109629 -0.09231194 0.0934385
-0.005226695 0.022280714 -0.075247414 0.012097392 0.020417081 -0.001248889 -0.065481976 -0.023961606
-0.011609437 -0.057298876 0.06949849 0.023293486 0.1057177 -0.047624696 -0.03804021 -0.051423103
0.06262568 -0.069445625 -0.019427672 0.06845936 0.08390179 -0.012550804 0.017177356 -0.010366066
0.037165195 -0.01962835 -0.049342807 0.07237732 -0.023891138 -0.013616628 -0.0767141 0.0148729645
-0.063420914 -0.06428199 0.022017656 0.09553391 0.08349923 -0.04989701 0.056500826 -0.068907574
0.03257134 -0.017708538 -0.092327915 0.06122491 0.06178471 0.017189017 0.029558392 -0.074140914
-0.069392 0.003501055 0.02498169 -0.066191025 0.051961046 0.08635818 0.014729201 0.0038541832
0.009449477 -0.08980872 0.08043356 0.031547934 0.05414023 -0.052783553 -0.009214283 0.008306585

bias_ih_l0 f4 [512]
00000000: 2744 223b 3341 acbb dd9a 4bbd 8d39 9d3c
00000010: 05c9 dd3c 02cc 73bc 5408 973c 6a53 97bd
00000020: ffdc 42ba c35f d5bd 1520 163c bc1d c5bd
00000030: bb8f 7bbd 6097 a63b b9eb 4cbd 0293 87bc
00000040: d1d4 693d 9d69 6dbd 7339 b13d bc66 82bd
00000050: 74d3 a9ba a212 cd3c b2bb d6bd 5b16 49bd
00000060: 603f 91bd 417b 803d 53ca 77bd ff2e 6d3d
00000070: cd7b eebc 3f61 d2bd 9fb0 953d b7af 9cbd
00000080: 22b0 a3bc 92cc c33c 4fcd e7bd 1a28 8fbc
00000090: 1bb8 79bc 155c 3a3d 843b b5bd 52bb 21bd
000000a0: 0562 4abd 4ec5 32bd 099c 6f3c 5810 91bd
000000b0: 3eed 0a3d cea6 fbbd 8ebf 083b 3915 adbd
000000c0: e745 533c 3122 b33c 34cf afbd 5b42 683c
000000d0: a614 143d ac84 3cbd 4c51 683d 6a17 623d
000000e0: 55c4 923d d13f 113d cadb 823d 1958 65bd
000000f0: 9486 583d 86c0 84bd 7bfc 7abd 82e7 063d
00000100: 84da abbd a014 323d da9d 453d 2afc abbd
00000110: c28a 59bd b4a6 3c3b 6168 8bbd a292 8dbd
00000120: f995 cfbd 0c7b babc 488f a6bd 4ace f33b
00000130: 6b79 bcbd fe74 c3bd 4ef0 c6bd af6d 6ebc
00000140: 7658 b93c b74a d3bc 7933 1cbb ff01 203d
00000150: 45ea 20bd 7310 f2bc 32a1 563d 38f7 033b
00000160: e3a7 a2bb d3f5 08bc 4d82 b9bc 018a 953d
00000170: 9269 c8bd 6253 48bd 25a1 85bd 4fad 6f3d
00000180: 3335 2d3d 4bc5 9bbc 69c3 acbd b8fa 98bd
00000190: 1fb7 9fbc 26b5 92bd 6d6e 87bd 26df b9bd
000001a0: 7029 ddbd 098a c6bd f040 f1bb 6db2 c1bd
000001b0: d2b5 77bd 0619 dabd 55c8 28bd 0da4 bbbc
000001c0: d545 75bd 8e03 dcbd f759 abbd 6e4a 7cbd
000001d0: 5bb8 903d 7658 a1bd 3ee2 3fbd 09cf 8a3b
000001e0: 3062 7cbd 866c 8dbc 8af5 863d 8dcf 82bd
000001f0: bfae dabc 1808 5ebd b8db 3dbd 0b4d cd3b
00000200: b601 eabc c872 163c 23cf 06be f3ae d8bb
00000210: c646 28bd bb58 abbd 3ebc 243c 7eed 07bd
00000220: f8d3 b3bd d719 97bd e127 cc3c 38b8 d7bc
00000230: 47d9 d13c 88c5 70bd 2b9b fdbd 31c7 ad3b
00000240: 0bce a5bd fc24 04be 3a64 aabc 7ae4 f1bd
00000250: 1108 94bd d88a 77bd ec90 12be 7a27 38bd
00000260: 7c0e 1fbd 5916 cbbd 4cdd d0bd c674 12bd
00000270: 7e0a 3fbb 425e 86bd 024c efbc c976 d4bd
00000280: fadd b0bb ec85 18be 90fa 07bd a9a8 80bc
00000290: ff2b 3b3d 538b 0dbe 6a46 95bd 8b11 103d
000002a0: 40d0 983d 39e6 143c 8936 1c3d 19d0 cabc
000002b0: f674 4d3d e60f edbd fa7f b7bc e889 c0bd
000002c0: 140e 873b d442 da3c 8044 a4bd a261 5b3d
000002d0: 9649 593d 7a84 61bc c0bf bc3c 5813 0abd
000002e0: 109a f1bd 706c a0bc ceeb 05bd 2960 21bd
000002f0: a133 d0bd b2d4 f7bb 4153 ddbd 01a9 e3bd
00000300: 7496 bcbc f50a 61bd 4538 23bd 8a44 4fbd
00000310: b2c4 6abd c610 d5bd 4018 aebd 8051 933c
00000320: 9adf dabd a895 663d a49c b03c 0d7f cdbd
00000330: 9cad bebd 3664 063d 048c 78bc 26e4 09bd
00000340: 26ca 39bd 9a05 4a3d f360 ffbc 6345 18bd
00000350: 27a6 20be b2c5 b03d c11e dabc 84e1 c0bc
00000360: e784 d5bc d37e 783c d6d3 00bd ea24 2abc
00000370: 545c 553c c27e debc 60c7 51bc 6ef8 b4bb
00000380: 0fd5 18ba 44f0 383c 44d0 b2bd 86f3 e7bc
00000390: 09f4 543c 44cc 0c3b 2ac5 96bd 5a5f 4bbd
000003a0: 4ef3 cebd 120e a93c 1cd0 35bc cfda e5bd
000003b0: 1958 e2bb 782f 81bd c6c6 453d 3e06 e8bd
000003c0: 9663 97bd 5f98 03be fc6c 803d 825a f53c
000003d0: d19c df3c b518 1cbb 2cdf 61bd 215f 89bc
000003e0: b773 9abc 0195 fe3c e2b7 a53c 958c 313d
000003f0: e8c4 95bd dca1 c7bc 5b3d bcbd 7b45 a9bd
0.002475986 -0.005256796 -0.049708236 0.019192481 0.027073393 -0.014880182 0.018436588 -0.07388957
-0.00074334437 -0.10418656 0.009162922 -0.09624812 -0.06141637 0.0050839633 -0.05002949 -0.016549591
0.057087723 -0.05796205 0.08653536 -0.06367251 -0.0012956695 0.025033299 -0.10485019 -0.049093585
-0.07092166 0.06273509 -0.060495686 0.057906147 -0.029111767 -0.102724545 0.073090784 -0.076507024
-0.019981448 0.023901258 -0.113184564 -0.017475177 -0.015241648 0.045497973 -0.08849242 -0.039485283
-0.049409885 -0.043645196 0.014624604 -0.070831954 0.033917658 -0.12287675 0.0020866129 -0.084513135
0.012895084 0.02186689 -0.08584443 0.014175977 0.036152504 -0.046024963 0.056718156 0.05519811
0.071663536 0.03546125 0.06389578 -0.05599222 0.05286272 -0.064820334 -0.06127594 0.032935627
-0.08391288 0.0434767 0.048246242 -0.08397706 -0.053110845 0.0028785886 -0.06807018 -0.069127336
-0.10136027 -0.022763751 -0.081327975 0.007440363 -0.09202846 -0.09543799 -0.09713803 -0.014552518
0.02262519 -0.025792463 -0.002383439 0.039064404 -0.039285917 -0.02954886 0.05239982 0.0020136368
-0.0049638613 -0.00835939 -0.02264514 0.07301713 -0.09785761 -0.048907645 -0.065248765 0.05851489
0.042287063 -0.019014975 -0.08435709 -0.07469696 -0.019496499 -0.071634576 -0.06612859 -0.09075765
-0.10798919 -0.09694297 -0.0073624775 -0.0945786 -0.06047613 -0.10649304 -0.041206677 -0.022905374
-0.05988105 -0.107428655 -0.08366769 -0.06159442 0.07066413 -0.07878201 -0.04684662 0.0042361063
-0.061617076 -0.017263662 0.065898016 -0.063872434 -0.026694654 -0.054206938 -0.04635212 0.0062652878
-0.028565269 0.009182639 -0.13164954 -0.0066126524 -0.04108312 -0.08366533 0.010054646 -0.033185475
-0.08780664 -0.073779754 0.02492136 -0.02633296 0.025616301 -0.05878213 -0.123831116 0.0053032865
-0.0809594 -0.12904733 -0.020799745 -0.118111566 -0.07228101 -0.060435146 -0.14313096 -0.044959523
-0.038832173 -0.09916372 -0.10198459 -0.035755895 -0.002915054 -0.06560947 -0.029211048 -0.10374219
-0.0053975554 -0.14894837 -0.03319794 -0.015705423 0.045696255 -0.13822679 -0.07288821 0.03517298
0.074615955 0.0090880925 0.038137946 -0.024757432 0.05016037 -0.11575298 -0.022399891 -0.094013035
0.0041215513 0.026643194 -0.08020878 0.053559907 0.053048693 -0.013764495 0.023040652 -0.033709854
-0.11796963 -0.019582957 -0.032695584 -0.039398346 -0.101660974 -0.007563197 -0.10806895 -0.11116219
-0.02302096 -0.05494209 -0.039848585 -0.050602473 -0.05731649 -0.1040359 -0.08500719 0.017983198
-0.1068718 0.056295067 0.021559067 -0.10033999 -0.09310457 0.032810412 -0.015170101 -0.033664845
-0.0453588 0.04932175 -0.031174159 -0.037175547 -0.15688382 0.086314574 -0.026625993 -0.023545034
-0.02606435 0.015166956 -0.031452022 -0.010384778 0.013022501 -0.027160052 -0.012803882 -0.005522779
-0.0005830088 0.011287753 -0.0873113 -0.028314363 0.012997636 0.0021484056 -0.07361825 -0.04965148
-0.101050004 0.020636592 -0.01109698 -0.11223375 -0.0069074747 -0.06307882 0.04828527 -0.113293156
-0.073920414 -0.12851094 0.06270787 0.029950384 0.027296456 -0.0023818437 -0.055144474 -0.016768994
-0.018854005 0.03107691 0.020229284 0.04334696 -0.073129475 -0.024369173 -0.0919139 -0.082652055
