trained_models/ppo/me5418-Cassie-v0/0523-16-02-01-s3737/critic.pt (torch, 96254 bytes, 5 tensors)

weight f4 [128, 50]
-0.10448484 -0.032368474 0.042975627 -0.08299949 -0.08667417 0.15675586 -0.07763661 -0.03349496
0.023350045 0.071272835 -0.043051276 -0.1406271 -0.0014431262 -0.06247193 -0.027164243 -0.3290065
-0.048693307 -0.03608283 -0.13403344 -0.14655001 0.052910287 0.036219627 0.031469133 -0.11137005
0.095588826 -0.11965103 -0.08236408 -0.04680013 -0.12269248 -0.10454301 0.06729872 0.0027712428
0.03296596 -0.0699062 0.18912613 -0.13631651 -0.034009874 0.05695768 0.0939065 0.02045917
0.019185597 -0.07251063 0.14554046 0.06447163 0.012725197 -0.15985371 0.008843572 -0.09366599
0.082818046 -0.030630495 -0.1448072 -0.0299733 0.01429536 -0.00077885826 -0.12346491 -0.084784955
-0.017529754 -0.01876146 -0.10820922 0.051697444 0.16933312 -0.116136216 -0.1086674 0.123754285
0.16311492 0.08218751 0.11480444 0.04591176 -0.023042388 0.013509115 -0.19003314 0.054717105
-0.088348895 0.10858289 -0.03156218 0.05817729 0.16645314 -0.11709771 -0.01486933 0.049137197
0.14602287 0.031195927 0.023302998 -0.039749335 0.13385586 0.02056517 0.053886514 0.22138414
-0.106598444 0.09230826 0.12594377 -0.2289414 -0.05220326 0.029527996 -0.12708366 -0.23548862
0.060615424 0.0008026306 -0.17601222 -0.0021034924 0.07268325 -0.06093597 0.012472427 0.055077463
-0.10011129 0.06127005 0.039227672 -0.07694791 -0.15475243 -0.003918422 0.12346552 0.10524918
-0.022048485 0.099128224 -0.0124599235 -0.17103548 -0.1228487 0.002674306 0.112469755 0.13230902
-0.061364044 0.00023875631 0.0025779717 0.119035706 0.056942586 0.0015554802 -0.08092433 -0.08340675
0.14348292 -0.054231618 0.25527835 -0.1002103 0.05368517 -0.055033762 0.016566128 -0.136152
0.034806702 -0.08709432 0.03175944 0.124247715 -0.036788862 -0.073646955 -0.12700473 0.01723063
0.05171286 0.024965305 0.11635201 -0.07728756 -0.009522088 -0.011896702 -0.15537956 0.10190919
0.039288633 0.15337245 -0.13172254 -0.17518312 -0.22485226 0.0004115233 0.09921954 -0.09926205
-0.03624413 0.10257183 0.12941596 0.1560374 -0.0732854 -0.057406504 0.074669234 0.049195424
0.11243318 0.12143123 0.016032455 0.015950315 -0.0102680735 -0.12054508 -0.013513949 -0.0035090728
0.14583282 -0.045131 -0.13623977 0.17717104 -0.088471085 0.015777148 0.048392344 -0.16841835
0.01072754 -0.098149665 -0.018679157 -0.12499617 -0.013779737 -0.14435351 -0.06638319 -0.10455637
-0.0829864 -0.10543795 0.03368287 -0.11973534 0.14523226 0.061868157 -0.13263282 0.03568191
-0.023482887 0.08798577 0.094693445 -0.17294206 -0.042919066 0.0013101648 0.035669494 0.043881502
0.18621604 -0.2602243 0.02688142 0.0035280369 0.10569353 -0.04602636 -0.07748456 0.05533237
0.030541647 -0.010870251 -0.03322597 0.14834115 0.04817045 -0.06714253 -0.028093163 0.009966954
0.090308 -0.047632866 -0.09309274 0.10288748 -0.06505459 -0.04413157 0.043965507 -0.04925544
-0.01980282 -0.13765512 0.010779074 0.09711063 0.005599899 -0.024529433 0.07525826 0.021025417
0.2324827 0.00022862887 -0.07275592 0.20854162 -0.015599252 0.00033144213 0.015623043 0.038332902
-0.12242201 -0.22470564 -0.111447096 -0.0073037716 -0.10568357 -0.029298125 -0.20401596 -0.1331139
00000000: 26fc d5bd ce94 04bd 3607 303d a3fb a9bd
00000010: 3a82 b1bd 9c84 203e f1ff 9ebd 0332 09bd
00000020: 9848 bf3c 7ef7 913d 8956 30bd 8d00 10be
00000030: 4827 bdba 91e2 7fbd 8c87 debc 8a73 a8be
00000040: a272 47bd 97cb 13bd 1040 09be 3511 16be
00000050: 75b8 583d 085b 143d c7e5 003d fb15 e4bd
00000060: 13c4 c33d 990b f5bd 80ae a8bd 7eb1 3fbd
00000070: 3246 fbbd a51a d6bd e9d3 893d bd9d 353b
00000080: 5107 073d fb2a 8fbd 48aa 413e 8e96 0bbe
00000090: f04d 0bbd 754c 693d 0d52 c03d fd99 a73c
000000a0: 1d2b 9d3c 7480 94bd 8f08 153e b409 843d
000000b0: 587d 503c b1b0 23be a1e4 103c f4d3 bfbd
000000c0: 829c a93d ceec fabc 5748 14be 918a f5bc
000000d0: 1637 6a3c 4b2c 4cba 2cdb fcbd bca3 adbd
000000e0: 8f9a 8fbc a2b1 99bc cc9c ddbd b3c0 533d
000000f0: a965 2d3e d3d8 edbd 048d debd e372 fd3d
00000100: 9907 273e ed51 a83d 971e eb3d f80d 3c3d
00000110: 64c3 bcbc 5655 5d3c 0c98 42be 0b1f 603d
00000120: 44f0 b4bd b560 de3d 5847 01bd 4f4b 6e3d
00000130: b172 2a3e edd0 efbd 7e9e 73bc 1644 493d
00000140: 0587 153e 9a8e ff3c eee5 be3c 33d0 22bd
00000150: 8311 093e 4a78 a83c 1bb8 5c3d 86b2 623e
00000160: 4950 dabd 1d0c bd3d 67f7 003e 9d6f 6abe
00000170: 16d3 55bd b2e4 f13c 3822 02be ee23 71be
00000180: e147 783d a167 523a 8c3c 34be bfda 09bb
00000190: f5da 943d ff97 79bd 2759 4c3c e898 613d
000001a0: 2607 cdbd 4ef6 7a3d 32ad 203d de96 9dbd
000001b0: 6c77 1ebe 1b66 80bb 7edb fc3d e28c d73d
000001c0: 069f b4bc bd03 cb3d b524 4cbc ed23 2fbe
000001d0: 1998 fbbd 6943 2f3b 8b56 e63d 047c 073e
000001e0: dd58 7bbd a95a 7a39 30f3 283b fec8 f33d
000001f0: a13c 693d 41e1 cb3a a8bb a5bd 28d1 aabd
00000200: 30ed 123e f921 5ebd d8b3 823e 0f3b cdbd
00000210: fbe4 5b3d 156b 61bd b0b5 873c 6e6b 0bbe
00000220: 7991 0e3d 825e b2bd 3016 023d 9675 fe3d
00000230: ebaf 16bd 37d4 96bd 870d 02be 4027 8d3c
00000240: ddd0 533d 0a84 cc3c f649 ee3d f148 9ebd
00000250: 8802 1cbc 63ea 42bc d21b 1fbe c4b5 d03d
00000260: 1eed 203d ab0d 1d3e 46e2 06be 3463 33be
00000270: ac3f 66be b9c1 d739 9d33 cb3d e749 cbbd
00000280: ba74 14bd 2e11 d23d 9e85 043e 45c8 1f3e
00000290: a816 96bd 1523 6bbd 2fec 983d 2481 493d
000002a0: 5e43 e63d f0b0 f83d 7f56 833c 3caa 823c
000002b0: 6c3b 28bc 57e0 f6bd 9c69 5dbc 79f8 65bb
000002c0: 3355 153e 49db 38bd 7082 0bbe 536c 353e
000002d0: 5430 b5bd 143f 813c 0d37 463d dc75 2cbe
000002e0: 90c2 2f3c b102 c9bd 0805 99bc fefd ffbd
000002f0: 68c4 61bc 68d1 13be e9f3 87bd a621 d6bd
00000300: c6f4 a9bd daef d7bd 0df7 093d cd37 f5bd
00000310: c4b7 143e 7769 7d3d e6d0 07be 3227 123d
00000320: 2f5f c0bc e231 b43d a3ee c13d b917 31be
00000330: e7cb 2fbd d6b9 ab3a 2d1a 123d 17bd 333d
00000340: 6baf 3e3e 1f3c 85be 6c36 dc3c a336 673b
00000350: d975 d83d 2386 3cbd 3ab0 9ebd 32a4 623d
00000360: 7a32 fa3c 2319 32bc f417 08bd bee6 173e
00000370: 614e 453d 0682 89bd a223 e6bc 6f4c 233c
00000380: 67f3 b83d ae1a 43bd 68a7 bebd acb6 d23d
00000390: 573b 85bd 4ec3 34bd 2d15 343d 12c0 49bd
000003a0: 8639 a2bc 77f5 0cbe b79a 303c f0e1 c63d
000003b0: 5c7f b73b f3f1 c8bc 0121 9a3d 7f3d ac3c
000003c0: f20f 6e3e 18bc 6f39 0e01 95bd ef8b 553e
000003d0: 0194 7fbc 69c5 ad39 cbf7 7f3c f602 1d3d
000003e0: 64b8 fabd 3c19 66be 603e e4bd 7a54 efbb
000003f0: a170 d8bd 9f02 f0bc 8fe9 50be 034f 08be

bias f4 [128]
-0.03463133 -0.047993775 -0.012867909 0.013815483 0.030090012 -0.053903032 0.0075992234 0.002849569
0.010162297 -0.022902235 0.008886053 -0.04228967 -0.017103432 0.016944919 0.01081643 -0.010457188
0.015882876 0.014701999 0.01185304 -0.019458413 -4.153885e-05 -0.04320273 0.014333534 -0.0029787952
-0.0391278 -0.04091475 0.013645758 -0.007697398 0.018211484 -0.016847666 -0.022050427 0.031988744
-0.034818336 -0.021942643 0.018347925 -0.0069672316 -0.016785035 0.026277827 0.010891173 0.0142140025
0.0053920066 0.0008188819 -0.032232456 0.011715242 -0.025225677 0.016154798 -0.014460928 -0.035418168
0.027163304 0.01606513 -0.0029910533 0.009427716 0.037859723 -0.0014932522 0.018704612 -0.019101465
0.011988427 0.011625625 0.010773898 0.02695259 -0.0011277552 0.028952515 0.040666424 -0.027380994
0.0070030075 -0.0039905813 0.038717348 -0.0096422825 -0.00065340195 -0.01826856 0.024286818 -0.0036789374
-0.009097022 0.032902196 -0.0005020544 -0.042788863 -0.005415303 0.016208239 -0.021129735 0.007518609
-0.0044659697 -0.038052734 -0.0005936205 -0.0075852773 -0.012937757 0.018062828 0.013334688 0.020878287
0.007442298 0.01031758 -0.020673322 -0.0069076135 -0.034091365 -0.025586389 -0.004158329 0.020943873
-0.018293625 -0.012995976 0.00872608 -0.028111938 0.0427738 0.009905506 -0.02834278 0.026847122
0.014204394 -0.008420627 -0.021401335 0.012750305 0.013082735 0.035866592 -0.04511044 0.024913806
-0.029579718 0.0051747765 -0.0023473753 -0.011717862 0.026817722 0.011062896 0.011936817 -0.020906389
0.0010487266 -0.025302935 -0.010279195 0.0042726165 -0.009074456 0.038720835 -0.005930631 -0.04822795
00000000: 95d9 0dbd 1f95 44bd ecd3 52bc 565a 623c
00000010: 547f f63c 6dc9 5cbd e802 f93b d6bf 3a3b
00000020: c37f 263c 789d bbbc cf96 113c ef37 2dbd
00000030: 7f1c 8cbc 12d0 8a3c 6537 313c a054 2bbc
00000040: ce1c 823c a7e0 703c 4133 423c 4067 9fbc
00000050: 003a 2eb8 59f5 30bd 33d7 6a3c e437 43bb
00000060: 7944 20bd 3a96 27bd 7592 5f3c 743a fcbb
00000070: 4030 953c 1e04 8abc 19a3 b4bc a106 033d
00000080: ac9d 0ebd 0fc1 b3bc 634e 963c 604d e4bb
00000090: c580 89bc 9944 d73c e470 323c d9e1 683c
000000a0: 6eaf b03b 3caa 563a 2e06 04bd 49f1 3f3c
000000b0: 14a6 cebc 1157 843c 87ed 6cbc a412 11bd
000000c0: 9485 de3c 059b 833c 8c05 44bb b576 1a3c
000000d0: cc12 1b3d 3bb9 c3ba 6a3a 993c ad7a 9cbc
000000e0: 1b6b 443c 6879 3e3c 0185 303c aecb dc3c
000000f0: 2fd1 93ba d32d ed3c d691 263d 1b4e e0bc
00000100: 7c79 e53b 6cc3 82bb 1596 1e3d aafa 1dbc
00000110: 1049 2bba f2a7 95bc 26f5 c63c 541a 71bb
00000120: ad0b 15bc 74c4 063d 4d9c 03ba 6043 2fbd
00000130: db72 b1bb 24c7 843c 4418 adbc aa5e f63b
00000140: 4557 92bb 2fdd 1bbd 339d 1bba eb8d f8bb
00000150: e3f8 53bc 7ff8 933c bc79 5a3c f108 ab3c
00000160: 85de f33b 110b 293c 195b a9bc 4359 e2bb
00000170: 63a3 0bbd 8c9a d1bc 9842 88bb 7c92 ab3c
00000180: 83dc 95bc 13ed 54bc d5f7 0e3c 024b e6bc
00000190: 9533 2f3d b44a 223c 1e2f e8bc 7fee db3c
000001a0: 8cb9 683c abf6 09bc da51 afbc a8e6 503c
000001b0: f858 563c d9e8 123d bac5 38bd 0a18 cc3c
000001c0: 2a51 f2bc 2c91 a93b 6cd6 19bb 47fc 3fbc
000001d0: d7b0 db3c 2641 353c a492 433c e043 abbc
000001e0: 6d75 893a 1a48 cfbc 126a 28bc 4e01 8c3b
000001f0: 07ad 14bc bd99 1e3d bd55 c2bb ac8a 45bd

weight f4 [128, 128]
0.08261036 0.084754795 0.010994959 0.024631107 0.166592 -0.07057752 -0.009297068 0.04014032
0.03176992 -0.028655611 -0.048521113 0.09276034 0.031230737 -0.0020156302 -0.051414598 0.21904254
0.033315 0.036170173 0.04589024 -0.08325676 0.06741418 -0.12118734 0.07950871 -0.08914011
0.012052221 -0.015477257 -0.049911436 -0.12788804 0.117582254 0.040650237 -0.15367846 -0.1695852
0.021172402 0.04299201 -0.09789509 -0.058624227 0.08599583 0.06957484 -0.05265881 -0.024582552
-0.09030812 -0.018862449 0.08301984 -0.056678757 -0.08988297 0.07374684 -0.008791624 0.014428143
0.0028258264 0.014228227 0.037902337 -0.014705609 -0.021936279 0.049130645 -0.05021709 -0.15782915
-0.012565845 -0.0083100265 -0.0074719135 -0.08940345 -0.031919617 -0.11613761 0.09122936 0.07715426
-0.05654488 0.029248282 0.031658296 0.12916058 -0.024886617 -0.05223017 0.016647419 -0.062017705
0.16019906 -0.018056978 -0.00013702699 0.033799544 -0.08639619 -0.046637874 -0.092302375 -0.038032364
0.14743091 -0.048240937 0.10866969 -0.111056454 -0.33065957 -0.16172138 -9.307878e-05 -0.07650435
0.029419266 0.08314631 -0.040671986 -0.040842976 -0.06855751 0.03809722 -0.060560845 0.07154118
0.079097986 0.035445433 -0.09109525 0.12250017 0.040486593 -0.04606727 0.030019317 -0.13160242
0.056475997 0.04285148 0.13002999 -0.172583 -0.21059431 -0.01582048 -0.1106697 0.040110502
-0.10578376 0.074559554 -0.028649198 0.16804865 -0.049635816 -0.029758926 0.0043225107 -0.14893705
0.13576223 -0.1282477 -0.11768415 -0.07417194 -0.065616205 0.12715311 0.03033729 0.061947357
-0.013144491 -0.029972782 0.10129569 -0.16516048 0.24881779 -0.011015746 0.1105423 0.09003204
0.012579123 0.07276896 -0.037215035 -0.07197419 0.02909937 0.040019456 -0.1538564 -0.09802886
-0.17744067 -0.061602302 0.013987775 -0.2168423 0.051349107 -0.09221609 -0.15150043 -0.030739997
-0.029483994 0.08635962 0.08750721 0.0960747 -0.06738206 0.18570983 -0.02247077 0.06559327
-0.07526988 -0.115881465 0.0022506546 0.2059952 0.09222262 0.02828321 -0.017373083 0.11784783
0.13327163 -0.100433655 0.048273224 -0.038579743 0.08073747 -0.06632025 0.04411355 0.05476979
0.14150307 0.0917115 -0.013986349 -0.05268265 0.0038270713 0.061457705 -0.05205387 0.075511105
-0.030897329 -0.06432892 0.036571916 -0.06141186 -0.033911455 0.021630963 -0.08698578 0.2343819
0.00851116 -0.00024633418 -0.013360503 -0.1065867 0.12813143 0.019515952 -0.0026282975 -0.15402025
0.04193196 0.112717524 0.11395608 0.11539401 0.10151964 -0.066957645 0.0127468165 0.028187752
-0.09910451 0.14674915 0.01653793 -0.039100256 0.029762002 0.08214085 -0.08347537 0.08574632
0.06416137 -0.0141703235 -0.029998278 -0.042376198 0.026956921 -0.04178988 0.023404928 -0.05001737
-0.043212015 0.10611259 0.13364936 -0.031023916 -0.04983803 0.0035906797 0.06134253 0.016038088
-0.053242885 -0.15580368 0.018431943 -0.25370935 -0.14066571 0.059336208 0.06002635 0.09518529
0.087354764 -0.039214585 -0.0427928 0.16678773 -0.062161658 -0.09188488 0.06168713 0.05950336
-0.039838042 0.09595136 -0.013470921 0.034796167 -0.009623028 -0.0107670855 -0.06430066 -0.03209602
00000000: 9f2f a93d ec93 ad3d 3324 343c 2dc7 c93c
00000010: 1897 2a3e f28a 90bd bb52 18bc 2d6a 243d
00000020: 2d21 023d 2cbf eabc 13be 46bd 22f9 bd3d
00000030: 9ad7 ff3c aa18 04bb 1d98 52bd b04c 603e
00000040: 4f75 083d 2d27 143d 68f7 3b3d 8582 aabd
00000050: 7210 8a3d 1131 f8bd 76d5 a23d 178f b6bd
00000060: ae76 453c 5294 7dbc ef6f 4cbd 15f5 02be
00000070: f7ce f03d dd80 263d e35d 1dbe bea7 2dbe
00000080: bf71 ad3c 6418 303d 397d c8bd f51f 70bd
00000090: 951e b03d 417d 8e3d c4b0 57bd 5961 c9bc
000000a0: 77f3 b8bd 6c85 9abc 4e06 aa3d fc27 68bd
000000b0: 9014 b8bd 9508 973d be0a 10bc 0564 6c3c
000000c0: 8031 393b 821d 693c 7b3f 1b3d cbef 70bc
000000d0: b6b3 b3bc 373d 493d 6fb0 4dbd f79d 21be
000000e0: f9e0 4dbc c726 08bc f4d6 f4bb 2819 b7bd
000000f0: 25be 02bd 8ed9 edbd 75d6 ba3d 0d03 9e3d
00000100: 9b9b 67bd 189a ef3c 21ac 013d ac42 043e
00000110: 05df cbbc 4eef 55bd 2b60 883c 4706 7ebd
00000120: 390b 243e 3aec 93bc e7ae 0fb9 6471 0a3d
00000130: 7cf0 b0bd 5b07 3fbd 0709 bdbd d3c7 1bbd
00000140: 21f8 163e 4a98 45bd 378e de3d 9171 e3bd
00000150: 364c a9be 4a9a 25be 4a33 c3b8 50ae 9cbd
00000160: ac00 f13c 9d48 aa3d ab97 26bd f74a 27bd
00000170: e167 8cbd d50b 1c3d a60e 78bd 2f84 923d
00000180: 20fe a13d 3b2f 113d 2590 babd 5ee1 fa3d
00000190: 45d5 253d 09b1 3cbd 12eb f53c c9c2 06be
000001a0: 6053 673d 0985 2f3d 9526 053e 99b9 30be
000001b0: 09a6 57be f499 81bc cca6 e2bd e94a 243d
000001c0: 28a5 d8bd aeb2 983d b9b1 eabc f214 2c3e
000001d0: ed4e 4bbd fec8 f3bc d9a3 8d3b f482 18be
000001e0: 4105 0b3e 5d53 03be 6304 f1bd 75e7 97bd
000001f0: ca61 86bd 6d34 023e e985 f83c 83bc 7d3d
00000200: fe5b 57bc 7b89 f5bc 1d74 cf3d d41f 29be
00000210: 17ca 7e3e 637b 34bc 0064 e23d b862 b83d
00000220: aa18 4e3c e407 953d cb6e 18bd 3467 93bd
00000230: cd61 ee3c 71eb 233d 888c 1dbe 5bc3 c8bd
00000240: 02b3 35be b252 7cbd fb2c 653c e80b 5ebe
00000250: 7153 523d cadb bcbd ee22 1bbe 72d2 fbbc
00000260: 6b88 f1bc 50dd b03d fb36 b33d d0c2 c43d
00000270: 9bff 89bd b82a 3e3e 9f14 b8bc c455 863d
00000280: 1827 9abd 4353 edbd b87f 133b 68f0 523e
00000290: 37df bc3d 31b2 e73c ff51 8ebc 345a f13d
000002a0: 5c78 083e 29b0 cdbd 25ba 453d cb05 1ebd
000002b0: b059 a53d e9d2 87bd 69b0 343d 4a56 603d
000002c0: 2ee6 103e 3dd3 bb3d 0027 65bc c3c9 57bd
000002d0: 9acf 7a3b 13bb 7b3d 7036 55bd 91a5 9a3d
000002e0: 651c fdbc e1be 83bd 6fcc 153d 018b 7bbd
000002f0: bde6 0abd 6b33 b13c 9a25 b2bd cf01 703e
00000300: 6472 0b3c 6a26 81b9 03e6 5abc 214a dabd
00000310: e334 033e ebdf 9f3c 843f 2cbb 7cb7 1dbe
00000320: d9c0 2b3d 72d8 e63d ce61 e93d b253 ec3d
00000330: 87e9 cf3d 1721 89bd 06d8 503c 00ea e63c
00000340: 4ef7 cabd 6945 163e 8e7a 873c 9727 20bd
00000350: 71cf f33c 7639 a83d 23f5 aabd c49b af3d
00000360: 0967 833d a52a 68bc f3be f5bc aa92 2dbd
00000370: c3d4 dc3c dd2b 2bbd b1bb bf3c 04df 4cbd
00000380: 15ff 30bd 8f51 d93d 61db 083e de25 febc
00000390: f622 4cbd 9c51 6b3b 4e42 7b3d 4f62 833c
000003a0: 3615 5abd 008b 1fbe 96fe 963c 31e6 81be
000003b0: ac0a 10be 860a 733d 31de 753d 81f0 c23d
000003c0: 0ee7 b23d 799f 20bd 8147 2fbd 67ca 2a3e
000003d0: 399d 7ebd 242e bcbd a5ab 7c3d ccb9 733d
000003e0: 372d 23bd 2682 c43d 23b5 5cbc 6d86 0e3d
000003f0: e8a9 1dbc 6e68 30bc 10b0 83bd 1e77 03bd

bias f4 [128]
-0.03031411 -0.041959252 0.04780878 0.045486655 -0.03605612 0.04369455 0.025520265 0.04667799
-0.06251847 -0.046896707 -0.042296994 -0.02935608 -0.02867321 -0.031292904 -0.041709907 0.033131696
0.044520825 -0.038480766 -0.036607686 0.048166543 -0.05070366 0.039251544 0.046957992 0.036774423
0.0051204246 0.03772563 -0.025459768 -0.03437953 0.04337245 -0.040029615 0.034492187 0.03452016
0.043885954 -0.04163612 0.05832062 -0.05089753 0.027009675 0.057305437 -0.031031817 0.036232654
-0.042145852 -0.02609785 0.011595013 -0.047376648 0.055073135 -0.042891998 0.04231882 -0.054778904
-0.018733794 -0.033458557 -0.048736744 0.05001705 -0.045574825 0.053096503 0.03569437 0.04801346
0.03491711 0.023747733 0.029192057 -0.04587882 0.042673286 -0.04810783 0.03890141 0.035351757
0.026595933 -0.06357622 -0.04799615 -0.041149974 -0.047067393 0.0058411625 -0.00608827 0.051098317
0.04138176 -0.04032853 0.044612683 -0.01982388 0.044538647 0.022121688 0.041395523 0.045455445
0.039169163 0.03759942 0.06962078 0.034404546 -0.0029884805 0.068414785 -0.031551544 0.03701147
-0.045937885 0.04273727 0.041232385 -0.04058841 -0.039434616 -0.01833813 0.040952638 0.029771475
-0.05259468 -0.045582723 -0.047880325 0.04050036 -0.0508076 0.06227569 0.032968476 -0.0353863
-0.034491286 0.046053644 0.03818291 -0.038426172 -0.010016798 -0.022196177 -0.04586811 -0.03760532
0.042241026 0.039977454 0.03393564 0.045512773 0.033477254 -0.048359364 -0.05199913 -0.074291095
-0.04646067 -0.039144523 -0.036313277 0.046019718 -0.032184973 0.034523956 0.04796216 -0.028427714
00000000: 4c55 f8bc 77dd 2bbd 24d3 433d 3750 3a3d
00000010: 95af 13bd 0ef9 323d e00f d13c 6c31 3f3d
00000020: af09 80bd c316 40bd 9d3f 2dbd 297c f0bc
00000030: 14e4 eabc fd2c 00bd 02d8 2abd 1ab5 073d
00000040: 785b 363d 029e 1dbd f1f1 15bd 484a 453d
00000050: a4ae 4fbd 3ac6 203d 0657 403d c7a0 163d
00000060: 3cc9 a73b 3186 1a3d 0191 d0bc 8dd1 0cbd
00000070: 4fa7 313d 18f6 23bd ae47 0d3d 0365 0d3d
00000080: c2c1 333d a38a 2abd 9ae1 6e3d ee79 50bd
00000090: 6543 dd3c 1bb9 6a3d 7036 febc b168 143d
000000a0: 21a1 2cbd 29cb d5bc 02f9 3d3c 040e 42bd
000000b0: 5e94 613d 85af 2fbd 8056 2d3d d85f 60bd
000000c0: 9d77 99bc d70b 09bd 2ea0 47bd aede 4c3d
000000d0: abac 3abd b87b 593d 4234 123d c3a9 443d
000000e0: 3e05 0f3d 9b8a c23c 2e24 ef3c 6eeb 3bbd
000000f0: 2fca 2e3d b70c 45bd 1657 1f3d 01cd 103d
00000100: b7df d93c 4034 82bd 9c97 44bd e08c 28bd
00000110: bdc9 40bd 3967 bf3b 1c80 c7bb 784c 513d
00000120: ec7f 293d 872f 25bd cabb 363d b165 a2bc
00000130: 286e 363d 8b38 b53c 5a8e 293d 7d2f 3a3d
00000140: d86f 203d d901 1a3d 5795 8e3d c8eb 0c3d
00000150: 62da 43bb 0d1d 8c3d 313c 01bd 5799 173d
00000160: 5d29 3cbd 470d 2f3d 4ae3 283d 0840 26bd
00000170: 3186 21bd d939 96bc f4bd 273d 4fe3 f33c
00000180: 856d 57bd f3b4 3abd 291e 44bd b5e3 253d
00000190: a11b 50bd cb14 7f3d f409 073d 3af1 10bd
000001a0: bc46 0dbd bfa2 3c3d af65 1c3d c364 1dbd
000001b0: 7f1d 24bc c2d4 b5bc 33e0 3bbd 0908 1abd
000001c0: ed04 2d3d 66bf 233d 1900 0b3d 9a6b 3a3d
000001d0: 721f 093d 7814 46bd 0afd 54bd ee25 98bd
000001e0: 8b4d 3ebd 0256 20bd 3bbd 14bd 2c7f 3c3d
000001f0: 64d4 03bd fe68 0d3d f873 443d 3de1 e8bc

weight f4 [1, 128]
-0.04459946 -0.1636823 0.17423172 0.17551775 -0.004949815 0.017890163 -0.0016031758 0.06391281
-0.08221169 -0.060542967 -0.029343646 -0.003509211 -0.0029205314 -0.049638722 -0.13245846 0.0027677412
0.12141387 -0.023245584 -0.094989285 0.033523984 -0.14069809 0.12299287 0.048200686 0.013758215
0.00092865055 0.013611877 -0.005631718 -0.049581837 0.059830584 -0.07832349 0.06155227 0.064268224
0.020632984 -0.044885986 0.10237755 -0.08196363 0.0017018141 0.04607766 -0.034767695 0.06450767
-0.034057118 -0.018244095 0.005167423 -0.10601201 0.22879373 -0.0867429 0.0811587 -0.066972606
-0.0039912313 -0.02245052 -0.07484018 0.18302956 -0.23278491 0.07217294 0.0043336847 0.04423863
0.14503492 0.0072872583 0.0077472213 -0.0818858 0.023024408 -0.09360453 0.13564529 0.040894736
0.0144765545 -0.32216194 -0.08495663 -0.05744859 -0.022848304 -0.00034706038 0.0043064486 0.018586941
0.02535515 -0.008548182 0.06862962 -0.0077135195 0.11332004 -0.002108009 0.12604633 0.062149685
0.07540552 0.0825216 0.12720191 0.027524073 0.00067079323 0.16590154 -0.009516533 0.015806738
-0.0824621 0.018097831 0.06913143 -0.059310846 -0.07750302 0.00094943854 0.1924145 0.0073510385
-0.055635173 -0.048867464 -0.118457966 0.027569113 -0.08344236 0.04491268 -0.0010608025 -0.022086231
-0.09962574 0.07034653 0.023880778 -0.008210211 -0.00057496194 -0.0077241533 -0.10933369 -0.019556897
0.09395284 0.07704568 0.10168185 0.06804439 0.01480161 -0.02311161 -0.044981204 -0.07680058
-0.19145848 -0.061797056 -0.041961715 0.062239915 -0.016937362 0.117604926 0.17725337 -0.0047489693
00000000: ecad 36bd 559c 27be cd69 323e edba 333e
00000010: 0f32 a2bb 648e 923c a721 d2ba b8e4 823d
00000020: 9a5e a8bd e7fb 77bd 1662 f0bc cafa 65bb
00000030: 6366 3fbb f951 4bbd 31a3 07be fe62 353b
00000040: d6a7 f83d 866d bebc be89 c2bd 7250 093d
00000050: 2913 10be b0e3 fb3d 156e 453d 236a 613c
00000060: af70 733a 5a04 5f3c 468a b8bb 5316 4bbd
00000070: ea10 753d 1168 a0bd 3c1e 7c3d 0f9f 833d
00000080: 8106 a93c 5eda 37bd 52ab d13d 8cdc a7bd
00000090: 680f df3a eebb 3c3d 9268 0ebd 991c 843d
000000a0: 7a7f 0bbd a474 95bc 7c53 a93b d31c d9bd
000000b0: e748 6a3e 43a6 b1bd 8836 a63d ef28 89bd
000000c0: e0c8 82bb 27ea b7bc cf45 99bd 1a6c 3b3e
000000d0: 2b5f 6ebe 68cf 933d 9501 8e3b 9133 353d
000000e0: 0984 143e f4c9 ee3b 67dc fd3b beb3 a7bd
000000f0: af9d bc3c bbb3 bfbd 99e6 0a3e 3d81 273d
00000100: 122f 6d3c 69f2 a4be befd adbd 364f 6bbd
00000110: 5e2c bbbc a8f5 b5b9 1c1d 8d3b a443 983c
00000120: 9bb5 cf3c ad0d 0cbc b08d 8c3d b1c1 fcbb
00000130: 5614 e83d 8626 0abb 4a12 013e ab90 7e3d
00000140: 366e 9a3d 1601 a93d 3841 023e 2a7a e13c
00000150: 2cd8 2f3a 18e2 293e 3ceb 1bbc 227d 813c
00000160: e4e1 a8bd e741 943c c794 8d3d eeef 72bd
00000170: e7b9 9ebd bee3 783a 4f08 453e fbe0 f03b
00000180: b5e1 63bd 4029 48bd 179a f2bd 9fd8 e13c
00000190: d4e3 aabd 5cf6 373d a00a 8bba 2fee b4bc
000001a0: 9408 ccbd d711 903d 9fa1 c33c 1f84 06bc
000001b0: 0bb9 16ba e51a fdbb 57ea dfbd c935 a0bc
000001c0: 596a c03d 20ca 9d3d 933e d03d db5a 8b3d
000001d0: 7482 723c 8f54 bdbc 363e 38bd 9f49 9dbd
000001e0: b10d 44be e91e 7dbd 0ce0 2bbd 48ef 7e3d
000001f0: 39c0 8abc dada f03d e881 353e 3e9d 9bbb
